N/Treinamento/LSTM/LSTM_1_DENSO_2/conf_2/modelo_seed_37_loss_0.003065.pt (torch, 152307 bytes, 8 tensors)

lstm1.weight_ih_l0 f4 [256, 52]
0	0x3e634676	0.22194847
1	0x3e0e063d	0.13869567
2	0x3e0f9391	0.14021136
3	0xbca723e7	-0.020402862
4	0xbcbaea76	-0.022816878
5	0x3c52ec0f	0.012873664
6	0x3e1218f3	0.1426733
7	0x3aaaefb0	0.0013041403
8	0x3e1b4946	0.1516467
9	0x3e33c52e	0.17555687
10	0x3de76842	0.112991825
11	0x3dd5e1fd	0.104434945
12	0x3e30a58b	0.1725065
13	0x3e7bc042	0.2458506
14	0x3e31e5a1	0.17372753
15	0x3c5cc108	0.013473757
16	0xbcd10670	-0.025515765
17	0xbd39c1ef	-0.045350965
18	0x3e6d1905	0.23154075
19	0x3d5ab082	0.053390987
20	0x3eacf2c4	0.33778965
21	0x3e8ae078	0.2712438
22	0x3e121aed	0.14268084
23	0xbd184c38	-0.037182063
24	0xbe10f72d	-0.1415679
25	0xbdee84a7	-0.11646395
26	0xbd1aa9ad	-0.03775947
27	0xbdc41ccd	-0.09575806
28	0xbc1eec5b	-0.009699906
29	0xbd3d10d4	-0.046158627
30	0xbd408232	-0.046999164
31	0xbda51c5c	-0.0806205
32	0x3b9ce136	0.0047875894
33	0xbe1a1884	-0.15048414
34	0xbde2d50d	-0.110757925
35	0xbd91a8e2	-0.0711229
36	0xbe4112e3	-0.18854861
37	0xbe6a6b8d	-0.2289259
38	0xbe18234a	-0.14857212
39	0xbea445fb	-0.3208464
40	0xbed49306	-0.4151842
41	0xbe9716b0	-0.29509497
42	0xbddec6fa	-0.108777955
43	0x3db35225	0.08755902
44	0x3e93a964	0.28840172
45	0x3e71f800	0.2362976
46	0x3e028709	0.12746824
47	0x3cee85c8	0.029116526
48	0x3e8a5fef	0.27026317
49	0x3e65a785	0.22427185
50	0xbb272cee	-0.0025508958
51	0xbd7e2423	-0.06204618
52	0xbde9153d	-0.11381004
53	0x3c4a5eca	0.012351701
54	0xbd23eb2c	-0.0400192
55	0xbd5f8a3a	-0.054575182
56	0x3df8ee6c	0.1215485
57	0x3e0980be	0.13428017
58	0xbd84aad6	-0.06477897
59	0x3e0d160b	0.1377794
60	0x3d8d3f2a	0.06896813
61	0xbd3e4524	-0.046452656
62	0x3e0a6252	0.13514069
63	0x3dfb258a	0.122630194
64	0x3d0e800d	0.034790087
65	0x3daff217	0.08591097
66	0xbca558b3	-0.020183897
67	0xbd709a21	-0.05874074
68	0xbd86e8c8	-0.06587368
69	0xbd7d1928	-0.06179157
70	0xbdaf58de	-0.08561872
71	0x3d1eccf1	0.038769666
72	0x3e037b70	0.12840056
73	0x3d83750b	0.064188085
74	0x3daf9628	0.08573562
75	0x3d8e3877	0.069443636
76	0xbe60a0b0	-0.21936297
77	0xbd47035a	-0.04858718
78	0xbd6471b5	-0.055772502
79	0xbdc8b426	-0.097999856
80	0x3d83950a	0.06424911
81	0xbe0efd5a	-0.13963833
82	0xbde64767	-0.11244088
83	0x3db7d549	0.08976228
84	0x3c069ba6	0.00821582
85	0x3d668680	0.056280613
86	0x3d8530cc	0.06503448
87	0x3eae2234	0.3401047
88	0x3e9e13d5	0.30874506
89	0x3e88808b	0.2666057
90	0x3df6e7d6	0.12055938
91	0x3dde2982	0.10847761
92	0x3e548c54	0.20756656
93	0x3e1bdaf5	0.15220244
94	0xbc77310d	-0.015087378
95	0xbd83256b	-0.06403621
96	0xbdd20b4f	-0.10256063
97	0xbda42020	-0.0801394
98	0x3e0a3b53	0.13499193
99	0xbd56a817	-0.052406397
100	0xbf3acde3	-0.7297041
101	0x3f0c3de5	0.54781944
102	0xbdb9c648	-0.09071022
103	0xbe28353a	-0.16426554
104	0xbd77df91	-0.060515944
105	0x3e2450b3	0.1604641
106	0x3e3f87e6	0.18704185
107	0x3d810c7e	0.06301211
108	0xbd0ac8bb	-0.033882838
109	0x3daed326	0.08536367
110	0x3dc0e169	0.094179936
111	0xbd50e803	-0.051002514
112	0x3dc566ae	0.09638725
113	0x3c195848	0.009359427
114	0x3cbd0ad2	0.023076449
115	0xbc5a64e6	-0.01332972
116	0x3e147423	0.14497428
117	0xbd59186d	-0.05300181
118	0x3db0f852	0.08641113
119	0xbc9e0195	-0.019287864
120	0xbbf65ad4	-0.007518152
121	0x3ca8100f	0.02051547
122	0x3e28240e	0.16420004
123	0xbcac3376	-0.021020632
124	0x3ae963e4	0.0017806259
125	0xbc3c9ba5	-0.011511718
126	0x3e4e268f	0.20131896
127	0x3dd360d4	0.10321203
128	0xbcd59a93	-0.026074683
129	0xbd76bb12	-0.060236998
130	0x3e10a785	0.14126404
131	0x3d287eb8	0.041136473
132	0xbc9b3fb8	-0.018951282
133	0x3e0a36a5	0.13497408
134	0x3d123ffe	0.03570556
135	0x3da538d5	0.080674805
136	0xbd18b4ef	-0.037281927
137	0xbc8174e0	-0.0158028
138	0x3e33b877	0.17550837
139	0x3d2992fe	0.04139995
140	0x3d695548	0.056966096
141	0x3d708a7b	0.058725815
142	0xbd871948	-0.06596619
143	0xbdcef6ef	-0.101056926
144	0xbde4bb35	-0.111685194
145	0x3c47001e	0.012146024
146	0x3dffc47e	0.1248865
147	0x3def0d1b	0.116724215
148	0x3c66a94d	0.01407845
149	0xbd1c43ff	-0.038150784
150	0xbb4a5966	-0.003087604
151	0xbd30ce8c	-0.04316573
152	0x3dd0bd7b	0.101923905
153	0xbe09245f	-0.1339278
154	0xbe2c6d4d	-0.1683857
155	0x3daeaf58	0.08529538
156	0x3dcb0769	0.09913523
157	0xbde6f0e8	-0.11276418
158	0xbaa4bfff	-0.0012569426
159	0xbbd0ef16	-0.0063761575
160	0xbe14a69f	-0.14516686
161	0xbdb65d92	-0.08904566
162	0xbd9f46ee	-0.07777201
163	0x3d67edc6	0.056623243
164	0x3da26792	0.07929911
165	0x3db32780	0.087477684
166	0xbd65c506	-0.0560961
167	0x39aed314	0.00033345132
168	0xbd76719a	-0.060166933
169	0x3d22c416	0.039737783
170	0xbd98d67d	-0.074627854
171	0x3e120b8e	0.1426222
172	0x3deb816a	0.11499293
173	0x3daee43b	0.08539625
174	0x3d19d1df	0.037553664
175	0x3c327a80	0.010893464
176	0xbde29042	-0.11062671
177	0x3cc5d050	0.024147183
178	0xbcdf1630	-0.02723226
179	0x3dda9457	0.10672825
180	0xbda21ebf	-0.079160206
181	0xbd145943	-0.03621794
182	0xbcf0118a	-0.029305238
183	0xbdc9abcd	-0.098472215
184	0xbdc6486e	-0.096817836
185	0xbd7d9766	-0.061911963
186	0xbda09cff	-0.07842445
187	0x3df0fda7	0.1176713
188	0xbc4ddb8f	-0.012564554
189	0x3dce589b	0.10075494
190	0xbdc80aae	-0.09767662
191	0xbdd45da7	-0.10369425
192	0x3dd2294f	0.10261785
193	0xbdb1d0d8	-0.08682412
194	0xbde9b258	-0.114109695
195	0x3d27e049	0.04098538
196	0xbdab9a2d	-0.08379016
197	0xbbf82ec7	-0.0075739357
198	0xbccc1d69	-0.024916368
199	0xbdbc3dcd	-0.09191475
200	0x3ccd9c50	0.02509895
201	0x3c6f53a4	0.014607344
202	0xbdcade77	-0.09905713
203	0xbc632e2d	-0.01386599
204	0x3da5e7e7	0.081008725
205	0x3e762eab	0.2404124
206	0x3e45aaf9	0.19303502
207	0xbda17892	-0.07884325
208	0xbd8b9e36	-0.06817286
209	0xbe0444b3	-0.12916832
210	0x3d824445	0.06360678
211	0x3cef256e	0.029192653
212	0xbdf198d2	-0.11796726
213	0xbd56ee16	-0.05247315
214	0x3b2ef154	0.0026694136
215	0xbe0fda4a	-0.14048114
216	0xbc809556	-0.015696209
217	0x3b010620	0.0019687489
218	0x3cfba241	0.030717017
219	0x3d2a01fe	0.041505806
220	0xbd879420	-0.066200495
221	0x3ddedc3b	0.108818494
222	0xbe22f6f5	-0.15914519
223	0xbcb9e19d	-0.022690589
224	0x3c3fc368	0.011704303
225	0xbdd98755	-0.10621516
226	0xbc4b6606	-0.012414461
227	0x3dee5dd6	0.116389915
228	0xbd8dadec	-0.069179386
229	0x3c8ca2c1	0.01716745
230	0xbdc546c1	-0.09632636
231	0x3c04cc74	0.008105386
232	0xbcd5743e	-0.026056405
233	0xbda3269d	-0.07966349
234	0xbdee7932	-0.1164421
235	0xbc7d50f9	-0.0154612
236	0xbd513c0b	-0.051082652
237	0xbd92f393	-0.07175364
238	0xbd94f787	-0.072737746
239	0xbdaaafd4	-0.08334318
240	0xbb569ec4	-0.003274844
241	0xbd02596a	-0.031823553
242	0x3d96ed53	0.07369485
243	0x3d9829be	0.07429837
244	0x3db9ff07	0.09081846
245	0x3d31d278	0.04341361
246	0x3dbe3b3b	0.09288641
247	0x3d81c029	0.0633548
248	0x3d0adb09	0.033900294
249	0x3e28151b	0.16414301
250	0x3dbcfeec	0.0922831
251	0xbc91049a	-0.01770239
252	0xbd1cefbb	-0.038314562
253	0x3de432d0	0.11142504
254	0x3dad88ba	0.08473344
255	0x3e06d5f8	0.1316756

lstm1.weight_hh_l0 f4 [256, 64]
0	0x3dcf1478	0.10111326
1	0x3df6424a	0.120243624
2	0xbd3beb20	-0.04587853
3	0x3da5b35a	0.08090849
4	0xbdacbffa	-0.08435054
5	0xbc3ceba0	-0.011530787
6	0x3d70dc24	0.058803692
7	0xbd76d258	-0.060259193
8	0x3df28e16	0.11843507
9	0xbd75794c	-0.05993013
10	0xbdb95fc2	-0.090514675
11	0x3d723cb4	0.059139922
12	0xbd0ee5ec	-0.03488724
13	0x3dfd9c76	0.12383358
14	0x3d12c5fc	0.035833344
15	0x3c3e2ad0	0.011606887
16	0xbd87d2bc	-0.06631991
17	0xbd78d604	-0.060750976
18	0xbdac5812	-0.084152356
19	0xbde2669a	-0.11054726
20	0x3dc76e02	0.09737779
21	0xbd8c45e6	-0.068492696
22	0x3d0cf688	0.034414798
23	0xbde21f10	-0.11041081
24	0x3d375148	0.04475525
25	0xbd8a6bde	-0.06758855
26	0xbdf5d1ae	-0.12002884
27	0x3bb8e040	0.005641967
28	0x3d7c6cb8	0.06162712
29	0xbd196984	-0.037454143
30	0x3d9b45b4	0.07581654
31	0xbba789e0	-0.0051128715
32	0x3d23f784	0.04003097
33	0xbde70014	-0.11279312
34	0x3d2640a0	0.040588975
35	0xbd85fb20	-0.06542039
36	0x3da7a4fa	0.08185764
37	0xbdd637fc	-0.10459897
38	0xbdfd4026	-0.12365751
39	0xbdbb3f66	-0.09142952
40	0x3d456e4c	0.04820089
41	0x3d02f9d0	0.03197652
42	0x3dd135a0	0.10215306
43	0xbd9360ec	-0.07196221
44	0x3d53a1a4	0.051667824
45	0xbd51fbb0	-0.05126542
46	0x3da40794	0.08009258
47	0x3d2cd004	0.042190567
48	0xbd813668	-0.06309205
49	0x3d371338	0.044696063
50	0xbc427070	-0.0118676275
51	0x3d7b45d4	0.06134589
52	0xbda1e0f6	-0.07904236
53	0x3bc356c0	0.005961269
54	0x3c5df110	0.013546243
55	0x3ddc4736	0.1075577
56	0xbdbe5f00	-0.092954636
57	0xbdc6c3ba	-0.09705301
58	0x3d353f10	0.044249594
59	0x3cd56738	0.026050195
60	0x3cba2200	0.02272129
61	0xbdf80e4c	-0.12112102
62	0xbd85ebc2	-0.06539108
63	0x3cdc23e8	0.02687259
64	0xbd8da894	-0.06916919
65	0x3b7dfb80	0.0038754642
66	0x3b2f1400	0.0026714802
67	0xbbc493c0	-0.0059990585
68	0xbc7570e0	-0.014980525
69	0x3da6a22a	0.08136399
70	0xbcd61a80	-0.026135683
71	0xbdb13486	-0.08652596
72	0x3d84a6a0	0.06477094
73	0x3d7fadc8	0.06242159
74	0x3d081b14	0.03322895
75	0x3c0eb560	0.008710235
76	0xbd1a5a28	-0.037683636
77	0xbccc9aa8	-0.02497609
78	0xbdc7b2b0	-0.09750879
79	0xbd1c8784	-0.038215175
80	0x3d7d8f70	0.06190437
81	0xbc490890	-0.012270108
82	0x3de82650	0.113354325
83	0x3db76a3e	0.08955811
84	0x3db071f4	0.08615485
85	0xbdd5bd52	-0.104365006
86	0xbb589ac0	-0.0033051223
87	0xbde6e8ac	-0.112748474
88	0x3d670758	0.056403488
89	0xbd9506ee	-0.07276712
90	0xbd3bd9b4	-0.045861915
91	0xbd9df5de	-0.07712911
92	0x3dbb0966	0.09132652
93	0x3d9e4e62	0.07729794
94	0x3dfdba9a	0.12389107
95	0x3de077ee	0.10960375
96	0xbbcda760	-0.006276056
97	0xbd2cba4c	-0.042169854
98	0xbd4988d8	-0.04920277
99	0xbc87de28	-0.016585425
100	0xbd4cc000	-0.049987793
101	0x3d50017c	0.050782666
102	0x3d693464	0.05693473
103	0x3daec2e2	0.08533265
104	0x3c6a3aa0	0.014296204
105	0xbda321e4	-0.079654485
106	0x3d800592	0.062510625
107	0x3d5f5efc	0.054533944
108	0x3d272dd8	0.040815204
109	0xbdd6c24e	-0.104862794
110	0x3dba1396	0.09085767
111	0xbddc0a16	-0.10744111
112	0x3de485ea	0.111583546
113	0x3d3d1304	0.046160713
114	0x3d046b88	0.032329112
115	0xbd654a70	-0.055979192
116	0x3ddf9de0	0.10918784
117	0x3dd304da	0.1030366
118	0x3dd1b47c	0.10239503
119	0x3d62897c	0.055306897
120	0xbdec4746	-0.11537032
121	0xbd488324	-0.04895319
122	0x3dcc1026	0.099640176
123	0xbd83304a	-0.06405695
124	0xbde7dae0	-0.11321044
125	0x3ccfb140	0.025353074
126	0x3da49c90	0.080376744
127	0xbd480aa8	-0.048838288
128	0x3d977f76	0.07397358
129	0xbdcbff2e	-0.09960781
130	0x3c07cd90	0.008288756
131	0xbdd4f918	-0.10399073
132	0xbc45c5b0	-0.012071058
133	0xbccaf5d8	-0.02477543
134	0x3de9a8c2	0.11409141
135	0xbc44e280	-0.012016892
136	0x3cb0cb50	0.021581322
137	0x3db30a54	0.08742204
138	0x3db14c6c	0.086571544
139	0x3dc3dda4	0.09563759
140	0x3ca29b30	0.01984939
141	0x3de10de6	0.10988979
142	0xbbf9a4a0	-0.007618502
143	0x3dd19d76	0.102351114
144	0x3d3f9664	0.046774283
145	0xbd94d392	-0.07266916
146	0xbcae2510	-0.021257907
147	0xbdda6ef0	-0.10665691
148	0xbdd95c56	-0.10613315
149	0xbd2fb400	-0.04289627
150	0x3df95fe6	0.12176494
151	0x3cb4ae30	0.022055715
152	0x3cf2daf0	0.029645413
153	0xbda3f6c0	-0.08006048
154	0x3dec9f5a	0.115538314
155	0xbd87df6e	-0.06634413
156	0x3d6ed5fc	0.05830954
157	0x3dcb6654	0.09931627
158	0x3be39cc0	0.0069461763
159	0xbcdbf3e0	-0.026849687
160	0xbd4d14d8	-0.050068706
161	0xbd79b454	-0.06096299
162	0xbc279fe0	-0.010230988
163	0xbce9c9e0	-0.028538644
164	0xbde5189e	-0.11186336
165	0x3d06be18	0.03289613
166	0xbd147948	-0.036248475
167	0xbd880164	-0.0664089
168	0xbdf0a548	-0.11750275
169	0xbdb0134c	-0.085974306
170	0xbdc1ad12	-0.09456839
171	0xbb844600	-0.004036665
172	0x3d79a1d8	0.06094536
173	0x3d6f3ae8	0.058405787
174	0x3c8c0978	0.017094359
175	0xbd1660b4	-0.036713317
176	0x397a9400	0.00023896992
177	0xbd17c8e4	-0.03705682
178	0xbc4ccbc0	-0.01249975
179	0xbdf5a40c	-0.1199418
180	0xbd381af0	-0.044947565
181	0x3c17dcb0	0.009268925
182	0x3d757c14	0.059932783
183	0x3ba5c320	0.005058661
184	0x3d7cd058	0.06172213
185	0xbdf4365a	-0.11924429
186	0xbdd16768	-0.10224801
187	0x3de6f4cc	0.1127716
188	0x3c8b0290	0.016968995
189	0x3d7ba34c	0.06143503
190	0x3de458a6	0.11149721
191	0x3c719840	0.014745772
192	0xbdd764fa	-0.105173066
193	0xbce39e78	-0.027785525
194	0x3dde6662	0.10859372
195	0x3d4670c8	0.0484474
196	0x3c802d28	0.015646532
197	0x3cec44d8	0.028841421
198	0x3d6786ac	0.056524917
199	0x3d78ac90	0.060711443
200	0xbb08a380	-0.0020849407
201	0xbd1dd320	-0.038531423
202	0xbd9d1662	-0.07670285
203	0x3cf50798	0.029910848
204	0xbddb1a10	-0.106983304
205	0xbdcdd6aa	-0.100507095
206	0xbd28c2e8	-0.041201502
207	0xbdd0cfee	-0.101959094
208	0xbda86cfe	-0.082239136
209	0xbdf781ac	-0.1208528
210	0xbda35060	-0.07974315
211	0x3d8f988c	0.07011518
212	0xbdceb3e6	-0.10092907
213	0xbdce9ce2	-0.10088517
214	0x3da78292	0.08179201
215	0xbc5abf50	-0.0133512765
216	0x3c8cd9f0	0.017193764
217	0x3d87bcdc	0.06627819
218	0x3cc746d8	0.024325773
219	0x3dcc8de2	0.099879995
220	0x3d34f734	0.044181064
221	0x3dfb9264	0.12283781
222	0xbc45be50	-0.0120693
223	0x3d342168	0.04397717
224	0x3dd3c6c2	0.103406444
225	0xbd125d58	-0.03573355
226	0x3d8368c0	0.06416464
227	0x3d202b40	0.039103746
228	0xbdb19d2c	-0.08672556
229	0x3deeede6	0.11666469
230	0xbd9e0b48	-0.077169955
231	0x3dbfbfa4	0.093627244
232	0x3dcc5bb0	0.099784255
233	0xbd816426	-0.0631793
234	0xbd887a38	-0.066639364
235	0xbcd84ca0	-0.026403725
236	0x3c829148	0.015938416
237	0xbb0594c0	-0.0020382851
238	0x3c59c9a0	0.0132927
239	0x3d3b3a4c	0.045709893
240	0xbcf64d48	-0.030066147
241	0xbd83ba92	-0.0643207
242	0xbdc00090	-0.09375107
243	0xbd3d5e20	-0.046232343
244	0xbd82e6aa	-0.06391652
245	0xbdfdbf90	-0.12390053
246	0xbd97edd4	-0.07418409
247	0xbdb1726e	-0.08664404
248	0xbd217404	-0.03941728
249	0xbca27628	-0.019831732
250	0xbdbbe104	-0.09173778
251	0x3de25754	0.11051813
252	0x3d9ac978	0.07557958
253	0xba982880	-0.001160875
254	0x3d07d420	0.033161283
255	0xbdf5fcbc	-0.12011096

lstm1.bias_ih_l0 f4 [256]
0	0x3c513f9d	0.012771514
1	0xbd513fc8	-0.051086217
2	0x3d213bf5	0.03936382
3	0x3d0c4b36	0.034251414
4	0xbd26016d	-0.040528703
5	0x3c873f5e	0.016509708
6	0xbd263024	-0.040573254
7	0xbe1caaa0	-0.15299463
8	0x3c52d6f5	0.012868633
9	0xbc004aae	-0.007830305
10	0xbe6bd4e2	-0.23030427
11	0xbc039a3e	-0.00803238
12	0xbdb586b1	-0.08863581
13	0xbd8d5bce	-0.06902276
14	0xbdaa9916	-0.0832998
15	0x3d9e7d91	0.07738794
16	0xbe03de33	-0.12877731
17	0xbdbbf2d6	-0.09177177
18	0x3d576827	0.05258956
19	0xbdda5169	-0.10660059
20	0x3d1c9691	0.03822953
21	0xbe039015	-0.12847932
22	0xbd944b2b	-0.072409
23	0xbd5facc6	-0.05460813
24	0x3b9f0573	0.0048529445
25	0x3a3c2230	0.0007176725
26	0xbd440f83	-0.047866356
27	0xbde65ebe	-0.112485394
28	0xbd6b5c6c	-0.057461187
29	0xbdbce57b	-0.092234574
30	0x3c4f253c	0.012643155
31	0x3c832f09	0.016013639
32	0xbe3e36d7	-0.18575607
33	0xbe95f5a0	-0.2928896
34	0x3dcefa43	0.101063274
35	0x3d198129	0.037476692
36	0xbdc7c710	-0.09754765
37	0x3c56e084	0.013115052
38	0xbe0e34a6	-0.13887271
39	0xbdf680dc	-0.12036297
40	0x3dab9fae	0.08380066
41	0xbd593330	-0.05302733
42	0xbcfb72bc	-0.030694358
43	0xbc54c184	-0.012985591
44	0x3d68964a	0.05678395
45	0xbda6d6e2	-0.081464544
46	0xbe8e0e49	-0.27745274
47	0x3d4b842c	0.049686596
48	0x3dc17b32	0.09447326
49	0x3d8b276e	0.0679463
50	0x3da40daf	0.080104224
51	0xbce24cfd	-0.027624601
52	0xbd9a54eb	-0.07535728
53	0xbda7e950	-0.08198798
54	0xbd9b998f	-0.07597648
55	0x3d07994f	0.03310519
56	0xbe753022	-0.23944142
57	0x3aae81d2	0.0013313836
58	0x3d37717f	0.044785973
59	0xbe071539	-0.1319169
60	0xbc22a744	-0.009927575
61	0xbd30c764	-0.043158904
62	0x3d8e538c	0.06949529
63	0x3da0feb1	0.078610785
64	0x3d196114	0.037446097
65	0xbdf4e57c	-0.11957833
66	0x3d2a56e8	0.041586787
67	0xbd7bc3d0	-0.06146604
68	0x3d8fa09a	0.07013054
69	0xbd027034	-0.031845286
70	0xbdfce4a8	-0.123483
71	0x3de0683a	0.1095738
72	0xbd8b3b08	-0.06798369
73	0xbcfe8fb8	-0.03107439
74	0x3d6c70a0	0.057724595
75	0xbd78c634	-0.060735896
76	0xbbe895a0	-0.007097915
77	0xbd3eb6d8	-0.046561092
78	0x3d179bc4	0.037013784
79	0xbd932aec	-0.07185921
80	0xbd9641f4	-0.07336798
81	0x3ce99ea0	0.028518021
82	0xbca37220	-0.01995188
83	0xbd9f9b6c	-0.07793316
84	0x3caa56c0	0.020793319
85	0x3de1591c	0.110033244
86	0x3d7ddaf8	0.061976403
87	0x3db191f0	0.086704135
88	0xbad80400	-0.0016480684
89	0xbdf2b37a	-0.11850639
90	0xbdf228cc	-0.11824188
91	0xbd8a17ca	-0.06742819
92	0xbd9ea4a6	-0.07746248
93	0xbd6e1a28	-0.058130413
94	0xbdc69d96	-0.09698026
95	0x3ce68260	0.02813834
96	0x3dd00f94	0.10159221
97	0x3d1fb254	0.038988426
98	0x3dd7d300	0.10538292
99	0x3df193fc	0.11795804
100	0xbca1df40	-0.019759774
101	0x3c117880	0.008878827
102	0x3d500a98	0.050791353
103	0xbd4d9cf4	-0.05019851
104	0xbdda1ff4	-0.10650626
105	0xbde955d0	-0.113933206
106	0xbda4e716	-0.08051889
107	0xbdc8924a	-0.097935274
108	0x3d21f6d8	0.03954205
109	0x3d607688	0.05480054
110	0xbdaac0c4	-0.083375484
111	0x3dd37d12	0.1032659
112	0xbd8e553e	-0.069498524
113	0x3de989f6	0.11403267
114	0xbdbe6b6c	-0.09297833
115	0x3d8aeffa	0.06784053
116	0x3df364c4	0.11884454
117	0xbc874180	-0.016510725
118	0x3d36a1a0	0.04458773
119	0xbcd8e6b0	-0.026477188
120	0x3c966378	0.018357977
121	0xbd9d6fae	-0.07687317
122	0x3df67604	0.120342284
123	0xbbed59e0	-0.00724338
124	0x3bbe9920	0.0058165938
125	0xbd481ae0	-0.048853755
126	0x3d3d1e88	0.046171695
127	0xbd7cff50	-0.061766922
128	0x3da9a07b	0.08282562
129	0x3dd9b3e1	0.10630012
130	0x3d1e42eb	0.038638037
131	0xbd660f6f	-0.056167062
132	0xbce66076	-0.028122168
133	0x3d72d2e6	0.05928316
134	0xbe35cc65	-0.17753752
135	0x3da6b229	0.0813945
136	0xbda934dc	-0.08262035
137	0x3dcaf908	0.0991078
138	0xbe0fefef	-0.14056371
139	0x3d59f800	0.053215027
140	0x3dc43210	0.09579861
141	0xbce7f342	-0.028314237
142	0xbd942bd7	-0.07234924
143	0x3e082730	0.13296199
144	0xbde7cf78	-0.113188684
145	0x3d7817fd	0.060569752
146	0x3d12eae5	0.035868544
147	0x3cc2d3bb	0.023782602
148	0x3d9de121	0.077089556
149	0x3e23bb39	0.15989389
150	0xbd7bc62c	-0.06146829
151	0x3d22728d	0.039660025
152	0x3d2bea6d	0.041971613
153	0xbd8b4a46	-0.06801276
154	0x3c5f0c53	0.013613778
155	0x3cc71623	0.024302548
156	0x3b85260f	0.004063375
157	0x3d211172	0.039323278
158	0xbd6b5c8e	-0.057461314
159	0xbcacdfb9	-0.021102773
160	0xbe122c30	-0.14274669
161	0xbda9f320	-0.082983255
162	0x3e10b093	0.14129858
163	0xbd189dee	-0.03725999
164	0x3c812989	0.015766876
165	0x3d68ade6	0.056806467
166	0xbc4f30f3	-0.012645948
167	0xbcc981bd	-0.024597997
168	0x3dc91536	0.09818499
169	0x3d79277f	0.060828682
170	0xbd999a4e	-0.075001344
171	0xbcf1c556	-0.029513042
172	0xbb9b5daa	-0.0047413902
173	0x3c52ec5c	0.012873735
174	0xbd11c56f	-0.035588678
175	0x3d7c396e	0.061578207
176	0x3d87ac90	0.066247106
177	0xbd29bdbd	-0.041440714
178	0xbd3e79cf	-0.046502884
179	0xbda407e8	-0.080093205
180	0xbcd069d4	-0.025441088
181	0xbdc1f466	-0.094704434
182	0x3d8d4e12	0.06899656
183	0xbceaba94	-0.02865342
184	0x3ce386d8	0.02777426
185	0xbd3365d0	-0.043798268
186	0x3d5701ce	0.052491955
187	0xbd8b04ae	-0.06788002
188	0xbe0a276f	-0.13491605
189	0x3d90ced6	0.07070701
190	0xbdaaf40d	-0.0834733
191	0xbe03692e	-0.12833092
192	0x3bc7cb6d	0.0060972483
193	0xbe34105b	-0.17584364
194	0xbe46bae0	-0.19407225
195	0x3db83f81	0.089964874
196	0xbd4c4768	-0.049872786
197	0xbe036af3	-0.12833767
198	0xbe621d7b	-0.22081558
199	0xbc818522	-0.015810553
200	0xbca39eff	-0.019973276
201	0x3e00d595	0.12581475
202	0xbe66c4c8	-0.22536004
203	0x3d2ac237	0.041689124
204	0xbe10e422	-0.14149526
205	0xbe0ab614	-0.1354602
206	0x3de29a0c	0.11064538
207	0x3cfdccd9	0.030981468
208	0xbab67737	-0.0013921027
209	0xbe0466a7	-0.12929784
210	0x3de126d4	0.10993734
211	0x3c021294	0.007939
212	0x3dde8aed	0.10866342
213	0xbdbabc98	-0.09118003
214	0x3d81d004	0.06338504
215	0xbdfcf4bb	-0.12351366
216	0xbdbf1249	-0.093296595
217	0xbdaa9ec0	-0.083310604
218	0xbdda48a6	-0.10658388
219	0xbe0f368e	-0.13985655
220	0x3d99f81b	0.075180255
221	0xbdb71a4a	-0.08940561
222	0x3d43d1ad	0.047807384
223	0xbe524379	-0.20533551
224	0xbd0d0a0c	-0.03443341
225	0xbdffb2ec	-0.124852985
226	0x3dbeb72a	0.093122795
227	0xbd6d6db7	-0.05796596
228	0xbd544148	-0.05182007
229	0xbd093ba3	-0.03350414
230	0x3db524f3	0.08844938
231	0xbe81cdf2	-0.25352436
232	0x3da8c06f	0.08239829
233	0xbcfd30da	-0.030907083
234	0x3d38fdce	0.045163922
235	0x3dbd8e7f	0.092556946
236	0x3d6a13a3	0.057147633
237	0xbdde926b	-0.10867771
238	0xbd47d958	-0.04879126
239	0x3b29c439	0.0025904311
240	0xbe07f18b	-0.13275735
241	0xbe3bb1f6	-0.18329605
242	0x3d826ef4	0.06368819
243	0xbdebb6de	-0.115094885
244	0xbe0b0245	-0.13575085
245	0xbdbe854e	-0.093027696
246	0x3d072d78	0.033002347
247	0x3ccffe3e	0.025389787
248	0xbe580a82	-0.21097758
249	0xbd78ca48	-0.060739785
250	0xbcf3c585	-0.02975727
251	0x3db537bd	0.08848522
252	0xbd672fb0	-0.056441963
253	0xbd644e72	-0.055738874
254	0x3c1de2fa	0.009636635
255	0x3d24fc21	0.04027951

lstm1.bias_hh_l0 f4 [256]
0	0xbdbdfcdf	-0.09276747
1	0xbdb8ec3e	-0.090294346
2	0xbca62e08	-0.020285621
3	0xbd0fa3a6	-0.035068177
4	0xbb1469ea	-0.0022646138
5	0x3b81842c	0.0039525237
6	0xbe39cb3e	-0.18143937
7	0xbdb60886	-0.088883445
8	0x3ded3590	0.11582482
9	0x3da509d1	0.08058513
10	0xbe2b9ba2	-0.16758588
11	0xbdcc2fef	-0.0997008
12	0xbd054eca	-0.032545842
13	0x3859b1f4	5.1902563e-05
14	0x3d4269ea	0.04746429
15	0xbe03de21	-0.12877704
16	0xbddc988e	-0.10771285
17	0xbe61af56	-0.22039542
18	0x3db6827b	0.08911606
19	0xbe1a8aaf	-0.15091966
20	0xbd7c5347	-0.061602857
21	0x3db20d7b	0.086939774
22	0xbdae312b	-0.08505472
23	0x3d86b83b	0.06578108
24	0xbcd733ee	-0.02626988
25	0x3d1df1d7	0.038560715
26	0xbe10d31f	-0.14143036
27	0xbdcda70e	-0.10041629
28	0xbd8322da	-0.06403132
29	0xbe49c8a7	-0.19705449
30	0xbdaccf98	-0.08438033
31	0x3c9a97f6	0.018871289
32	0xbda9a78e	-0.08283912
33	0xbe96926a	-0.2940858
34	0xbdcbf803	-0.09959414
35	0xbde42b4e	-0.11141072
36	0xbd97d1ba	-0.07413049
37	0xbde743db	-0.11292239
38	0x3db71cc1	0.08941031
39	0xbe67b184	-0.2262631
40	0x3d76daab	0.06026713
41	0xbc96127c	-0.01831936
42	0x3dd0a8b8	0.101884305
43	0xbca26427	-0.019823147
44	0xbdf62065	-0.120178975
45	0xbaf2acb0	-0.00185146
46	0xbe0b4ec0	-0.1360426
47	0x3d4423ac	0.04788558
48	0xbbf899ff	-0.007586717
49	0xbdb173ec	-0.086646885
50	0xbd4ff5e6	-0.050771616
51	0x3ce299eb	0.027661284
52	0x3d325319	0.04353628
53	0xbd8221d8	-0.063541114
54	0xbe2c04fd	-0.16798778
55	0xbe280ca4	-0.16411072
56	0xbe3bef58	-0.18353021
57	0xbdacec59	-0.08443517
58	0x3d476ef5	0.0486898
59	0xbddb0fc5	-0.10696367
60	0x3dbd5c2a	0.092460945
61	0xbc306c4b	-0.010768007
62	0x3df6b0dc	0.12045452
63	0xbdc6a3b3	-0.09699192
64	0xbd35520c	-0.0442677
65	0xbd5673cc	-0.052356526
66	0x3d7f0e04	0.062269226
67	0x3d754a04	0.05988504
68	0xbd833ff4	-0.064086825
69	0x3dab2d6e	0.083582744
70	0x3d74f2b8	0.059801787
71	0x3df69e3e	0.12041901
72	0x3de3ade8	0.11117154
73	0xbdec9e1c	-0.115535945
74	0xbc87e708	-0.016589656
75	0xbdd2173a	-0.10258336
76	0xbdf7d39c	-0.12100908
77	0x3cc31380	0.02381301
78	0xbd41af48	-0.0472863
79	0xbc713fc0	-0.014724672
80	0xbd9a3c00	-0.07530975
81	0xbdadac7a	-0.08480163
82	0x3db39256	0.08768146
83	0x3dbb8dfe	0.09157942
84	0xbbf44720	-0.007454768
85	0x3c25f250	0.010128573
86	0x3de66ef8	0.11251634
87	0xbd25734c	-0.04039316
88	0xbc153d40	-0.009108841
89	0xbdd55848	-0.10417229
90	0xbd598e74	-0.05311437
91	0x3cd95b90	0.026532918
92	0xbc165210	-0.009174839
93	0x3d953b52	0.07286705
94	0xbda3a3f4	-0.07990256
95	0xbdb0c53c	-0.086313695
96	0x3de52de0	0.111903906
97	0x3d207f60	0.039183974
98	0x3c862ef8	0.016379818
99	0x3d2e546c	0.04256098
100	0x3df3c0fc	0.11902043
101	0xbb9e1120	-0.004823819
102	0x3d22100c	0.039566085
103	0xbda79d12	-0.08184256
104	0x3d923bd8	0.071403205
105	0xbb228c80	-0.0024802983
106	0x3d82b9de	0.063831076
107	0xbd969048	-0.07351738
108	0x3d1357f8	0.035972565
109	0x3b478b00	0.003044784
110	0xbc91a2c0	-0.0177778
111	0x3c4f0f10	0.0126378685
112	0xbac74a80	-0.0015204698
113	0xba35d700	-0.00069366395
114	0xbd4b3610	-0.049612105
115	0xbc354070	-0.011062726
116	0xbb136800	-0.0022492409
117	0xbc3c50f0	-0.011493906
118	0xbdd435f2	-0.10361852
119	0xbdbcc746	-0.09217696
120	0x3dae601a	0.08514424
121	0xbd63b004	-0.055587783
122	0x3dd7afd0	0.105315804
123	0xbc19fdb0	-0.009398863
124	0x3d9a544a	0.07535608
125	0x3dbfd8c6	0.09367518
126	0x3d739180	0.05946493
127	0x3d3da5a8	0.04630056
128	0x3d851f41	0.06500102
129	0x3e041132	0.12897184
130	0xbd9f7356	-0.077856705
131	0xbd9f22b7	-0.07770293
132	0xbddb1e32	-0.10699119
133	0xbdcbeec0	-0.09957647
134	0x3d494c59	0.049145076
135	0x3db771b7	0.08957236
136	0x3da2cfb2	0.07949771
137	0x3dfd3590	0.12363732
138	0xbd4fb8b7	-0.050713267
139	0xbdabf4dc	-0.083963126
140	0xbd2c76c5	-0.042105455
141	0xbdcd1129	-0.10013039
142	0x3e19d7ec	0.15023774
143	0x3c37b6e1	0.011213035
144	0xbc95047e	-0.018190619
145	0x3d5a54a5	0.05330338
146	0x3d56737b	0.052356225
147	0x3dad9530	0.08475721
148	0xbb36afda	-0.0027875812
149	0x3dc69216	0.096958324
150	0xbd373ebc	-0.044737563
151	0x3e0ebe72	0.13939837
152	0x3da87e8c	0.08227262
153	0xbc5e9c22	-0.01358703
154	0x3c03ac82	0.008036735
155	0xbe1e7dde	-0.15477702
156	0x3b0ba088	0.00213054
157	0xbb56093e	-0.0032659317
158	0x3d283938	0.041070193
159	0xbcf1b1ed	-0.029503787
160	0x3d869ff8	0.0657348
161	0xbbad4913	-0.005288252
162	0xbd863d86	-0.065547034
163	0x3da47846	0.08030753
164	0xbd95f835	-0.07322732
165	0x3d313bfe	0.043270104
166	0x3e0b9361	0.1363044
167	0xbe1ddaf7	-0.1541556
168	0xbc20aeab	-0.009807269
169	0x3d926f6e	0.0715016
170	0x3d3542c7	0.044253137
171	0x3d84aed6	0.0647866
172	0x3dee0550	0.11622107
173	0x3bedddad	0.007259092
174	0xbd40741d	-0.046985734
175	0x3e07275c	0.13198608
176	0xbdac7596	-0.08420865
177	0xbbc3920b	-0.0059683374
178	0xbdce8ace	-0.10085069
179	0x3df068ee	0.11738764
180	0xbde779bc	-0.11302516
181	0xbdc651f6	-0.096836016
182	0xbd740756	-0.05957731
183	0x3b96cd93	0.004602143
184	0xbc9d0452	-0.0191671
185	0x3c28f7cd	0.010312987
186	0x3d051030	0.03248614
187	0xbddaf63e	-0.10691498
188	0xbd986cf5	-0.07442657
189	0x3ca091e6	0.01960082
190	0xbd49d36b	-0.04927389
191	0xbd4054d6	-0.046955906
192	0xbbb60631	-0.0055549373
193	0xbd1ec269	-0.038759623
194	0xbdaefda5	-0.085444726
195	0xbe0497af	-0.12948488
196	0xbdce620d	-0.100772955
197	0xbe16d9ef	-0.14731573
198	0xbd94924d	-0.07254467
199	0x3cdd76be	0.02703416
200	0x3e1db944	0.15402704
201	0x3e188c47	0.14897262
202	0xbe680fb0	-0.22662234
203	0x3d1792e9	0.03700534
204	0xbde3950a	-0.11112411
205	0xbd9bb3d1	-0.07602657
206	0x3beb4c44	0.0071807224
207	0xbca0276b	-0.019550046
208	0x3cc0036d	0.023439134
209	0xbdd94b2c	-0.10610041
210	0xbdd70c1a	-0.10500355
211	0x3d75ac6a	0.05997888
212	0xbbb069c5	-0.0053837025
213	0x3c2abaaa	0.010420481
214	0xb88d238c	-6.730025e-05
215	0xbdb5895b	-0.08864089
216	0xbe3d4b81	-0.18485834
217	0x3d1285e7	0.03577223
218	0xbd1d3275	-0.038378198
219	0xbd7b0d6f	-0.06129211
220	0xbc946fdc	-0.018119745
221	0x3d0557f2	0.032554574
222	0xbcf83063	-0.03029651
223	0xbe299fa5	-0.16564806
224	0xbe35e66e	-0.17763683
225	0xbe344b65	-0.17606886
226	0x3cf9b5fe	0.030482288
227	0x3cd34cbc	0.025793426
228	0xbd4c2118	-0.04983625
229	0xbd905f39	-0.07049412
230	0xbdaea3d5	-0.08527342
231	0xbe25a439	-0.16175927
232	0xbd9df0c9	-0.07711942
233	0xbdfda040	-0.12384081
234	0x3d88b491	0.06675065
235	0x3dc04547	0.093882136
236	0x3e050059	0.12988414
237	0xbb773342	-0.003771976
238	0xbd2638c6	-0.040581487
239	0x3dd811e6	0.10550289
240	0xbb153bc7	-0.0022771226
241	0xbd091192	-0.033464022
242	0xbdbea3a0	-0.09308553
243	0x3c60997d	0.013708469
244	0x3cbc5e78	0.022994265
245	0xbe079f5d	-0.13244386
246	0xbd916592	-0.07099451
247	0xbd797757	-0.060904827
248	0xbd1d8198	-0.03845367
249	0xbdf3a73e	-0.11897133
250	0xbe2c573e	-0.16830155
251	0xbe12c28f	-0.1433203
252	0x3bdf1633	0.0068080663
253	0xbd435e46	-0.047697328
254	0x3d82d244	0.06387761
255	0x3d2d36e5	0.04228868

features.0.weight f4 [76, 64]
0	0xbd86c22c	-0.06580004
1	0xbd92c486	-0.0716639
2	0xbd9f70d7	-0.07785194
3	0x3dd70b9f	0.105002634
4	0xbdebac75	-0.11507503
5	0xbde3ab15	-0.11116616
6	0x3d83aa0a	0.06428917
7	0x3d9b086d	0.075699665
8	0x3d6ca882	0.05777789
9	0xbe5edb2d	-0.21763296
10	0xbd9a841d	-0.0754473
11	0xbe046046	-0.1292735
12	0x3d9f18ed	0.07768426
13	0x3ecbe4d4	0.3982302
14	0x3d81aa82	0.0633135
15	0x3d13ef81	0.03611708
16	0xbcc40ed0	-0.023932844
17	0x3e762e21	0.24041034
18	0xbdba1f1a	-0.090879634
19	0xbd8ec1c6	-0.06970553
20	0x3d007fc6	0.031371854
21	0xbdacb62a	-0.084331825
22	0xbd9f0fcb	-0.07766684
23	0xbe115778	-0.14193523
24	0xbd99a534	-0.07502213
25	0x3e26dcb8	0.16295135
26	0xbe0ccbb0	-0.13749576
27	0x3b1c5a91	0.0023857693
28	0x3dfbd60a	0.12296684
29	0xbd8faea1	-0.0701573
30	0x3dfe884c	0.1242834
31	0xbe140a30	-0.14457011
32	0xbc070fc3	-0.008243504
33	0x3df878ee	0.121324405
34	0x3ceec11b	0.029144814
35	0x3e387c37	0.18016134
36	0xbe16bf3e	-0.1472139
37	0x3cb631a1	0.022240462
38	0x3d617a25	0.055048127
39	0x3e86dacf	0.26338813
40	0xbbd8e183	-0.00661868
41	0xbbc7f994	-0.00610275
42	0x3cd4f4f5	0.02599571
43	0x3ce107ea	0.027469594
44	0x3e486208	0.19568646
45	0x3d65aa25	0.056070466
46	0xbdb67104	-0.08908275
47	0x3df47062	0.11935498
48	0x3e38fd7f	0.18065451
49	0x3e20ee01	0.15715791
50	0xbd73c618	-0.05951509
51	0x3c24ca12	0.010057943
52	0x3e3adb07	0.18247615
53	0xbda6a0be	-0.08136128
54	0xbca48b7b	-0.02008604
55	0x3cd1e50a	0.02562191
56	0x3c50cbe5	0.012743925
57	0x3d30ff6f	0.04321235
58	0xbdf99455	-0.12186495
59	0x3a87452d	0.0010320299
60	0x3d6e63ad	0.058200527
61	0x3ac38a14	0.001491847
62	0xbd8828ff	-0.066484444
63	0xbde6947d	-0.11258791
64	0x3d092c30	0.033489406
65	0xbe0ee65b	-0.13955061
66	0xbd82fc02	-0.06395723
67	0x3d1d5612	0.03841216
68	0xbd05ce7d	-0.032667626
69	0x3deca37b	0.11554619
70	0x3e066220	0.13123369
71	0xbddf73c1	-0.1091075
72	0xbe22ed0b	-0.15910737
73	0xbd941cd8	-0.07232064
74	0xbd8a4945	-0.06752256
75	0x3e0ec9b1	0.13944127
76	0x3dc80e2f	0.0976833
77	0x3e3e9cd0	0.18614507
78	0x3c92ab93	0.017904079
79	0x3e232e05	0.15935524
80	0x3cd2374e	0.025661137
81	0x3d37f6a5	0.044912953
82	0x3d810992	0.063006535
83	0x3deb0425	0.114754
84	0xbe4c486f	-0.19949506
85	0xbd4381ad	-0.04773109
86	0xbde927d9	-0.113845535
87	0x3d04ee86	0.032454036
88	0xbd246a19	-0.040140245
89	0xbbaa6081	-0.0051994924
90	0x3deb86dc	0.11500332
91	0xbdc32261	-0.09528042
92	0xbe13edb0	-0.1444614
93	0x3b8a9810	0.004229553
94	0x3d6c6a88	0.057718784
95	0xbd35e323	-0.044406068
96	0x3d7c2fe1	0.0615691
97	0x3c561113	0.013065594
98	0xbe06e677	-0.13173853
99	0xbb264a3a	-0.0025373832
100	0x3d9596f6	0.07304184
101	0x3e027734	0.12740785
102	0x3d598cb8	0.053112715
103	0x3d6b527c	0.05745171
104	0xbdb7e7ce	-0.0897976
105	0x3d2b4d33	0.04182167
106	0xbde528fe	-0.11189459
107	0xbcb71938	-0.022350892
108	0x3c669693	0.014073986
109	0x3e2ca114	0.16858321
110	0xbd508518	-0.050908178
111	0x3d9e24ea	0.077218845
112	0xbd79d780	-0.060996532
113	0x3d19a0fb	0.03750704
114	0x3de00a2b	0.109394394
115	0xbcbdb0cc	-0.023155592
116	0x3d00deca	0.03146247
117	0x3e167f37	0.14696966
118	0x3d8eedfd	0.069789864
119	0x3e152777	0.14565836
120	0x3ddf3dda	0.10900469
121	0x3dbf7083	0.09347632
122	0xbdac1fb5	-0.08404485
123	0xbccfafbc	-0.025352351
124	0xbdb95b53	-0.09050622
125	0x3e06beb9	0.13158692
126	0xbd6f78ff	-0.058465
127	0x3bd3f6bb	0.0064686215
128	0x3bfe208b	0.0077553443
129	0xbb0c0fe7	-0.0021371783
130	0x3def98b7	0.1169905
131	0x3b841f7a	0.0040320726
132	0xbc0a48e9	-0.008440235
133	0xbda82ed7	-0.08212059
134	0x3e0b45b7	0.13600813
135	0x3dda9943	0.106737636
136	0xbdc4a9e8	-0.096027195
137	0xbe43b7c0	-0.19113064
138	0x3d16a531	0.036778633
139	0x3cca6738	0.024707422
140	0xbd222454	-0.039585426
141	0x3e5323c8	0.20619118
142	0xbd196bd4	-0.03745635
143	0x3cf891cf	0.030342964
144	0x3d8f557f	0.06998729
145	0x3dbfedfb	0.09371563
146	0xbdd23b9a	-0.10265274
147	0x3d17b14a	0.03703431
148	0xbe4c79f8	-0.19968402
149	0xbe718055	-0.23584111
150	0x3d85d112	0.065340176
151	0xbd90fefc	-0.070798844
152	0xbdc06383	-0.0939398
153	0x3e4221ae	0.1895816
154	0xbd99ee8b	-0.075162016
155	0x3dea1280	0.1142931
156	0xbdc78de7	-0.097438626
157	0xbdf37488	-0.11887461
158	0x3bda49d8	0.006661635
159	0x3d6457e1	0.05574787
160	0xbd4e774d	-0.050406743
161	0x3cea9950	0.028637558
162	0xbd72398a	-0.059136905
163	0x3d32fddb	0.043699127
164	0xbde68bd8	-0.11257142
165	0xbdcee52f	-0.10102307
166	0xbe5249b8	-0.20535934
167	0xbd9eb14c	-0.077486604
168	0xbcd5a6f3	-0.026080584
169	0x3dbd63f9	0.09247584
170	0xbc71c209	-0.014755734
171	0xbd859dc5	-0.06524233
172	0xbcbb2b4b	-0.022847792
173	0x3e086e2b	0.13323276
174	0x3bdb43d9	0.0066914377
175	0x3dc2bb7e	0.095084175
176	0x3d9d76d3	0.076886795
177	0x3d8cdd4c	0.068781465
178	0xbd84f8ab	-0.06492742
179	0x3df50a5a	0.11964865
180	0x3c4c2d22	0.012461932
181	0x3c85a584	0.016314276
182	0xbe134e72	-0.14385393
183	0xbdbbb817	-0.09165972
184	0xbd1fab33	-0.038981628
185	0xbe05e5e1	-0.13075973
186	0x3d63055f	0.055425044
187	0xbd1eba0d	-0.03875165
188	0x3e2aa791	0.16665484
189	0x3de94a3b	0.113911115
190	0x3dc5fbc6	0.096671626
191	0xbd0385b1	-0.03210992
192	0xbcc09c78	-0.02351211
193	0x3df5aa0e	0.11995326
194	0xbd3bce0b	-0.045850795
195	0x3d8f6aab	0.07002767
196	0xbe1a2142	-0.1505175
197	0xbc95bf4c	-0.018279694
198	0x3c9adf6a	0.01890536
199	0xbdfacfb7	-0.1224665
200	0xbd4f5cb2	-0.05062551
201	0xbd703820	-0.058647275
202	0x3dd8fdf3	0.10595312
203	0xbba6f006	-0.005094531
204	0xbd970641	-0.0737424
205	0xbe196df8	-0.14983356
206	0x3dde4eef	0.10854899
207	0xbde77924	-0.113024026
208	0xbe0e8ae2	-0.13920167
209	0x3db15ac3	0.086598895
210	0x3de6510f	0.112459294
211	0x3da93039	0.08261151
212	0x3d3f7c26	0.046749257
213	0x3dd0a212	0.101871625
214	0x3d9d6e9a	0.07687111
215	0x3d9657e6	0.07340984
216	0x3d53d33b	0.051715117
217	0x3dbc7419	0.09201831
218	0xbd943bcd	-0.072379686
219	0x3cb23af7	0.021756632
220	0x3de18ed1	0.11013568
221	0x3d64dd80	0.0558753
222	0xbd9cb535	-0.0765175
223	0x3d62165c	0.055197105
224	0xbd5046cb	-0.050848763
225	0x3b0bdb17	0.0021340305
226	0x3dfebe9a	0.12438698
227	0xbde720b6	-0.11285536
228	0x3db796ca	0.089643076
229	0xbdb2e2f1	-0.08734692
230	0x3db9cfc6	0.09072833
231	0xbaf93883	-0.0019014034
232	0xbd0fdc7c	-0.03512238
233	0xbd98523a	-0.074375585
234	0x3d99ca0b	0.0750924
235	0xbd81d229	-0.06338913
236	0x3d5b30ef	0.053513464
237	0x3d8b7c39	0.06810803
238	0x3c9fd4e1	0.019510688
239	0xbe2b8a46	-0.16751966
240	0x3dbf80fd	0.093507744
241	0xbdb518a1	-0.08842588
242	0xbe1bacb2	-0.15202597
243	0x3e2a76dd	0.16646905
244	0xbc263fc7	-0.010147042
245	0xbdd56d6e	-0.10421263
246	0xbdc2f1a2	-0.09518744
247	0xbd76d0d4	-0.060257748
248	0x3d5d3ced	0.05401318
249	0x3e107dc3	0.14110474
250	0x3dae52c5	0.08511881
251	0x3d06b1d6	0.03288444
252	0xbd188f0f	-0.037245806
253	0xbdb71fb0	-0.08941591
254	0xbc6b3310	-0.014355436
255	0x3d9cfdf3	0.076656245

features.0.bias f4 [76]
0	0x3d2bd76d	0.041953493
1	0x3c106675	0.00881349
2	0xbcdc833a	-0.026918042
3	0xbd40d5d9	-0.04707894
4	0x3d6442dd	0.05572783
5	0x3c558569	0.013032296
6	0xbd89fc65	-0.067375936
7	0x3d20f32b	0.039294403
8	0x3dd9aaf9	0.106283136
9	0x3dab23e6	0.083564565
10	0xbced579c	-0.02897244
11	0xbcb61000	-0.022224426
12	0xbc45bd66	-0.012069082
13	0x3db5f030	0.08883703
14	0x3d133069	0.03593484
15	0xbd92d347	-0.07169204
16	0x3d78f7e7	0.060783293
17	0xbc42b55c	-0.01188406
18	0xbd178179	-0.03698871
19	0x3ce44475	0.027864674
20	0x3d845fdb	0.064635955
21	0x3d185de1	0.037198905
22	0x3dcb92bb	0.09940096
23	0x3dc0765d	0.09397576
24	0xbd78982b	-0.060691994
25	0xbda859d1	-0.08220256
26	0xbd361c68	-0.044460684
27	0x3dc96e2f	0.09835469
28	0xbdd91a43	-0.10600712
29	0x3d80b04c	0.06283626
30	0xbc8cfc20	-0.017210066
31	0x3cf09f6f	0.029372899
32	0x3cc1a9fb	0.023640623
33	0x3dfcaab3	0.12337246
34	0x3d489b29	0.048976097
35	0xbd9b75c0	-0.075908184
36	0xbd12e4ab	-0.035862606
37	0x3c893c0d	0.016752267
38	0x3c99edf4	0.018790223
39	0xbd8f1a70	-0.069874644
40	0x3d7899b8	0.060693473
41	0xbceb5750	-0.028728157
42	0xbd936f04	-0.07198909
43	0xbdafcaa3	-0.08583572
44	0x3d9be4f4	0.07612029
45	0x3d1d50d6	0.03840717
46	0xbda7a7f0	-0.081863284
47	0xbde97631	-0.11399496
48	0xbd1c131c	-0.03810416
49	0xbc8186bd	-0.015811319
50	0xbcff441a	-0.031160403
51	0xbc7d6be5	-0.015467619
52	0x3c5f73a7	0.0136384135
53	0x3ce60fa2	0.028083626
54	0x3d7d0e1a	0.061781026
55	0x3d7d9a5a	0.06191478
56	0xbde0b8b5	-0.1097273
57	0x3d459797	0.04824027
58	0x3e016ed7	0.12639938
59	0x3daad676	0.083416864
60	0xbcd7ec28	-0.026357725
61	0xbd3a21a8	-0.045442253
62	0x3d9054f4	0.070474535
63	0xb9d696d0	-0.00040929625
64	0x3d10265a	0.035192825
65	0x3cd44018	0.025909469
66	0x3d66f0ca	0.056381978
67	0x3cb8380e	0.022487666
68	0x3dc205be	0.094737515
69	0xbd4f6b06	-0.050639175
70	0xbd1e76dd	-0.038687576
71	0x3be823a6	0.0070843277
72	0x3d6e5b69	0.058192644
73	0xbbc248cf	-0.0059290896
74	0xbd1dabad	-0.0384938
75	0x3d406f86	0.046981357

features.2.weight f4 [24, 76]
0	0x3dfc738f	0.123267286
1	0xbdda78ed	-0.10667596
2	0x3c0c520b	0.008564482
3	0xbd21d677	-0.03951117
4	0x3df6aaf9	0.12044329
5	0xbda8a68f	-0.082348935
6	0x3dc4952b	0.09598764
7	0x3c016bb2	0.007899212
8	0x3d46a5ec	0.04849808
9	0xbd760c63	-0.060070407
10	0x3d9510fb	0.072786294
11	0xbdf7ea89	-0.12105281
12	0x3bba32ea	0.005682339
13	0xbcddf563	-0.027094549
14	0xbc1467b6	-0.00905793
15	0xbd324995	-0.043527205
16	0xbd929c50	-0.071587205
17	0xbd3b409e	-0.04571592
18	0xbd670736	-0.05640336
19	0xbd8f60e4	-0.07000902
20	0xbc63ec64	-0.01391134
21	0xbd4cf882	-0.050041683
22	0x3da80884	0.08204749
23	0x3ded74c9	0.115945406
24	0xbc929cff	-0.017897127
25	0x3da22d32	0.079187766
26	0xbd569513	-0.052388262
27	0x3c228c75	0.009921183
28	0xbe21e2f1	-0.15809228
29	0xbd21fc1d	-0.039547075
30	0xbbfb88a5	-0.0076762014
31	0xbdcc07a3	-0.09962394
32	0x3d903bc1	0.07042647
33	0x3d95dbcc	0.073173136
34	0x3d07872c	0.033087894
35	0xbda64c36	-0.08120005
36	0x3cb14821	0.021640839
37	0xbe061106	-0.13092431
38	0x3de2ddf5	0.11077491
39	0xbd8eb9c9	-0.069690295
40	0x3dc0a811	0.09407056
41	0xbd0301ff	-0.031984325
42	0xbd6dbfd4	-0.05804427
43	0xbe532066	-0.20617828
44	0xbd509c9e	-0.05093061
45	0xbdbdf0dd	-0.09274457
46	0x3ccad35b	0.024758985
47	0x3d581b41	0.052760366
48	0x3d12ef81	0.03587294
49	0xbca19eb8	-0.019729003
50	0x3cb01524	0.021494456
51	0x3d02ef5d	0.031966556
52	0xbccab327	-0.02474363
53	0x3e35aef8	0.17742527
54	0xbdaa835f	-0.08325838
55	0xbcf026e8	-0.029315427
56	0x3d3a7a90	0.04552704
57	0xbcd5948b	-0.026071807
58	0xbc06ca35	-0.008226921
59	0x3d8d01b9	0.06885094
60	0xbd2cb363	-0.042163264
61	0xbda693c7	-0.08133655
62	0x3cdc77b5	0.02691255
63	0xbdef73aa	-0.11691983
64	0x3ce9dc57	0.028547449
65	0xbc032b79	-0.00800597
66	0x3d8879d3	0.06663861
67	0xbdb1dfab	-0.086852394
68	0xbd0ba3df	-0.034091827
69	0x3d967254	0.07346025
70	0x3df7d9f5	0.12102119
71	0xbdf2ca92	-0.118550435
72	0x3d89e836	0.06733744
73	0x3dd37641	0.103252895
74	0xbc8fe068	-0.01756306
75	0x3dad2f70	0.084563136
76	0xbd9eb99c	-0.07750246
77	0xbdecd459	-0.115639396
78	0xbdac257d	-0.08405588
79	0x3d905c46	0.0704885
80	0xbdb42b3e	-0.0879731
81	0xbd46bc31	-0.048519317
82	0x3d0483eb	0.03235237
83	0xbdc324ac	-0.09528479
84	0xbdbfc06d	-0.09362874
85	0xbd436002	-0.047698982
86	0xbc3f7470	-0.011685476
87	0xbcc58d69	-0.024115281
88	0xbd9d9cb3	-0.07695904
89	0x3c499e3d	0.012305793
90	0x3c12c4af	0.008958026
91	0x3d3c0a3a	0.04590819
92	0xbd088fd0	-0.033340275
93	0xbdf46623	-0.119335435
94	0x3d1777ec	0.0369796
95	0xbcf58271	-0.029969426
96	0xbd6981ae	-0.057008438
97	0xbd5db6fc	-0.054129586
98	0xbde87c46	-0.11351828
99	0x3c85cee1	0.016334
100	0xbd676641	-0.056494
101	0x3de095ba	0.10966058
102	0xbd6ca94e	-0.05777865
103	0xbdc39021	-0.09548975
104	0xbd9ca42c	-0.07648501
105	0xbd1006ce	-0.03516274
106	0xbd08bd22	-0.033383496
107	0xbdf39e30	-0.11895406
108	0xbdd1e444	-0.10248616
109	0x3c9596ea	0.018260438
110	0xbe0ac774	-0.13552648
111	0xbd222fc8	-0.03959635
112	0xbd6adba7	-0.057338383
113	0xbc6f58f5	-0.014608611
114	0x3ddc9b0e	0.10771762
115	0x3e16530e	0.1468012
116	0x3d44c5b6	0.048040114
117	0xbdd7f40c	-0.10544595
118	0x3c3d7d28	0.011565484
119	0xbd86ffbf	-0.065917484
120	0xbd7e4cfb	-0.062085133
121	0x3d557d8e	0.05212169
122	0x3e0e0cbb	0.13872044
123	0x3d86c3cd	0.06580315
124	0xbdae5243	-0.08511784
125	0x3ce80a91	0.028325351
126	0xbe0ec224	-0.13941246
127	0x3da0fc3e	0.078606114
128	0x3d623ec1	0.055235628
129	0x3de454e5	0.11149005
130	0xbdba98fe	-0.09111212
131	0xbddf1875	-0.10893337
132	0xbd775964	-0.060387984
133	0xbe1aecce	-0.15129396
134	0xbcfd6cad	-0.03093561
135	0x3df9a5fd	0.12189863
136	0x3de689b1	0.11256731
137	0x3db34295	0.08752934
138	0x3c047bb6	0.008086136
139	0xbdc92e60	-0.098232985
140	0xbde149bf	-0.11000394
141	0x3d8e826f	0.06958472
142	0x3d11ff75	0.035644013
143	0x3d2ee0a7	0.042694714
144	0x3d4a2c94	0.04935892
145	0xbd7b4767	-0.06134739
146	0x3bcf4184	0.0063249487
147	0xbcc9bffe	-0.024627682
148	0xbc5c22f3	-0.013436067
149	0x3db45098	0.088044345
150	0xbd94ad8f	-0.07259666
151	0xbd76b948	-0.06023529
152	0xbd8d4a1f	-0.06898903
153	0xbd0d58ef	-0.03450864
154	0x3c9838b2	0.018581722
155	0x3d391cc7	0.04519346
156	0xbc713fef	-0.014724716
157	0x3d7f81a5	0.062379498
158	0xbd6e0bd8	-0.058116764
159	0xbb6f49ce	-0.0036512497
160	0xbde10310	-0.10986912
161	0xbd8779ce	-0.06615029
162	0x3da94735	0.08265535
163	0xbda8567e	-0.08219622
164	0x3d339bf6	0.043849908
165	0x3e090eb2	0.13384512
166	0xbdd8bc18	-0.10582751
167	0x3dc1e844	0.09468129
168	0xbd4897d5	-0.048972923
169	0x3cc02170	0.023453444
170	0xbc5aa606	-0.013345247
171	0xbd5bfebb	-0.053709727
172	0x3d3f512d	0.046708275
173	0xbd2b9133	-0.04188652
174	0xbdea288b	-0.11433514
175	0x3c86bf21	0.01644856
176	0xbd67e71c	-0.056616887
177	0x3c86cada	0.016454149
178	0xbdaa41df	-0.08313345
179	0xbd426bb1	-0.047465984
180	0xbdbde102	-0.092714325
181	0xbd90081a	-0.07032795
182	0xbc82b3d4	-0.01595489
183	0xbc60e334	-0.013726044
184	0x3ddd7467	0.108132176
185	0x3d7d7303	0.06187726
186	0xbcb30ed2	-0.021857653
187	0xbae37312	-0.0017353019
188	0x3d7aec6a	0.06126062
189	0xbd3322ff	-0.043734547
190	0x3d1e9367	0.038714793
191	0x3c90d172	0.017677996
192	0x3ca28124	0.01983697
193	0x3db631d7	0.08896225
194	0xbdc618ca	-0.09672697
195	0xbd644b81	-0.05573607
196	0x3d15fa65	0.036615748
197	0xbcdd566b	-0.027018746
198	0x3d7365fe	0.05942344
199	0xbd5fffb6	-0.054687224
200	0xbdcadc24	-0.0990527
201	0xbdfc3f8e	-0.123168096
202	0xbda0ec6b	-0.07857593
203	0x3db5824d	0.088627435
204	0x3dc7b7c6	0.09751849
205	0x3e022dda	0.12712803
206	0x3c7b8526	0.015351569
207	0xbd000809	-0.031257663
208	0x3df41810	0.11918652
209	0xbcb0072f	-0.0214878
210	0x3d9b3d83	0.07580092
211	0xbd968d19	-0.07351131
212	0x3c82ab82	0.015950922
213	0x3d2e2b6e	0.042521887
214	0x3db564d6	0.088571236
215	0x3d3f2a30	0.046671093
216	0xbd43f759	-0.04784331
217	0xbdcc919b	-0.099887095
218	0x3bfbe230	0.0076868758
219	0xbe120174	-0.14258367
220	0xbddaf7ba	-0.10691781
221	0xbcec0588	-0.028811231
222	0x3c0d28ec	0.008615714
223	0xbdf68bbd	-0.12038372
224	0xbd13b4e4	-0.036061183
225	0x3df29195	0.11844174
226	0xbd6bed06	-0.05759909
227	0xbdf98457	-0.12183445
228	0x3d955d48	0.072931826
229	0xbba5fa38	-0.005065229
230	0x3db9b6e6	0.09068088
231	0x3e104ecd	0.1409256
232	0x3bae288b	0.0053148917
233	0x3c5be524	0.013421331
234	0x3d93bbd5	0.072135605
235	0x3db791fc	0.08963391
236	0xbd0682bc	-0.03283952
237	0xbd942de6	-0.07235317
238	0x3d8c0eab	0.06838735
239	0xbe151bf4	-0.14561445
240	0x3ca04788	0.019565359
241	0x3cedca9b	0.029027274
242	0x3c86a9fc	0.016438477
243	0xbd404904	-0.046944633
244	0xbe094015	-0.13403352
245	0x3d9d67cb	0.076858126
246	0x3e1b7c53	0.15184145
247	0xbd79cc12	-0.060985632
248	0xbe13d241	-0.14435674
249	0xbdb9e94d	-0.09077702
250	0x3cfaf72e	0.030635443
251	0x3c92c58a	0.01791646
252	0x3d35702a	0.04429642
253	0x3d2293b0	0.039691627
254	0xbda28b5a	-0.079367355
255	0xbca4f3d2	-0.020135794

features.2.bias f4 [24]
0	0xbd8d95c5	-0.06913332
1	0x3d1f27c3	0.03885628
2	0xbd291d8c	-0.041287944
3	0x3cb0ff06	0.02160598
4	0x3d2159c2	0.03939224
5	0x3c9877c2	0.018611792
6	0xbd5d3302	-0.054003723
7	0x3cb38b50	0.021917015
8	0xbe176662	-0.1478515
9	0xbe0c66a3	-0.13711028
10	0x3cd26c6e	0.025686469
11	0xbd2aade0	-0.041669726
12	0x3d23faf7	0.04003426
13	0xbdf9c044	-0.12194875
14	0x3d035d23	0.032071244
15	0x3ccdb5d2	0.025111113
16	0xbd807104	-0.06271556
17	0xbd739b5e	-0.05947434
18	0xbd9a83a9	-0.075446434
19	0xbd6c4ce9	-0.057690535
20	0x3d3fae47	0.046797063
21	0xbcffc8b7	-0.031223638
22	0xbd24c836	-0.04023
23	0xbcd2d7a4	-0.025737591
