SECO/Treinamento/ESN/conf_1/modelo_seed_40_loss_0.008391.pt (torch, 104896 bytes, 5 tensors)

reservoir.weight_ih_l0 f4 [117, 74]
00000000: e84a 87be b671 3b3f f20f 27bf 94e2 dc3e
00000010: f0d7 3a3f 0092 c8bc 2053 cd3d 7e82 3cbf
00000020: d04b d7be 72d1 5bbf e464 1a3f b4c7 b3be
00000030: 3e3d 043f 9476 473f dca0 c83e a005 1cbd
00000040: 7683 353f 4a27 46bf 2421 b63e 4022 77bf
00000050: 9e61 42bf 9632 3abf 922a 1e3f 1058 253f
00000060: 6012 7ebe c4e2 70bf 88d9 31be e485 57bf
00000070: 48f9 66bf e883 5b3f 00cc 78bc 74e5 2e3f
00000080: 6c12 26bf b0a0 0c3e d077 e2bd 4a22 70bf
00000090: c676 2c3f e4c4 d8be 6e14 0d3f 108f 983d
000000a0: 985e 443e 18f0 7bbe 389b 763f 1a0f 383f
000000b0: b045 85bd 5c8e 3abf 9cc8 4fbf 9ee1 663f
000000c0: 18b0 aabe 7a14 07bf c4cb 3ebf 78b0 143f
000000d0: 501b dbbe a4e4 23bf aeaa 093f 0007 b2bb
000000e0: 6075 0a3d e8e2 0ebe 2c10 35bf 1047 1b3e
000000f0: c253 65bf 4843 913e b0b1 fd3e 0a87 193f
00000100: 40a1 ec3e fcc4 a0be 1c16 fe3e 70ab ea3e
00000110: 70cd d5bd a0f3 05bd 42d3 43bf 60dd 583d
00000120: 00db 053d de1d 283f ba8b 7d3f 168f 79bf
00000130: 24b3 38bf 70d6 afbd d0b2 cdbd 74e5 1b3f
00000140: f04c 6ebe 7471 10bf 9063 c23d e0f8 22bd
00000150: 5a5f 0bbf 54bf de3e 481c 2d3f 6cea f8be
00000160: cacb 793f 281a 58bf 04f7 b4be 94f5 0a3f
00000170: b09f 673f 0025 4cbf feeb 17bf bea4 0abf
00000180: a0fd 573e e04e b3be 7250 583f 7877 9bbe
00000190: 405e 4fbd d403 b03e 9cbd 643f 7219 41bf
000001a0: 00d2 d3bc 66da 4bbf b066 743e b026 c1be
000001b0: a44a 153f 9496 fdbe 187a 283f b44d 563f
000001c0: 041c 7ebf 6ece 4ebf 0c0e 24bf ee08 613f
000001d0: 40e3 87bc 366e 3a3f f2dd 003f 00dd 63bf
000001e0: 2abe 423f bc50 2b3f 5067 e13d 3641 57bf
000001f0: c0fb 09bf 9ac1 10bf 645a 713f 0c9c 2cbf
00000200: c02e eebd 9092 da3d dc1f c23e 40ad 253d
00000210: cc95 193f 64ab 04bf b8c9 723e 7879 663e
00000220: 5659 5d3f c0e7 b73d 949a a3be 3021 f93e
00000230: fe7b 3d3f 3a67 263f a663 2dbf e48f f6be
00000240: 28ee fe3e 86db 1abf b4b1 dcbe 887d 723f
00000250: ce66 03bf e86c 043f 0c41 f6be 40c2 b3bc
00000260: c472 273f e0c4 57bf 5021 30bf f404 b73e
00000270: 9a5e 50bf d678 743f b0ff 513f 0c45 60bf
00000280: aec4 08bf 94d9 9c3e 7446 263f 58b3 35be
00000290: 9495 a53e c2eb 2bbf cea1 4c3f be3a 253f
000002a0: ea26 2b3f aa68 15bf 2052 293e e058 2bbf
000002b0: fa34 1dbf e2f9 19bf 3c6b a23e 1484 9cbe
000002c0: f891 19bf b83c 54be 0cb9 293f 103d 07be
000002d0: f8aa febe aaa7 293f 9a80 5dbf 9810 a5be
000002e0: 2488 a8be 5a0e 06bf 04e1 353f ee70 69bf
000002f0: f426 15bf b4bd 953e ec81 b43e 38fc aebe
00000300: c882 4ebe 9c8f f1be e016 b33e 441a cb3e
00000310: 3228 71bf e6f8 72bf f251 39bf 6481 673f
00000320: c0e1 693f c01c c73e 9674 03bf 0063 5dbf
00000330: b44d 56bf 8850 13bf 60d5 023f 0c51 f53e
00000340: 0a1f 55bf 3e39 48bf 8671 55bf b4ae d43e
00000350: 30fc abbd 5084 043e 9067 b93d 9a1f 363f
00000360: 1a13 54bf c8d9 353e 684a 3a3f 58f7 133e
00000370: 80ad c5bd e269 4b3f 4c66 b8be fcf7 c8be
00000380: 9816 37bf 8c71 37bf 60ed f93e 50f7 29be
00000390: 80c2 2abe d075 0abf 8c0a 28bf 8cfa d9be
000003a0: 9404 573f 4ecf 50bf 5047 7c3e 8047 913e
000003b0: 54b9 a1be 006e 09be 72ed 23bf a077 9abd
000003c0: f0f7 093f 5461 8fbe 70a9 bdbe 8099 7bbc
000003d0: 4029 29bf 04f2 363f 8013 48bf d476 d1be
000003e0: 3cdd 8a3e 8846 eebe d891 a9be 3cbe e43e
000003f0: c218 533f 600b 0bbe a66e 5c3f 486d a53e
-0.26424336 0.73220384 -0.65258706 0.43141615 0.72985744 -0.02448368 0.100256205 -0.73636615
-0.42050028 -0.85866463 0.60310197 -0.351133 0.5165595 0.7791531 0.39185226 -0.038091302
0.7090372 -0.774037 0.3557216 -0.96536636 -0.759302 -0.7273344 0.6178371 0.645875
-0.24811697 -0.94096017 -0.17368138 -0.84188676 -0.90224123 0.8574815 -0.015185356 0.6831887
-0.6487186 0.13733172 -0.11058009 -0.9380232 0.67368734 -0.42337716 0.551093 0.07449162
0.1917671 -0.24603307 0.96330595 0.71898043 -0.065074325 -0.72873473 -0.8116548 0.90188015
-0.33337474 -0.5276562 -0.7452967 0.5808177 -0.42794275 -0.6402075 0.5377606 -0.0054329634
0.033803344 -0.13953745 -0.707278 0.15163827 -0.8958093 0.28371644 0.49549627 0.5997168
0.46216774 -0.31400287 0.49626243 0.4583392 -0.10439575 -0.032703042 -0.7649423 0.052945495
0.032679558 0.65670574 0.9904133 -0.97483957 -0.72148347 -0.085858226 -0.100438714 0.6089699
-0.23271537 -0.56423116 0.09491646 -0.039788127 -0.5444237 0.43505347 0.6762128 -0.4861635
0.9757658 -0.8441491 -0.35344708 0.5428097 0.9047804 -0.7974396 -0.5934447 -0.54157627
0.21092844 -0.35021114 0.8449775 -0.30364585 -0.050626993 0.3437792 0.8935182 -0.7542945
-0.025856972 -0.79630125 0.23867297 -0.3772483 0.5831702 -0.49528944 0.658113 0.83712316
-0.992615 -0.80783737 -0.64083934 0.8790425 -0.016587853 0.7282442 0.5033866 -0.89009094
0.7607142 0.66920066 0.110060334 -0.8408388 -0.53899765 -0.5654541 0.9427855 -0.6742561
-0.116300106 0.10672486 0.37914932 0.040448427 0.59994197 -0.5182402 0.23709762 0.22507274
0.8646444 0.0897975 -0.3195387 0.48658133 0.7401732 0.6500126 -0.67730176 -0.48156655
0.49791074 -0.60491216 -0.43104327 0.94722795 -0.5132874 0.5172868 -0.48096502 -0.021943212
0.65409493 -0.8428478 -0.6880083 0.35745966 -0.8139435 0.9549688 0.82030773 -0.8760536
-0.5342511 0.3063475 0.6495125 -0.17744195 0.32340682 -0.6715661 0.79934394 0.6454276
0.66856253 -0.5836283 0.16535234 -0.6693249 -0.6140896 -0.60146916 0.31722438 -0.30569518
-0.59988356 -0.20726287 0.66297984 -0.13206887 -0.49739814 0.6627146 -0.86524355 -0.32239223
-0.32916367 -0.5236565 0.7104647 -0.9118794 -0.5826256 0.29246294 0.35255373 -0.34176803
-0.20167077 -0.47179878 0.3497839 0.39668477 -0.9420196 -0.9491104 -0.72390664 0.9043181
0.9136009 0.38889122 -0.5134977 -0.86479187 -0.83712316 -0.57544756 0.51106834 0.47913396
-0.83250487 -0.78212345 -0.8337635 0.41539538 -0.0839771 0.12941098 0.09052956 0.7114197
-0.82841647 0.17758858 0.72769785 0.14449823 -0.09652233 0.7945844 -0.36015546 -0.39251697
-0.7151885 -0.71657634 0.48813915 -0.16598248 -0.16675758 -0.5408602 -0.65641093 -0.42573965
0.8399136 -0.8156632 0.24636579 0.28374863 -0.31586707 -0.13420868 -0.6403419 -0.07542348
0.5389395 -0.28003943 -0.37043333 -0.0153564215 -0.6607857 0.71463037 -0.78154755 -0.4091097
0.27121913 -0.46538186 -0.33119082 0.44676387 0.8245965 -0.13578558 0.86106336 0.32309937

reservoir.weight_hh_l0 f4 [117, 117]
00000000: 05ac 483c 328a 02bd 26f0 be3d a811 ab3d
00000010: cc0b 373d ba72 9abc b4d8 e83b 93eb a4bd
00000020: 29ee dd3d 0407 9e3c 592e d33d 53be 96bc
00000030: 2449 ecbd b6aa e7bd 59c6 5dbd fec6 42bd
00000040: b23b c03d 478c f13c b063 a1b9 bd98 b0bd
00000050: d489 613c e0b6 1e3c cf9c d93d 5b3f 52bd
00000060: 66dd c5bd 5614 7f3d 3630 cebd 00f5 65bd
00000070: 1e9e ad3d 5b32 e3bd 5506 c7bd 042f 93bc
00000080: 76f8 df3c b51a 2fbd ad60 2fbd ae50 eabd
00000090: 2980 e2bd 8a86 183d 53b6 0abd acd6 71bb
000000a0: 0113 a03c 75da 9c3d 902e 0b3d 7053 afbc
000000b0: 2ffb f43d 13ae d1bc 0366 3c3a 5235 81bd
000000c0: 8aa2 eb3d b34e 58bd 91bd 843d 258b b43d
000000d0: 6776 103d 3ccd 01bd d1a7 3fbd e2a5 98bd
000000e0: faf3 30bd d741 b6bd 7d85 f73d 72ee 4bbd
000000f0: 6b1e 35bd abc4 e93c dfd0 09bc 20cc 98bd
00000100: 9e8e c5bd d32b 3cbd c51f 3b3d 069e b73b
00000110: efc0 9b3a 965e c63d 2b81 e5bc 12ee c4bd
00000120: 0b13 1f3d da05 c53d f3db bebd 2186 cfbd
00000130: d690 a73c 31ce ae3d 8659 54bc 9467 683d
00000140: bce0 89bd d40e c1bd daee e83d c3e6 933d
00000150: 1404 9e3d ad6c 6dbd 8f85 ae3d cc2c fa3d
00000160: 6c79 ddbd e539 d237 6a9c 823c cdf0 d5bd
00000170: 93d8 c9bb 71fe 823d 666a f7bd 590f 273d
00000180: 181e d7bb 7bf1 d3bd 4516 7d3d 7ce9 8f3d
00000190: cf16 93bd 7f29 ca3c 0bc9 853c 36d0 1ebd
000001a0: 2209 98bc 9c67 a8bd cfdf f8bd 70fa 803c
000001b0: b8fd 0cbd 8030 a23c 3cea 7cbd 2296 77ba
000001c0: 9980 a53d eae9 f03d c584 f23c 53a3 9b3d
000001d0: 7363 22bc 2681 723d ac23 ec3d 2b1a ed3d
000001e0: ff98 b3bd 3e06 8e3d 2972 373c e7b8 e3bd
000001f0: fa85 c2bd 1280 b7bd 3be4 0e3d 005d c7bd
00000200: 37f3 ef3d a792 803c 449d c8bd f823 423d
00000210: c22e 8ebc 219f b83d 85b1 843d c651 d2bd
00000220: a12b e63d cee8 933c 04a9 bb3d 0d0f d33d
00000230: 146c 59bd 2b5b fcbd 6265 d53c a7e9 f73b
00000240: 3a55 49bc 9702 05bd bf0f 8b3d 3197 b43b
00000250: 2703 793b 1774 f3bd ecb4 6fbd f3c4 ae3d
00000260: 8554 893c 27b2 013d f84a 8a3d 59ed 1e3d
00000270: c98c 673d ab99 673d aa06 d93c a684 813c
00000280: 181c cd3c 75f9 273d b68c 8b3b 12c3 adbd
00000290: 9ab4 c03d ca39 a43d 46f2 5f3d 3108 f33d
000002a0: 21a9 f0bc b44e 73bc d0bf e23c ab67 423c
000002b0: 779b 87bd 52af a2bd 2d03 f9bd 90f4 9a3d
000002c0: 37de e23d 2523 323d dc1a 0f3d 0aae aabd
000002d0: 8034 ecbd 15dd 85bd 0fbd 253d 80ef 803d
000002e0: dc15 56bd 1752 b93d e24d f13d 1a48 243d
000002f0: c6c7 c2bd d92f f5bc 2371 82bd 2ee6 32bd
00000300: 17ad df3d 3bf0 eebc 11d9 05bc 183a 3d3b
00000310: f61f 943d 013f de3d 46ae c1bd 07de 6e3d
00000320: be7d a2bd 33c3 3ebc 24db c53b 315a d5bd
00000330: 7aa7 613d 2c08 babc a40b 9fbd 93fe f8bd
00000340: a05b 4c3c 8096 2b3d e2e5 483d 1335 da3d
00000350: fb21 aa3d 6ce1 053d 997e 1dbd 1dc5 b43d
00000360: 111c d0bd a28f 603b 1c44 533c bc00 2dbd
00000370: 361a 46bd a6b8 b53d a6f9 553d f407 f3bd
00000380: ca12 b73d fa9f d6bc 23c9 b9bd 0ae6 ab3d
00000390: b7f2 9f3d a7b4 483d 9c59 0d3d 7ee6 c9bc
000003a0: 3adb eabd 3117 14bd ad49 ccbd d0bd f2bd
000003b0: 97a1 bb3d 4438 133c e03f e6bb bfd4 ebbd
000003c0: 4509 36bd 4584 c4bd 426d 883d 2616 613d
000003d0: c119 b1bd 9326 88bc faa0 82bd c13e b8bd
000003e0: 4040 0cbd b8bb d9bd e84f 96bd a59b 633d
000003f0: 7993 04bd a8d6 2bbc 6b53 cb3d cc6a 96bd
0.012248044 -0.031870075 0.093231484 0.08352977 0.044688985 -0.018853534 0.007105911 -0.08052745
0.10836441 0.019290455 0.103115745 -0.0184013 -0.11537388 -0.113118574 -0.054144237 -0.047553055
0.09386386 0.029485835 -0.00030782586 -0.086228825 0.013765771 0.0096871555 0.10625612 -0.05132995
-0.09661369 0.062275253 -0.10067789 -0.056141853 0.08477424 -0.11093589 -0.097180046 -0.017966755
0.027340155 -0.04275008 -0.042816807 -0.1144117 -0.11059601 0.03723768 -0.033865284 -0.0036901636
0.019540312 0.07658855 0.033979952 -0.02140209 0.11961972 -0.0255957 0.0007186832 -0.06308998
0.11505611 -0.05280943 0.064814694 0.08815602 0.035269167 -0.031689867 -0.0467909 -0.07453515
-0.043201424 -0.08899277 0.12086008 -0.049787946 -0.044218462 0.028536161 -0.008411615 -0.07460809
-0.09646343 -0.04594023 0.045684595 0.0056035547 0.001188306 0.096860096 -0.028015694 -0.09615721
0.03883652 0.09620257 -0.09319296 -0.10133005 0.020454805 0.08535422 -0.012960797 0.056739405
-0.06732318 -0.09426656 0.11373682 0.07221749 0.077156216 -0.05796497 0.08521568 0.122155756
-0.10814175 2.506091e-05 0.015943725 -0.1044632 -0.006159851 0.06396187 -0.12080841 0.04078612
-0.0065648668 -0.10348793 0.061788816 0.070269555 -0.07182085 0.02467799 0.016331216 -0.038772784
-0.018559042 -0.08222887 -0.12152063 0.015744418 -0.034421653 0.019798517 -0.06174682 -0.0009444674
0.08081169 0.117633656 0.029604325 0.07599511 -0.009911406 0.059205197 0.11530241 0.11577257
-0.08769416 0.06934784 0.0111966515 -0.11119252 -0.0949821 -0.08959974 0.034885626 -0.09734535
0.117163114 0.01569493 -0.09795621 0.047397584 -0.01735628 0.090147264 0.06479172 -0.10269503
0.1123879 0.018055346 0.091630965 0.10305605 -0.053081587 -0.123220764 0.02604932 0.0075656953
-0.012288386 -0.032473173 0.06790113 0.0055111875 0.0037996264 -0.11887377 -0.05852215 0.08533659
0.016763935 0.03166404 0.067525804 0.03880057 0.056530748 0.056543034 0.026492435 0.015810322
0.02503781 0.041009385 0.0042587174 -0.08484472 0.09409447 0.08018835 0.05467441 0.11866797
-0.029377522 -0.014850307 0.027679354 0.011865537 -0.066214494 -0.07943596 -0.12158809 0.07566178
0.1107754 0.043490548 0.034937724 -0.083339766 -0.11533451 -0.06536309 0.040463503 0.06295681
-0.05226694 0.090488605 0.11782433 0.040107824 -0.0951076 -0.029930042 -0.06369235 -0.043676548
0.10921686 -0.029167285 -0.008169428 0.0028873738 0.072326586 0.10851861 -0.09457068 0.05831721
-0.0793414 -0.011643219 0.0060380865 -0.10417593 0.05509136 -0.022708975 -0.07765892 -0.12157931
0.012473017 0.041891575 0.04904736 0.10654654 0.083072625 0.032685682 -0.03845081 0.08826659
-0.10161603 0.00342653 0.0128946565 -0.04223703 -0.04836484 0.088731095 0.052240036 -0.11866751
0.089391306 -0.02619933 -0.09071567 0.08393486 0.07809966 0.04900041 0.034509286 -0.02464604
-0.114675954 -0.03615493 -0.0997499 -0.1185261 0.0916168 0.008985583 -0.0070266575 -0.115151875
-0.044442434 -0.09595541 0.06661464 0.054952763 -0.0864749 -0.016619956 -0.0637836 -0.08996344
-0.03424096 -0.10631508 -0.0733946 0.055568356 -0.032367203 -0.01048819 0.0992802 -0.07344589

reservoir.bias_ih_l0 f4 [117]
00000000: f08c ee3d 7c9e 8f3e b844 f5be e0cf 75be
00000010: 7cd2 31bf d861 213e b4f7 dd3e d897 bc3e
00000020: 8e2b 363f ae28 593f 2c5b 8bbe 009a 5b3e
00000030: 28e4 d4be b6b3 143f 5ce6 7cbf 5e3d 633f
00000040: e0ae 83bd f4f9 25bf 007a d8be 2ce7 463f
00000050: a007 81bd f4b1 573f d690 1cbf c02c 8ebc
00000060: 0881 0a3f 504b 2bbe f8db 6d3f f669 2dbf
00000070: 32e9 583f 98d5 53be 248e 83be 58d0 183e
00000080: 40d0 083f 805e 913d 0868 93be d299 49bf
00000090: 20ae 17be 8469 ef3e 7e6b 10bf ae0e 0bbf
000000a0: e8b1 33be 241c d43e 1a85 523f 2052 a93e
000000b0: 7253 3d3f 1683 5abf 182e a33e c855 70bf
000000c0: 2429 c03e 64c3 d73e deac 5a3f 7666 7fbf
000000d0: 1849 63bf e0f9 bd3e a886 0ebf 5c74 3dbf
000000e0: d8ee 653e 487b 163e 9e01 72bf 00b3 99bd
000000f0: 486a 2dbf 6844 373f 22d2 463f de2b 26bf
00000100: 6c99 d13e 800b f93c 00dc 823e 3812 553f
00000110: 96c3 12bf 0074 8e3b 2ccd 8a3e 1ac7 5a3f
00000120: 60da ac3e 0012 88bc 828b 203f 18b3 123f
00000130: fced 823e c097 75be b00f 383f 3456 ecbe
00000140: 44f5 09bf 14e1 df3e a07a e6bd 6e1c 3c3f
00000150: 7c94 933e 3676 4f3f 8461 ef3e 40c5 5f3e
00000160: d099 883d e054 f53e 50ed 1a3e 8862 f0be
00000170: 7c82 36bf 0853 31bf 1645 323f a0c0 44bd
00000180: 4e49 733f 9471 d0be 9000 4dbf 8025 c43e
00000190: 505f bdbd 6c1e 02bf 0011 553d 384d 9d3e
000001a0: 8889 183f 343e b0be d4fb 96be e4ca 2f3f
000001b0: a059 023d 145d be3e 8091 59bc 00dd 5bbc
000001c0: 9056 1a3e 18b6 043e 440f 63bf e24c 773f
000001d0: 2424 30bf
0.116479754 0.280506 -0.4790399 -0.2400508 -0.694618 0.1575998 0.43353045 0.36834598
0.7116021 0.848277 -0.27217996 0.21445465 -0.4158032 0.5808672 -0.98789 0.88765514
-0.06429839 -0.64834523 -0.4228058 0.7769649 -0.063002825 0.8425591 -0.611585 -0.017355323
0.54103136 -0.16727948 0.9291377 -0.6773981 0.8473083 -0.20686948 -0.25694382 0.14923227
0.53442764 0.070981026 -0.28790307 -0.78750336 -0.14812517 0.4676019 -0.5641402 -0.54319274
-0.17548335 0.4142772 0.82234347 0.3307047 0.7395545 -0.8535627 0.31871104 -0.9388089
0.37531388 0.4214126 0.85420024 -0.9976572 -0.8878341 0.37104702 -0.5567422 -0.74005675
0.22454393 0.14695466 -0.9453372 -0.07504845 -0.677403 0.71588755 0.7766439 -0.64910686
0.40937364 0.030400991 0.25558472 0.83230925 -0.5732969 0.0043473244 0.2710966 0.85460055
0.33760357 -0.016610146 0.6271287 0.57304525 0.25572193 -0.2398367 0.7189894 -0.46159518
-0.5388987 0.43726408 -0.112538576 0.7348088 0.28824222 0.8103975 0.46754086 0.21852589
0.066699624 0.47916317 0.1512959 -0.46950173 -0.71292853 -0.6926732 0.69636667 -0.048035264
0.9503373 -0.40711653 -0.80078983 0.3830986 -0.09246695 -0.5082767 0.052018166 0.30722976
0.59584856 -0.34422457 -0.29489005 0.6866896 0.031823754 0.37180388 -0.013279319 -0.01341939
0.15072083 0.12960088 -0.8869517 0.9660169 -0.68805146

readout.bias f4 [24]
00000000: 0c07 b8be 0823 aebe 16e9 c7be 7533 d3be
00000010: 8160 e3be ad6c cfbe 5fef c8be 6e1a 8ebe
00000020: b660 08bf 5506 e6be 7152 0dbf 8ed6 16bf
00000030: e9da 08bf d64e 08bf 7905 25bf 80fc 0cbf
00000040: 034a c8be 446e 6bbe 76ec 1c3d 3acd 80be
00000050: 63b5 b9be 78a9 c4bd f7d5 4abe 6619 82be
-0.35942876 -0.34011102 -0.39045018 -0.41250196 -0.44409564 -0.405126 -0.39245126 -0.2775454
-0.5327257 -0.44926706 -0.5520392 -0.58921134 -0.5345903 -0.53245294 -0.64461476 -0.55072784
-0.39118966 -0.22991282 0.038311444 -0.25156575 -0.362712 -0.09602636 -0.19808184 -0.25410002

h_final f4 [1, 1, 117]
00000000: 0797 3e3f a377 133f 30da 5fbf b42d ddbe
00000010: d5d1 033f 30ab 603f b9c2 31bf 4baf 593f
00000020: 07ab 323e 52cc 093e e119 c63e 8f8a 6fbe
00000030: deb8 c73e 6dc4 c93e a8dc 5bbf 66f4 503f
00000040: d25d efbe 2658 66bf 5d7c babe be56 d73e
00000050: 37a0 123e ccf4 743f 4e85 76bf 0077 7d3e
00000060: 3435 17be 4079 513f 385b 923e 9d00 453f
00000070: 4098 123f fa65 51bf f67b 56be 18f5 483f
00000080: 4b75 503f f404 673d 6c00 213e 95d5 6bbf
00000090: dc43 78bd 7a55 553f aa56 0dbe b9fa e8bd
000000a0: 1114 13bf 9975 cb3e 373a 8e3d 5816 5d3e
000000b0: a768 dfbe ce7f 65bf 634e 36be 263a 84be
000000c0: cd52 f73d 5728 1c3f fdab b53b 5477 98be
000000d0: ae40 5ebf ec89 64bf 41a0 37bf 3c6c b2bd
000000e0: 6e18 523f 34ee 5ebd 5779 1abf d96c 84be
000000f0: 29a5 e0bd f885 fcbc e010 183d eea8 3a3f
00000100: 9eca 67bf 60c9 62bf 8ff3 0e3f 8e44 783f
00000110: 984f b3bd 447f ebbe feee b8be 1ad3 8ebd
00000120: 645a 57bf 6000 cebb ebff 043f c227 403d
00000130: 642b fc3e e835 58bf 2055 203f a5c4 f1be
00000140: 16a2 8cbe 2024 033f b7cf 0bbf 9a9d 773f
00000150: db68 5f3f bf7a 603f 2a2e a0be be78 653f
00000160: 44c4 0dbd 880e 2a3f 0886 f0bc ea42 52bf
00000170: 6a04 9cbe ca8a 2e3f f292 723f 2ccb f3be
00000180: 5e46 163f e09e 57bf ba8d 6bbe b9d2 1a3e
00000190: 0ac4 f2be 2c0b 13bf b705 073f c080 713f
000001a0: 7927 16be 0a21 e4be 12c5 38be f841 293f
000001b0: 8498 64bf 5e70 583f 7a43 6cbf 202b 89bc
000001c0: 7c08 edbd cf21 c2bd 6a12 71bf 6861 86be
000001d0: 9faa 38bf
0.744492 0.57604426 -0.874423 -0.4319893 0.51492053 0.8776121 -0.6943775 0.850331
0.17448054 0.13456848 0.3869162 -0.233927 0.3900823 0.39407673 -0.8588357 0.8162292
-0.46751267 -0.89978254 -0.36423007 0.42058367 0.1431893 0.9568603 -0.96297157 0.24752426
-0.14766389 0.8182564 0.2858522 0.7695406 0.57263565 -0.8179623 -0.20945725 0.78498983
0.81428975 0.056401208 0.15722817 -0.92122775 -0.06061159 0.8333355 -0.13802591 -0.113759466
-0.57452494 0.39738157 0.06944697 0.21590555 -0.4363453 -0.8964814 -0.1780334 -0.25825614
0.1207634 0.60999054 0.0055441842 -0.2977854 -0.86817443 -0.8927295 -0.71728903 -0.0871205
0.82068527 -0.054426387 -0.603414 -0.25864294 -0.10969002 -0.0308256 0.03712547 0.72914016
-0.90543544 -0.88588524 0.5584039 0.96979606 -0.08755416 -0.45995533 -0.36119837 -0.06973858
-0.841223 -0.006286666 0.51953 0.046912916 0.49251854 -0.84457254 0.6262989 -0.4722034
-0.27467412 0.51227 -0.5461382 0.96724856 0.8726937 0.87687296 -0.3128522 0.8963736
-0.034611 0.6642842 -0.029360786 -0.8213335 -0.30472118 0.68180525 0.9475547 -0.47615945
0.5870112 -0.842268 -0.23003283 0.15119447 -0.4741519 -0.5743892 0.52743095 0.9433708
-0.14663495 -0.44556457 -0.18043926 0.66116285 -0.8929522 0.8454646 -0.9229046 -0.016744196
-0.11573884 -0.09479105 -0.9416872 -0.2624619 -0.7213535
