SECO/Treinamento/ESN/conf_1/modelo_seed_42_loss_0.007895.pt (torch, 104896 bytes, 5 tensors)

reservoir.weight_ih_l0 f4 [117, 74]
0.7645385 0.8300079 -0.23427248 0.9186113 -0.21910357 0.20179069 -0.48685503 0.58728266
0.8815429 -0.73362815 0.8691962 0.1871593 0.7388089 0.13543057 0.4821881 -0.141191
0.7708858 0.14780891 -0.4668399 0.2548983 -0.46073663 -0.117272854 -0.40615833 0.66337097
-0.7893702 -0.46101034 -0.28237474 -0.60127246 0.09438312 -0.9876791 0.9031091 -0.84946823
0.7720274 0.16641915 -0.32470453 0.61794996 0.15585077 0.8079634 0.10931969 -0.31537318
0.26868367 -0.27117944 0.42085755 0.89282215 0.57805955 -0.43717253 0.57726467 0.17892623
0.50783503 -0.60950506 -0.98990846 -0.38636053 -0.76702285 0.8205389 0.28803134 0.41421354
0.31626117 -0.017395973 0.7826083 -0.7105136 0.062963724 -0.6825402 0.308352 -0.3443823
0.30641627 -0.20834148 0.82939184 -0.5927019 -0.596398 -0.596434 0.8994428 0.33325112
0.9622507 -0.82527626 -0.9918761 -0.7823638 -0.6726891 0.40504014 0.35807586 0.8309244
-0.5164254 -0.6817118 0.53057814 -0.4042045 0.6069238 -0.23730063 0.5720459 -0.776968
-0.50464976 0.30487645 0.21140754 -0.25495875 0.59606946 0.6798092 -0.72517335 -0.5338682
0.91566193 -0.3374325 -0.3545164 -0.9675946 -0.5726702 0.24980366 -0.13199317 -0.725886
0.023456693 -0.6830815 -0.84839666 -0.55066264 -0.8752121 -0.63673806 0.9996089 0.18887496
0.3081597 -0.9326843 -0.6567738 -0.33285582 0.15637112 -0.8799213 -0.43087304 -0.5986686
0.0027712584 -0.3721032 -0.069295764 -0.6776297 -0.68639517 -0.5834018 -0.34229743 -0.7892809
0.83846986 -0.19846404 0.86039674 0.3115821 -0.846797 0.6920352 -0.27514482 -0.38332605
-0.8300705 -0.99416065 0.28611064 -0.21844387 0.38932312 -0.82066345 0.74242914 -0.73405373
-0.17267334 0.2088697 0.5162518 0.80731034 0.91095924 -0.79292214 0.25166726 -0.43012595
-0.10958481 -0.7484901 0.91085863 -0.7339505 0.53445125 0.3514396 0.32495594 -0.5406462
0.9089515 0.2197504 0.12864006 -0.8812548 0.41978848 -0.1500206 -0.45812428 0.85894656
0.22294879 -0.5532764 -0.5061389 -0.04775572 0.5583613 -0.2555338 -0.5705749 -0.34244287
-0.74707484 0.35663247 0.7740402 -0.94144034 0.23225069 0.5165918 0.18132937 -0.35612464
0.52194214 0.5255132 0.37392724 -0.1757214 -0.26480126 0.10698092 -0.1766541 -0.29800105
0.6392069 0.85939956 -0.098997355 -0.22389686 0.01459229 -0.059708238 0.24041128 0.28023362
-0.90825677 -0.36903775 0.84212947 0.38955498 -0.049737573 -0.60290575 -0.6118051 -0.89576685
-0.32596242 0.33770418 0.63762164 0.46169734 -0.88394403 -0.60136247 -0.15781665 0.9673495
0.1446575 -0.25897074 0.41371524 -0.38088155 -0.64725566 0.72988725 -0.45470178 -0.20046675
-0.99480426 0.66927063 0.75763464 0.3644482 -0.6972742 -0.9869399 -0.81217897 0.74570024
0.48010576 0.84150445 0.5238699 0.25309217 -0.0097926855 -0.76050603 -0.8567722 -0.93534863
0.40936196 -0.490968 -0.20125258 -0.57550526 -0.18222356 -0.7038349 -0.6534157 0.33171082
-0.2971964 0.6173432 -0.32080877 -0.73356724 -0.17643893 -0.4847474 -0.30594158 -0.9519956
00000000: ccb8 433f 667b 543f 20e5 6fbe 1c2a 6b3f
00000010: b05c 60be 38a2 4e3e 1045 f9be 2858 163f
00000020: ccac 613f 0ecf 3bbf a483 5e3f b0a6 3f3e
00000030: 9422 3d3f 50ae 0a3e 5ce1 f63e 6094 10be
00000040: c658 453f 385b 173e a405 efbe 0882 823e
00000050: ace5 ebbe c02c f0bd fcf3 cfbe aed2 293f
00000060: 2a14 4abf 8c09 ecbe 6c93 90be feec 19bf
00000070: f04b c13d 8ad8 7cbf 2832 673f c076 59bf
00000080: 96a3 453f c869 2a3e ac3f a6be f831 1e3f
00000090: 5897 1f3e b0d6 4e3f 00e3 df3d 9878 a1be
000000a0: e890 893e 08d8 8abe a47a d73e fe8f 643f
000000b0: b6fb 133f 14d5 dfbe 9ec7 133f 7038 373e
000000c0: 7a01 023f 8608 1cbf a46a 7dbf 0cd1 c5be
000000d0: 9c5b 44bf d60e 523f d878 933e cc13 d43e
000000e0: fcec a13e 0082 8ebc 0459 483f 38e4 35bf
000000f0: 20f3 803d f4ba 2ebf 50e0 9d3e e052 b0be
00000100: 98e2 9c3e 7857 55be 0653 543f 50bb 17bf
00000110: 8aad 18bf e6af 18bf e241 663f e49f aa3e
00000120: 1056 763f 4e45 53bf 98eb 7dbf fe48 48bf
00000130: 5a35 2cbf 6c61 cf3e b855 b73e 76b7 543f
00000140: 7434 04bf aa84 2ebf f8d3 073f e4f3 cebe
00000150: 5c5f 1b3f f0fe 72be 9a71 123f 60e7 46bf
00000160: ba30 01bf c418 9c3e 387b 583e f489 82be
00000170: 0298 183f fa07 2e3f f6a4 39bf 96ab 08bf
00000180: d268 6a3f f4c3 acbe 2c83 b5be 48b4 77bf
00000190: 849a 12bf 88cc 7f3e 3829 07be aad3 39bf
000001a0: 4028 c03c 6ede 2ebf 8630 59bf 3af8 0cbf
000001b0: e60d 60bf 4401 23bf 5ee6 7f3f 7068 413e
000001c0: 1cc7 9d3e 66c4 6ebf 5422 28bf 146c aabe
000001d0: c01f 203e 8642 61bf 649b dcbe 5842 19bf
000001e0: 009e 353b 5084 bebe f0ea 8dbd 2479 2dbf
000001f0: 98b7 2fbf d259 15bf 9c41 afbe 500e 4abf
00000200: f6a5 563f 283a 4bbe f642 5c3f b087 9f3e
00000210: b0c7 58bf 3829 313f c8df 8cbe 5043 c4be
00000220: 807f 54bf 5081 7ebf 187d 923e c0af 5fbe
00000230: 5c55 c73e 0017 52bf d60f 3e3f f2ea 3bbf
00000240: 48d1 30be f0e1 553e 1429 043f e4ab 4e3f
00000250: a034 693f f2fc 4abf 88da 803e 7839 dcbe
00000260: 006e e0bd 0c9d 3fbf 082e 693f 2ee4 3bbf
00000270: ccd1 083f e4ef b33e a060 a63e ca67 0abf
00000280: 0cb1 683f 4006 613e 38ba 033e ea99 61bf
00000290: 84ee d63e 009f 19be 448f eabe ece3 5b3f
000002a0: b04c 643e 86a3 0dbf 5292 01bf 809b 43bd
000002b0: c4f0 0e3f 54d5 82be 3211 12bf ac54 afbe
000002c0: 4c40 3fbf 8898 b63e 8027 463f 3c02 71bf
000002d0: 20d3 6d3e 5c3f 043f 68ae 393e f855 b6be
000002e0: 009e 053f 0888 063f 6473 bf3e 50f0 33be
000002f0: 0894 87be d018 db3d d0e4 34be 9893 98be
00000300: 10a3 233f 9c01 5c3f 20bf cabd 3845 65be
00000310: 8014 6f3c a090 74bd 602e 763e c87a 8f3e
00000320: 8483 68bf 84f2 bcbe cc95 573f c073 c73e
00000330: a0b9 4bbd 0858 1abf 429f 1cbf fa50 65bf
00000340: 8ce4 a6be 90e7 ac3e 2c3b 233f 9863 ec3e
00000350: 284a 62bf e4f2 19bf b09a 21be 38a4 773f
00000360: 1821 143e d097 84be 7cd2 d33e e802 c3be
00000370: 8cb2 25bf e4d9 3a3f acce e8be 2847 4dbe
00000380: 7eab 7ebf 5255 2b3f 58f4 413f f498 ba3e
00000390: 9080 32bf 18a8 7cbf f6ea 4fbf 36e6 3e3f
000003a0: 6cd0 f53e d66c 573f 561c 063f 4c95 813e
000003b0: 8071 20bc 86b0 42bf 6c55 5bbf 0273 6fbf
000003c0: e497 d13e 2860 fbbe 2815 4ebe 5054 13bf
000003d0: d098 3abe 862e 34bf 4046 27bf 00d6 a93e
000003e0: 202a 98be 340a 1e3f 0c41 a4be 10cb 3bbf
000003f0: 68ac 34be d030 f8be 60a4 9cbe fcb5 73bf

reservoir.weight_hh_l0 f4 [117, 117]
-0.004267479 -0.117391385 0.06676137 -0.09433782 0.08492766 0.124333225 0.02589174 -0.061149698
0.08866957 -0.08236405 0.0059483927 0.07876986 0.11778176 0.009205876 -0.009535322 -0.010902111
-0.121806115 0.022325134 -0.09972085 0.011293831 -0.02985351 0.079889625 -0.050304543 0.08929345
-0.02993753 -0.024298979 -0.114372574 0.10918703 0.010866781 -0.113230005 0.007065502 0.05145625
-0.026549313 0.102524705 0.061446313 -0.016103743 0.12560472 0.0886046 -0.0154104335 -0.010852388
0.03855748 -0.043778807 0.077341385 -0.120873295 -0.06730832 0.05758911 -0.12058095 -0.041626677
-0.06680284 0.06806013 0.0063168383 -0.08923185 0.10124116 -0.057293124 -0.013860746 0.042392235
-0.08377284 -0.011587783 -0.042324267 -0.02979952 -0.04557311 0.080418184 -0.06173778 -0.084787704
0.054270748 0.04070551 0.0013118688 0.010352789 0.123311125 -0.04203021 -0.112118855 -0.123744965
0.032571062 0.048966825 0.0017753879 -0.104410484 -0.09813856 -0.08560547 0.08088153 0.024620563
-0.069974534 -0.11881411 0.07217789 0.0013500148 0.12488285 -0.10293682 -0.10190205 0.021676125
0.08420567 0.08298918 0.12490774 0.079984084 0.056117754 -0.077248015 0.12380824 -0.055601697
0.08079155 0.051685184 -0.074468054 -0.011223575 -0.010461237 0.09486543 0.096136935 0.026937304
-0.07139754 0.03578164 0.102934785 -0.06657471 0.10068786 0.02839042 0.069496244 0.043095157
0.07931646 -0.106889114 0.051887717 -0.10894934 -0.008573119 0.0982493 -0.10302914 -0.09556335
-0.055063516 0.0047269543 -0.017369691 -0.09861601 0.01636994 -0.031560455 -0.05867715 0.001371327
0.042665623 0.020155884 -0.08328418 0.08516564 0.023703903 -0.05144268 0.1087487 0.025325764
0.06533209 0.08883249 -0.002238937 0.1035406 -0.0005604943 0.10050932 0.015238918 0.057809945
0.06326778 -0.06962954 0.109791346 0.003809681 0.0461756 -0.092696175 -0.0468959 0.0818979
-0.079289004 0.017405815 0.11032048 -0.11933149 -0.0013876817 0.020415463 0.08234276 -0.042212572
-0.122785196 -0.077758536 0.037706494 -0.09251927 -0.107546926 -0.0031698542 0.032964326 -0.07878128
-0.04879748 0.06872284 -0.08494553 -0.10334136 -0.03797106 0.100945644 -0.036834363 -0.085163034
-0.08912765 -0.02952679 0.08923385 0.04722151 -0.041947976 -0.10899146 -0.076237276 0.026531566
0.10564134 0.06470236 -0.016058931 0.06664402 0.009047691 0.017265199 0.05857583 -0.030926064
0.036601502 0.011201918 0.03832946 -0.026873952 0.0812138 -0.11317979 0.08344663 -0.103660755
-0.084528275 -0.07725163 -0.01213005 -0.01245391 -0.12216922 0.06666378 0.030908197 0.122754455
-0.08965899 -0.10102683 0.03018926 0.09678669 0.083875984 0.050964214 0.021129485 0.06262472
-0.05000102 -0.12531082 -0.10459314 -0.08034733 0.02805473 0.11248456 0.08107897 -0.08200307
0.035033725 0.111135244 0.003088994 -0.02340766 -0.06805908 -0.009129899 0.094541445 -0.035474177
-0.018973086 0.060957365 -0.048161443 -0.058041368 0.021217624 0.09096377 0.0134013165 -0.0050598597
-0.09980216 0.07502085 0.00573331 -0.055303775 -0.110533684 -0.059607934 -0.0882928 0.025727069
0.09206188 -0.024834478 0.07647063 -0.026698649 -0.059793647 -0.114975795 -0.08419023 0.094312124
00000000: 35d6 8bbb e56a f0bd 2fba 883d 3034 c1bd
00000010: 8eee ad3d 6ba2 fe3d ea1a d43c 1b78 7abd
00000020: 6498 b53d 7cae a8bd bcea c23b 1852 a13d
00000030: 9037 f13d 3ed4 163c 0a3a 1cbc c59e 32bc
00000040: 7c75 f9bd 33e3 b63c 723a ccbd c309 393c
00000050: 598f f4bc 2c9d a33d 230c 4ebd 7cdf b63d
00000060: 8d3f f5bc a70e c7bc 2b3c eabd 739d df3d
00000070: 950a 323c 22e5 e7bd ba85 e73b cac3 523d
00000080: f27d d9bc 79f8 d13d 21af 7b3d ffeb 83bc
00000090: 869e 003e 5476 b53d 0b7c 7cbc 37ce 31bc
000000a0: 73ee 1d3d 6851 33bd 2965 9e3d 6b8c f7bd
000000b0: f2d8 89bd 8fe2 6b3d 25f3 f6bd bc80 2abd
000000c0: edcf 88bd 1c63 8b3d 7bfd ce3b 30bf b6bd
000000d0: 8657 cf3d 32ac 6abd 2f18 63bc 7ba3 2d3d
000000e0: 1891 abbd afda 3dbc 365c 2dbd 1f1e f4bc
000000f0: dfaa 3abd 4ab2 a43d c1e0 7cbd 2da5 adbd
00000100: 014b 5e3d d2ba 263d 03f3 ab3a bf9e 293c
00000110: 8b8a fc3d df27 2cbd 929e e5bd 006e fdbd
00000120: 3c69 053d 7091 483d 22b4 e83a 2ad5 d5bd
00000130: dffc c8bd ec51 afbd 37a5 a53d 10b1 c93c
00000140: cf4e 8fbd d054 f3bd 00d2 933d fbf2 b03a
00000150: 94c2 ff3d 8ad0 d2bd 06b2 d0bd 2192 b13c
00000160: 0674 ac3d 3bf6 a93d a1cf ff3d b2ce a33d
00000170: bbdb 653d 3534 9ebd 2d8f fd3d 9bbe 63bd
00000180: 0a76 a53d d8b3 533d b582 98bd 16e3 37bc
00000190: 9c65 2bbc ce48 c23d 71e3 c43d 9fab dc3c
000001a0: e038 92bd c58f 123d 79cf d23d 5258 88bd
000001b0: 7035 ce3d 0793 e83c 0c54 8e3d 8c84 303d
000001c0: ab70 a23d aee8 dabd 3788 543d d520 dfbd
000001d0: 4476 0cbc ee36 c93d f100 d3bd b8b6 c3bd
000001e0: 488a 61bd 91e4 9a3b e24a 8ebc 31f7 c9bd
000001f0: 411a 863c 8945 01bd 7457 70bd 19be b33a
00000200: 26c2 2e3d f41d a53c e590 aabd 536b ae3d
00000210: b02e c23c 8fb5 52bd a3b7 de3d fa77 cf3c
00000220: d5cc 853d cfed b53d 21bb 12bb 180d d43d
00000230: 23ee 12ba d5d7 cd3d a8ac 793c 1fca 6c3d
00000240: 8a92 813d ef99 8ebd 49da e03d d7ab 793b
00000250: a022 3d3d 7ed7 bdbd ea15 40bd 16ba a73d
00000260: 4662 a2bd a496 8e3c b4ef e13d 1164 f4bd
00000270: dfe2 b5ba 543e a73c 52a3 a83d 17e7 2cbd
00000280: ce76 fbbd de3f 9fbd 2072 1a3d be7a bdbd
00000290: 9041 dcbd 54bd 4fbb 9a05 073d 1458 a1bd
000002a0: dedf 47bd 8fbe 8c3d ecf7 adbd a3a4 d3bd
000002b0: 8b87 1bbd 97bc ce3d a1df 16bd f569 aebd
000002c0: 8f88 b6bd 2be2 f1bc 3dc0 b63d 586b 413d
000002d0: a4d1 2bbd ea36 dfbd 4a22 9cbd ba58 d93c
000002e0: 7d5a d83d ac82 843d 058e 83bc a97c 883d
000002f0: c43c 143c bf6f 8d3c 36ed 6f3d a858 fdbc
00000300: 75eb 153d 4088 373c 5aff 1c3d c326 dcbc
00000310: 6c53 a63d ceca e7bd 11e6 aa3d 174c d4bd
00000320: 291d adbd 1a36 9ebd 1ebd 46bc 7c0b 4cbc
00000330: db33 fabd 0587 883d 3033 fd3c b066 fb3d
00000340: 229f b7bd 28e7 cebd 784f f73c 1a38 c63d
00000350: 2cc7 ab3d dabf 503d be17 ad3c 6441 803d
00000360: dfcd 4cbd 7b51 00be ee34 d6bd 248d a4bd
00000370: 08d3 e53c 4e5e e63d bb0c a63d 3af1 a7bd
00000380: 867f 0f3d e09a e33d b870 4a3b 6cc1 bfbc
00000390: 8f62 8bbd 9295 15bc f29e c13d 5f4d 11bd
000003a0: 726d 9bbc 6eae 793d ef44 45bd c9bc 6dbd
000003b0: 95d0 ad3c 374b ba3d 3291 5b3c 2ecd a5bb
000003c0: 1365 ccbd 88a4 993d 7dde bb3b 3686 62bd
000003d0: 7c5f e2bd 7327 74bd dbd2 b4bd 93c1 d23c
000003e0: f08a bc3d ad71 cbbc a29c 9c3d 20b7 dabc
000003f0: 2fea 74bd 6e78 ebbd ed6b acbd b726 c13d

reservoir.bias_ih_l0 f4 [117]
0.5808693 0.4855014 0.67374146 0.91042936 -0.37481737 0.31193137 0.38723874 -0.7908186
-0.86527836 -0.22987413 0.44606876 0.7627237 -0.3926605 -0.41297698 -0.8865473 0.5999689
-0.4865147 0.3370881 0.3623016 -0.07736337 0.88547814 0.7073983 -0.17503083 -0.021803975
0.6584723 -0.58101106 -0.84534657 0.6293522 -0.52178276 0.09961951 0.07996249 0.72628117
0.14033425 0.10327065 0.20146906 -0.430102 -0.96289086 0.85428417 -0.8076016 -0.72565794
-0.24989235 0.6537323 -0.39978468 0.7726065 0.35034728 0.645718 -0.3707595 0.47084928
0.22280931 0.8868009 -0.45837128 0.8638513 -0.63418376 -0.6996666 0.934131 0.4885192
0.5741277 -0.49361837 0.83099365 -0.26646936 0.8433629 0.6465355 -0.86064863 -0.27782845
0.99459136 0.6397202 0.094778895 -0.09460926 0.38541746 -0.29762292 -0.30415022 -0.5077497
-0.043420196 -0.5269866 -0.53474295 0.7184776 0.6778966 -0.5011405 -0.17212033 -0.4865203
0.44930255 -0.6639836 -0.5282769 0.35655522 0.13355827 0.30026436 -0.124002576 0.9820733
-0.1595248 0.86241615 0.09477198 0.9393575 -0.6087339 0.6015339 -0.29526567 0.53909886
-0.8098916 0.6021224 -0.2907307 -0.42971742 -0.36790144 0.710534 -0.17101407 -0.12405431
0.91619027 0.74507666 0.091210246 -0.30073333 0.30622542 -0.2647977 0.8730037 0.3538339
0.66893375 0.53830063 -0.22917628 -0.8368931 -0.3119583
00000000: dab3 143f a493 f83e 527a 2c3f e611 693f
00000010: 10e8 bfbe 78b5 9f3e 2844 c63e 1673 4abf
00000020: e282 5dbf 2064 6bbe 2063 e43e dc41 433f
00000030: cc0a c9be b871 d3be c4f4 62bf 9097 193f
00000040: 7418 f9be d096 ac3e 987f b93e b070 9ebd
00000050: b2ae 623f 0e18 353f 483b 33be 409e b2bc
00000060: a491 283f 24bd 14bf a268 58bf 3a1d 213f
00000070: 8e93 05bf 5005 cc3d 60c3 a33d 90ed 393f
00000080: c8b3 0f3e 907f d33d e84d 4e3e 5436 dcbe
00000090: 0480 76bf 5eb2 5a3f fabe 4ebf b8c4 39bf
000000a0: c8e3 7fbe 005b 273f 94b0 ccbe 8ac9 453f
000000b0: b860 b33e c64d 253f 30d4 bdbe 2813 f13e
000000c0: 2028 643e 6205 633f a4af eabe 5c25 5d3f
000000d0: de59 22bf 5a1d 33bf 3623 6f3f 301f fa3e
000000e0: 08fa 123f 8cbb fcbe 00bc 543f ac6e 88be
000000f0: a2e6 573f 5a83 253f 7853 5cbf 883f 8ebe
00000100: 8a9d 7e3f b4c4 233f 701b c23d 80c2 c1bd
00000110: 7055 c53e 0862 98be 94b9 9bbe e2fb 01bf
00000120: 60d9 31bd 98e8 06bf eae4 08bf 26ee 373f
00000130: a28a 2d3f be4a 00bf 5040 30be 3019 f9be
00000140: fc0a e63e d4fa 29bf 283d 07bf 688e b63e
00000150: 80c3 083e 40bc 993e 10f5 fdbd 2869 7b3f
00000160: 785a 23be 4ec7 5c3f d017 c23d bc79 703f
00000170: fcd5 1bbf 20fe 193f 102d 97be 6202 0a3f
00000180: 0e55 4fbf b224 1a3f a8da 94be ec03 dcbe
00000190: 945d bcbe 8ee5 353f 501e 2fbe 3010 febd
000001a0: 728b 6a3f 58bd 3e3f 70cc ba3d b8f9 99be
000001b0: 94c9 9c3e 9093 87be 2c7d 5f3f b829 b53e
000001c0: 3e3f 2b3f 12ce 093f 30ad 6abe a03e 56bf
000001d0: 00b9 9fbe

readout.bias f4 [24]
0.104102455 0.41443855 0.15479223 0.023189554 -0.058979347 0.008520157 -0.23131903 -0.055278588
-0.37373775 -0.3970796 -0.45051202 -0.6277709 -0.6853305 -0.32423636 -0.5309202 -0.74707884
-1.2162867 -1.4102925 -1.2232254 -0.51815903 -0.08112022 -0.5124415 -0.51773614 -0.7253748
00000000: ab33 d53d 4a31 d43e db81 1e3e 05f8 bd3c
00000010: 5494 71bd 2198 0b3c e5de 6cbe cd6b 62bd
00000020: 8e5a bfbe 044e cbbe 83a9 e6be 98b5 20bf
00000030: d271 2fbf 4f02 a6be 63ea 07bf 8f40 3fbf
00000040: 48af 9bbf 7784 b4bf a692 9cbf 12a6 04bf
00000050: 5c22 a6bd 5e2f 03bf 5b8a 04bf 2ab2 39bf

h_final f4 [1, 1, 117]
0.65305185 -0.20423836 0.9261684 -0.121617585 0.29349193 -0.29453468 0.20283648 -0.49337038
-0.17829415 -0.90814006 -0.42787752 0.7170326 -0.06720784 -0.73128754 -0.85449654 0.7146038
-0.97383225 -0.5755284 0.94256973 -0.63297457 0.84772503 0.43315342 0.2716653 -0.59742045
-0.23064603 0.33666843 0.4386413 0.34368753 -0.46894187 -0.4390086 -0.8838216 0.0966654
-0.13667302 0.31344423 0.65192854 -0.11273683 -0.9803182 0.9730548 -0.3998396 0.75740373
-0.16823584 0.7069844 0.61309063 0.3926607 -0.8150816 0.7817055 0.3547818 -0.92977154
-0.8314729 0.90642715 0.6227747 0.7961558 0.22378512 0.194029 0.89970076 -0.5259283
0.56500626 -0.17135637 -0.3249153 -0.32764882 -0.7050555 0.39079726 -0.3269517 0.8726722
0.705992 0.508586 0.92370486 0.71627116 0.9485941 -0.3479882 0.7208308 -0.83131063
0.8612294 -0.87684476 -0.1318148 0.9313015 -0.52838033 0.088567615 -0.8403391 -0.6175979
0.9377577 0.6149737 -0.9004143 0.6757173 -0.7338735 0.028711647 -0.09533705 0.64461327
0.09698175 -0.72884715 -0.033060662 0.25691912 -0.886461 0.16404366 0.42069423 -0.43839827
-0.97560346 -0.5631916 -0.7132874 0.4477662 0.60863423 0.057801828 -0.09588198 -0.23388657
0.83461595 0.16643229 -0.22692813 0.55279684 -0.5046273 -0.12799543 0.70469415 0.6029794
0.20166376 -0.18055011 0.6095701 -0.9725555 0.5525664
00000000: 682e 273f dc23 51be 5f19 6d3f a412 f9bd
00000010: 9344 963e 40cd 96be 5eb4 4f3e 0b9b fcbe
00000020: be92 36be de7b 68bf c312 dbbe 738f 373f
00000030: 44a4 89bd a935 3bbf 49c0 5abf 46f0 363f
00000040: 124d 79bf d455 13bf 404c 713f 9f0a 22bf
00000050: 8204 593f 49c6 dd3e b717 8b3e 8cf0 18bf
00000060: 792e 6cbe ce5f ac3e 9895 e03e d0f7 af3e
00000070: 2619 f0be bcc5 e0be 2242 62bf 82f8 c53d
00000080: 03f4 0bbe c37b a03e cae4 263f 91e2 e6bd
00000090: 22f6 7abf 1f1a 793f c7b7 ccbe 36e5 413f
000000a0: 0446 2cbe eefc 343f 82f3 1c3f d30a c93e
000000b0: 30a9 50bf da1d 483f f6a5 b53e 8205 6ebf
000000c0: 68db 54bf 9c0b 683f 2a6e 1f3f ded0 4b3f
000000d0: ed27 653e 8aaf 463e ca52 663f 3da3 06bf
000000e0: 40a4 103f 0b78 2fbe 4c5b a6be 96c1 a7be
000000f0: 847e 34bf 9416 c83e 3766 a7be 7267 5f3f
00000100: e4bb 343f b132 023f ec77 6c3f 8c5d 373f
00000110: 10d7 723f 822b b2be 5e88 383f c6d0 54bf
00000120: 8879 5c3f e678 60bf 75fa 06be c669 6e3f
00000130: ef43 07bf f062 b53d 7720 57bf e51a 1ebf
00000140: e310 703f eb6e 1d3f 8d81 66bf cffb 2c3f
00000150: 22df 3bbf b034 eb3c 1240 c3bd 6005 253f
00000160: 5e9e c63d ba95 3abf 9e6a 07bd e78a 833e
00000170: 1cef 62bf 10fb 273e 3c65 d73e bd75 e0be
00000180: 26c1 79bf 532d 10bf 019a 36bf 9d41 e53e
00000190: 74cf 1b3f 9cc1 6c3d c65d c4bd f67f 6fbe
000001a0: 64a9 553f 3a6d 2a3e d95f 68be 1884 0d3f
000001b0: 412f 01bf 3c11 03be d666 343f dc5c 1a3f
000001c0: f280 4e3e 21e2 38be c90c 1c3f 66f9 78bf
000001d0: fe74 0d3f
