SECO/Treinamento/CONV/CONV_2_DENSO_1/conf_1/modelo_seed_03_loss_0.002720.pt (torch, 62865 bytes, 6 tensors)

conv1d_1.weight f4 [24, 74, 7]
-0.043562822 -0.034660574 -0.018819083 -0.07813409 -0.0024943869 -0.038654763 0.0238902 0.021415072
0.00829726 0.034082886 0.10226064 0.026317727 -0.030770216 -0.008658424 -0.039176684 -0.0035672626
-0.028506177 0.1468443 0.03052061 0.032940473 0.013032772 -0.025065651 0.039482657 -0.042873427
0.07480156 -0.027442016 -0.018212551 0.008761016 -0.033282176 -0.033849802 -0.021012692 0.1091156
-0.03169104 -0.039407358 -0.038080983 -0.021620983 -0.01154449 -0.04355747 0.051335696 0.0008452533
0.0072428365 -0.0062988307 -0.0049818596 -0.028584596 0.022509433 0.038889416 -0.030040791 -0.010581214
-0.006138309 0.040624846 0.022898372 -0.01774141 -0.08272342 0.038826205 0.02822705 0.010955127
-0.015761092 0.036559362 0.018824147 -0.2148159 0.031180631 0.003131544 -0.03249425 -0.01947473
-0.032906514 -0.03639121 -0.21514408 -0.031486936 0.023416534 0.019649906 0.009451383 0.03620299
-0.019930921 -0.13856184 0.02699831 0.015187553 0.0053234086 0.036740303 0.010013588 0.029562505
-0.14254339 -0.037861392 -0.03965772 0.0024871954 0.037286095 -0.038343534 0.017482722 -0.10670714
-0.029199272 -0.014982835 -0.017866613 0.012977733 -0.036842205 0.04344933 0.0105180275 0.015317098
-0.029680438 0.024247373 -0.010259134 -0.021860732 0.0074735074 0.010564821 0.0046530543 -0.015372032
0.0081700655 -0.01700056 -0.014875639 -0.016323717 -0.007848818 -0.03071117 0.01907865 0.022773447
-0.029194191 -0.033372924 -0.029259464 -0.088120826 0.036888856 0.038729273 -0.0061348467 0.04119935
0.0124457665 -0.043102983 -0.06091348 -0.021216404 -0.043826934 -0.020156937 0.011883294 -0.0009853318
-0.008204604 0.21183719 0.04017057 0.00047739522 0.022092272 -0.010590244 -0.0329612 0.008594591
0.42388746 0.025547797 -0.041340165 -0.0058182455 -0.042334422 0.00053827366 0.0019399809 0.011151174
-0.015077676 -0.006418492 0.010780788 -0.042559095 0.021610828 0.042472668 -0.11074963 0.042847198
0.0066703395 0.04347179 0.038477145 -0.037619136 0.033077374 0.033464976 0.011134819 -0.015944226
-0.035217736 0.0042046136 0.01222334 0.022095907 0.21339226 -0.042515386 0.020907098 -0.008796323
-0.0006488636 -0.0114002265 9.1068854e-05 0.13626334 -0.040577643 0.016205538 0.004832034 0.020287462
-0.022691486 0.03197476 0.17840044 -0.022065869 0.038470913 0.005654707 0.038790457 0.03993906
0.006890812 0.14845717 0.013760757 0.02821691 -0.040120978 0.0002763178 0.041974977 -0.031022886
0.09464178 0.004594737 0.015886888 0.023599928 0.0024790298 0.010364843 -0.019910013 0.1461796
-0.028954092 0.028572926 0.023851361 0.038373053 0.03899847 -0.014580581 0.120649815 -0.032065082
0.030640598 -0.027046409 -0.029864442 -0.029735481 0.042747837 0.10258064 -0.030619867 -0.0329617
0.004543627 -0.009476912 0.011446528 0.027652154 -0.028581966 -0.039902207 0.0045269295 0.029293494
0.026745353 -0.00063000247 -0.011720191 -0.13488081 0.030550444 -0.03784748 -0.0041602445 0.033220783
0.033850797 0.040689006 -0.21333337 0.043385513 -0.04248826 0.008315189 0.0063168746 0.030302165
0.008750367 -0.24862738 -0.038552474 -0.0047604754 0.016470222 0.028179696 0.010408295 0.028388489
-0.3006499 -0.0037827594 0.041223895 0.029302146 0.0308507 -0.038080845 -0.0005921597 -0.36409232
00000000: ee6e 32bd 3ff8 0dbd 7a2a 9abc c404 a0bd
00000010: de78 23bb 7554 1ebd 61b5 c33c a96e af3c
00000020: 3bf1 073c 7f9a 0b3d 076e d13d 4698 d73c
00000030: d211 fcbc 10dc 0dbc bb77 20bd bcc8 69bb
00000040: c985 e9bc 5a5e 163e 5c06 fa3c 97ec 063d
00000050: 6887 553c 7b56 cdbc 91b8 213d 0c9c 2fbd
00000060: 8f31 993d 14ce e0bc 7d32 95bc 5d8a 0f3c
00000070: e452 08bd 17a6 0abd cf22 acbc 0078 df3d
00000080: 77ce 01bd 9c69 21bd cefa 1bbd 7d1e b1bc
00000090: 1a25 3dbc 5169 32bd 6145 523d fd93 5d3a
000000a0: 5155 ed3b 6c66 cebb de3e a3bb 3e2a eabc
000000b0: b465 b83c 824a 1f3d 1b18 f6bc d45c 2dbc
000000c0: de23 c9bb 3d66 263d 5e95 bb3c 6f56 91bc
000000d0: e56a a9bd 3a08 1f3d 6a3c e73c 227d 333c
000000e0: 681d 81bc 45bf 153d 1935 9a3c b3f8 5bbe
000000f0: 866e ff3c 973a 4d3b b118 05bd 7889 9fbc
00000100: fbc8 06bd f30e 15bd bb4e 5cbe 72f8 00bd
00000110: 08d4 bf3c d7f8 a03c f9d9 1a3c 9649 143d
00000120: 2c46 a3bc 28e3 0dbe 8f2b dd3c 37d5 783c
00000130: fd6f ae3b 007d 163d 0810 243c 112d f23c
00000140: e5f6 11be 8c14 1bbd 2270 22bd 3700 233b
00000150: 4eb9 183d 1c0e 1dbd ed37 8f3c 4689 dabd
00000160: 5033 efbc 917a 75bc 015d 92bc 8fa0 543c
00000170: dae7 16bd edf7 313d ce53 2c3c 91f4 7a3c
00000180: 6424 f3bc 6da2 c63c ed15 28bc 4715 b3bc
00000190: 53e4 f43b 1218 2d3c a678 983b fada 7bbc
000001a0: bddb 053c c244 8bbc f4b8 73bc 51b9 85bc
000001b0: 5498 00bc fe95 fbbc d44a 9c3c 618f ba3c
000001c0: a828 efbc 0cb2 08bd 8bb1 efbc b178 b4bd
000001d0: c518 173d 96a2 1e3d d306 c9bb a6c0 283d
000001e0: 54e9 4b3c c18c 30bd 6a80 79bd 06ce adbc
000001f0: df83 33bd 2920 a5bc 26b2 423c 4026 81ba
00000200: 9a6c 06bc d9eb 583e e589 243d e74a fa39
00000210: dafa b43c b482 2dbc 5302 07bd 54d0 0c3c
00000220: c707 d93e 9d49 d13c 4e54 29bd fba6 bebb
00000230: dc66 2dbd ef1a 0d3a f546 fe3a 6ab3 363c
00000240: 5b08 77bc 3752 d2bb e7a1 303c 7252 2ebd
00000250: 3109 b13c d2f7 2d3d b4d0 e2bd 8b80 2f3d
00000260: dd92 da3b 7a0f 323d 369a 1d3d 8616 1abd
00000270: 247c 073d 9212 093d d16e 363c 779d 82bc
00000280: 7940 10bd dbc6 893b 6744 483c 7a02 b53c
00000290: 8083 5a3e 9d24 2ebd 5d45 ab3c 741e 10bc
000002a0: 8018 2aba 04c8 3abc 38fc be38 9e88 0b3e
000002b0: be34 26bd 7ac1 843c 0a56 9e3b e431 a63c
000002c0: 7fe3 b9bc f7f7 023d 9bae 363e 7bc3 b4bc
000002d0: ad93 1d3d 1f4b b93b bee2 1e3d 2497 233d
000002e0: 52cc e13b 2805 183e cc74 613c 2627 e73c
000002f0: e555 24bd bfde 9039 f4ed 2b3d b523 febc
00000300: 8dd3 c13d 738f 963b 3825 823c a354 c13c
00000310: 3877 223b 4dd1 293c 531a a3bc 1bb0 153e
00000320: 2231 edbc c511 ea3c ee63 c33c 102d 1d3d
00000330: dcbc 1f3d 64e3 6ebc 4017 f73d ad56 03bd
00000340: fe01 fb3c 6e90 ddbc 46a6 f4bc d397 f3bc
00000350: 5b18 2f3d cc15 d23d 84d6 fabc d902 07bd
00000360: b5e2 943b 0d45 1bbc 388a 3b3c c586 e23c
00000370: ba24 eabc 7f70 23bd a356 943b e9f8 ef3c
00000380: 1219 db3c c026 25ba 0b06 40bc 321e 0abe
00000390: ed44 fa3c f605 1bbd a952 88bb 8412 083d
000003a0: 22a7 0a3d 84a9 263d 1074 5abe 02b5 313d
000003b0: 2b08 2ebd 6e3c 083c c9fd ce3b 3f3c f83c
000003c0: b35d 0f3c 2d98 7ebe 33e9 1dbd c3fd 9bbb
000003d0: 8fec 863c 1bd9 e63c 8e87 2a3c fa8e e83c
000003e0: c9ee 99be 2ce8 77bb 63da 283d 0e0b f03c
000003f0: 9bba fc3c a9fa 1bbd 2a3b 1bba 4f6a babe

conv1d_1.bias f4 [24]
-0.114720225 -0.00020753709 -0.06297044 0.021791847 -0.11387186 0.022138208 -0.2960112 0.03575491
0.114561476 0.27034724 0.056330223 -0.043542616 0.16629815 0.33732867 0.123127654 0.07846669
-0.064955115 -0.03601079 0.02239186 0.020833923 0.0051484085 0.16280772 -0.02976647 -0.107603006
00000000: 70f2 eabd 509e 59b9 a5f6 80bd d184 b23c
00000010: a635 e9bd 305b b53c c88e 97be be73 123d
00000020: 359f ea3d f46a 8a3e 85ba 663d be59 32bd
00000030: 104a 2a3e 58b6 ac3e 5a2a fc3d 25b3 a03d
00000040: 3007 85bd 0d80 13bd 226f b73c e7ab aa3c
00000050: fbb3 a83b 11b7 263e d0d8 f3bc f75e dcbd

conv1d_2.weight f4 [24, 24, 3]
-0.11221783 0.035514537 -0.06843848 0.008788461 0.15312748 0.104183234 -0.06475141 -0.18246178
-0.006380822 -0.08167538 0.10417603 0.10363836 0.11268054 -0.06479452 -0.103563674 0.09425863
-0.104731284 -0.02536712 0.0850472 -0.041424204 0.11534747 -0.08528016 0.024678104 0.10147506
-0.022736652 0.103637844 0.041733373 -0.016309706 -0.1470163 -0.11570454 -0.013566368 0.06028005
0.10163335 -0.085776605 -0.07075635 0.09925036 -0.04279119 -0.08254405 -0.039991137 -0.03297818
-0.013649122 -0.06603546 -0.05714486 0.13214687 0.08147406 -0.01281458 0.046714637 0.025215758
-0.10357488 0.11585278 -0.063293345 0.116447695 -0.020515518 0.000542739 -0.03813361 -0.046941556
0.0953839 -0.034929525 0.041685324 -0.027013348 0.0759839 0.05704615 -0.048737943 0.07446938
0.07413294 -0.0011260795 0.03493742 0.052248016 -0.09064451 0.037632063 -0.0152173145 -0.11138135
-0.03418559 -0.066029206 0.061717007 -0.09122982 0.06399105 -0.04176997 -0.05557666 -0.040865727
0.10104604 -0.034432795 0.07039986 0.11262703 -0.004813128 -0.07045649 0.07862479 0.05714322
0.058079567 0.10601954 -0.079036035 -0.0027471823 0.045305178 -0.06523017 0.2277577 0.07419908
-0.026947936 -0.028311461 -0.003214793 -0.021401946 -0.17141525 0.08698668 0.111355245 0.14302914
-0.11137697 0.019297581 0.06404656 -0.021145243 -0.113730855 0.11424819 0.09972612 0.079380065
0.12526394 -0.054923102 -0.10733642 -0.086425394 0.08422764 0.07461792 0.034460016 0.03344025
-0.025939966 0.03847327 0.09209774 -0.06832945 0.040662263 -0.0037296729 0.103765614 -0.103615604
-0.07742806 -0.031688992 -0.097655416 -0.117107816 -0.09350149 0.20845859 0.020375248 -0.062012725
0.047267243 -0.04711762 0.017926306 0.06901619 0.06431637 -0.042182814 -0.09650282 0.029227491
-0.11680437 -0.013985749 0.106338814 0.078912616 -0.088837706 -0.05470869 -0.04487181 0.044171467
0.027949514 0.0715333 -0.022559538 0.07710444 0.05886944 0.1671082 0.086333334 -0.048092503
-0.19041564 -0.015987607 0.034666978 -0.0911462 0.04134023 -0.050168756 0.042769052 -0.019551825
0.009558413 -0.14020765 -0.09256923 0.03626128 -0.112735935 -0.1136308 -0.0053330516 -0.10638646
-0.013963391 -0.0250674 0.031538807 0.067328624 -0.057639495 -0.038794383 -0.037580967 -0.004996368
-0.10232272 0.036366522 -0.07895694 -0.20173475 -0.051364534 0.08570728 0.11790997 0.08053602
0.026027689 0.029854123 -0.10369087 -0.051163465 0.09787493 -0.037303798 -0.0012598536 0.15431471
-0.05604566 -0.01676648 -0.061886705 -0.10877922 -0.074018225 0.0032188997 -0.0822925 -0.041078594
-0.13528624 0.1050066 0.02734125 0.17705305 0.033831738 0.018107086 0.11488543 -0.040088117
0.05434318 0.006373911 -0.09456203 0.055514563 -0.105296165 0.03220817 0.08021631 -0.041930526
-0.10598494 0.10932272 0.19566017 0.116574585 -0.09860278 -0.044361565 0.08430879 0.030733608
-0.051091813 0.09912082 -0.031244596 0.13392556 0.10844213 -0.094403796 -0.0037853932 -0.06175113
0.057530027 0.3057608 0.095006 0.11500715 -0.0875515 0.08380731 0.037491884 0.14643463
-0.06075651 -0.083151154 -0.036880065 0.10965471 0.020420218 0.24213392 -0.038626254 -0.041348364
00000000: 76d2 e5bd b177 113d 7929 8cbd 7afd 0f3c
00000010: 73cd 1c3e 055e d53d 639c 84bd 43d7 3abe
00000020: 3716 d1bb 6c45 a7bd 3e5a d53d 5940 d43d
00000030: 0ec5 e63d fdb2 84bd 3119 d4bd ab0a c13d
00000040: 5b7d d6bd b5ce cfbc 3a2d ae3d 6dac 29bd
00000050: 4b3b ec3d 5da7 aebd bc29 ca3c 28d2 cf3d
00000060: 3742 babc 1440 d43d 9df0 2a3d ef9b 85bc
00000070: 718b 16be 80f6 ecbd 7945 5ebc 37e8 763d
00000080: 2525 d03d a5ab afbd b5e8 90bd c643 cb3d
00000090: d145 2fbd db0c a9bd bfcd 23bd 2114 07bd
000000a0: 91a0 5fbc 993d 87bd bb10 6abd 8251 073e
000000b0: dfdb a63d 3ff4 51bc d957 3f3d 4791 ce3c
000000c0: 111f d4bd 3944 ed3d f19f 81bd 217c ee3d
000000d0: 2910 a8bc 9946 0e3a fd31 1cbd ca45 40bd
000000e0: a258 c33d 4312 0fbd 3bbe 2a3d 194b ddbc
000000f0: 729d 9b3d 39a9 693d 70a1 47bd 6783 983d
00000100: 03d3 973d f598 93ba 8a1a 0f3d 0402 563d
00000110: d4a3 b9bd 1424 1a3d 0b52 79bc e81b e4bd
00000120: 3006 0cbd 523a 87bd f9ca 7c3d b3d6 babd
00000130: bd0d 833d fd16 2bbd 5aa4 63bd d262 27bd
00000140: 3af1 ce3d 6709 0dbd cd2d 903d 00a9 e63d
00000150: 72b7 9dbb 7e4b 90bd 0906 a13d 020f 6a3d
00000160: d7e4 6d3d c620 d93d a5dd a1bd 120a 34bb
00000170: ec91 393d 6597 85bd 5139 693e b0f5 973d
00000180: ebc1 dcbc 70ed e7bc 47af 52bb 2253 afbc
00000190: 7b87 2fbe 1326 b23d 380e e43d 3b76 123e
000001a0: 9c19 e4bd f615 9e3c d82a 833d ca38 adbc
000001b0: b9eb e8bd f4fa e93d 353d cc3d 0492 a23d
000001c0: 3145 003e 0cf7 60bd 32d3 dbbd ccff b0bd
000001d0: 8a7f ac3d 48d1 983d f225 0d3d a5f8 083d
000001e0: 0d80 d4bc 2696 1d3d bd9d bc3d 50f0 8bbd
000001f0: 798d 263d 876d 74bb 1183 d43d 6b34 d4bd
00000200: 9a92 9ebd 51cc 01bd 90ff c7bd 39d6 efbd
00000210: b67d bfbd 2b76 553e fee9 a63c 0e01 7ebd
00000220: 4c9b 413d 68fe 40bd 30da 923c 5c58 8d3d
00000230: 4db8 833d e3c7 2cbd 45a3 c5bd 7e6e ef3c
00000240: 2137 efbd 7c24 65bc 2ac8 d93d f09c a13d
00000250: 8bf0 b5bd 3816 60bd 81cb 37bd 24ed 343d
00000260: 61f6 e43c 0d80 923d c8ce b8bc efe8 9d3d
00000270: 1521 713d 691e 2b3e 88cf b03d a5fc 44bd
00000280: 51fc 42be 71f8 82bc f6fe 0d3d dcaa babd
00000290: 5f54 293d c17d 4dbd 9a2e 2f3d 262b a0bc
000002a0: e49a 1c3c 9892 0fbe f094 bdbd b586 143d
000002b0: 19e2 e6bd 44b7 e8bd e1c0 aebb 25e1 d9bd
000002c0: b5c6 64bc 265a cdbc d62e 013d 97e3 893d
000002d0: 6417 6cbd dce6 1ebd 80ee 19bd 93b8 a3bb
000002e0: 938e d1bd 10f5 143d 2db4 a1bd 8e93 4ebe
000002f0: 9e63 52bd 4c87 af3d c87a f13d 12f0 a43d
00000300: 0538 d53c a290 f43c e15b d4bd c890 51bd
00000310: a772 c83d decb 18bd ac21 a5ba ad04 1e3e
00000320: 2290 65bd db59 89bc ea7c 7dbd a4c7 debd
00000330: de96 97bd 2df4 523b f888 a8bd 0742 28bd
00000340: 7a88 0abe b30d d73d c2fa df3c 654d 353e
00000350: 2693 0a3d 5055 943c 0d49 eb3d 7033 24bd
00000360: f496 5e3d 3edc d03b bda9 c1bd 3d63 633d
00000370: 84a5 d7bd b7ec 033d 7348 a43d 58bf 2bbd
00000380: a20e d9bd 97e4 df3d 245b 483e a8be ee3d
00000390: 41f0 c9bd 79b4 35bd 16aa ac3d 0cc5 fb3c
000003a0: a645 51bd dbff ca3d abf4 ffbc c823 093e
000003b0: e816 de3d c756 c1bd 5c14 78bb c1ee 7cbd
000003c0: 9ba4 6b3d ae8c 9c3e 8192 c23d de88 eb3d
000003d0: 334e b3bd 2ba3 ab3d 1791 193d f6f2 153e
000003e0: d1db 78bd 274b aabd 8d0f 17bd a692 e03d
000003f0: 4d48 a73c f4f1 773e 9036 1ebd e75c 29bd

conv1d_2.bias f4 [24]
0.117906295 0.089025095 -0.12819277 -0.08906422 0.007471316 0.13676049 0.13507636 -0.00037190845
0.13925332 -0.034176897 0.078708485 -0.21025118 -0.046518065 0.047420487 0.06252564 0.19014639
-0.0008787676 0.20888895 0.068986736 0.11554729 -0.1286867 -0.12640262 -0.12002397 0.041250296
00000000: db78 f13d ca52 b63d f744 03be 4d67 b6bd
00000010: f1d1 f43b f10a 0c3e 7551 0a3e b5fc c2b9
00000020: 6c98 0e3e 13fd 0bbd ea31 a13d 164c 57be
00000030: ba89 3ebd fc3b 423d 710d 803d bcb5 423e
00000040: 185d 66ba fce6 553e eb48 8d3d 0fa4 ec3d
00000050: 72c6 03be b06f 01be 21cf f5bd 12f6 283d

features.0.weight f4 [24, 24]
-0.08296326 -0.0526647 0.26396862 0.2287184 -0.29814693 -0.30356842 -0.026593499 0.13098529
-0.17546897 -0.18611673 0.0032354007 -0.045422114 -0.27995065 0.20895769 -0.037776083 -0.050155655
0.0056736534 -0.13946038 0.14949846 -0.024801662 -0.057203215 0.11443547 -0.12184051 0.024751585
0.17120841 -0.16851264 0.032052085 -0.085357696 -0.016918197 0.010624978 0.1906255 0.025068866
-0.07673446 -0.20320673 0.0554696 0.00019876884 -0.03934056 0.059632033 0.11067315 -0.16272885
-0.1365102 -0.04159296 0.12307459 0.40428147 0.09654741 0.18452288 -0.07513276 0.28295073
-0.116421215 -0.20019116 -0.10449759 0.14591925 -0.114336126 -0.20290938 0.21461603 0.09989041
-0.08395478 -0.17101462 0.12850764 -0.00089367863 0.06900261 0.21001412 -0.030503571 -0.19754574
0.057310916 -0.022812689 -0.07547482 0.13628706 0.12069318 0.13018955 -0.11319942 0.027862199
0.028372446 -0.1844163 0.10623418 0.102970414 0.0024992102 -0.14280689 0.24352466 0.17989221
-0.06941125 -0.15509468 0.041785 0.0109140165 -0.020516098 -0.016535671 0.031060692 -0.059053466
0.057428844 -0.014628935 -0.1671884 0.1267796 0.07686412 0.12269631 -0.14853153 0.17786075
-0.028247686 0.008276449 0.14589745 0.19608109 0.017442698 -0.16271178 0.26481655 0.19981642
-0.12721492 -0.066068344 -0.100811295 -0.02371204 0.10850209 0.13223979 0.015390783 -0.08070678
0.20217857 -0.005588106 0.0618316 0.26212063 0.09075885 0.16827841 -0.025146687 0.20443958
-0.03852743 -0.08976424 0.15236989 0.075396486 -0.056556612 -0.078917205 0.26392633 0.057816353
-0.03716124 -0.017565988 -0.14091127 0.075318925 -0.16243301 0.018547392 -0.05630677 -0.29095533
-0.031721007 0.051328424 0.05274055 0.1821086 0.20839058 0.21803272 0.067179866 0.24108034
-0.09838096 -0.15471718 0.105375275 0.035743028 -0.12473106 -0.09615868 0.20199634 0.07148945
0.05716447 -0.099519104 -0.20015408 -0.07810912 -0.25221035 0.109533794 -0.19243553 -0.21209563
0.0009161775 -0.0071869567 -0.2713306 -0.013294996 0.22876276 0.19136521 0.19902824 -0.16882446
-0.11946549 -0.10362595 0.07126978 0.010538282 -0.2502035 -0.07757394 0.0878811 0.3129531
0.06989618 0.123449445 -0.39283714 -0.076608226 -0.4434347 0.011797387 -0.39388087 -0.072103836
0.102445245 0.11709984 -0.24137333 -0.045115784 0.30579436 0.109011926 0.21761471 -0.23238562
0.06797294 0.102747045 0.34050745 0.086803116 -0.03456252 -0.0018548352 0.18078043 0.20262963
0.06945192 0.05123286 -0.037293173 -0.29948002 -0.2505057 -0.25872585 -0.33360025 -0.056416377
0.27987957 0.005272765 -0.19505922 0.18385528 0.09938695 -0.13162152 -0.03338859 -0.0077934163
-0.08141121 -0.027555298 0.19988517 -0.068680175 -0.19839568 -0.0045890426 0.17445777 0.19341278
0.10593761 0.111667685 0.14141576 -0.08994242 -0.3786884 0.11406067 -0.27429238 0.0140335085
0.11647176 0.20767048 -0.12512372 -0.076696694 0.30065936 -0.086318284 0.16527294 -0.0027702716
-0.07316417 0.18380792 0.09606565 -0.08972081 -0.21034089 -0.0311432 0.22380823 0.16256839
-0.014481677 0.18335004 0.131572 -0.24168026 -0.069159605 0.19688073 -0.23488332 -0.09024778
00000000: a4e8 a9bd f1b6 57bd e526 873e 2835 6a3e
00000010: b7a6 98be 526d 9bbe 9cda d9bc 0221 063e
00000020: 23ae 33be 6295 3ebe 0409 543b 8a0c 3abd
00000030: b155 8fbe 01f9 553e 18bb 1abd 0470 4dbd
00000040: 0eea b93b b4ce 0ebe 2016 193e db2c cbbc
00000050: eb4d 6abd 255d ea3d 8487 f9bd d6c3 ca3c
00000060: 4251 2f3e 948e 2cbe 0c49 033d 04d0 aebd
00000070: 0898 8abc 6314 2e3c 5533 433e 395d cd3c
00000080: f526 9dbd 6d15 50be 1734 633d 9b6c 5039
00000090: 9123 21bd b840 743d 9ba8 e23d 64a2 26be
000000a0: 54c9 0bbe 615d 2abd 880e fc3d fbfd ce3e
000000b0: a6ba c53d 91f3 3c3e 34df 99bd ebde 903e
000000c0: 3f6e eebd e9fe 4cbe d502 d6bd db6b 153e
000000d0: 0f29 eabd 7ac7 4fbe 4ec4 5b3e 5893 cc3d
000000e0: 7cf0 abbd 751e 2fbe 8297 033e c245 6aba
000000f0: 3e51 8d3d f10d 573e a0e2 f9bc 6e49 4abe
00000100: dabe 6a3d ade1 babc 8b92 9abd d68e 0b3e
00000110: fc2d f73d 6950 053e 19d5 e7bd 443f e43c
00000120: 556d e83c a0d7 3cbe 4e91 d93d 27e2 d23d
00000130: cac9 233b f83b 12be 875e 793e aa35 383e
00000140: 7c27 8ebd 24d1 1ebe c026 2b3d b4d0 323c
00000150: 6011 a8bc d175 87bc fe72 fe3c 0ce2 71bd
00000160: 823a 6b3d 33ae 6fbc 7033 2bbe 83d2 013e
00000170: f06a 9d3d 3448 fb3d a618 18be 2121 363e
00000180: b167 e7bc f199 073c 2466 153e 7bc9 483e
00000190: fde3 8e3c eb9d 26be 0996 873e ad9c 4c3e
000001a0: a144 02be d74e 87bd 2776 cebd c13f c2bc
000001b0: 5836 de3d de69 073e 9f29 7c3c 9949 a5bd
000001c0: e607 4f3e 6e1c b7bb 2243 7d3d ad34 863e
000001d0: c7df b93d 2d51 2c3e 6d00 cebc 9c58 513e
000001e0: f0ce 1dbd 50d6 b7bd da06 1c3e 7969 9a3d
000001f0: e8a7 67bd 589f a1bd 5a21 873e d7d0 6c3d
00000200: 6236 18bd 8ce6 8fbc 0b4b 10be cf40 9a3d
00000210: d754 26be b3f0 973c eda1 66bd 19f8 94be
00000220: e3ed 01bd c13d 523d 7a06 583d ad7a 3a3e
00000230: 5764 553e f843 5f3e 9995 893d c4dd 763e
00000240: f57b c9bd 2e6e 1ebe fece d73d 4867 123d
00000250: ff72 ffbd d8ee c4bd 21d8 4e3e 1069 923d
00000260: 4b25 6a3d acd0 cbbd 31f5 4cbe adf7 9fbd
00000270: b721 81be 4153 e03d d20d 45be 992f 59be
00000280: a22b 703a 9080 ebbb d8eb 8abe 41d3 59bc
00000290: c940 6a3e 3ef5 433e 0fce 4b3e 52e0 2cbe
000002a0: 53aa f4bd d839 d4bd e4f5 913d c2a8 2c3c
000002b0: ac1a 80be 16df 9ebd 02fb b33d 643b a03e
000002c0: ba25 8f3d 10d3 fc3d f321 c9be c6e4 9cbd
000002d0: df09 e3be d449 413c c1aa c9be 2dab 93bd
000002e0: d0ce d13d 0ad2 ef3d 922a 77be 54cb 38bd
000002f0: 1491 9c3e a541 df3d 64d6 5e3e 7ff6 6dbe
00000300: 6635 8b3d 0b6d d23d fe56 ae3e d5c5 b13d
00000310: 6e91 0dbd f11d f3ba 811e 393e 247e 4f3e
00000320: cf3c 8e3d 8cd9 513d bac0 18bd 7255 99be
00000330: 4842 80be b777 84be a7cd aabe dc14 67bd
00000340: 604c 8f3e 29c7 ac3b 9bbd 47be 8f44 3c3e
00000350: 638b cb3d cbc7 06be 79c2 08bd ea5f ffbb
00000360: ecba a6bd a6bb e1bc b3ae 4c3e 31a8 8cbd
00000370: 3d28 4bbe ae5f 96bb 0fa5 323e 000e 463e
00000380: d1f5 d83d 07b2 e43d 4bcf 103e bb33 b8bd
00000390: 72e3 c1be a498 e93d 0d70 8cbe cdec 653c
000003a0: bf88 ee3d 92a7 543e 6f20 00be 2813 9dbd
000003b0: 06f0 993e a4c7 b0bd 4f3d 293e 728d 35bb
000003c0: 19d7 95bd 2538 3c3e 11be c43d 8bbf b7bd
000003d0: 9a63 57be 0620 ffbc fc2d 653e 5478 263e
000003e0: 8e44 6dbc 1dc0 3b3e cfba 063e 087b 77be
000003f0: 8da3 8dbd 1a9b 493e 4185 70be d4d3 b8bd

features.0.bias f4 [24]
0.11613773 -0.07821708 -0.014502942 -0.11161929 -0.175949 -0.0749089 0.03767883 0.085377336
-0.19026965 0.0031512477 -0.08573715 0.025691172 -0.11728994 -0.047585312 -0.08534785 -0.06457257
-0.022623833 -0.06362146 -0.03999302 0.108108506 0.08382797 0.13014115 0.067418166 -0.07244757
00000000: 9ed9 ed3d 4730 a0bd bf9d 6dbc a898 e4bd
00000010: fa2b 34be d669 99bd 1e55 1a3d 50da ae3d
00000020: 0cd6 42be 2a85 4e3b f596 afbd 4b76 d23c
00000030: b535 f0bd d1e8 42bd dbca aebd a03e 84bd
00000040: 9e55 b9bc f84b 82bd b9cf 23bd fe67 dd3d
00000050: 00ae ab3d b943 053e 8912 8a3d 645f 94bd
