SECO/Treinamento/MLP/1_camada/conf_2/modelo_seed_24_loss_0.002735.pt (torch, 49519 bytes, 4 tensors)

features.0.weight f4 [117, 74]
0.08145414 -0.025803417 -0.10563901 -0.001887658 0.1031851 -0.052997988 -0.049374834 0.106192306
0.028038224 0.00047549917 -0.021372948 -0.03489511 -0.1722405 -0.07972073 0.12242451 0.010696663
0.14732657 -0.028848357 0.021888465 -0.10612055 -0.06517908 0.0011061975 0.08932477 -0.15269993
0.00044325137 0.11052032 -0.012469251 0.061828505 0.06424746 -0.072494134 -0.06723788 -0.05943248
0.115153104 -0.10726461 0.065389104 0.07232642 0.031915855 0.07100243 0.06795615 -0.030079046
0.029854076 0.054668292 0.015588131 0.06738062 0.047400497 -0.027572531 -0.25513703 -0.14155781
-0.067446806 -0.06282462 0.042567287 -0.061533988 -0.04508982 0.033849724 -0.0049276613 -0.049697224
-0.019696381 -0.026988097 -0.03829676 0.09064678 0.0049603754 -0.031897992 0.058192488 0.036753107
-0.074354075 -0.115188204 0.14219332 -0.07590047 0.08700893 0.07519447 0.13250023 -0.020512225
0.011283124 0.0296185 0.08132547 0.07034636 0.01821777 -0.053657465 -0.0629449 -0.033936318
0.1003481 0.06667027 0.041860532 -0.0895701 -0.015997758 -0.074845836 0.057529815 -0.009038373
0.057315957 0.027094984 -0.04836272 0.045335684 -0.06597984 -0.032961167 0.0045345104 0.057607993
-0.03374335 -0.22069314 0.082115516 -0.008214958 0.024499403 -0.097497575 -0.020651007 0.08407892
0.04008764 0.11724502 0.0044098278 0.07146591 -0.13418835 0.029933114 0.13466774 0.033390526
0.0114881685 -0.009835889 -0.013126232 -0.18077484 0.06706724 -0.09032617 0.058431704 0.0353718
-0.09763261 -0.044324167 -0.11155342 0.0070953676 -0.047942773 0.041374125 -0.084430516 0.027401915
0.102108866 0.070823886 0.08142798 0.0047986754 -0.042095665 0.028210245 -0.043401323 -0.114942916
0.09670508 -0.0053053433 0.021343723 0.08856225 -0.024147624 -0.08501254 0.033552613 0.0035558292
-0.02358113 -0.08366145 -0.0043749586 -0.020921791 -0.14758183 -0.15125737 0.013326989 -0.121032365
0.12626831 0.06929638 0.17754841 0.22324084 0.26336038 0.13591066 -0.074647285 -0.015981354
-0.02225004 -0.11996265 -0.12437179 -0.17251782 -0.22280586 -0.06316984 0.08327893 -0.08681492
-0.10492844 0.09397883 -0.054505624 -0.27666286 -0.10899528 0.0303865 0.06108882 0.10252976
0.119538955 0.09036723 -0.0078406595 0.07726527 0.19191673 0.07731772 0.08818786 0.018615564
0.20355846 0.097551405 -0.10646273 -0.12690784 -0.23374635 0.020403294 0.20760019 0.02865805
0.02983235 0.24755274 0.069853455 -0.29831675 0.1848647 0.16284046 0.16883028 -0.008898946
0.13237214 0.1527515 0.06686536 0.10578039 0.38274875 0.30810297 0.19642125 0.13084115
0.11881571 0.022911873 -0.010730562 0.1594078 0.1440016 0.093897484 0.16134188 0.18629396
0.25446555 0.25786206 0.37675384 0.3714779 -0.00317487 0.10359374 -0.015702982 -0.040196773
0.15175174 0.074692674 -0.010305887 0.05375837 -0.101924576 -0.111221276 0.050720524 0.071347944
-0.086377725 -0.026922528 0.066634715 0.03931068 -0.086117275 0.050789896 -0.124775134 0.03217089
0.1454877 0.039885458 -0.010930839 0.15506105 -0.04268061 -0.10392127 0.03518824 0.066858
-0.046543486 0.10585093 -0.08877085 -0.02219085 -0.11933357 -0.047593735 0.0113712 0.033350173
00000000: 6ed1 a63d b061 d3bc 4459 d8bd 4b6b f7ba
00000010: b652 d33d 6b14 59bd 443d 4abd 5a7b d93d
00000020: 6bb0 e53c 6b4c f939 5216 afbc 2dee 0ebd
00000030: d05f 30be 9f44 a3bd b4b9 fa3d 0e41 2f3c
00000040: c7dc 163e 6453 ecbc 704f b33c bb55 d9bd
00000050: 9c7c 85bd d4fd 903a e8ef b63d 5f5d 1cbe
00000060: 3164 e839 7a58 e23d d44b 4cbc e33f 7d3d
00000070: 2c94 833d ce77 94bd 03b4 89bd 796f 73bd
00000080: 64d5 eb3d 8cad dbbd b9ea 853d e01f 943d
00000090: 33ba 023d b969 913d 982c 8b3d 5568 f6bc
000000a0: 8990 f43c dceb 5f3d 5c65 7f3c dafe 893d
000000b0: 0627 423d cadf e1bc 52a1 82be 88f4 10be
000000c0: 8d21 8abd 32aa 80bd 095b 2e3d 100b 7cbd
000000d0: 1ab0 38bd 02a6 0a3d 3878 a1bb 518f 4bbd
000000e0: 4e5a a1bc 2416 ddbc 10dd 1cbd 05a5 b93d
000000f0: a58a a23b 78a7 02bd 3f5b 6e3d 6d8a 163d
00000100: f346 98bd cbe7 ebbd 209b 113e b571 9bbd
00000110: bd31 b23d 8fff 993d 24ae 073e 4109 a8bc
00000120: dadc 383c 7fa2 f23c f88d a63d c111 903d
00000130: 6f3d 953c eec7 5bbd 41e9 80bd cf00 0bbd
00000140: 4e83 cd3d 6c8a 883d f375 2b3d 8770 b7bd
00000150: bb0d 83bc c648 99bd 62a4 6b3d af15 14bc
00000160: 23c4 6a3d 4df6 dd3c fd17 46bd e9b1 393d
00000170: 7020 87bd 4a02 07bd 3b96 943b 5cf6 6b3d
00000180: 7836 0abd 62fd 61be 2e2c a83d 0898 06bc
00000190: f9b2 c83c cfac c7bd 4d2c a9bc 9231 ac3d
000001a0: f032 243d 281e f03d 5180 903b b85c 923d
000001b0: ac68 09be 4a36 f53c 57e6 093e 81c4 083d
000001c0: df38 3c3c b526 21bc 680f 57bc 0a1d 39be
000001d0: 8d5a 893d edfc b8bd 1556 6f3d 05e2 103d
000001e0: 9bf3 c7bd 428d 35bd 1f76 e4bd 4280 e83b
000001f0: a45f 44bd ea77 293d e8e9 acbd fb79 e03c
00000200: 741e d13d 1d0c 913d b6c3 a63d 353e 9d3b
00000210: 816c 2cbd 2c19 e73c 96c5 31bd 3167 ebbd
00000220: 500d c63d 72d8 adbb 08d9 ae3c 2060 b53d
00000230: 3dd1 c5bc 0e1b aebd 776e 093d ea08 693b
00000240: 372d c1bc b256 abbd d05b 8fbb 2d64 abbc
00000250: b11f 17be 36e3 1abe 7159 5a3c d1df f7bd
00000260: 7b4c 013e 43eb 8d3d 40cf 353e 3f99 643e
00000270: 2cd7 863e 2a2c 0b3e ade0 98bd 54eb 82bc
00000280: b745 b6bc faae f5bd a3b6 febd 83a8 30be
00000290: 3827 64be 305f 81bd 258e aa3d 05cc b1bd
000002a0: b9e4 d6bd f977 c03d 4a41 5fbd c1a6 8dbe
000002b0: eb38 dfbd 1ced f83c 4538 7a3d 1ffb d13d
000002c0: d7d0 f43d 7412 b93d 1c76 00bc 413d 9e3d
000002d0: d285 443e c158 9e3d d69b b43d ab7f 983c
000002e0: a171 503e 08c9 c73d 2209 dabd 21f4 01be
000002f0: 345b 6fbe cf24 a73c 2595 543e 49c4 ea3c
00000300: f962 f43c 777e 7d3e 540f 8f3d f9bc 98be
00000310: 2c4d 3d3e a6bf 263e d8e1 2c3e e3cc 11bc
00000320: 908c 073e e46a 1c3e b5f0 883d 64a3 d83d
00000330: a5f7 c33e acbf 9d3e a722 493e 39fb 053e
00000340: a755 f33d aeb1 bb3c 3dcf 2fbc cc3b 233e
00000350: 2875 133e 534d c03d ce36 253e d8c3 3e3e
00000360: 4f49 823e 7f06 843e e1e5 c03e 5a32 be3e
00000370: 7b11 50bb f428 d43d 8aa3 80bc 5fa5 24bd
00000380: cf64 1b3e 79f8 983d 06da 28bc bd31 5c3d
00000390: d5bd d0bd fbc7 e3bd 53c0 4f3d df1e 923d
000003a0: cee6 b0bd a28c dcbc c877 883d 3c04 213d
000003b0: 415e b0bd 1109 503d 1b8a ffbd a0c5 033d
000003c0: bafa 143e ef5e 233d 4317 33bc 53c8 1e3e
000003d0: ddd1 2ebd add4 d4bd 8b21 103d d9ec 883d
000003e0: 62a4 3ebd 5fc8 d83d 7ecd b5bd 96c9 b5bc
000003f0: 2965 f4bd a6f1 42bd 454e 3a3c 319a 083d

features.0.bias f4 [117]
-0.01825371 0.08762783 -0.04015989 -0.023131914 -0.07330937 0.03134373 0.09238429 -0.007832842
-0.027290998 -0.08698698 -0.028077316 -0.06616589 0.07369333 0.041484293 -0.060741026 -0.045738515
-0.06498937 -0.11961148 -0.096583426 -0.018496957 -0.13647677 0.06948651 -0.083432175 0.11846639
-0.121764615 -0.07344245 0.015809363 0.018618744 0.061068688 0.013093141 -0.11422986 0.031250894
0.08497037 -0.067575134 0.028314304 0.049795214 0.060711905 -0.035313983 -0.10761009 -0.16949558
-0.098567426 -0.039700154 0.18201195 -0.101732865 -0.025364965 0.028818011 0.10182833 0.39429042
0.0152265495 -0.11613452 -0.061186485 -0.022176286 -0.09787776 -0.034517772 0.002767856 -0.088294916
-0.023257606 -0.11210316 0.12186134 0.04339784 0.056419164 -0.1481772 0.035032637 -0.08908488
-0.0070423456 -0.06542344 0.10748277 -0.004530191 -0.026518501 -0.067244366 -0.10009126 0.07783026
-0.058398686 0.00025579287 -0.018122321 -0.14853787 -0.03482922 -0.053367686 -0.026147965 -0.053735755
0.09372366 0.05413439 -0.0175201 -0.05589079 -0.0093728 -0.04671728 0.00929062 -0.10313054
0.016368965 0.12752795 0.03795636 -0.10235095 -0.106684685 0.019186571 -0.08560638 0.026371557
-0.04408536 -0.035536155 0.023479104 0.022661319 -0.079194486 -0.11201088 -0.07664014 0.055366524
-0.031044101 0.0038137843 0.042692017 -0.023787178 0.03551653 0.06383747 0.0140250195 -0.06741484
-0.11211158 -0.060969748 -0.086831905 -0.10106117 0.12795143
00000000: ce88 95bc 3876 b33d b27e 24bd 247f bdbc
00000010: 3923 96bd 4862 003d fa33 bd3d 5255 00bc
00000020: 5f91 dfbc 3b26 b2bd 6602 e6bc fb81 87bd
00000030: 87ec 963d 6feb 293d 95cb 78bd 4f58 3bbd
00000040: 2619 85bd ddf6 f4bd 88cd c5bd ee86 97bc
00000050: 91c0 0bbe f14e 8e3d 7dde aabd 829e f23d
00000060: ba5f f9bd ff68 96bd a382 813c 5686 983c
00000070: 2923 7a3d 9d84 563c 58f1 e9bd f000 003d
00000080: f204 ae3d d564 8abd 66f3 e73c 11f6 4b3d
00000090: 0cad 783d 65a5 10bd ae62 dcbd 4090 2dbe
000000a0: b8dd c9bd a19c 22bd 5761 3a3e 5259 d0bd
000000b0: 30ca cfbc c013 ec3c 5f8b d03d 6fe0 c93e
000000c0: c778 793c efd7 edbd ae9e 7abd 0bab b5bc
000000d0: 2374 c8bd 8262 0dbd eb64 353b f7d3 b4bd
000000e0: bc86 bebc 5796 e5bd 7092 f93d efc1 313d
000000f0: c817 673d c4bb 17be 627e 0f3d 2272 b6bd
00000100: 7ac3 e6bb b9fc 85bd ed1f dc3d ff71 94bb
00000110: 543d d9bc 6ab7 89bd a6fc ccbd 7965 9f3d
00000120: 7633 6fbd f01b 8639 4375 94bc 501a 18be
00000130: 16a9 0ebd 1398 5abd 4234 d6bc 061a 5cbd
00000140: 31f2 bf3d 06bc 5d3d 5086 8fbc beed 64bd
00000150: 5f90 19bc 9e5a 3fbd af37 183c 1b36 d3bd
00000160: 3518 863c b096 023e 2178 1b3d 609d d1bd
00000170: 807d dabd 282d 9d3c 6652 afbd 2a09 d83c
00000180: da92 34bd 5c8e 11bd 4057 c03c 3ba4 b93c
00000190: b830 a2bd f665 e5bd 81f5 9cbd 02c8 623d
000001a0: 3350 febc aff0 793b d3dd 2e3d 54dd c2bc
000001b0: c879 113d 38bd 823d 32c9 653c cb10 8abd
000001c0: c29a e5bd 6abb 79bd edd4 b1bd 29f9 cebd
000001d0: b305 033e

features.2.weight f4 [24, 117]
0.00048277463 0.00096370257 0.040386442 0.088943824 0.054872517 -0.10165043 -0.079118215 -0.12927487
-0.09318283 0.029628944 0.013146155 -0.058025096 0.03807524 0.026528066 0.014108137 -0.054108746
-0.056824286 0.032099243 0.032303844 0.07800999 0.019675 0.03049218 -0.012283474 0.0021323282
0.029537925 -0.041607324 -0.030093443 0.07857001 -0.0074844426 0.059024 0.0016988716 -0.05660159
0.01275404 -0.05410925 -0.015554862 -0.034048457 -0.033256944 0.016115325 -0.03484849 0.089772835
0.02831997 0.07978963 0.06938868 -0.14259923 0.030974573 -0.06257276 -0.009746318 -0.04451328
-0.08980384 0.00077092665 -0.030819176 0.10293793 -0.010832273 -0.06461943 -0.0116349645 0.026621802
0.016225269 0.14108457 -0.09263378 0.008855372 -0.031146426 -0.03182737 0.06146841 0.011556753
-0.104683734 -0.10095388 0.009758292 0.05098567 -0.17501098 -0.0036814446 0.065182 -0.013231541
0.053223614 0.060704753 -0.14780553 0.08709362 0.055658333 -0.023660216 0.0030807375 0.020945854
0.017144028 7.5306816e-06 -0.009726888 -0.106831074 0.010552872 -0.016220061 -0.04071876 0.0040343646
-0.119895294 0.030713744 -0.08971877 -0.00038248053 0.018683668 0.021364262 -0.06129626 -0.028203867
-0.039606854 0.009051988 -0.03331908 -0.0054229503 0.014254259 0.01387235 -0.0029048456 -0.016248234
0.043490242 0.030462291 0.018119754 -0.07765193 0.05838696 -0.025391426 0.09315702 0.049575653
0.11535772 -0.027148236 -0.058049038 0.059448123 0.050380193 0.041994613 0.025820278 0.10554868
-0.0058566285 0.08226969 -0.24627103 0.03601205 -0.06867074 -0.11384117 0.14086749 -0.05601926
-0.035503585 0.026131185 -0.033598997 0.06526919 0.009210467 -0.021593487 0.05461694 -0.04003039
-0.038337596 0.015867656 0.036481142 0.023592757 0.06317592 0.09805263 -0.024259109 -0.0032230818
-0.0003872171 -0.037487872 0.098971404 0.0054309894 -0.044828467 -0.0064428565 -0.019472025 -0.071126126
-0.0070972214 0.053336196 -0.020550206 0.028045682 0.041040946 -0.009970481 0.03267639 0.07577408
0.036983185 -0.06029161 0.021134125 -0.023070276 -0.07249299 0.062759325 -0.050000273 0.06735041
0.028063178 -0.015428128 -0.0060005356 -0.053490616 -0.061549548 0.044855267 0.100881904 0.008813597
-0.026422728 -0.0031723988 -0.07522228 -0.035581987 0.038297564 -0.054346353 -0.07051223 -0.014889926
0.0137755945 -0.15284951 0.08273455 0.08502888 -0.0001331143 0.052870363 -0.024863167 -0.0746436
0.048119824 -0.002575537 -0.027282037 0.042979702 -0.09202761 -0.03901566 0.035206307 0.050433964
-0.05315747 -0.021487786 -0.019691909 0.045888722 0.048459344 -0.035234414 0.014590962 -0.004206726
-0.021972604 -0.065169424 0.03920894 0.06526144 0.02272756 0.0036882767 -0.047247108 0.0632274
-0.08185571 -0.0014625491 0.01248298 0.0400742 0.0115246 0.043778297 -0.0066857315 -0.056776777
-0.13139291 0.047884513 -0.054579448 0.07483481 -0.005669968 0.07512102 -0.0120350085 -0.02776462
-0.031751428 -0.014905635 -0.09724665 0.051815774 0.058468875 0.015808156 0.065021254 -0.14791392
-0.06566976 0.015718007 0.06853076 -0.052768793 -0.0064412467 -0.04183704 0.013318589 -0.052510254
0.06297558 -0.035898883 2.0338644e-05 0.060027555 0.06180444 0.03402779 0.087978825 -0.007000674
00000000: ea1c fd39 fca0 7c3a 416c 253d 2e28 b63d
00000010: 01c2 603d 1a2e d0bd bb08 a2bd a260 04be
00000020: a4d6 bebd 66b8 f23c f862 573c b9ab 6dbd
00000030: c8f4 1b3d 6351 d93c d125 673c 22a1 5dbd
00000040: 95c0 68bd 7f7a 033d 0951 043d b4c3 9f3d
00000050: 772d a13c bcca f93c a040 49bc 88be 0b3b
00000060: 85f9 f13c 716c 2abd 8686 f6bc 50e9 a03d
00000070: 0e40 f5bb 26c3 713d acac de3a 12d7 67bd
00000080: 52f6 503c a9a1 5dbd d2d9 7ebc 6576 0bbd
00000090: 6f38 08bd 4904 843c 4abd 0ebd d2da b73d
000000a0: 48ff e73c bf68 a33d a71b 8e3d 8805 12be
000000b0: 63be fd3c 2626 80bd 05af 1fbc 8f53 36bd
000000c0: 13eb b7bd 0318 4a3a 7f78 fcbc 1fd1 d23d
000000d0: d979 31bc 3157 84bd 94a0 3ebc f715 da3c
000000e0: dbea 843c 7978 103e c7b6 bdbd 1f16 113c
000000f0: ca26 ffbc 6b5d 02bd 4dc6 7b3d 8958 3d3c
00000100: 6d64 d6bd e8c0 cebd 3ee1 1f3c 5ad6 503d
00000110: 1436 33be 6444 71bb 247e 853d 1bc9 58bc
00000120: 0101 5a3d 8ca5 783d 555a 17be 245e b23d
00000130: fef9 633d 12d3 c1bc 33e6 493b a496 ab3c
00000140: a271 8c3c 10b0 fc36 865d 1fbc 40ca dabd
00000150: f4e5 2c3c efdf 84bc b7c8 26bd b432 843b
00000160: aa8b f5bd 649b fb3c 79be b7bd ab87 c8b9
00000170: 7e0e 993c 1b04 af3c ca11 7bbd cc0b e7bc
00000180: cc3a 22bd ca4e 143c 9679 08bd 01b3 b1bb
00000190: b28a 693c da48 633c 395f 3ebb 041b 85bc
000001a0: d322 323d 0e8c f93c e16f 943c fa07 9fbd
000001b0: 2a27 6f3d ae01 d0bc 1cc9 be3d d70f 4b3d
000001c0: ab40 ec3d fa65 debc d4c4 6dbd e07f 733d
000001d0: 765b 4e3d 8b02 2c3d 0c85 d33c e829 d83d
000001e0: f6e8 bfbb 037d a83d 792e 7cbe 5f81 133d
000001f0: 3fa3 8cbd 8f25 e9bd 913f 103e 7474 65bd
00000200: 356c 11bd 1111 d63c 1a9f 09bd daab 853d
00000210: 80e7 163c d3e4 b0bc 03b6 5f3d e8f6 23bd
00000220: e207 1dbd e3fc 813c 406d 153d 9945 c13c
00000230: 6062 813d d1cf c83d 0abb c6bc 573a 53bb
00000240: 6603 cbb9 e28c 19bd 85b1 ca3d 71f6 b13b
00000250: 0e9e 37bd 991e d3bb cc83 9fbc 93aa 91bd
00000260: cf8f e8bb 0e77 5a3d e858 a8bc 0fc0 e53c
00000270: 8d1a 283d 3a5b 23bc aed7 053d 712f 9b3d
00000280: ae7b 173d 56f4 76bd 7921 ad3c e0fd bcbc
00000290: 3477 94bd f687 803d 16cd 4cbd 03ef 893d
000002a0: c0e4 e53c 42c6 7cbc 24a0 c4bb fa18 5bbd
000002b0: 611b 7cbd 28ba 373d 2c9b ce3d e866 103c
000002c0: 7a74 d8bc 05e8 4fbb 240e 9abd 6bbe 11bd
000002d0: e8dd 1c3d 489a 5ebd b768 90bd e0f4 73bc
000002e0: 08b3 613c 9584 1cbe bb70 a93d 9f23 ae3d
000002f0: 9994 0bb9 988e 583d d7ad cbbc bede 98bd
00000300: 4b19 453d 57ca 28bb 947e dfbc 7c0b 303d
00000310: f978 bcbd e2ce 1fbd 7d34 103d d893 4e3d
00000320: a6bb 59bd 2707 b0bc ed50 a1bc d0f5 3b3d
00000330: 4e7d 463d f651 10bd ee0e 6f3c 93d8 89bb
00000340: e4ff b3bc 8c77 85bd 8e99 203d caa7 853d
00000350: 262f ba3c 04b7 713b 2f86 41bd 5e7d 813d
00000360: f7a3 a7bd 01b3 bfba 6a85 4c3c d824 243d
00000370: add1 3c3c df50 333d fb13 dbbb c48e 68bd
00000380: dd8b 06be 8d22 443d b38e 5fbd fe42 993d
00000390: 24cb b9bb 0dd9 993d 7c2e 45bc a172 e3bc
000003a0: c90d 02bd c436 74bc 4029 c7bd c73c 543d
000003b0: 0f7d 6f3d 1b80 813c dd29 853d bf76 17be
000003c0: de7d 86bd 0dc3 803c db59 8c3d 1724 58bd
000003d0: 1811 d3bb 515d 2bbd 3636 5a3c fe14 57bd
000003e0: 57f9 803d b50a 13bd e89c aa37 74df 753d
000003f0: a726 7d3d b960 0b3d 3e2e b43d e965 e5bb

features.2.bias f4 [24]
-0.025055727 -0.07922881 -0.013530522 -0.09193159 -0.08359498 -0.046744246 -0.04216621 -0.026024321
-0.0101196375 -0.08799926 -0.076167524 -0.03879219 -0.085638896 -0.052576672 -0.09390839 -0.041351616
0.008897535 -0.039196793 -0.024288721 0.019401291 0.0074729314 0.0024414274 0.06363711 -0.043830764
00000000: ab41 cdbc b742 a2bd 1faf 5dbc a146 bcbd
00000010: d833 abbd e576 3fbd 7ab6 2cbd f530 d5bc
00000020: d6cc 25bc f538 b4bd b8fd 9bbd 8fe4 1ebd
00000030: 7263 afbd a35a 57bd 0b53 c0bd 5060 29bd
00000040: f7c6 113c d18c 20bd 24f9 c6bc 75ef 9e3c
00000050: 7edf f43b 5b00 203b 2c54 823d e387 33bd
