NE/Treinamento/LSTM/LSTM_2_DENSO_2/conf_1/modelo_seed_42_loss_0.004566.pt (torch, 272505 bytes, 12 tensors)

lstm1.weight_ih_l0 f4 [268, 55]
00000000: 6ef1 363e 2000 ea3d a775 bebd addd 743b
00000010: c7d0 21be c246 d9bd 7f44 8ebe 7e76 5abe
00000020: 0c44 04be 17d3 5abe b668 c13b f124 b7bc
00000030: 6b2d 023d a491 3dbd 4894 2b3e 4bb1 263e
00000040: f718 603e b625 0e3b b08b 31be 9ab9 90bd
00000050: 52eb 86be 8137 85be 5520 05be 5d76 a2bc
00000060: 2166 78bd fee8 f4bd b009 28be f9bb 44be
00000070: fccb 03be 41ef 82be f378 e1bd 83f6 d3be
00000080: ed3b 12be 7564 c7bd 1eae 5bbd 1241 c43d
00000090: cbe4 fb3c a58a 0e3e a869 223e 9051 333e
000000a0: 8633 4f3e 8f18 ed3c 5fdb 9f3b c89c 47bc
000000b0: a6e8 22be c6e5 9ebe 4232 17bc bf14 fdbc
000000c0: e916 23be a1b0 adbd 6f88 393e 1cef c9bd
000000d0: 1222 93ba f537 8bbc 0a94 8d3e e2dd 153d
000000e0: a672 2c3c 071e 89bc 8265 a83d db11 bbbd
000000f0: dfd8 5f3c 5c49 34bd 7d48 c63d 1257 4d3c
00000100: 21fc df3d b133 103d ab82 163e ae88 41bd
00000110: 558a 5abc 9e74 9abc 0998 283e 907a 813d
00000120: 07aa 043e 8da0 e3bd 50ec 34be 214f cfbd
00000130: 5bdf 71bd 7b66 d23d 29c7 b03d 41b0 0d3e
00000140: 59ba 63bd 8aa1 51bd 8184 ea3d 5ca4 eaba
00000150: feaa 103e a29d 283d e48d 193e efde 48bc
00000160: 4c4a 4e3d 4600 093e dd25 8e3d 40cf 60bc
00000170: 81f2 a73d 226e d73d 1584 8fbd 70df 3cbd
00000180: d28f 0c3e 89fb aabc a6ed f7bd e3ca 23be
00000190: 418e e3bd 7580 7dbc d8af dabd cc82 13be
000001a0: 3898 53be 5d12 0ebe 1333 2bbd dea2 4c3e
000001b0: 1d79 72bd f9b8 0abd 22cc 8e3e 11ea e23d
000001c0: 158b fb3d 5f15 41bd 9ff1 64bc 7a2e bf3c
000001d0: 7884 873d ded1 73bd cd40 d23c 4634 9c3d
000001e0: 53bf 033e 58a3 cd3c 13e9 31bc 5e38 a6bd
000001f0: 83fd 97bd a14e 91bd 9cef 89bd effb 01be
00000200: 856b 9ebc 54b7 d2bd c07d 903d 6537 443d
00000210: 9643 cebd 6144 cb3b 9add b1bd b14f 93bd
00000220: d9bf dcbd f33b eebd 0571 233d cf37 ffbb
00000230: e4a8 303d 037e d6bd 04b0 af3d 671a b1bd
00000240: 78fd 26bb 7489 bb3b ac31 f83b 3372 60ba
00000250: 76eb 11bc e261 61be 90e4 05be d3a7 7abe
00000260: c311 50be 4c53 a7be 9aa0 25bd 9d22 48be
00000270: c975 4ebd 5486 05be cedf d33d 8591 b73d
00000280: 6e31 5e3e 2b8c 34bd 7968 0f3f 818d fbbd
00000290: 4fc7 973e e682 c63d 6989 933c 9726 db3d
000002a0: dcab a9bb 76ee e8bd 9ecc 07be 95ec adbd
000002b0: ea0a 6cbc 5b79 b3bd fb40 99bd bfc1 a1bc
000002c0: 547b 76bd 9981 f13c 2180 c53d 7747 b9bd
000002d0: 142a adba 68e8 b33c 70b9 91bd 638a 27be
000002e0: 56a4 a73d f3f7 663d 9c3b b13d 7d4f ef3d
000002f0: e929 0a3e b3a9 363e 2cd5 233d 6b5a 7fbc
00000300: 2620 9a3d 8c81 6c3d a8d5 bebd 1689 c1bd
00000310: cd6b 87bd 92b3 d3bc b6c0 623d 3168 403d
00000320: 9a09 06be 0ce1 0bbe b2b4 21bc 7ed7 32bd
00000330: d6c5 36be 78aa 93be 4367 a8be c81a aebe
00000340: 61d2 3fbe 53d6 80bd ff28 ce3c c981 033e
00000350: ed8e 27bd de6c 4ebe d11c 78be 3c3f 343e
00000360: 922f 823e 1d7c a03e 7199 03bc db57 01be
00000370: 72dc fcbd 0d99 0dbc 4cc6 0bbe 54c9 e0bd
00000380: 78b9 51be 96b2 2fbc e17c b23c 2afb 953c
00000390: 9b83 9ebd 8006 55bd 1c1d df3a 5530 8f3e
000003a0: fe8a 7e3e bed9 693e a685 323e f81a 163e
000003b0: c39b 193e ddd3 bf3d 73e0 d33d fbb9 0dbd
000003c0: dd43 403e f25c cfbd a0bf 1fbe ef6a 9dbe
000003d0: 06ca 63be 5eb8 71be e211 7ebe 3903 e8bd
000003e0: bc80 33be 38df 96bd d838 1cbe 7f03 0ebe
000003f0: a346 06bd c615 c7bc fc56 8a3d 21f0 3e3d
0.17865536 0.11425805 -0.09299784 0.0037363574 -0.15802298 -0.10609199 -0.27786633 -0.21334264
-0.12916583 -0.21369587 0.005902375 -0.022356482 0.031781595 -0.04628147 0.16755784 0.1627857
0.21884523 0.0021689958 -0.17338443 -0.07066651 -0.2635141 -0.2601891 -0.13000615 -0.01983183
-0.060644273 -0.11958502 -0.16409945 -0.19212331 -0.12870783 -0.2557316 -0.11009397 -0.4139901
-0.14280672 -0.097359575 -0.053632848 0.09582724 0.030748745 0.13920076 0.15860617 0.17511582
0.20234498 0.028942375 0.004878446 -0.012183376 -0.15909061 -0.31034678 -0.009228291 -0.030893682
-0.15926708 -0.08480955 0.18118452 -0.098600596 -0.0011225364 -0.016994456 0.27652007 0.036588557
0.010525381 -0.016737951 0.08222486 -0.09134265 0.013662546 -0.044015273 0.09681795 0.012532966
0.10936762 0.035205547 0.14698283 -0.04724949 -0.013338645 -0.018854436 0.16464247 0.06322205
0.12955485 -0.11114607 -0.17668271 -0.101225145 -0.0590509 0.10273453 0.08631737 0.13836767
-0.055597637 -0.051179446 0.11451054 -0.0017901766 0.14127728 0.041165955 0.14995533 -0.012260183
0.050363824 0.1337901 0.069408156 -0.013721287 0.08200551 0.10519053 -0.070076145 -0.046111524
0.13726738 -0.020871894 -0.12105875 -0.15995364 -0.11111117 -0.015472521 -0.10678071 -0.14405364
-0.20663536 -0.13874193 -0.041796755 0.19984004 -0.059197534 -0.03386781 0.27890116 0.11079801
0.12282387 -0.04713952 -0.013973623 0.023337591 0.06617063 -0.059526317 0.025665665 0.07627158
0.12865953 0.025102302 -0.010858792 -0.0811622 -0.074214004 -0.070950754 -0.06735155 -0.12693761
-0.019338379 -0.10288873 0.07055235 0.04790439 -0.10071485 0.0062032198 -0.08684845 -0.07192934
-0.107787795 -0.11632528 0.039902706 -0.0077886353 0.043129817 -0.104732536 0.08578494 -0.08647614
-0.002548067 0.005723173 0.0075742807 -0.0008561939 -0.008906236 -0.22009996 -0.13075471 -0.24478082
-0.20319276 -0.32680738 -0.040436365 -0.19544454 -0.050405297 -0.13039523 0.10345422 0.089633025
0.21698543 -0.044078987 0.5601879 -0.12282849 0.29644248 0.09692936 0.018009858 0.1070072
-0.005177958 -0.11373608 -0.13261649 -0.0849239 -0.014406899 -0.08763381 -0.07483097 -0.019745706
-0.06017621 0.029480742 0.09643579 -0.09046834 -0.0013211393 0.021961406 -0.071154475 -0.16361384
0.081856415 0.056388807 0.08653948 0.11685083 0.1349255 0.17838173 0.03999822 -0.015585522
0.07525663 0.057740733 -0.093180954 -0.09449975 -0.06612358 -0.025842462 0.055359565 0.046974365
-0.130896 -0.13660067 -0.009869741 -0.04366254 -0.17848906 -0.28840995 -0.32891282 -0.34004807
-0.18732597 -0.06290879 0.025166033 0.12842478 -0.04090779 -0.20158717 -0.24229743 0.17602247
0.25426918 0.3134469 -0.008032189 -0.1263117 -0.12346734 -0.008642447 -0.13649863 -0.109759
-0.20480907 -0.010723731 0.021788063 0.01830824 -0.077399455 -0.052008152 0.0017022225 0.27966562
0.24857709 0.22836968 0.17433795 0.14658725 0.15000825 0.093665816 0.10345545 -0.034601193
0.18775888 -0.1012515 -0.15600443 -0.30745646 -0.22245035 -0.23605487 -0.24811509 -0.1132874
-0.17529577 -0.07366794 -0.15256059 -0.13868521 -0.03278221 -0.024302375 0.06754872 0.046615724

lstm1.weight_hh_l0 f4 [268, 67]
00000000: 79dd b73c 9208 cb3d efbb bfbd ed6b 45bd
00000010: 2ceb e7bb cf17 a5bd 3daa 283d 3847 fbbc
00000020: 8827 e93d 0185 25bd 4fd7 b0bd ac08 c03d
00000030: 74fe f53d d557 b83d c19b c1bd f579 77bd
00000040: c09e 6b3d 08cd e53d 5493 aa3d 5bf3 d5bd
00000050: 0d79 28bd 175d e7bb e698 753d ca3d adbd
00000060: 2ac8 453d b440 eabc 7c94 1a3d b5b4 9fbc
00000070: 551d f23d 0790 52bc a613 41bd f98a a2bc
00000080: 3c0a 77bd 26e9 cebd 1c9a a13d dabf 97bd
00000090: 48dd 59bd f5fc 80bd f276 a3ba 4d91 8c3d
000000a0: a0f1 06bd 19ca 3a3a 76a2 31bd addb c33d
000000b0: 9071 93bc d3b7 b23d 1118 08bd 20bc 0dbd
000000c0: eb4f 8abd 3650 a7bd 93ee 873d f1c5 ebbd
000000d0: 265a c73c d05a d03d ebd0 b9bd 52b3 4d3d
000000e0: 5e99 f43c b0ff 3d3c 059d ed3d 51fd abbd
000000f0: 6204 933d e451 78bd ade1 943d d2c8 1d3c
00000100: 98a1 113c f20b d5bd ea2d 643c f7c7 b7bd
00000110: 55e7 cfbd 0213 8c3d 78a3 8e3a 7394 00bd
00000120: d72a 9fbc 3094 c63d 78dc 0fbb 6128 a0bd
00000130: 8bbf f13d dc0a 8bbd 1e13 b53d 1dc1 d03d
00000140: f5e5 b63c a790 e2bd 79ce 13bd 19a6 d0bd
00000150: 8753 dbbd 54e5 b8bd e9d7 84bd d0e6 e6bd
00000160: eb64 89bd 2cab c5bd 7535 c2bd 70ea a3bd
00000170: 5bcc f0bd f8bb 0f3b 7d03 2c3c a957 c0bc
00000180: e8ba f63d 986c 723d 9e60 9d3d b99f 823d
00000190: 8f1e 84bd 1579 fe3c 7f6b 1f3d 4d23 b8bd
000001a0: c65c da3d 4a9e 94bd e8cc 76bc c959 f4bd
000001b0: 6770 c3bd 46a7 c83d d275 b7bd 062d e13d
000001c0: 4076 813d a758 e73d 6572 6abd 2720 c4bd
000001d0: a92a d03d 3fb2 4cbd 0ef7 6cbc 6821 e93d
000001e0: c0c2 62bd 80e2 2bbd 9840 8f3d 9d11 e23d
000001f0: 7112 b43b b3a3 a03a 53c5 b13d 7070 4bbd
00000200: 7430 c83d d7b7 933d 3f57 863c 2cba 83bd
00000210: a7a1 dc3d ab86 04bd aa87 7bbd effd d4bc
00000220: 5d0f 9c3c 2ad9 f7bd 291f e93c 7b76 93bc
00000230: c56b 173d bf96 70bb 2dcf 83bd c2b0 eebc
00000240: ee4b 10bd da44 d43d 9751 ddbd 79d1 0f3d
00000250: 49be e23d 200b 1b3d 63c9 84bd 5f2e 133d
00000260: bbe5 483d ac75 573d dad1 253c 9528 dbbd
00000270: 7917 e03c f639 d2bc a423 853d 771c e03d
00000280: 7716 33bd e11e 083b aa1f cd3d a963 abbc
00000290: 1865 973c 1a1c 42bd 5ec3 fa3c f782 4ebd
000002a0: 667a dbbd d156 dbbd 21c8 5b3d d74c 96bc
000002b0: c6ad ae3c 2bd0 a73d f492 d13c 1eab dd3d
000002c0: 9a24 193d 92dc e3bd 766d 9e3d e830 e0bd
000002d0: 46ab 703d 30b3 1bbc e8a5 eebd 22e4 bcbc
000002e0: d36f da3d 1748 64bd 7489 58bd cf4d 873d
000002f0: b2cb cb3c 080f 4a3d fab5 9dbd a73e 2abd
00000300: d6be a2bd a5e4 e33c fbc8 cb3c c39c 7abd
00000310: 997f 88bd 67b2 683d aa95 223c c8b6 cc3c
00000320: a93f e9bc b3aa ddbd 5bb4 a03d d53f ea3d
00000330: ef35 d43d dc42 b8bd 8e37 6cbd a253 b5bd
00000340: 9d36 e23d 51df c83d 235c 61bd b988 b33c
00000350: 6455 b33d d654 bf3d 613d 68bd c444 3dbd
00000360: 5384 bfbd 0824 e1bd 7cca 06bd e926 1cbd
00000370: 29d6 953d dc41 bd3d 4773 dabc b28e 5e3d
00000380: 1cf3 483a d873 7b3d 51dd dcbd 6f37 b0bc
00000390: 7b94 26bd 3a20 ca3d bf2c 6d3d d7ac 423d
000003a0: 62b6 793d ebef a6bd 36b4 bcbd 1eda 93bd
000003b0: 4f0d aabc f890 80bd 8286 563d 5d57 d83d
000003c0: aac1 f73d 1f2a a93d 1abd 4e3d 99ae b83a
000003d0: 199a 85bd 9ad3 ac3c efdc 8f3d 4baf 643c
000003e0: 76ee 5bbc 4ab7 27bc 8de3 debd 79d1 8f3b
000003f0: 876c 9e3c 4686 d53d a87a 353d 876e ec3d
0.022444474 0.09913744 -0.09362017 -0.04819863 -0.007077595 -0.08061182 0.041177977 -0.030673608
0.11384493 -0.040410046 -0.08634817 0.09376654 0.12011424 0.09001128 -0.09453536 -0.06041904
0.057524443 0.11220747 0.08328882 -0.10446807 -0.041131068 -0.0070606577 0.05996027 -0.08459051
0.048286594 -0.028595306 0.037739262 -0.019495348 0.11822001 -0.012851722 -0.04713788 -0.019841658
-0.060312495 -0.10103063 0.07890722 -0.0740964 -0.053189546 -0.06298248 -0.0012471362 0.068636514
-0.032945275 0.0007125452 -0.043367825 0.09563384 -0.017998487 0.08726468 -0.033226077 -0.034603238
-0.067535244 -0.08169596 0.06637301 -0.11512364 0.024334978 0.10173571 -0.09073051 0.05021984
0.029858287 0.011596605 0.11602215 -0.08397926 0.0717857 -0.060624972 0.07269607 0.009630399
0.008888625 -0.10402669 0.013926962 -0.08973687 -0.10151545 0.06839563 0.0010882458 -0.031391572
-0.019429607 0.09696233 -0.0021951478 -0.07820202 0.11804112 -0.06789181 0.08841537 0.101930834
0.022326449 -0.110627465 -0.03608558 -0.101879306 -0.10709291 -0.09028116 -0.06486494 -0.11274493
-0.06708702 -0.09651789 -0.09482852 -0.080037 -0.11757728 0.0021932106 0.010498879 -0.0234793
0.12047368 0.059185594 0.07684444 0.06378121 -0.06451141 0.031063596 0.038920876 -0.08991108
0.106622264 -0.07256754 -0.015063502 -0.11931188 -0.095429234 0.0979753 -0.08958019 0.10994916
0.063213825 0.11296206 -0.057238 -0.09576445 0.10164387 -0.049974676 -0.014463199 0.11383325
-0.05536151 -0.041964054 0.06994742 0.11038516 0.0054953624 0.0012255817 0.08680215 -0.049667776
0.09774867 0.07212799 0.016399024 -0.06431994 0.1077302 -0.032354992 -0.061408676 -0.025999991
0.019050295 -0.12101968 0.028457241 -0.018000832 0.03696801 -0.0036710945 -0.06436 -0.029137019
-0.035228662 0.10364695 -0.10806578 0.035111878 0.1107145 0.037852407 -0.06483724 0.035932895
0.049047213 0.052602455 0.010120833 -0.107011 0.027354943 -0.025662404 0.065009385 0.10942929
-0.043722596 0.0020770358 0.10015805 -0.020921545 0.018480822 -0.04739008 0.030610736 -0.050417867
-0.10716705 -0.10709918 0.053657655 -0.018347187 0.021323096 0.08194002 0.025582768 0.10823654
0.03738842 -0.11126055 0.07735722 -0.10946828 0.05875709 -0.009503171 -0.11652738 -0.023058001
0.1066586 -0.055732813 -0.05286546 0.06606638 0.024877403 0.04933074 -0.07700725 -0.041563656
-0.07946555 0.027818987 0.024876108 -0.061184656 -0.06664962 0.056810763 0.009923378 0.0249895
-0.028472738 -0.10823574 0.078469 0.11437956 0.103618495 -0.089971274 -0.05767017 -0.08853842
0.11045573 0.09808219 -0.05501951 0.02191578 0.08756521 0.09342353 -0.05669916 -0.046208158
-0.09351411 -0.109932005 -0.032907948 -0.038123045 0.073162384 0.09241077 -0.026666297 0.054335304
0.00076656207 0.061389774 -0.107844 -0.021510808 -0.040668946 0.09869428 0.057904 0.047528114
0.06096495 -0.081512295 -0.0921406 -0.07219337 -0.0207583 -0.062776506 0.05237437 0.10563538
0.12097485 0.08259987 0.05047331 0.001409012 -0.065235324 0.021096993 0.070245616 0.013957809
-0.013423553 -0.010236571 -0.108832456 0.0043889848 0.01933886 0.10426001 0.044306427 0.11544519

lstm1.bias_ih_l0 f4 [268]
00000000: 8c53 bb3e 995b ccbd 3dc4 48bc d8c9 023e
00000010: 18c6 cf3d 358a 6cbc cc64 2abd 8ad6 aa3d
00000020: be4f 0bbc 3825 133e 74e9 023e 51e5 9fbd
00000030: 2cb0 b63e 6e98 c53b 8338 6fbc 6ab6 a0bc
00000040: 8f27 bf3e e79f 33be 17c4 8d3d d06d b83c
00000050: b3b6 c83d e14c 43be f069 d93d 880a 85bd
00000060: 6a3e 163d dfdf 5bbc 5ee0 9f3d 21a6 a23d
00000070: 6cd9 d73c 0b24 4bbc 538c 033e 1a09 c83d
00000080: ce2e bbbd 68d9 d23b b665 963d d5f6 b4bd
00000090: c2a6 453d f7d5 8bbd 7b8e 8fbc 5df0 443d
000000a0: a177 99bd 0151 1e3c c68c 323d 8b67 2f3e
000000b0: 8f27 5c3d a373 32bd eea3 bb3d f1ef 593e
000000c0: 9fb6 053e 0cd8 ff3d 7e7b 1abd 6bdb 983d
000000d0: a216 20bd 6bd8 ef3d 5789 303e faf0 ab3d
000000e0: b587 42bc 5e7e 1d3c 1206 aa3d 5376 31bd
000000f0: cd7d 2e3d 6849 b33e fcb6 003e 8732 983d
00000100: f5da 303e d881 423d 60b1 c53b 191e e13d
00000110: 4bed 8d3d 1e50 b6bd 914d acbd 08cd ee3d
00000120: 8d66 e63b 488e dabd ece2 eb3c 7fe0 1b3d
00000130: 2c5e 78bc c537 8a3d b968 c7bd 38a9 8f3c
00000140: a9cd 0bbd ac31 cbbb 0f5f 413a 21e3 ee3d
00000150: bb5f 14bd 3b06 f3bd b54c 9cbd 6417 41bd
00000160: a67a cd3d 637b 143d cc25 9fbd 1b27 853c
00000170: 491c 723d 05cd 61bc ce96 5b3b 8480 9fbd
00000180: 99a6 813c e1ad d5bd a34d 2bbd 3815 c83c
00000190: 9134 153d 8d3d c3bd 52be 50bc 4910 943d
000001a0: 1628 ee3d a7f0 78bc b376 4e3d 292c f13b
000001b0: c5df 9fbd 2cd6 4b3c 2de1 9ebd 2ebd b5bb
000001c0: 355e c4bd 808d 85bd eae1 0cbd 41a3 31bc
000001d0: e5fb c5bd 712d 2abd 6a3d f7bd 0101 c0bd
000001e0: 0016 e8bd eee0 a4bd 59d6 e8bb b44b a43d
000001f0: 2164 b73b 37fb ebbd 260a d03d 69c7 a7bd
00000200: 3957 55bd 2f95 f93c 4e6a 1fbd e73f 553c
00000210: 1c73 07bd 08ed 9bbb 1db8 a5bd 54a3 b23c
00000220: 430e 38bd 4c71 163d 52d0 4cbd ad62 683d
00000230: 25e8 1abd 9db7 343d 6e82 c0bd be10 883d
00000240: b415 89bc 7234 febd 0bee fa3d eb13 583b
00000250: 9a09 8ebb bf04 eb3c 822a cd3d 7e42 253e
00000260: fbf0 3fbd 3167 aabd ba2a 113e fd4f 7bbd
00000270: ff7f 0b3e d900 1d3d 4ca8 cbbd a9b6 c7bb
00000280: 7052 853d ef6d 613d 4152 e83c 48ff 40bd
00000290: e19e 923d 291e 9a3c e51b f5bd ca02 39bd
000002a0: 1401 bdbc 9ac5 343b c10f ce3c b4c9 dcbd
000002b0: 6dcc f63d 42c4 a13c 779b 043d 52f0 843d
000002c0: b75d 25be 237c ee3d f6df b8bd aaf4 f73d
000002d0: b6ab e53c 0a5d debd 1cfb 423b 4626 013d
000002e0: 45dd 9ebd eb6c 9fbd d564 48bd c7f1 6e3d
000002f0: 9b8d 2f3c 2026 873d 8f4a 0fbe 26b3 493c
00000300: fabf f33d 181f d73d b4cc 39bd e34a 65bd
00000310: 1948 d73b f367 eabc 612a 8d3c 63f0 cd3d
00000320: efdd 49bd 7a82 883e 4fbe a1bd 9151 3d3d
00000330: 7f7b c03d 365b b73d 0bb8 f4bc 6951 e7bd
00000340: b01a 043d 7c0b 523d 6067 1d3e b170 543e
00000350: bf22 98bd 95b8 bd3e 776c 07be d802 e5bc
00000360: b0af ce3c 54fd ad3e 87a5 cf3c 583d a13d
00000370: 2d72 763e a1ad 003e 658f 7dbd bfbc 62bd
00000380: 7fe1 b9bd 4aae 4d3c 1a05 843d b1e4 833c
00000390: a4f6 3c3d 5a2e 423b 32f7 99bd 8036 25bd
000003a0: 6b65 30bc 6ed1 02be dad9 793d 835a 7e3d
000003b0: 0381 3bbe add9 f03d 8423 37bd 2b16 853c
000003c0: 694d 623d 6d13 73be 77f2 1dbc 78bb ea3d
000003d0: 8257 ed3d 97b9 083d 2c68 d0bd 59d2 2bbd
000003e0: 506b 5a3e e2b3 ee3d fc9c cf3d 2242 08be
000003f0: 32e7 ad3d a7e5 f6bd 6aa7 b73d 7cb5 583e
0.3658718 -0.09978408 -0.012253818 0.1277231 0.10145205 -0.014437248 -0.041600034 0.08341701
-0.008502899 0.14369667 0.12784368 -0.078074105 0.35681283 0.006030134 -0.014600876 -0.019618232
0.37334868 -0.17541467 0.06922167 0.0225133 0.09800472 -0.19072296 0.10615909 -0.06496149
0.036680616 -0.013420074 0.078064665 0.07941843 0.026348792 -0.01239873 0.12846498 0.09767361
-0.09139787 0.0064346083 0.073436186 -0.08836142 0.048254736 -0.0682792 -0.017523995 0.04808079
-0.074935205 0.0096628675 0.043591283 0.17129342 0.053748664 -0.04356731 0.091621265 0.21282937
0.13057946 0.124923795 -0.037715428 0.07463726 -0.039084084 0.117112 0.17239891 0.08395572
-0.011873175 0.009612648 0.08301939 -0.043325733 0.04260044 0.35016942 0.12569803 0.07431512
0.17271025 0.04748711 0.0060331076 0.10992069 0.06930026 -0.08902 -0.08413232 0.116602
0.007031268 -0.10671669 0.028794728 0.038055893 -0.015159171 0.067489184 -0.09736771 0.017536744
-0.03413168 -0.0062009897 0.00073765306 0.11664415 -0.03622411 -0.11866423 -0.07631818 -0.047141448
0.10033159 0.036250483 -0.07770881 0.016253999 0.059109006 -0.013781791 0.0033506635 -0.07788184
0.01582651 -0.104335554 -0.041822087 0.02442418 0.036427084 -0.09533224 -0.012740688 0.07229669
0.116287395 -0.015194095 0.05040617 0.0073600006 -0.078063525 0.012441199 -0.077577926 -0.0055462336
-0.09588281 -0.065211296 -0.034395136 -0.010842145 -0.09667186 -0.041547243 -0.12072261 -0.093751915
-0.11332321 -0.080507144 -0.0071056304 0.08022252 0.005596653 -0.11522525 0.10158186 -0.08192331
-0.052085135 0.030466644 -0.03891974 0.013015724 -0.03306876 -0.004758481 -0.080917574 0.021806397
-0.044935476 0.036729142 -0.050003357 0.05673473 -0.037819047 0.04412042 -0.093998775 0.06643818
-0.016733982 -0.12412347 0.12252434 0.0032970856 -0.0043346407 0.028688787 0.10017873 0.16138646
-0.046860676 -0.083204634 0.14176455 -0.06135558 0.13623045 0.038330887 -0.099442095 -0.006094773
0.06509864 0.05503648 0.028359534 -0.047118455 0.0715921 0.01881321 -0.11968211 -0.045168675
-0.023071803 0.00275836 0.025153996 -0.10780659 0.1205071 0.019746903 0.032374825 0.0649115
-0.1614903 0.11644771 -0.09027092 0.12107213 0.02803598 -0.108575895 0.0029751724 0.03153064
-0.077570476 -0.07784446 -0.048924286 0.058336046 0.010714914 0.06599069 -0.13993286 0.012310779
0.11901851 0.105039775 -0.045361236 -0.05597962 0.006569874 -0.02861402 0.017232122 0.10055616
-0.049283918 0.26662046 -0.078976266 0.046220366 0.09398555 0.08952944 -0.029872915 -0.11294825
0.032252014 0.051280484 0.15371466 0.20746113 -0.07428502 0.37054887 -0.1322497 -0.027955458
0.025230259 0.33982337 0.025347484 0.078730285 0.24066992 0.12566234 -0.06190433 -0.055355784
-0.09076213 0.012553761 0.064462855 0.01610026 0.046133652 0.0029629678 -0.07517852 -0.04033518
-0.010766367 -0.12775204 0.060998775 0.062098037 -0.18310933 0.11760268 -0.044711605 0.016245922
0.055249605 -0.23737879 -0.009640328 0.11461538 0.115889564 0.033380117 -0.10176119 -0.04194865
0.21329999 0.11655404 0.10137364 -0.13306478 0.08491363 -0.120555215 0.089674786 0.21162981

lstm1.bias_hh_l0 f4 [268]
00000000: 392e 103e 0542 48be b98d 48bd a6ec 96bc
00000010: f5b1 433e bde3 7ebd 963d 4a3d 7d21 023e
00000020: 747f cbbc 5fd8 0b3c 9a6d 283e 6c14 3dbd
00000030: 6a8c 953e d0ee 6dbd b331 a8bd 52af f2bd
00000040: 9d04 c63e f30e 46be 11e1 9a3d d2a7 3f3e
00000050: e4e6 fa3c cbb7 71bd 6a6a f23d a232 923d
00000060: 8dd8 023e 0601 1cbd a0fd c53d d366 a23d
00000070: e5fa 033d 24dd 08be a230 a33a 5c44 6d3d
00000080: e763 f53c 3574 0bbd 9836 9d3d 2d0b dcbc
00000090: 1be9 0ebc 3b74 1f3c 3653 123e 0b21 12be
000000a0: 3aa1 53bd fe16 df3b 3fc5 8d3b 52eb b6bc
000000b0: ff54 0dbd f637 e43c 396d 673d 2755 e33d
000000c0: 6a0c 993d 0bee 673d 34d5 6b3c 1997 943c
000000d0: 8bd9 3abe 17c1 e33d ddf5 4d3e 5288 db3d
000000e0: 4cbd d4bd 11c7 16bc cd1b 3b3e bfef d03d
000000f0: a6f9 82bd 3aed 8d3e 6ced 023d 8a02 c53c
00000100: d570 a83d 6d10 c33d 6aa7 03be 0f4a 1bbc
00000110: 2f26 d2bd 6bf8 d53d a103 463d 04df 373d
00000120: 3cd6 81bd 5b2e 52bd 694b 633c b3d2 aebc
00000130: 9236 f5ba 62eb 433c fb33 5d3a eeff d6bd
00000140: c829 ef3d 8dcd 51bd c3d0 893c af55 a2bd
00000150: 8c72 dc3d 40a3 68bd dc87 893d d0da 3e3d
00000160: 58dd acbc 1aa8 e23c aca9 b8bd e13f e1bd
00000170: f3b5 873d e3f5 9c3d af6c cebd c379 27bd
00000180: 625e e6bd 64d7 cebd 4852 a13c b6eb efbc
00000190: e06a ef3d 2dd2 ba3d 56d1 93bd b7b9 cb3d
000001a0: 8d04 923d 664b de3d f376 08bd 7e40 a9bb
000001b0: 6143 87bd d7ae 65bd b640 e43d 4855 bf3d
000001c0: 3e8b f9bd 4a61 823d 5095 34bd 56b9 c4bd
000001d0: 8a16 653d eb62 a53c 5820 0dbd 7355 f93d
000001e0: 610e 9bbd 34d3 943d 769e 9c3d 3ea7 78bd
000001f0: 770d 8b3d a931 79bd bd07 67bd d8f0 aa3d
00000200: bb1c d23d 6f78 a8bd c8c0 f13d 2c6f efbd
00000210: 79a4 4f3d e723 dcbd 42e8 2b3c 8c7c abbd
00000220: a33d 253d 21bd e0bd d601 22be 1950 8ebd
00000230: b7e8 163d 04ed fc3c 0783 663a 30f4 113e
00000240: a874 45bd 9602 103d a485 e1bd cae1 35be
00000250: 98f6 4d3b 9a9d 2b3d 0a10 a43c cbda aa3d
00000260: 670e f33c a04c a33c d6d8 8f3d d352 f43c
00000270: dd2e b1bd 7ec4 e93b 20e2 99bd 07de 203d
00000280: cd9d 3bbd 57af 273c eeed 58bd 2e22 4a3d
00000290: 25c3 c7bb dd7c c93d 1d36 a6bc 1ab2 1b3e
000002a0: 4c98 91bd bc6b 3b3d b97c 513d 8dc9 263b
000002b0: 3d27 b2bd 42fd a5bd 07a5 bb3d 885b 813b
000002c0: 8f4e 1dbe b9b3 9b3d a949 2b3d e642 bcbd
000002d0: 6532 9dbd e68d 3ebe 36d9 293c f388 bd3d
000002e0: abdd b1bd 405d 1f3d 675e cabc e4bd a5bd
000002f0: db1e a53b 502c 41bb 82f6 0abd 982c c6bd
00000300: bea3 2abc 6194 4ebd e676 183b e586 263d
00000310: 0d8c 6c3d 7db1 c9bd eaf4 073e e571 db3c
00000320: 268f b03d c69e 173e 2bb2 09be 2925 583d
00000330: 1df7 e53d 0835 4a3e 9484 a3bd 4676 55bd
00000340: 413b 953d e21d a33d fb16 2f3c 508f 163d
00000350: 85e3 b1bd 9d20 203e 1d47 9bbd 1263 833b
00000360: aa0c c2bd 8c92 a03e 0ca8 1dbe 4e56 dd3d
00000370: 256e 823d 8095 663d 7e70 183c 0645 983c
00000380: 64e9 fc3d 53bb 9e3d ce9b 923d ccd2 cf3d
00000390: ce07 abbc c194 a33d ac7b a6bd 0aa7 c33c
000003a0: 6eb6 a0bd 307a c6bc 9eee bfbc 1264 ce3c
000003b0: 2f22 53be 6a4b fe3c 70fa e23d 9320 713d
000003c0: ae74 cebd 4e61 b2bd bcca 63bd af55 dabc
000003d0: bae0 fabc bf2a adbd 2aa9 e1bd 536a 203d
000003e0: d0e6 d9bb acf1 31bd a404 983d 360b 1fbe
000003f0: 5622 4e3c ef02 45bc deb9 d83d af19 f03d
0.14080133 -0.19556434 -0.048963282 -0.01842339 0.19110854 -0.062228907 0.04937514 0.12708087
-0.024841048 0.008535474 0.1644806 -0.046162054 0.2920869 -0.058089077 -0.082126044 -0.11849846
0.38675395 -0.1934164 0.07562459 0.18716362 0.030627675 -0.05901317 0.11836703 0.07138564
0.1277792 -0.038086914 0.09667516 0.079297684 0.032221694 -0.13365608 0.0012450407 0.05792652
0.029954864 -0.03404637 0.076764286 -0.026860798 -0.008722569 0.009732301 0.14289555 -0.14270417
-0.05166743 0.006808161 0.004326492 -0.022329006 -0.034504887 0.027858716 0.056500647 0.11100226
0.07473071 0.0566235 0.014394093 0.018138455 -0.18247049 0.11120813 0.2011332 0.107193604
-0.10387668 -0.009202735 0.18272324 0.10201978 -0.06395273 0.27720052 0.031964704 0.024049062
0.08224646 0.09524617 -0.12856832 -0.009478106 -0.10261189 0.104477726 0.048343305 0.04489042
-0.0633969 -0.05131374 0.01387296 -0.021340704 -0.001870828 0.011957975 0.00084382267 -0.104980335
0.11677891 -0.05122142 0.016823178 -0.07926499 0.107640356 -0.056796312 0.06715366 0.046595395
-0.021101639 0.027668048 -0.09016737 -0.10998512 0.06626501 0.07664087 -0.100793235 -0.040887605
-0.11248471 -0.10099676 0.019692555 -0.0292872 0.11690307 0.09122119 -0.07217662 0.09947532
0.07129774 0.10854225 -0.033316564 -0.005165159 -0.066046484 -0.056074943 0.11145155 0.09342438
-0.121847615 0.06366213 -0.044087708 -0.096056625 0.055929698 0.02018877 -0.034454674 0.12174501
-0.07571102 0.07266846 0.076474115 -0.06070637 0.067896776 -0.060838375 -0.056403864 0.083467185
0.10259386 -0.08226096 0.11804348 -0.11691126 0.050693963 -0.10749035 0.010492386 -0.08373365
0.040341984 -0.109735735 -0.15821013 -0.06948871 0.036843028 0.030874737 0.00087933283 0.14253306
-0.048206955 0.035158716 -0.11011818 -0.17761913 0.00314275 0.041898347 0.02002718 0.08342513
0.029669954 0.019933999 0.0702378 0.02982465 -0.086515166 0.0071340194 -0.07513833 0.03927424
-0.045804787 0.010234675 -0.052961282 0.049349003 -0.006096261 0.09838269 -0.020289475 0.15204659
-0.071091264 0.04575704 0.051144335 0.0025449723 -0.0869889 -0.08104946 0.09162336 0.003947679
-0.15361999 0.07602639 0.041818295 -0.09192447 -0.076756276 -0.18608817 0.0103667285 0.092546366
-0.08684858 0.03890729 -0.024703218 -0.080928594 0.0050390786 -0.0029475875 -0.033926494 -0.09676474
-0.010415016 -0.050434474 0.0023264228 0.04065599 0.05775075 -0.09848306 0.13277021 0.026787708
0.086210534 0.14806661 -0.13446872 0.052769814 0.11228774 0.19746792 -0.07984272 -0.052114747
0.072866924 0.07964684 0.010686631 0.036757767 -0.08685974 0.15637441 -0.07581923 0.004009613
-0.09475072 0.31361806 -0.15396136 0.10807477 0.06368665 0.056294918 0.009304164 0.0185876
0.12349203 0.07750573 0.07158624 0.10147628 -0.020877745 0.07987357 -0.08129057 0.023883361
-0.07847296 -0.024228185 -0.023429211 0.025194202 -0.20618509 0.03104182 0.110829234 0.058868956
-0.10080849 -0.08709966 -0.055613264 -0.026652185 -0.030624736 -0.08455419 -0.110185936 0.0391639
-0.0066498294 -0.043443367 0.0742276 -0.1553162 0.0125814285 -0.012024625 0.10582326 0.11723649

lstm2.weight_ih_l0 f4 [224, 67]
00000000: 1f2a 273d 59de 5fbd d503 423e 88d7 623d
00000010: d9ef ed3d acdb 52bc 6c37 35bd ad92 90bd
00000020: be3d f63d d2d2 143c f61d a7bd 7a61 babc
00000030: a5b0 ecbc 8c3a 85ba 8d1e 87bd ae9c 09be
00000040: 0c57 8fbb d9c7 07be 251a 883e 8e82 973c
00000050: b13e cf3d 1d50 243e 4264 bc3b d377 06bd
00000060: 90fe 31be 59e9 a9bc c72e 8fbd c2f3 3abe
00000070: 8d94 013d 19cb b53c eba1 f0bd d3bb e33d
00000080: 7222 29be cc5f 993d 5ba1 acbd 0569 05be
00000090: 1341 463b 6fd7 66bd a77d ba3d 6f9c f73d
000000a0: 93c1 01bd 2de8 2abc 8c3f 90bc 3b9d c63d
000000b0: d9bd 853d 140e 5bbd 6f4e 693d b781 eebc
000000c0: 3be4 4b3e 04d2 2ebe 8958 5bbe b00a b2bc
000000d0: 488f e43b c48b 223e dc6a e7bd 306d d03d
000000e0: 75ec 31bd fabf 46bd 7461 10be 3008 1ebe
000000f0: c6e4 a3bc 9327 8e3d 007a 7b3e 9346 5e3e
00000100: 06a3 353e e0ed 593e 8b87 2abe 4ac4 c33d
00000110: 3242 7d3c 376f 293e 365e 503d c517 883e
00000120: a2a4 e53c afd8 8bbb f0c7 373e 9a87 643e
00000130: 0cae 69be ed4b c33d dd76 2e3e 82f5 1b3e
00000140: 29f5 593d 0a42 013e c693 17be 1813 24bc
00000150: 7542 0cbe 7d1a 513e 56d4 083d 147f c1bd
00000160: 5bd6 12be 35e1 22bd f649 76be d0ae 463e
00000170: 7112 ab3d f8b6 acbd 7b5f cebd fb38 0b3e
00000180: 039b 8b3d c0bb 8b3c 4ad4 ddbd 2be4 32bd
00000190: 499d e5bc b98c 3cbe 4683 68bc 22fd 993d
000001a0: e3ed 1f3e 5477 2c3e c555 bbbd 403b 4cbe
000001b0: 08e5 e2bb 1c75 10bd 2501 26bd 3ac5 813e
000001c0: f02f 413d f1ba d7bd b957 6e3e f2bf a03c
000001d0: b56e 85be 870f 47be 9067 2bbd e0bb 9fbd
000001e0: ca99 b9bd c0f8 323d 88e7 46bd 6b1a 653d
000001f0: cc3c 823d 1dfc c9bc 8b8c 09be c7f9 28be
00000200: 9ccc 4f3e b445 1d3a 7791 c93d 9694 85bb
00000210: 5eb5 8b3d b390 a3be e9d0 b5bd 4747 bdbd
00000220: 9081 573e 5c73 9ebd 56b4 313d b93a efbc
00000230: aa9c 94bd bd9a 913d 43da 763e e3c3 70bd
00000240: b883 4d3c 3bb6 79bc bbad c43d fd33 943b
00000250: c7cb eb3d b9d1 18be 3b29 03bd 5ba1 e2bd
00000260: 2f80 d23d 86c4 333e 862e 9e3d 16b6 37bd
00000270: b00b f9bd bd0b a9be d3d3 bd3d be1c 1a3e
00000280: 8eb2 66bd e6b2 b3bd 2408 a83d cb98 e2bc
00000290: 1733 2ebd 3ba9 5b3d 25be d33c c215 e9bc
000002a0: adab 983d 96a7 4abc 1efc 203d d673 2e3e
000002b0: 18af e9bd 3ed8 9a3d d570 38bd 2ad9 d0bd
000002c0: e656 ca3c e838 29bd e2f4 da3d baea 00be
000002d0: b807 113e 81c6 4a3e a213 0cbe e24f 73bd
000002e0: c47a 20be 8d8d 36be ca39 b7bd 232c ffbc
000002f0: b358 a3bd 871f b23c 6069 e6bd bacd 42bd
00000300: 1d66 2fbd 24c4 86be c701 f2bd 77de bf3e
00000310: 8b23 273e 7365 083e 562d 173d c0b5 203e
00000320: 6941 09be e97c 8abe 75e6 76bd 5c2d 0bbc
00000330: 62d6 89be f4ff 30bd a7cb ea3d 82fb 0dbd
00000340: 82c6 28be 9797 0bbe 4ee0 793e bac2 293d
00000350: ec1e f4ba 04fd 55be 9e82 1bbe f9ac c1bc
00000360: e020 68be 2ce6 843d 0e1b f43d adec 4e3d
00000370: a209 aebd 1310 80be 11e8 8bbd 5ea3 693e
00000380: 21ab 24be ba5f d4bc a523 653e f85f 133e
00000390: 3516 44be 7e32 263e 3599 353d 2534 683d
000003a0: f021 263c 20aa 813e 8a4b f5bb 60a3 863e
000003b0: bcb3 353e 97e7 2b3e 1b61 1f3e de84 813e
000003c0: af2a febd 6036 4a3d 3dc3 99bd eb80 0dbe
000003d0: 0207 9fbd cf79 c5bd 4bcd 593d 44e3 f33c
000003e0: 05bb 7d3d 7883 203d 3635 6d3c d2cf 813d
000003f0: ee3d c4bd b8ba 0dba bb1b 87bd 1c8c 01bd
0.040811654 -0.054655407 0.18946774 0.055381328 0.11618013 -0.012869757 -0.044242308 -0.07059226
0.12023495 0.009083467 -0.081600115 -0.022751559 -0.028892824 -0.0010164543 -0.06597624 -0.13438675
-0.0043743905 -0.1325983 0.26582447 0.01849487 0.10119379 0.16046186 0.0057492564 -0.032829117
-0.17382264 -0.020741152 -0.06991344 -0.18257049 0.03163581 0.022191571 -0.117496334 0.11119809
-0.16517046 0.07488975 -0.084292136 -0.13028343 0.003025119 -0.056357797 0.091059975 0.12090384
-0.031678747 -0.010431332 -0.017608427 0.09697958 0.06530351 -0.053480223 0.056959566 -0.029114587
0.19911282 -0.17072302 -0.21420492 -0.021733612 0.0069750883 0.15873629 -0.11299679 0.10177076
-0.043438394 -0.048522927 -0.14099675 -0.15432811 -0.020006549 0.06941142 0.24558258 0.2170661
0.1773797 0.21282148 -0.16653268 0.095589235 0.015457677 0.16546331 0.050871097 0.26580635
0.028032605 -0.004267774 0.17947364 0.22317353 -0.228203 0.09535966 0.1703753 0.15230373
0.05321232 0.12622848 -0.14802465 -0.010014318 -0.13697226 0.2042026 0.033405624 -0.09448066
-0.14339583 -0.039765555 -0.24051651 0.19402623 0.08353127 -0.08433336 -0.10076805 0.13595955
0.068166755 0.0170573 -0.108315066 -0.04367463 -0.028029101 -0.18413056 -0.014191454 0.075189844
0.1561809 0.16842395 -0.091472186 -0.19944477 -0.0069242753 -0.035267934 -0.040528435 0.25345784
0.047164857 -0.10533703 0.23275651 0.019622777 -0.26061025 -0.19439517 -0.04184681 -0.07799506
-0.09062536 0.043694258 -0.04856065 0.055933397 0.06359252 -0.02465635 -0.13432519 -0.16501532
0.20292896 0.0005999461 0.09842198 -0.0040765507 0.068217024 -0.31946334 -0.08877737 -0.09242111
0.21045518 -0.07736847 0.043384872 -0.029202806 -0.07256444 0.07109592 0.24106698 -0.058780562
0.012543611 -0.015241201 0.09603449 0.004522799 0.11513477 -0.14923753 -0.032021742 -0.11065932
0.10278355 0.17555436 0.077237174 -0.044851385 -0.12160432 -0.33016768 0.09268918 0.15050027
-0.056322627 -0.087743565 0.08204678 -0.027660748 -0.04252919 0.053628188 0.025847504 -0.028452758
0.074546196 -0.012369057 0.039302938 0.17036375 -0.114103496 0.07560776 -0.04502948 -0.10197671
0.02469964 -0.041314036 0.10691239 -0.12589541 0.141631 0.19802286 -0.13679364 -0.059402354
-0.15671831 -0.17827435 -0.08946569 -0.031148976 -0.079759024 0.021743549 -0.112505674 -0.047559477
-0.042821992 -0.26321518 -0.11816745 0.37474415 0.16322152 0.1331995 0.03690847 0.15694332
-0.13403858 -0.27048424 -0.060278375 -0.008494701 -0.26921374 -0.043212846 0.11464625 -0.034663685
-0.16481975 -0.13632046 0.24401972 0.04144547 -0.0018624938 -0.20897299 -0.15186545 -0.02364205
-0.22668791 0.06489214 0.11919223 0.05051868 -0.08497931 -0.25012264 -0.068313725 0.22816226
-0.16080905 -0.025924552 0.22376879 0.14392078 -0.19149096 0.16230199 0.044335563 0.056690354
0.010139927 0.25325108 -0.0074858116 0.2629652 0.17744344 0.16787563 0.15564387 0.25296682
-0.12410485 0.049368262 -0.07507942 -0.1381871 -0.077650085 -0.09642374 0.0531743 0.029771455
0.061945934 0.03918788 0.0144780185 0.06338467 -0.09582125 -0.00054065464 -0.06597086 -0.03162776

lstm2.weight_hh_l0 f4 [224, 56]
00000000: 6ffe 243d 4790 38bd 1ae8 e4bb 04b7 d5bd
00000010: 0594 fb3d 1cce 703d 0b3b ab3d 6e64 f83d
00000020: 8e61 ab3d 1130 4a3d 54df 5ebc b16a 663b
00000030: 1ed8 cebd 4d96 f53c e112 8e3d 8f1d 06be
00000040: 984f afbd 7900 773d 2596 87bd 3f49 c93d
00000050: 00f8 113c 1265 39bd 316c adbd e77a 8ebd
00000060: 41db 0c3d 77ae 01be f43b fd3a ebbb aa3d
00000070: 4b72 7dbd 8fdc 93bd 72e3 febd 756c 6fbd
00000080: 18a5 c7bd ea0e 86bc d0b6 893d 573d dd3d
00000090: ceff 48bc 848e e6bd 6fb7 ac3b 16c2 aebd
000000a0: b3b7 fe3d 2c75 e23d a198 883c f3fe acbd
000000b0: 1b90 8a3d 7991 acbd 44f4 373d f309 96bd
000000c0: 77cc b3bc 4036 2ebd 15f8 ddbc 2892 053e
000000d0: 7c8b 1abc f96d e83b 2216 d63d 1ee8 47bc
000000e0: cc0e fdbd e6ed ff3d 5756 b7bd a7de 89bb
000000f0: ee5c b13d 9722 453d d3ca b2bd 1b61 e0bd
00000100: 75a5 883c 835f 233d 1575 883d cfff b13c
00000110: b263 d83d e74a df3d 662c 00be a9ee fa3d
00000120: a642 03be 7702 99bd 6e13 d0bd 47f6 f7bd
00000130: 8e72 c7bc dc04 063d d157 8bbd b243 cb3c
00000140: b5a9 17bd 3a15 00be 3bb6 a13b 1c49 ccbd
00000150: 07ad 04bd 65cd fabd 9a97 c6bd d0d8 053e
00000160: e7bf cabd f45d 023e 5ab7 93bd a72e c9bd
00000170: f5a6 bcbd 049c 6abd cf47 c1bd a40e c13d
00000180: 2e6a e53d 3d3d 02bc f6aa 863d 2c42 983d
00000190: c7ed 403d 2a6f ff3d 8492 c33d 642f e5bd
000001a0: 38ca eb3d e726 063e 7aa3 043e 970e 3e3d
000001b0: ad4e 353d 2840 80bd 2f23 b73d 43c4 4a3d
000001c0: b224 4b3c 0f87 edbd 0679 abbc f243 edbd
000001d0: 556d cb3d 67a5 b03b 11ca af3d 7672 e33d
000001e0: f686 f73d b32d 463d d4c7 7c3d 0d7f 593d
000001f0: 6887 c2bd 91de bdbc 37f3 be3d 9c4f 1e3d
00000200: c9e1 6f3d ca3d df3d b78b 99bb 5f66 62bd
00000210: 4942 b1bc 6f31 bd3d a8c8 27bd 5f7c 7f3c
00000220: f36f 2abd 1c0a 14bd b943 e9bd 1eed fa3d
00000230: 099c c23d 13d0 d7bc 505e c8bd b3be 613b
00000240: be5d e13d 2e94 ad3d 09e4 f3bc 19af 983d
00000250: d968 11bd 837d 003d 9400 393d 94e3 f13d
00000260: e88a 2fbd f551 023e 7a9a 04be 5047 5f3d
00000270: a5d3 073e 11dd e73d 7ea7 dc3d 4d40 d8bd
00000280: 9435 d53d e770 aabd b623 b5bd 37ba aabd
00000290: f5a0 58bd 64dc d33a e0a5 203d 0125 ba3d
000002a0: 41ca e23d 5a1a 84bd 88fe 3b3b 7841 b7bc
000002b0: b605 40bd ebe7 65bd d2be 17bc 549a 643c
000002c0: 6988 c33d 2f6b bfbc 985b 95bb 0f15 f7bd
000002d0: de7b 2dbb 31dd 05be ad09 c33d d200 f93d
000002e0: b62b fb3c af4f d4bd cdf4 d23d ba6a 033d
000002f0: 70ba 89bc 0c83 c83d d2e7 883d 5a48 663c
00000300: 2310 92bd a3c4 f53b 2cc9 83bd 5c27 313c
00000310: 3d23 c53c 19d1 c6bb aa4e 3dbd e9c0 5e3d
00000320: 7a2e e0bc 2e50 64bd 5210 b63d 880a ef3d
00000330: 3884 f3bc 3533 4abd ef3b 6abc c8d2 fa3c
00000340: 9eef bbbd 7216 633d 0551 fd3d 7a52 bcbd
00000350: b51d 9dbd 3eef bfbd e3e5 c7bd e536 5a3d
00000360: e238 4fbc b9c6 f8bd 47b7 fcbd 3099 c03c
00000370: 539b b9bd 0163 843d 95cf 2bbd 6f72 d7bb
00000380: 2fcf d83d 548d a5bd 24ec 3b3d a4b2 ebbd
00000390: b063 a6bd 65ee c03d 34b2 9abd 729b 69bb
000003a0: c932 203d 2923 be3d f4a1 c23d 79ea 7c3d
000003b0: 873d f23c fad2 fe3d 40ba 6abd ff63 c0bd
000003c0: 203b d03c a575 123d 11a6 d23d 6fea 993d
000003d0: c640 bfbd 13f8 e93d a7c9 1f3d 89f8 58bd
000003e0: 13c6 023e 11e5 d5bd 2b3d c4bd 99bc c2bd
000003f0: 6be3 b1bd 1218 8fbd df90 07be 2895 78bd
0.04028171 -0.04505947 -0.0069856765 -0.10435298 0.12284092 0.05879031 0.08360871 0.121285304
0.083682165 0.049362246 -0.01360305 0.0035158808 -0.10099815 0.029978896 0.069371946 -0.13097213
-0.08560103 0.060303185 -0.06620435 0.09828424 0.008909225 -0.045262404 -0.084679015 -0.069570355
0.034388784 -0.1266421 0.0019320236 0.08336624 -0.061876576 -0.072198026 -0.124457255 -0.058453042
-0.09748286 -0.016364533 0.06724322 0.10802715 -0.01226802 -0.112576514 0.0052708904 -0.08533113
0.124373816 0.11057505 0.016674342 -0.08447065 0.06765767 -0.08426184 0.044910684 -0.073261164
-0.021948082 -0.042532206 -0.027095834 0.13044035 -0.00943267 0.007093188 0.1045344 -0.012201337
-0.12356338 0.124965474 -0.08952015 -0.0042074504 0.08660303 0.04812869 -0.08730092 -0.109560214
0.016680459 0.03988601 0.066629566 0.021728424 0.1056589 0.10902958 -0.12516937 0.12252552
-0.12818393 -0.07471173 -0.10159956 -0.121075206 -0.024346616 0.032719478 -0.06803859 0.024812553
-0.03702708 -0.12508097 0.0049350536 -0.09974882 -0.032391574 -0.12246207 -0.096968845 0.13070989
-0.09899884 0.12731153 -0.07212706 -0.09823351 -0.09211532 -0.057277694 -0.094375245 0.094266206
0.11201893 -0.007949171 0.06575577 0.07434496 0.047101762 0.12472375 0.0954943 -0.1119068
0.115131795 0.13100778 0.12952986 0.046400633 0.044264484 -0.06262237 0.089422576 0.049503576
0.012398886 -0.11598026 -0.020931732 -0.11585225 0.09932963 0.0053908112 0.08583463 0.11105816
0.12086289 0.048383426 0.06171401 0.05309968 -0.09498483 -0.023177417 0.09323733 0.03865014
0.058564935 0.10900457 -0.0046858448 -0.05527341 -0.021638053 0.09237944 -0.040962845 0.015593617
-0.04161067 -0.036142454 -0.1138987 0.12252258 0.095024176 -0.026344335 -0.09783614 0.003444594
0.11004208 0.08475529 -0.029771822 0.07455272 -0.03550038 0.031369697 0.045166567 0.11810985
-0.04285708 0.12726577 -0.12949553 0.05451137 0.1326433 0.11321462 0.10774134 -0.105591394
0.1041061 -0.08322316 -0.08844702 -0.08336299 -0.052887876 0.0016163704 0.03922069 0.09089089
0.11073733 -0.06450339 0.0028685648 -0.022370085 -0.046880446 -0.056129377 -0.009261804 0.01395281
0.095475025 -0.023366539 -0.004558038 -0.120645635 -0.0026471536 -0.13072659 0.0952333 0.121583596
0.030660491 -0.10366761 0.10300598 0.032084204 -0.016812533 0.0979062 0.06684841 0.014055336
-0.07131984 0.0075002476 -0.06434855 0.010812607 0.024064654 -0.006067407 -0.046217598 0.054383192
-0.027365912 -0.055740528 0.088898316 0.116719306 -0.029726133 -0.04936524 -0.014296516 0.030618086
-0.09176563 0.055441327 0.12368969 -0.09195419 -0.07671682 -0.09371804 -0.09760644 0.053275008
-0.012647839 -0.12147278 -0.12339645 0.023510545 -0.09062829 0.06464196 -0.041946013 -0.006574921
0.10586392 -0.08083597 0.045879498 -0.11508682 -0.08124483 0.0942047 -0.07553521 -0.003564563
0.039110932 0.0928405 0.09503546 0.061747048 0.029570354 0.12442584 -0.057306528 -0.09394073
0.025418818 0.035756726 0.10285581 0.07515418 -0.093385264 0.114242695 0.03901067 -0.052971397
0.12770872 -0.104440816 -0.09581979 -0.095086284 -0.08685955 -0.06987013 -0.13238858 -0.06068912

lstm2.bias_ih_l0 f4 [224]
00000000: 0599 a33d ccfe b6bd 9231 873d 089c c53c
00000010: f047 d43c e207 733d a07d ae3c 9ba6 ad3d
00000020: ba5b 0f3e 5b21 71bd 0cc5 463d 9622 c93d
00000030: d1b4 993a 00b3 9d3d b587 2ebe 84ca 25be
00000040: 93f7 26bd 5681 36be 33a3 18be 49c8 633c
00000050: d1fd 1cbd 5c0c 16be 868a 0e3e 5838 473d
00000060: 559b 613d a016 8abb 6f8e 873d 2c0b ddbb
00000070: 9d75 ac3d 20cd 813d 0c6f f3bd 5eab 32be
00000080: 9de9 f63c cba5 18be 85ac 033e 878d 403c
00000090: 0a04 27be c879 ed3d 845d c1bd 6a23 87bd
000000a0: 3075 a23d cda4 b53d 30c6 08bc 18b1 a0bd
000000b0: 06df 8dbd 716c 1ebd c8d0 abbd dccb 85bd
000000c0: 5177 04be 6112 9ebd 95da 583e 3795 e13d
000000d0: 4506 3ebd 9b65 833d 44e0 28bd b949 ce3c
000000e0: 0b4d aebd bdc8 07be bcb1 1a3d 1e7c 0f3d
000000f0: c9c3 12bc 9713 6f3d 3b26 103c 7f46 553d
00000100: a415 383a 5c55 f1bd 5ef9 07be 78a0 11bd
00000110: 2c92 ef3b e6db cabd d814 343d 3d26 5abd
00000120: 6c06 d5bc 9cf5 463d a44f a2bc c080 d1bd
00000130: 218f b33c b4f6 07be 8507 e53d 9284 a7bd
00000140: 643d 883d 1dea 7ebc 5763 01bd 1d27 ca3d
00000150: 3afb bcbd 53b8 ccbd bc66 f8bd 3394 adbd
00000160: c560 ec3d e74b 4cbd a4d9 7e3d 0bf8 21bc
00000170: bcc6 6dbd d27d 9abd 61f4 013e 0a73 eabd
00000180: 7ec2 2d3d 00a4 c8bb 9520 0abd 3b0c f93d
00000190: 4d8d 313d de63 08be 45b5 243b d635 e4bb
000001a0: 4ade cb3d 655f cabd 4291 4d3d 1417 f33c
000001b0: 2394 943d e089 36bd d29b c03d 8122 4bbd
000001c0: 0808 93bc 798d a33d fe9e 85bd a434 ff3c
000001d0: 9710 54bd 1026 7b3d b66b 893d 2eb9 98bd
000001e0: 058a 303d 1b90 45bd 1151 1dbd 7f65 84bd
000001f0: 2901 493d cf2e 713c d22d 813d d6b5 d83c
00000200: 8272 41bd b406 2c3c 019b d6bd 82ad 9a3c
00000210: b54f ee3c 80fd a23b 850a 86bd 396e babc
00000220: 190a 68bd 572d 9cbd 6217 ac3d 6e02 2abc
00000230: 5192 9bbd 6e5b f23c 0e0c 7e3d ce56 e63d
00000240: c7d0 f13c 4e85 893c ba7b c6bc 07e4 8bbd
00000250: 2422 bf3d 32e1 c93d 04d2 0f3d 8bae 9cbd
00000260: 13a4 adbc 7423 b1bc 6096 ecbd 356c c03c
00000270: 0fb5 0b3d a6aa a6bd 8c2e 8a3d 9fc1 073e
00000280: 531c 413c f3d0 a5bd aabb b73d 971e bebc
00000290: cace 95bc cfce 91bd 41e2 323d d929 ef3d
000002a0: a763 ea3d c84f ac3d 9581 25bd 21f9 9bbd
000002b0: 239d ac3d cc0f 933d 3700 4f3d 19de 41bc
000002c0: a237 bf3d da13 9a3d b030 e2bd f1a1 babd
000002d0: 3695 9bbd f130 d13c d22e 9ebd 0799 bb3d
000002e0: 3d9e 473e 9ce7 4f3c 145d 07bd 1595 e2bd
000002f0: b194 fabd 71a6 b3bc 7811 29bb ccfe 91bd
00000300: 598a 65bd f0ac 5ebd 7218 dabc 54c1 b6bd
00000310: b9ee 8f3d 6c40 9a3d d122 02bd 78cb 92bd
00000320: a451 d83c 8101 10be 9ddf 103e 0bd5 3f3c
00000330: 3220 043d 68d0 1e3e 57bc 49bd 9a52 88bd
00000340: 56a4 a73d eccf 08be e7be 86bd 26dd 58bc
00000350: eb09 6abd bf38 003d 4c24 33bd d8ed 653d
00000360: ee88 63be e174 a73d c0fc f83d 464d c0bd
00000370: 53df 12be 62d3 0fbe 4f74 8ebd cced edbd
0.079881705 -0.089353174 0.06601252 0.024122253 0.025913209 0.05933369 0.021300137 0.08479043
0.13999835 -0.0588697 0.048527762 0.0982105 0.0011726861 0.07700157 -0.17043956 -0.16190535
-0.04076345 -0.17822775 -0.14906006 0.013902732 -0.038327996 -0.14653152 0.1392003 0.048637718
0.055079777 -0.004214123 0.06618964 -0.0067457166 0.084208705 0.063379526 -0.11886415 -0.17448184
0.030140692 -0.14906995 0.1285878 0.011752493 -0.16310135 0.115954936 -0.09441665 -0.065985516
0.07932508 0.08869324 -0.008348033 -0.07846278 -0.06927304 -0.038677637 -0.08389431 -0.06533024
-0.1293614 -0.07718349 0.21177132 0.110147886 -0.046392698 0.06415864 -0.0412295 0.025181638
-0.085107885 -0.1326017 0.037767157 0.035030477 -0.008957812 0.05836829 0.008798177 0.052069183
0.00070222677 -0.11783859 -0.1327872 -0.035553426 0.007311126 -0.099052235 0.04396519 -0.053259123
-0.026004039 0.048574075 -0.019813366 -0.10229635 0.021918835 -0.13277704 0.11183075 -0.08179583
0.06652334 -0.015558747 -0.03158888 0.098707415 -0.09227605 -0.099960946 -0.1212897 -0.084755324
0.11541895 -0.049877074 0.062219277 -0.009885798 -0.058050856 -0.075435296 0.1269088 -0.11447723
0.04242181 -0.006123066 -0.03372248 0.12160536 0.043347646 -0.13319346 0.002513246 -0.0069644256
0.09954508 -0.09881476 0.050187357 0.02967409 0.07254817 -0.04456508 0.0940472 -0.049593452
-0.017948166 0.07985968 -0.06524466 0.03115303 -0.051773634 0.061315596 0.06709997 -0.07457195
0.043100376 -0.048233133 -0.03840739 -0.06464671 0.049073372 0.014720633 0.06307568 0.026453894
-0.047228344 0.010499645 -0.104787834 0.018881563 0.029090742 0.004974067 -0.06544975 -0.022757636
-0.056650255 -0.076258354 0.084028974 -0.010376556 -0.07596267 0.029584613 0.062023215 0.112470254
0.029518498 0.016787197 -0.02422892 -0.06830602 0.09332684 0.09857406 0.035112396 -0.07650479
-0.0211964 -0.02162335 -0.11552119 0.023489097 0.034108218 -0.08138017 0.06747159 0.13257454
0.011786538 -0.080964945 0.08971341 -0.023207946 -0.018287081 -0.07119524 0.043672804 0.11677904
0.114447884 0.084136546 -0.040406782 -0.07615877 0.08428409 0.071807474 0.050537314 -0.011832737
0.09336783 0.07523318 -0.11044443 -0.09112919 -0.07596819 0.025536032 -0.07723774 0.09160047
0.19493957 0.012689497 -0.03304775 -0.110635914 -0.12235392 -0.021929951 -0.0025797766 -0.07128677
-0.05604014 -0.054364145 -0.026622985 -0.08923593 0.070279546 0.07531819 -0.031771485 -0.07167715
0.026406117 -0.14063074 0.14147802 0.011708508 0.032257266 0.15509188 -0.04925188 -0.0665638
0.081856415 -0.13360566 -0.065793805 -0.01323632 -0.057138365 0.031304117 -0.043735787 0.05613503
-0.22220203 0.0817659 0.12157583 -0.09389739 -0.14343004 -0.1404548 -0.06955778 -0.11617622

lstm2.bias_hh_l0 f4 [224]
00000000: c820 84bb 2760 cfbb f612 cfbd b0ca 733d
00000010: 3d0c 7f3c c6e9 af3d 9878 513d e2c9 893c
00000020: dcc6 b63d b3fe 31bd 3d9e 053c 123e 853d
00000030: be2b a4bd 68e9 fe3d fd32 15be eed6 313d
00000040: 9266 473c 20ff 59be 5973 bb3d 868a 8ebd
00000050: 8694 56be e7fa 31bc a808 2a3e 1fab ff3d
00000060: d5b6 163e c616 75bd e9e6 11bd 2bda 04bd
00000070: 1163 c33d 6fe3 d43c 6c8b 243c 91d5 2c3d
00000080: d623 123d 4c84 9b39 da36 ad3d d103 e63c
00000090: 7eab 953d ffa4 193e 0326 3e3d d0e4 7f3d
000000a0: 9894 933d 71e0 ebbd 1648 e93c 101a d9bd
000000b0: 281c e8bd 2579 843d bf9e acbc c080 e0bd
000000c0: 90e8 a3bd 0632 cbbc 310b 5b3e e1a8 bc3d
000000d0: df64 88bd d50c ef3c 3d7a 0cbd 45eb 8d3d
000000e0: c425 dd3d 272f a83d 7e3d 60bd d38c 3f3c
000000f0: 40f2 fabb 4048 c0bd 9f1e 8bbd 8f29 aabd
00000100: ec17 e7bd d84e c43d b52e 9c3d ac31 39bc
00000110: 571f 82bc 5770 debd 449f 39bd 4cf7 c63d
00000120: 38a8 84bc 9e75 cbbd 7236 dbb9 434b 2e3b
00000130: 1330 063d 5e08 c93d 320a 55bd cb75 63bd
00000140: 0586 9dbd 62f8 da3d 3668 b13d 367e babc
00000150: 0dd1 5f3d 9290 ac3d 777b febc c2e3 36bc
00000160: 034d ec3c 2c08 03be 8ee0 03bd a432 ff3c
00000170: 197b 03bd 5e9d 18bd 6c4e d4bd 33dd f8bc
00000180: d41b c7bd 6807 d7bd d33a e43d 8168 e03c
00000190: f7c6 a93d 5fab 0ebd 3560 c1bd d5c1 d93d
000001a0: 97af 9d3d 7863 0cbd 5bcd d2bc 43c0 b2bd
000001b0: 653c 2dbc 44e7 073d 9a3e 85bd 1d58 f33d
000001c0: 242d 26bd 23ce 93bd 5c2c f83b 3807 89bd
000001d0: 4c64 59bc 4381 d6bc eda7 11bd 1d35 ac3c
000001e0: 8359 103d 5555 253d da73 bf3d 9180 d53d
000001f0: a7f8 abbd 50ec 98bd 9b7f dfbd dc68 1b3d
00000200: 2f34 5a3c 8b61 e93c 9351 bdbc 90bc 913d
00000210: 2915 d93c 197c 75bd 0d13 35bd a53a 4f3d
00000220: b314 ab3b 31ea 053d b81c 8dbd 04d5 a63d
00000230: 6e29 713d 00de 5cbd a545 f03c a3d7 5fbc
00000240: 6b21 c4bd fcc9 27bc f20a 91bd f902 903d
00000250: bf09 3c3c 18a9 143d b8a0 20bd 8bb0 a23d
00000260: 6afc cd3b 1a6b 873d dcb5 8c3d e91b 39bb
00000270: 8be0 81bd a5f8 103d d2a6 ad3c 9f96 a0bd
00000280: a99b d53c cbd1 cfbb da62 92bd 979a 31bd
00000290: 4bab 0fbb f09e 79bd af2e f6bc 5dfd 8f3b
000002a0: 27ca 623d 58d8 0b3d ba3f c23c 4fe7 ab3d
000002b0: 73a6 90bd 9e9a 2f3e 1717 503d bbac bcbd
000002c0: 301d c6bd 0ec4 b03d a4ca 7ebd f5e6 9dbd
000002d0: 7683 cabd 6e89 dabd 923c 663d f1b3 cebd
000002e0: 695f f73d 3c1b 9cbd 887e db3c 6b94 e93c
000002f0: 5de9 91be d2f3 58bb 8515 213e 7cf3 463b
00000300: 14de de3c b888 ad3b 473a 003e b00e e73d
00000310: aae2 c0b8 62bd b23d cc6b 9a3d 0ac8 583d
00000320: 5756 a53b a041 c73d 06b4 94bc 424a 86bd
00000330: 9e6a 7cbc a989 773d 273e 88bd 6b15 193d
00000340: 4623 e03d 7d37 dcbd d71c e33c 4162 d4bc
00000350: 4bf5 27be 31ed 013e cc5f 753d d2cd 21bd
00000360: 24b9 f0bd ab1f b9bd e1f8 443e b2f5 cd3d
00000370: 0dd0 0cbe 0487 1fbe 91bb c3bd 740c 89bd
-0.004032228 -0.006328601 -0.101110384 0.05951947 0.015566883 0.085895106 0.051140398 0.016819898
0.08924648 -0.04345579 0.008155403 0.065059796 -0.08016156 0.124468625 -0.14570232 0.043417864
0.012170451 -0.21288729 0.0915286 -0.06960015 -0.20955095 -0.010863042 0.16604865 0.12483811
0.14718182 -0.05983617 -0.035620604 -0.032434624 0.0954038 0.025987355 0.010043006 0.04219586
0.035678707 0.00029662473 0.08457728 0.028077992 0.073081 0.15004347 0.04642297 0.062474072
0.072060764 -0.11517418 0.028476756 -0.10600674 -0.113334954 0.06468419 -0.02107179 -0.10962057
-0.08003342 -0.024804126 0.21390988 0.092118986 -0.06659865 0.029180923 -0.034296263 0.0692964
0.10798219 0.082121186 -0.054746144 0.01169129 -0.007658273 -0.093887806 -0.0679295 -0.08308708
-0.112838596 0.09585351 0.07626096 -0.011303347 -0.015884085 -0.10861271 -0.045317903 0.09715137
-0.016193494 -0.09934543 -0.000418115 0.0026595152 0.03276069 0.09816049 -0.052011676 -0.055532258
-0.07691578 0.106919065 0.08662455 -0.02276526 0.054642726 0.08426012 -0.031064732 -0.0111627
0.028845316 -0.12796086 -0.032196574 0.031152077 -0.032099817 -0.037259452 -0.1036652 -0.030378914
-0.09722105 -0.104994595 0.11144032 0.027393581 0.08289903 -0.0348314 -0.09442178 0.10632674
0.07699507 -0.03427455 -0.025732687 -0.08728077 -0.010573481 0.033179536 -0.06506081 0.11882041
-0.040570393 -0.07217052 0.0075736474 -0.0669083 -0.013268542 -0.026184684 -0.035560537 0.02102142
0.035241615 0.040364582 0.09348269 0.10424913 -0.08397036 -0.07466948 -0.10913011 0.0379418
0.013318106 0.028488895 -0.023110187 0.071160436 0.026499348 -0.059932802 -0.04420762 0.050593037
0.0052209734 0.032694045 -0.06890243 0.08146098 0.0588774 -0.053922653 0.029330084 -0.013662252
-0.095766865 -0.010241028 -0.07082166 0.07031817 0.011476933 0.036294073 -0.039215773 0.07943829
0.0062861936 0.06612225 0.068706244 -0.0028245396 -0.06341656 0.035393376 0.02119771 -0.07841229
0.026075201 -0.006342148 -0.07147761 -0.04336032 -0.0021922167 -0.06094259 -0.030051557 0.004394217
0.05536857 0.03414187 0.023712028 0.08393728 -0.07062998 0.17148826 0.05080327 -0.09212633
-0.09673536 0.086311445 -0.062204972 -0.07710067 -0.098883554 -0.10670744 0.056210108 -0.10092915
0.12078745 -0.07622382 0.026793733 0.028513154 -0.28498355 -0.0033104313 0.15730865 0.003035753
0.027205504 0.005295839 0.12522231 0.11282098 -9.197493e-05 0.08727528 0.07540092 0.052925147
0.005045693 0.09729314 -0.018152248 -0.06557132 -0.015406279 0.060434017 -0.066524796 0.03737394
0.10944228 -0.10752771 0.027723713 -0.025925757 -0.16402166 0.12688138 0.059905812 -0.039502926
-0.11754063 -0.09039243 0.19235565 0.10056628 -0.1375124 -0.15578848 -0.0955726 -0.06691828
