NE/Treinamento/LSTM/LSTM_2_DENSO_2/conf_1/modelo_seed_50_loss_0.004238.pt (torch, 272505 bytes, 12 tensors)

lstm1.weight_ih_l0 f4 [268, 55]
00000000: d9b9 383e 44c1 0ebd 2544 c33c 2fcb a3bd
00000010: f8c6 8d3b 08d9 91bd 449f 4dbb e68a 8dbc
00000020: 7447 263d 9432 523e 5e93 d7bc 9450 233c
00000030: 4a2d 1dbd 21dc d73d d741 753d 4dcc 573c
00000040: 8a4b eb3c 8ea6 b5bd b271 f1bd 6e49 1cbd
00000050: 09d7 2b3d 147a 7a3c 9f1b a3bd 452f adbd
00000060: b037 5fbd 327d acbc d6b1 fdbd 1cc9 2c3d
00000070: 1949 393d ab96 a6bd 3031 99bd bab6 02be
00000080: e14f bebd 6709 dcbd aca0 e1bd f211 96bd
00000090: 3fc3 23be e115 13be 0db8 a3be 5048 32be
000000a0: e6a9 57be 8215 cfbe aaed 97be 29d3 7dbe
000000b0: de82 e8bd 520d 33be 612e b1bd 339a 12bd
000000c0: 8491 1e3c d97e 993e eabb 8c3d d9d4 363b
000000d0: f1f1 113f 6ee2 9b3e 7ddf 28bb 361d 17be
000000e0: 8a44 83be 8a80 28be 4625 7cbe 132d fdbd
000000f0: 96f0 23be 7a8f b9bb 2d84 153e 3406 3e3e
00000100: 07f6 6b3d c95d 5bbd 85a6 94bd 959f 943c
00000110: aeed 6dbb f84b 90bd 796f 3abe 525b 1abd
00000120: a2d3 863d b8b4 dfb9 6b6a d8bd 4596 0a3e
00000130: 8ec6 c7bb ba07 cc3d 4bd9 f93d 2153 0abe
00000140: 1f5c 1bbc 9582 2cbe bd26 b0bb e4c5 9a3c
00000150: 5336 863d 7c52 ae3d e84e 233e a4a4 313e
00000160: 4ac4 583e 70a9 343e bb7a 8dbc 17c5 4a3e
00000170: 61e1 ea3d 702a 8cbc a668 ad3d 85b2 4cbd
00000180: 2f32 803d fc43 53be 4139 3ebe d154 173e
00000190: 5d12 593d ce88 49bc 5fa6 ef3d a2fc 80be
000001a0: 5e93 b0bc 5979 403d 4c3a 563d b769 e8be
000001b0: 7ed5 0fbe b376 1c3e 3706 8abd 6528 ddbd
000001c0: 937c 4fbe f307 f7bc 268e 5b3c 170a ad3c
000001d0: 64f9 bf3c 96b9 5f3d d94b 053e 0fcf 3a3d
000001e0: a021 fb3b bd38 233d 82b2 123e 346c c13d
000001f0: ec2b 44bd 4225 963d a1cc 22bd ff19 2c3e
00000200: cfd6 b43d b5bb eebc e140 0b3e 601c 4e3d
00000210: b360 94bc 978a c2bd a95e 55be 944a ffbd
00000220: 57a2 00be 2297 2abe 9440 84bd 04f4 b5bd
00000230: b177 623d 66a9 c33d ab42 1a3e d97b bd3d
00000240: 0c44 393c c445 f53d 4146 243e 06e3 733e
00000250: 76b2 fd3d 5335 853e 09df 8d3e 0391 bf3e
00000260: af81 603e bb3b 90bd 7e8e 963e c094 a43d
00000270: 6301 d93b 2819 373e 65f3 0abd 6d0c 563e
00000280: b0b7 bc3d e743 943c 5e44 243e 4244 a0be
00000290: 6214 a6bc 0be1 1fbe 9a6a 96be 6cd8 aabe
000002a0: 9408 a9be ccdb 86be 3f97 a0be c28b 16be
000002b0: 3aec 3dbc ed6d e1bd 2594 163c f2be 0b3e
000002c0: 1f3c 983e 9d5b 303e 7ece fe3d ba51 603e
000002d0: 33ad 773e cb65 8e3e 17b2 e23e 63ee 3b3e
000002e0: 9477 dcbc d231 8fbe be77 86be 36b6 82bd
000002f0: 7221 413d a957 f6bd 9221 4abd 34e6 2dbe
00000300: cc60 2fbe e9f7 1ebe 6300 86bd 62e2 55bd
00000310: 6cde 303d b667 003e a15f f63d 4f42 753e
00000320: b4b6 973e f5f2 953e 0cc2 b03d 71ca 943c
00000330: 7f22 9f3d 83c3 273e fa21 223e 7da2 6a3e
00000340: fe7f 7a3e ec5a 533e 7f67 00be 5699 29be
00000350: 67ba 97be 5a2f e4be 6bc8 71be 8720 8a3e
00000360: 0b8b d5be f74a 033e cafd 90be c49f 2c3e
00000370: 97ad b13e 1b34 1d3e 1b7b 213e 6863 113d
00000380: 61f2 07bd e153 efbc 1dc9 cabd df6e b3bd
00000390: d8e6 003c 825b 913b 4e92 053e a9ae 1d3e
000003a0: 0142 3d3c 40f2 a23d 5c05 a9bc e579 9e3d
000003b0: 8997 003e e729 59bc 89a1 803e e78a 193e
000003c0: 4c6a 3a3e c12d 643d 14f2 243c 013d d73d
000003d0: 5900 123e 1f9f 9f3d 52eb 053e fa71 c0bb
000003e0: 9800 593c 83a8 d1bd bb25 093c 2c56 a03d
000003f0: ea24 d33d 7698 003e fb9c b93d 803d 213d
0.18039645 -0.03485228 0.023836205 -0.079977386 0.0043266974 -0.071214736 -0.0031375447 -0.017278146
0.040595487 0.20527107 -0.026315387 0.009967942 -0.03837327 0.10540033 0.059877243 0.013171268
0.028722543 -0.088696584 -0.11789264 -0.038155966 0.04195312 0.015287895 -0.07964253 -0.084562816
-0.054496467 -0.021055792 -0.12387435 0.04218398 0.045235727 -0.081342064 -0.07480085 -0.12765017
-0.092925794 -0.10743981 -0.11016974 -0.073276415 -0.15992449 -0.14363815 -0.31976357 -0.17410398
-0.21060905 -0.40446097 -0.2967351 -0.24787582 -0.11353086 -0.1748555 -0.08651424 -0.035791587
0.009678248 0.2997959 0.06871779 0.0027897863 0.570098 0.3044619 -0.0025767975 -0.14757237
-0.2563823 -0.16455284 -0.24623594 -0.12362113 -0.16009745 -0.0056628557 0.14601202 0.18557054
0.057607677 -0.053556237 -0.072583236 0.0181425 -0.0036304998 -0.0704574 -0.18206586 -0.037684746
0.065833345 -0.0004266852 -0.105671726 0.13533886 -0.0060966676 0.09962411 0.121996485 -0.13508274
-0.009482413 -0.16846688 -0.0053757117 0.01889319 0.0655333 0.085118264 0.15948069 0.17347962
0.21168628 0.1764276 -0.017270437 0.19801746 0.11468769 -0.01711008 0.08467226 -0.049974937
0.06259572 -0.20631403 -0.18576528 0.14778449 0.05299603 -0.012300683 0.11701655 -0.25192744
-0.021554645 0.046990726 0.05230169 -0.45393154 -0.14046285 0.15279655 -0.06739467 -0.1079872
-0.20262365 -0.030155158 0.01340059 0.021122975 0.023434348 0.054620348 0.13017215 0.045607623
0.0076639205 0.03984903 0.14325908 0.09444466 -0.04789345 0.07331325 -0.03974593 0.16806792
0.08830034 -0.02914224 0.13598968 0.05032003 -0.018112516 -0.0949909 -0.20836891 -0.124653965
-0.12561928 -0.16659215 -0.0645763 -0.08884433 0.055289928 0.095537946 0.15064494 0.09252138
0.011307728 0.11976197 0.16042425 0.23817071 0.12387554 0.26017246 0.27709225 0.37415323
0.2192447 -0.07042643 0.29405588 0.08036184 0.0066224798 0.1788069 -0.033923525 0.20903178
0.09214723 0.018098785 0.16041705 -0.31302077 -0.020273391 -0.15613191 -0.29378206 -0.33368242
-0.33014357 -0.26339567 -0.31365392 -0.14701751 -0.011591965 -0.11007295 0.009190594 0.13647059
0.2973337 0.17222448 0.12441729 0.21906176 0.24187164 0.27812037 0.44276497 0.18352656
-0.026912488 -0.27967697 -0.2626323 -0.0638241 0.047151037 -0.120284386 -0.04934842 -0.16982347
-0.17126769 -0.15524258 -0.065430425 -0.05221785 0.043180868 0.12539563 0.120299585 0.23951076
0.2963158 0.29286924 0.086307615 0.018162938 0.077702515 0.16383176 0.15833274 0.22913547
0.24462888 0.20640153 -0.1253948 -0.165624 -0.296344 -0.44567376 -0.2361161 0.2697794
-0.41707644 0.12821566 -0.28318626 0.16857821 0.3470275 0.15351908 0.15769617 0.03549519
-0.033190135 -0.029214801 -0.099016406 -0.08761381 0.007867537 0.0044359574 0.13044092 0.15398659
0.011551381 0.07956362 -0.020632438 0.07738093 0.12557806 -0.013254619 0.25123242 0.14994393
0.18204612 0.055707697 0.010067482 0.105096824 0.14257945 0.07794022 0.13078049 -0.005872962
0.0132447705 -0.10237219 0.008370812 0.07828936 0.10309775 0.12558159 0.09063145 0.03936529

lstm1.weight_hh_l0 f4 [268, 67]
00000000: 497c 09bd 9d36 8b3d c5b4 403d 5858 2bbd
00000010: da4d 3a3c 7491 373d da2e 9b3d 3c30 50bd
00000020: 6fd9 e83c ed47 d83d 131e 66bd 07e8 28bd
00000030: f160 df3d 8ef8 5b3d 3e13 333d 6610 3a39
00000040: 1c5b bd3d 9d49 70bd 6a27 3abd 45fa 4a3d
00000050: 2492 f1bd a183 c43d ab09 513d c74c 9bbc
00000060: 7bd4 3abd c897 dabd a0d8 f0bc a499 3abd
00000070: f4af 97bc 36fd ebbd 717e 02bc a9e6 93bc
00000080: b4fd aebc 6be6 fd3b 49b9 603d 3756 8d3d
00000090: c082 b5bd 0b00 a8bc f741 16bc a19e 9bbd
000000a0: aea5 a4bd f1b4 d1bd 71a0 c7bd bbe4 3abb
000000b0: 8563 0fba 3217 443d aea7 4a3c 5b88 f9bc
000000c0: d99a babd da1e 0b3d 8d39 55bd bbd6 c53d
000000d0: d1a7 1a3c 69d0 5e3d 47cb 1f3c 35c5 20bd
000000e0: 2404 8cbd da5d 823c 4f8b b13b 3988 663d
000000f0: a6b1 e13d 68a0 21bc 261d d33d 28ba 83bd
00000100: c923 013c 669d 1ebc 26cb 9abd 3f30 f0bc
00000110: c6cc c73c 927b 373d 8ce0 bf3c e759 cdbd
00000120: 5abe 803c c9b6 c53d 9495 f0bd 75a0 a4bc
00000130: 24f4 db3b 3afd da3d a3cf e9bd a7eb b7bd
00000140: 03aa d33d 9ec1 8bbd a72f 5c3d 6623 b83d
00000150: 530e e9bd 6eca b2bd e371 fb3c 81f5 943d
00000160: f040 703d be68 14ba 7b5d a2bd 3c80 06ba
00000170: bad1 d2bc 155d 27bd e687 bebd 18b6 2b3c
00000180: 8cb6 693d fb23 d4bc 4021 81bc 22a8 3abb
00000190: 42e0 aebb e1a8 bcbc 7445 dcbd 6918 093d
000001a0: 8042 783b a3f1 a9bd 194d db3d b6fc 33bd
000001b0: 7456 593d 3fc5 f13d 3564 e2bd 74c0 313d
000001c0: 9228 b73d 6c65 75bd 9e48 f73d cacb 863d
000001d0: 729a 5abd 941c d23d afc2 ba3d 6770 d7bd
000001e0: 432e b63d f577 de3d 7a97 a9bc c373 75bd
000001f0: 5cdb d4bc a2a4 923d a75d ee3c cffa 8c3c
00000200: c586 c3bd 4acc aabd a2fd c13d 81b5 613d
00000210: 2690 de3d 863f 913d b1a0 6ebd 282c 89bd
00000220: cc8d ad3d 46e7 733d fc89 6ebd bf0a 9b3d
00000230: 9330 adbc cc7c d53d 74fd 323d dddf 8bbd
00000240: 9e14 2e3d 19ce e53d 4d41 21bc a406 b03d
00000250: ed40 07bd a357 c13c f19c 00bd f069 b9bd
00000260: 0b0c b7bc e439 bf3d 4ff2 03bd d021 88bd
00000270: 1e34 933d 0bdf d13d a16f 053d 5a6a 7cbc
00000280: ce1f d93d 5f62 8cbc f428 d9bd 80ef 863d
00000290: d8da 0c3d 5421 92bd 1326 c5bd f657 8d3c
000002a0: 4fc9 4fbc 148e f13c 7d1b 87bd b8b2 d63c
000002b0: 378a c5bd ee09 7c3d 04bf e73d e2b0 b6bd
000002c0: 0a66 4ebc c504 c5bd 0159 5ebc bc56 96bc
000002d0: d7ce 84bc 7690 99bd 38d6 edbd 6234 c5bc
000002e0: ee5a a73c 8c56 e63c 8e37 b63d 643f b33d
000002f0: 57d9 7cbd 7ff8 853d b68d 9bbd 7bd8 9e3d
00000300: 9959 0b3d caf3 8d3c b1a7 fe3c ba61 9cbd
00000310: a1b6 91bd 482d c1bd a4fb adbd a1ab 14bd
00000320: 0b78 23bd 45e7 cabd 35c0 a9bd 13e7 cd3c
00000330: 346d e13d fb3b ed3d c3f6 ed3d 3d75 8d3d
00000340: 58a1 8c3d 14b5 253d 6e64 b63d e80c 51bd
00000350: 676c 783d 6bd5 a43d af3b f2bd 9e2a a3bc
00000360: 1bdd c6bb bd8e 8fbd 06e1 3b3d 4b0e eebd
00000370: 2579 74bc a4db b2bd a5bb be3c 3079 bdbd
00000380: ca46 703c 5882 6dbd 16f8 2c3d 86b0 f03d
00000390: fd21 763c 7b62 0f3c d7b8 e7bb b6f7 443d
000003a0: 717d 5ebd d07b 963d e266 603c c069 00bd
000003b0: 0830 7cbd 00fe ad3b 833b e0ba a106 4c3d
000003c0: 693d 4abd c125 403c 0127 833c 4f03 81bd
000003d0: c67b 383b e3ec cc3d c7e1 16bd 861d edbd
000003e0: ea98 aeba 9f13 eab7 6f19 eebd 4e56 b4bd
000003f0: 1f77 8abd 6261 563d 47f7 f83d 372a f63d
-0.033565793 0.06797526 0.047047395 -0.041832298 0.0113711 0.04481645 0.075772956 -0.05082725
0.028423993 0.10560594 -0.056181025 -0.041236904 0.10907162 0.053703837 0.043719523 0.00017744451
0.09245893 -0.058663953 -0.045447744 0.049555082 -0.11795452 0.09595419 0.05103461 -0.018957509
-0.045612793 -0.10673481 -0.02940017 -0.04555668 -0.018516518 -0.115229055 -0.007964716 -0.018054323
-0.02136121 0.007748415 0.0548642 0.0690121 -0.08862829 -0.020507833 -0.009171001 -0.075986154
-0.080394134 -0.1023959 -0.09747399 -0.0028517682 -0.00054698467 0.047873683 0.0123690795 -0.030460527
-0.09111566 0.03396497 -0.052056838 0.09660097 0.009439425 0.054397974 0.009753055 -0.03925057
-0.06836727 0.015913893 0.005418218 0.056282256 0.11020212 -0.009864904 0.10308294 -0.06431991
0.007882067 -0.009681081 -0.07558279 -0.02931988 0.024389636 0.04479558 0.023422502 -0.10026913
0.015715767 0.09654004 -0.1174728 -0.020096043 0.0067124534 0.106928304 -0.11416557 -0.08980494
0.103351615 -0.06824039 0.053756382 0.08991127 -0.11379685 -0.08730017 0.030693954 0.07273389
0.05865568 -0.000566136 -0.07927986 -0.0005130803 -0.025734771 -0.040860254 -0.09303264 0.010480426
0.057058856 -0.025896063 -0.015762925 -0.0028481563 -0.005336792 -0.023029746 -0.10755435 0.033470545
0.0037881434 -0.08298042 0.107080646 -0.043942176 0.053060964 0.118052 -0.11054269 0.04339643
0.08943285 -0.059911177 0.120743975 0.065818384 -0.053369947 0.10259357 0.09119164 -0.10519486
0.088955425 0.10862724 -0.020702112 -0.059924852 -0.025983505 0.071603075 0.029097391 0.017209439
-0.095471896 -0.08339746 0.09472205 0.055104736 0.10867338 0.07092194 -0.058258716 -0.06697875
0.08474311 0.05954673 -0.05823706 0.07570409 -0.021141326 0.10424194 0.043698743 -0.06829808
0.04250013 0.11220951 -0.009842229 0.085950166 -0.033020902 0.023601359 -0.03139967 -0.09053409
-0.02234461 0.09337214 -0.032213505 -0.06647074 0.07187675 0.1024762 0.03257716 -0.015406216
0.106017694 -0.01713675 -0.10603514 0.0658865 0.034388393 -0.07135263 -0.09626403 0.017253857
-0.012682273 0.029486693 -0.0659704 0.026208267 -0.09645503 0.061532907 0.1131573 -0.089204565
-0.01259757 -0.0962005 -0.013571025 -0.018351905 -0.01621191 -0.07498257 -0.116131246 -0.02407283
0.0204291 0.02811744 0.08897315 0.08752325 -0.06173071 0.065415375 -0.075953886 0.07756134
0.034020994 0.017328162 0.03108582 -0.07635827 -0.07114912 -0.09432465 -0.08495262 -0.03629649
-0.039909404 -0.099073924 -0.08288614 0.025134599 0.11007157 0.11583706 0.11619332 0.06907127
0.068667114 0.040455893 0.08905874 -0.0510377 0.060650256 0.08048519 -0.1182779 -0.019917782
-0.0060688383 -0.07009647 0.045868896 -0.1162382 -0.014921461 -0.087332994 0.023282835 -0.0925163
0.014665315 -0.057985634 0.04222878 0.11752419 0.015022752 0.008751507 -0.007071595 0.048087798
-0.05431885 0.07347834 0.013696404 -0.03135085 -0.061569244 0.00530982 -0.001710758 0.04981101
-0.04937497 0.011727751 0.01600981 -0.06299459 0.0028149947 0.1000612 -0.03683641 -0.11577897
-0.0013320718 -2.790411e-05 -0.11625945 -0.08805524 -0.06761002 0.052338965 0.121565394 0.120197706

lstm1.bias_ih_l0 f4 [268]
00000000: 2b46 90bd 0324 21bc aaa0 653c 1958 a33d
00000010: db93 d13d 2bb9 9cbd 7a63 b1bd fca2 8b3d
00000020: ec5a 25bc de5e 503e 2f59 5b3d 866b 293e
00000030: f8cf ff3d b469 4f3d ad43 163e e7d0 483d
00000040: 4808 423d bfa8 f13c 0169 b53d 0697 233d
00000050: a620 cbbd cdad 5dbd bfe0 293b f8bf 28bb
00000060: 37dd 97bd d2f0 133c 1cca 3fbd 1817 e7bc
00000070: 1e36 393e d87d 083e 69d6 8c3d 6ce6 a53c
00000080: 23c9 ee3c 2177 133c 1cfe f53b 6032 3b3c
00000090: d94b 06be 12dc 8b3d b60b 81bc 1bb1 eabc
000000a0: 4a14 6ebc 2724 4bbd 40dc 06bd 0c76 533d
000000b0: 3dc9 5d3d fd9a dd3d da6d 80bc 8650 c6bd
000000c0: 1bf2 64be daed fdbd c7b1 8b3c 7060 f23d
000000d0: d1cc bb3d ef01 e5bd 3405 fd3c 1440 4d3d
000000e0: 290d 333e ac22 72bd 00d0 7abc 1407 8bbc
000000f0: d5e6 e2bc 9cd5 673d 6025 563d 610c b4bd
00000100: b3a9 06be a969 763d 0589 553d 1351 b5bd
00000110: 5a53 fc3c 27ce 9c3d c792 efbd 3454 283d
00000120: c0be ad3d c430 90bc 10b2 fc3b d6cc 7fbd
00000130: 5a45 e63d ab74 6cbd c9bc 063d 9bba 573d
00000140: ea50 e4bd 0a6b 2ebd acd9 cf3d 4736 d9bd
00000150: 5a96 e9bd 6b8e 3abd bed7 af3d e649 a93b
00000160: c22c e03d e41c eabd 1f86 ccbd c0dd 53bd
00000170: 96ee 7f3d ad63 ee3d f825 9a3d 3da7 a8bd
00000180: cb1c dc3c 07de 5b3d bab2 57bd 5ce8 48ba
00000190: f7e9 5a3d cd89 8c3c ee27 da3d 4f53 063d
000001a0: a81e 663c adb6 773d 3c8a e53d c275 95bb
000001b0: bbfa d13d a2ab d13c 40a6 f8bc 4bae cabd
000001c0: db76 d23d ca17 acbd 5822 f93c 3803 7bbd
000001d0: 4766 853d e97e 2fbd 0f6b dbbd 6517 d3bc
000001e0: ad11 4d3d 6e72 403d 5cc8 b9bd 2f9b 0f3d
000001f0: eee2 6f3d d571 c8bd 2158 eabc 5240 e5bd
00000200: 6d0c 113b 1377 c9bd 0df0 753d 7bc7 163d
00000210: 974c 4abd a4c3 823d e705 9e3c 3580 8e3d
00000220: 245f 1b3e af21 7b3d 51b2 133e 4917 7ebd
00000230: 49eb e0bd 9685 923d 7816 17be f7d0 9a3d
00000240: c1ac 10bc 0f88 1f3d 4672 203e ff56 123d
00000250: b976 c9bb 8286 d9bc 7898 cdbd c4dc db3d
00000260: 96c4 d33c 30a8 40bd 1e44 353d 0eab 5a3c
00000270: aebc 3a3c 4a06 5dbd 30f9 d73d 0bb8 5d3c
00000280: a1eb 9abd c68b 06bd ed69 bebc 0206 6c3c
00000290: 3294 5fb9 0a0d aabd 29b4 91bd a32e 03bb
000002a0: ac6e 38bd 90a9 ac3d 208f 0b3d 83a7 d3bd
000002b0: 8423 233b c457 383d 2dae d33d 45a4 1d3c
000002c0: 6f84 653d 4f4e dcbd dc91 df3d 516e 063e
000002d0: f8ee 573d a3df 923d 7db3 c43d 36c8 af3d
000002e0: 242d e2bd 8396 3c3d a435 9c3d 03db 873a
000002f0: 6ffc ba3d d4c8 c6bd afd1 79bd 3307 dcbc
00000300: bac2 33bd 7ae8 c43d 8271 abbd 3a4e 0bbe
00000310: 5fea 503d 6a4e 3c3b 6cf3 03be 6d2b 80bc
00000320: ce48 babd 0f6f 94bd 11ec 0e3e cebb 3b3d
00000330: 6397 3b3e b16e d8bc 0555 493d ca73 a0bb
00000340: 0ab2 d03b 8f94 903b f2cb 4f3d 8d73 ffbc
00000350: 34eb 1e3e 73e8 7a3e e726 8f3d fad9 093e
00000360: af1e ad3d 1f5f d03d f2af cbbc ed9f e4bc
00000370: 297d f33d 7c11 823d 9d6f 8cbd b845 e23d
00000380: 39c8 be3c cb0f 31bb ed09 c7bd f713 0c3e
00000390: 911e 1ebd 3370 69bb 3645 a13d e952 843d
000003a0: 38b7 933d b0a2 e6bd 723b 60bc 6d58 de3d
000003b0: da1c 05bc 4ded fdbd f9f3 2d3b 5087 27bd
000003c0: ea0a 73bd 504c 343b 9044 263d 5ce1 d1bd
000003d0: 8f8b cabd 7b90 0dbe 66c4 d73d 28cb f9bd
000003e0: d55c d4bd f99f e4bd 8898 ebbc 442a c03d
000003f0: 8482 db3d f8bb 003e fd09 97bd 6abe 58bc
-0.070446335 -0.009835246 0.014015356 0.07975788 0.10233279 -0.076525055 -0.08661552 0.06818196
-0.010092478 0.20348689 0.05355185 0.16544923 0.12490839 0.050637916 0.14674254 0.04902735
0.04737118 0.02949941 0.088579185 0.03993895 -0.099183366 -0.054120827 0.0025921313 -0.0025749188
-0.0741524 0.009029584 -0.046823606 -0.028209254 0.1808705 0.13329256 0.06876833 0.020251475
0.029148644 0.0090005705 0.007507099 0.011425585 -0.13114871 0.068290845 -0.015752655 -0.028648904
-0.0145312045 -0.049595024 -0.03292489 0.05162625 0.054146994 0.10820577 -0.015677381 -0.096833274
-0.22357981 -0.12398882 0.017052544 0.118348 0.09169925 -0.111820094 0.03088627 0.050109938
0.17485489 -0.059115097 -0.01530838 -0.016971149 -0.02769796 0.0566002 0.052281737 -0.087914236
-0.13150673 0.06015936 0.052132625 -0.08853354 0.030801464 0.07656508 -0.116979174 0.041095927
0.08483648 -0.017601378 0.0077116564 -0.062451206 0.112436965 -0.05772845 0.032894883 0.052668195
-0.11148246 -0.04258255 0.101489395 -0.10606056 -0.114056304 -0.045545977 0.085860714 0.00516628
0.10946037 -0.11431292 -0.09986519 -0.05172515 0.062483393 0.116401054 0.07526773 -0.08235023
0.026869198 0.05367854 -0.05266068 -0.0007664019 0.053445783 0.017155552 0.10652147 0.032794293
0.014045395 0.060476948 0.11208007 -0.004561157 0.10252901 0.025594536 -0.030352712 -0.09896525
0.10276576 -0.08402975 0.030411884 -0.061282367 0.065136485 -0.04284564 -0.10713779 -0.025767991
0.050065685 0.04698413 -0.09071419 0.035060104 0.058566026 -0.09787337 -0.028606476 -0.11193909
0.002213265 -0.09837165 0.060043383 0.036811333 -0.049389448 0.06384972 0.019289924 0.06958047
0.15173012 0.06131142 0.14423491 -0.062033925 -0.10982377 0.07154386 -0.14754665 0.07559388
-0.00883025 0.038948115 0.15668592 0.035727497 -0.006148186 -0.026553396 -0.10038847 0.10735467
0.025850575 -0.047035396 0.044254415 0.013346447 0.011397524 -0.053961076 0.105455756 0.013532649
-0.07564474 -0.032848142 -0.023243869 0.014405729 -0.00021322144 -0.08303268 -0.07114441 -0.0020016811
-0.04502742 0.08430779 0.03407204 -0.10334685 0.0024892995 0.045005575 0.10335956 0.009621684
0.0560345 -0.10757124 0.10916492 0.1312802 0.052718133 0.071715616 0.09604547 0.08583109
-0.11043766 0.046041977 0.07627419 0.0010364953 0.09130179 -0.09706274 -0.060990985 -0.026858902
-0.043886878 0.09614654 -0.08371259 -0.1360406 0.051004764 0.0028733262 -0.12885827 -0.015645707
-0.09095918 -0.07247745 0.1395724 0.0458334 0.18319468 -0.02641997 0.049153347 -0.0048966156
0.00636888 0.004412241 0.050731607 -0.031183029 0.1551941 0.24502735 0.06989842 0.13462058
0.08453118 0.10174393 -0.02486417 -0.02790829 0.11889107 0.06350991 -0.06857226 0.11048454
0.023288833 -0.002701747 -0.0971869 0.13679491 -0.03860337 -0.0035619854 0.07874529 0.06461126
0.072126806 -0.11261499 -0.013686048 0.1085671 -0.0081245545 -0.12398777 0.0026543124 -0.04090053
-0.05933658 0.0027511306 0.04059273 -0.10248062 -0.098899 -0.13824646 0.10535507 -0.12196952
-0.10369269 -0.11163325 -0.028759256 0.093830615 0.10718253 0.12571704 -0.07374952 -0.013228992

lstm1.bias_hh_l0 f4 [268]
00000000: 679d 16be 268b 1abd 6b4f 73bd 4673 253e
00000010: bf31 e63d f14d 943d 70d1 943d 12a8 d3bc
00000020: 53a7 f63d 4e00 2b3e 6b20 8a3d 9807 1f3e
00000030: 09aa 023d cda2 083d d82b a03e 3674 cf3b
00000040: 7bf0 b03d 253c 103d 91b4 233d d224 4abd
00000050: 569e 043e b5ba e33d fd78 2c3d 3d98 143e
00000060: 85ec e2bd 9af1 cc3d d236 0fbd b8ed d13d
00000070: 015f 1c3d a10d a93d d20f 163e f1d0 d8bd
00000080: 986d a739 8014 933d 2c1f 6cbd da7a 5fbc
00000090: 5788 1cbe f078 583c 54af 89bd ae5f 12be
000000a0: 929d 8e3d 8e4f 7e3d fd4a c1bc 2422 19be
000000b0: af02 22be e19c 4c3e be4b 94bd 0c30 22be
000000c0: 3ee7 04bd b3a6 0fbd 536e a63d 82a9 8abd
000000d0: 0b00 213e 6b36 ebbd 8413 223e 9eb9 2f3e
000000e0: d539 833b c9fd bb3c f450 5a3d 81b9 503d
000000f0: 73e1 643d 2059 e5bd de9f 943d ba5e 38be
00000100: 64a8 b5bd 0dee 6b3d b4a6 afbd 52df 1b3d
00000110: fc77 93bd af2a db3d dc63 a53d f993 5a3d
00000120: 4be9 0cbd 9851 6a3d 4fca 37bd b0b0 babb
00000130: b746 a43d 0024 abbd 13b8 d3bd f235 df3b
00000140: 4f6a 57bd 2f80 8b3d ec81 2abc 9f2f a1bd
00000150: b660 ebbd 2a30 123c 6605 b03d bd94 5d3b
00000160: 357d 93bd 88fe 48bc 0533 003d 1f8e 18bd
00000170: af62 1c3b 90b9 e43d 8ed6 2f3d 3be5 d0bd
00000180: 7862 dfbd 1b97 bfbd ad67 f4bd ca6f 36bd
00000190: e9ca aebd 313a d6bd 7cf0 afbd 86c0 b93d
000001a0: 83aa 9bbc 793c a6bc fae1 c3bc ecd3 1a3c
000001b0: bb9b 943d ac62 eb3d 049c 1dbd 08b9 4abd
000001c0: 01c6 443d fa6e db3b 816b ed3d ec6b b33c
000001d0: f80a ac3c 7809 e03d e108 6bbc 7568 ca3a
000001e0: 1454 adbd 1d67 4abd 73a9 afbd 4c5f cf3c
000001f0: 3817 c4bd bba2 92bd 49eb 51bc 6187 9d3d
00000200: 3406 333d f4b1 9e3c 7798 cfbd 2d56 743d
00000210: 55cb 07bd fa71 b9bc 5f72 ccbd c218 75bd
00000220: 84a4 163d cedc 93bd 9cf5 823c f8f9 4a3a
00000230: a483 48bc 0fba d3bc 0a61 a13c 3e2a 33bd
00000240: 5172 20be 6be6 0cbd a038 7638 f30c 31bd
00000250: aa64 e53d 1c6f 0dbc ec6b 8bbd 890f 76bd
00000260: 22bb 18be 747f ca3d ed96 03bd 2f09 92bd
00000270: 0059 773d e5de 00bd 02ae 943d 290c bb3d
00000280: 7391 af3d 01e6 82bb 0538 eebd c8ef aebd
00000290: 30a7 6f3d 6bc2 1b3d bc72 17bb a43b 23be
000002a0: 1fc1 83bd 1e9b e13d 88c1 653c 0361 223d
000002b0: cff5 463d f852 c1bd 1bfa c5bd 053b 393c
000002c0: c7b0 52bd ecf7 1dbc 18bf 88bb 9fa3 933d
000002d0: 16b3 dc3d bb67 3e3d cbee c0bd 07cf 7bbc
000002e0: abce 33bc 8847 9f3d 7ed6 be3d 9287 423d
000002f0: 9333 b7bd 936a 00bd 31cc 40bd 91c2 3fbc
00000300: 9c96 903d 9e80 04bd 7e1e b7bd bb1f ebbd
00000310: 49d1 6abd 53a9 c6bc 33e0 623d 0bed 9f3d
00000320: 31d5 163c 0f7a 473c 0ee5 ffbc 0f75 e33c
00000330: 8189 293e 9c0a 8f3d 6988 aa3d 8040 00be
00000340: 75e7 813d daee 1d3e 6e75 523d 3e8e 933d
00000350: c465 083e 91f8 593e ecde c83c d638 4f3e
00000360: 159a 56bc 6dad f63d 69f1 5a3d 8a2e f83d
00000370: 7393 cb3d 01ac 23bd 6dc1 42bd 3bf4 ef3c
00000380: eb17 233e c899 253c 3bf5 b43d a57f 2e3d
00000390: e553 a03d 01db 363d 903b 163e 3490 2c3e
000003a0: cfa7 0f3d 565d 0b3d 3cc1 a73c dff4 ec3d
000003b0: 1075 e53c 79b9 16be 6536 2e3d 3c60 70bd
000003c0: 0bc9 b3bd dd28 d43d 9730 663c 0c13 9dbd
000003d0: 2540 ae3d 02ba 803d 0ccb 903d e632 fcbd
000003e0: bb48 80bd e428 02bc 8c23 c63c 4634 553e
000003f0: aa8a 82bd c0e0 2a3e 68de 113d f589 c53d
-0.14708482 -0.03773036 -0.05940191 0.16157255 0.11239957 0.07241429 0.072665095 -0.025836978
0.12043633 0.16699335 0.067444645 0.1553024 0.03190044 0.033358384 0.3128345 0.006330992
0.08639618 0.03521361 0.039967123 -0.04935152 0.12951025 0.11119596 0.04210757 0.145112
-0.11080269 0.10007019 -0.03496439 0.102504194 0.03817654 0.08254553 0.14654472 -0.105867274
0.00031934376 0.071816444 -0.057646915 -0.01364013 -0.15286385 0.0132124275 -0.06722894 -0.14294311
0.06963648 0.062087588 -0.023595328 -0.1495443 -0.15821336 0.1998172 -0.07241009 -0.15838641
-0.032447092 -0.035071086 0.081265114 -0.06770612 0.15722673 -0.11484989 0.15827757 0.17160651
0.004004697 0.022948163 0.05329986 0.05095816 0.055879068 -0.1119864 0.07257055 -0.18004885
-0.088700086 0.05760007 -0.08576718 0.03805477 -0.072006196 0.107015006 0.08075687 0.053363774
-0.034402173 0.05720672 -0.04487067 -0.0056973323 0.080213 -0.08356476 -0.10337844 0.0068118507
-0.05259162 0.068115585 -0.010406952 -0.07870411 -0.114930555 0.008922616 0.0859478 0.0033810579
-0.07201616 -0.012267716 0.031298656 -0.037244912 0.002386253 0.11168206 0.042929225 -0.10199972
-0.10907453 -0.09354993 -0.11933837 -0.044540204 -0.08534796 -0.10460318 -0.08590791 0.09069924
-0.019002205 -0.020292507 -0.023911465 0.00944994 0.07256266 0.114934295 -0.038478866 -0.049492866
0.048040394 0.006696579 0.1159277 0.021902047 0.021001324 0.10939306 -0.014345379 0.0015442508
-0.08463302 -0.049414743 -0.08577242 0.025313996 -0.09574741 -0.071599446 -0.012812444 0.07691837
0.043707088 0.019371964 -0.10136502 0.059652496 -0.033152897 -0.022637356 -0.09982752 -0.059838064
0.036777988 -0.072198495 0.015986256 0.0007742937 -0.012238417 -0.025845556 0.019699592 -0.043741457
-0.15668608 -0.03439943 5.8703707e-05 -0.04322524 0.11200841 -0.008632448 -0.06807694 -0.06007341
-0.14915136 0.09887591 -0.032126356 -0.07130658 0.06038761 -0.03146257 0.07259752 0.09133179
0.08572664 -0.0039947038 -0.11631779 -0.085418284 0.05850905 0.03802721 -0.0023109159 -0.1594072
-0.06433319 0.110159144 0.014023192 0.0396433 0.048574265 -0.09439653 -0.096668445 0.011305575
-0.05143812 -0.009641629 -0.004173171 0.072089426 0.107763454 0.046485644 -0.09420546 -0.015369183
-0.010974566 0.077773154 0.09318255 0.04749257 -0.08945384 -0.031351637 -0.047069732 -0.011704103
0.070599765 -0.03234922 -0.08941363 -0.114806615 -0.057328496 -0.024250662 0.055389594 0.07808884
0.009206102 0.012175097 -0.031237151 0.027765779 0.1655636 0.069844455 0.083267994 -0.12524605
0.06342975 0.15423146 0.05138152 0.07204865 0.1332007 0.21286227 0.02452036 0.20236525
-0.013098259 0.12044797 0.053452883 0.121182516 0.09940233 -0.039958958 -0.047547746 0.029291263
0.15927093 0.010107465 0.088358365 0.0426022 0.078285016 0.044642452 0.14671159 0.16851884
0.035072144 0.03402456 0.020477884 0.11570143 0.028009921 -0.1471919 0.042532343 -0.058685526
-0.0877858 0.103593566 0.014049671 -0.076696485 0.08508328 0.06285478 0.07069978 -0.123143956
-0.06263872 -0.007944319 0.024186872 0.20820722 -0.06374104 0.16687298 0.035612494 0.09645454

lstm2.weight_ih_l0 f4 [224, 67]
00000000: 2814 bf3d 7b4c 333e 2ff3 fb3c 1748 023e
00000010: 3725 353b 4a8f df3d 7d5e 96bd c5df 95bd
00000020: b39a 433e 5858 763d 9e0c 053e 304e 03be
00000030: f2b2 543e 559e 45bd 502f 8dbe 1f28 f6bd
00000040: 692a 0a3e b21b a2bd e20b 3b3e 4a17 cbbd
00000050: 5213 603d 72cc 25be 080b 5a3d 404e 30be
00000060: c346 103d 8c47 e7bc 12f2 b63d 1555 70be
00000070: 96e1 593d a881 b4b8 7edf 04be 3445 693d
00000080: 2813 c4bc de58 583d 0a1e 2e3c 5c23 683c
00000090: a519 a73d c294 a0bd 6215 09be 17f9 983d
000000a0: 0284 2d3e 5c47 563d e2b9 713d 805c 273e
000000b0: b6e4 123d 40cd 883e ab2a 4ebc 60fe aabd
000000c0: d5a9 97bc 7453 863d 94d0 83bd 7918 423e
000000d0: 1dc0 223e aad1 e7bd a243 0c3e 2ac8 133e
000000e0: 32d5 45bd 0fd0 0d3e 915d 6dbd 5b60 02bd
000000f0: d0a3 bdbd 895b 843e d311 9ebd 0420 95be
00000100: 9962 2a3e 808c a13c 6e8d a7bc 7e94 5bbd
00000110: ddf7 89bd 96b5 29bc 1ff9 823e e2ec 57be
00000120: 4109 403c a8a4 923c a7e8 b2bd 9336 153e
00000130: eecd a4bd 068c 8a3d b1cb ccbe c038 873e
00000140: 2f67 89bc b70e 7e3e 8ab9 263d 1036 563d
00000150: 831e b7bd 4456 4c3e 742f eb3c ef0a d03b
00000160: 7685 5cbd d439 05bd dc33 993d afbc 0d3e
00000170: d26f 913d e1b4 44bc a1f8 f33d 717b 313d
00000180: d8ac 3e3d be1e be3c fd7f 23bd 56eb a5bd
00000190: 25e1 20be cb73 2d3e f6c6 1dbe c033 6fbd
000001a0: 97f5 5a3e 9a2e 203d 5735 b4bd 1dce 713e
000001b0: 9a3b b9bd 41d1 283e 0b5f 133e 31cb 49be
000001c0: 6622 223e f622 87bd 6cfd 12bd a3f4 2d3d
000001d0: 76c8 113e 5b02 ce3d 0dca 2e3e 237c ac3e
000001e0: db88 1a3e e794 5d3d fb26 cdbd 46fa 3c3c
000001f0: 9e20 043e dbf8 bebd b3b2 0abe 8311 003b
00000200: 6daa 623e 1b8f 4ebe 919f b0bd fbad 3fbd
00000210: f218 d93d f40b 98bd 19a0 743e 1944 8f3e
00000220: 8c54 eb3d a94e 75bd 5c7c 923d 15ae ec3c
00000230: 48c5 e23d 846f dabd c2e5 433e 9829 373e
00000240: 8c79 aebd c342 8a3e 986f 573e 197e 90bd
00000250: d60b 91be a76c c83e edef 9e3e cf75 fdbc
00000260: 374e be3d df0a 1f3e 68d3 cf3d 0a64 72be
00000270: 8b08 0a3e 8282 25bd c20b 0c3e 5e82 65be
00000280: 62e1 47be cc9d 44be 482d aabe 2ebf ccbd
00000290: 3767 adbd 13e2 c73d 31dd c83d c490 513e
000002a0: 9f69 083e f337 c13d 4a34 9f3c 5717 a33d
000002b0: c2ec 3f3d a00b 993e 4e4a ee3d b014 c3bd
000002c0: 39db a03d c8b8 553d 1606 1fbd 03de 493e
000002d0: 7e54 83bd ca91 75bd 47bd cfbb 6671 afbe
000002e0: f360 a53e 1a91 c93d 83cf 173b 612b 323d
000002f0: 05f7 433e 01d6 af3e 7d0b f53d 7648 87be
00000300: e2ed 1fbd 0b33 56be 12cb 643e e8b9 aa3d
00000310: 99e5 abbd c5f0 8dbd fcbe b13c fdbd 18bf
00000320: 5ba1 9bbe 13ba efbc 1ad6 973e a12b c73d
00000330: 46f1 803e 65d5 0e3e da27 843d 916d 19be
00000340: 2c40 cabd bc19 f53d bf6b 1abe 7eae dd3d
00000350: 0f72 5fbe 5be7 be3d 4cf8 95be ae98 62be
00000360: 70a5 523e 7148 2a3e ccae 8b3d 4ea1 68bd
00000370: 754a 123e 205e ed3c 534f ccbd ee88 f93d
00000380: efa7 92be 7b25 dfbd e9d6 2abd faa8 dbbd
00000390: a56c bdbd 252c 28bd a4c8 b6bc c918 3dbc
000003a0: d504 8cbe 4a9b a4bd 0f7f 7fbd 8cd6 f7bb
000003b0: 1b57 02bd e5a2 6d3e 09b7 db3d f267 ac3c
000003c0: 9dfc b53c a5f1 a7bd 8a81 5cbd 9096 233e
000003d0: 3bdf 9cbc 7fc5 d8bd dec1 903d 1b1e b1bd
000003e0: 488f ec3d 4181 40bc 241f 99bc 0943 d33d
000003f0: d773 963d 4646 ac3e 52f1 093e 1a6f 6cbd
0.093300164 0.17509644 0.030755607 0.12722813 0.002764059 0.10916002 -0.07342241 -0.07318071
0.19101982 0.060142845 0.12993094 -0.12822795 0.20771387 -0.0482467 -0.2757516 -0.12019371
0.1349274 -0.07915439 0.18266252 -0.099165514 0.054705925 -0.16191271 0.053233176 -0.1721735
0.035223734 -0.028232358 0.0893289 -0.23469956 0.05319365 -8.607219e-05 -0.1297588 0.056950763
-0.023934916 0.052819125 0.010627279 0.014168587 0.08159188 -0.07840873 -0.13387063 0.07469385
0.16944888 0.052314147 0.059015162 0.1634388 0.035862647 0.26719093 -0.012583415 -0.083492994
-0.0185136 0.06558886 -0.064362675 0.18954648 0.15893598 -0.11319287 0.13697675 0.14431825
-0.048299022 0.138489 -0.05795056 -0.031830173 -0.092597604 0.25851086 -0.077182434 -0.29125988
0.16639175 0.019720316 -0.020453181 -0.05360841 -0.06736729 -0.010358235 0.2558069 -0.21086457
0.011720956 0.01790078 -0.08735781 0.145716 -0.080470905 0.067649886 -0.39999154 0.26410484
-0.016772835 0.24810301 0.040704288 0.05229765 -0.089413665 0.19954783 0.02870915 0.0063489596
-0.053838216 -0.032525852 0.074805945 0.13841508 0.07101406 -0.0120060155 0.119126566 0.043330614
0.046551555 0.023208018 -0.03991698 -0.081015274 -0.15710886 0.16938703 -0.15407929 -0.058398962
0.21382748 0.039106943 -0.08799236 0.23613782 -0.09044571 0.16486074 0.14391725 -0.19706418
0.15833434 -0.06598465 -0.035886213 0.042469632 0.14236626 0.10059043 0.17069264 0.3368846
0.15091269 0.054097082 -0.100172006 0.011534279 0.12903067 -0.09324809 -0.13544731 0.0019541688
0.22135325 -0.20171778 -0.08624185 -0.04679678 0.10600461 -0.07424155 0.23889197 0.27981642
0.114907354 -0.05988947 0.07152626 0.028891603 0.11072785 -0.10665801 0.19130614 0.1788696
-0.08519277 0.2700406 0.21038663 -0.07055301 -0.28329343 0.39145395 0.31042424 -0.030939965
0.09292262 0.1553149 0.101477444 -0.23670974 0.13479821 -0.040407665 0.1367636 -0.22413012
-0.1951957 -0.1920082 -0.33237672 -0.09997402 -0.08466952 0.09759917 0.09807814 0.2046538
0.13321541 0.094344996 0.019434113 0.07963436 0.04685665 0.29891682 0.11635266 -0.0952543
0.078543134 0.052178174 -0.038824163 0.19713597 -0.064126 -0.05995349 -0.0063397023 -0.34266204
0.3230053 0.09842129 0.0023164458 0.0434984 0.19137199 0.3434296 0.11965082 -0.2642247
-0.039045222 -0.20917909 0.2234309 0.0833624 -0.08393402 -0.06930689 0.021697514 -0.596649
-0.30396542 -0.029263532 0.29655534 0.097251184 0.25184077 0.13948591 0.064529136 -0.14983203
-0.09875521 0.11967799 -0.15080164 0.10824297 -0.21820854 0.09321471 -0.29290998 -0.22128555
0.20570922 0.16629197 0.06820449 -0.056794457 0.14286216 0.028975546 -0.099760674 0.121843204
-0.28643748 -0.10895821 -0.04170886 -0.10725589 -0.09249238 -0.041057725 -0.02231247 -0.011541554
-0.27347437 -0.080374315 -0.062377032 -0.007563418 -0.03182135 0.2320667 0.107282706 0.021045659
0.022215182 -0.08200387 -0.053834476 0.15975404 -0.019149413 -0.105845444 0.07068227 -0.0864832
0.11550766 -0.0117495665 -0.018691607 0.1031552 0.073463134 0.33647364 0.13470963 -0.057723142

lstm2.weight_hh_l0 f4 [224, 56]
00000000: 1bc2 bbbd 35aa 7fbc cfe1 d5bd b32a 2bbd
00000010: 8815 d3bd f2d6 af3c 9d61 113d a974 b0bd
00000020: 7576 39bd c689 d83d febe 473d 27d9 42bd
00000030: 5dd5 2c3d 47da f03d 49e8 c53d 931b 7a3c
00000040: c6c6 ba3b 8ad4 1ebd ef78 75bd b368 d23d
00000050: 218b dfbd 32bb bf3b 8591 e63d 91d9 fbbc
00000060: 4f26 b23d 68c8 c53c 38e0 a5bd ed31 dd3d
00000070: 4954 633d ec4f 04bd 4c35 6e3d 06b9 793c
00000080: 4bc5 943d a564 973d e63e a9bd e087 4fbd
00000090: 8d2d f0bc be31 d5bd d9cb 8a3d 2e6d d6bd
000000a0: 6f52 fcbd 07f3 0e3d 1357 63bc 6fb5 efbd
000000b0: a7f1 8f3d 1237 3a3d 6b1a b8bd 4b82 f7bb
000000c0: bda0 6f3c 0393 1ebd 6e55 20bd 45fa 57bd
000000d0: 0405 c5bd c005 043e b376 c83d bc5c b93c
000000e0: 9b31 ffbb 8b09 08bc 4f28 1e3d 7c71 e1bd
000000f0: abe0 873d 09e7 073e a7bd c3bd 58c5 c93d
00000100: d01f 323d 93e8 babd f1e5 ddbd 46dd 46bd
00000110: 07ba cbbd 01eb f8bd b4c2 0e3c fa96 32bc
00000120: c1c0 c1bd 624b 58bd 1dc6 07be 4b90 b43d
00000130: d530 b8bd 894f cabd eea0 02bd 5b85 983d
00000140: 63ad eabd 6b9e d83d b088 8a3d 904c 9e3d
00000150: 47b2 d7bc 0a9d b43d 52b5 fc3c 62b6 a23d
00000160: c419 b0bd 1d98 01be 2a7f 2ebd 3e25 4a3d
00000170: 72d1 abbd 323e 98bd ba04 293d 957c ce3d
00000180: 3795 d2bd fa10 9dbd b272 86bd 5e49 423d
00000190: 5aeb 28bd 17c9 393d a2ea 16bd af14 993d
000001a0: 0ad9 613d 281d bb3d c9ef 9f3d e99c f63d
000001b0: 6c9d b13c c999 013e b4d4 693c 9ff1 a93c
000001c0: ac7e dbbd 4eb8 343d 7119 bcbd 1c54 3dbd
000001d0: c2cd 70bd 33f8 fb3d f54f bfbc 664c dc3a
000001e0: 8fa7 70bd fa85 343d 5e52 59bd 06a0 923d
000001f0: 42ef 2dbd 2a28 093d 886b a4bd 2384 963d
00000200: 7f23 123d ef42 06be 699a fbbd 1bbf 7bbc
00000210: b05e 903c 5daf 03be b5ab f3bd 1fd8 60bd
00000220: 652f 263d b58e 8cbd bf20 8ebc 242e 083e
00000230: f6da dbbd ff1c 80bd f16a cbbd 4df3 05be
00000240: cd2f 99bd bbef a3bd c5e1 f63c 20ea 883d
00000250: f3fd fcba 490a 8bbc ddd3 07be c863 563d
00000260: 2233 a1bd 18ba 343d 3c0f 7bbd e32f 86bb
00000270: f942 38bd 0122 223d 4b57 04be df93 38bd
00000280: 138e 5bbd 3223 f9bd 407f 08be f0da 363d
00000290: ba40 89bd 0a0f babd 1615 ecbc f587 253d
000002a0: 312d bbbd f716 04be b781 5b3d 9427 9439
000002b0: 14c4 f83d 7d50 d6bc cacf bfbd 41b5 b63d
000002c0: d0b9 003d 8cf6 523b 0431 b4bd b474 f93d
000002d0: 86f5 aa3d 869f 99bd 20fe 9cbd 6a17 e83c
000002e0: bdb6 52bc b967 afbd 7c96 23bd 0fcb ec3c
000002f0: cccf 93bd e524 ae3d 3c09 7b3c 9f77 a93d
00000300: 7eea b1bd 2758 d43d 33ee 2abd 4fde a03d
00000310: e9c6 d9bd 8326 443d fdc4 b53d 97dc bb3b
00000320: ed87 37bd 7b74 f23d 96f9 ce3d be37 c13d
00000330: 2181 a3bd e62c 983c 2f12 ca3c fa4d a2bd
00000340: 0478 29bd 1f16 cf3d 2067 2e3d d7c2 afbd
00000350: dadc 733d 7249 89bd 0ab2 1c3b 1207 a33d
00000360: 633c a4bd 7aec fbbc ed1f f43d 259e 333d
00000370: c27c 88bd 6d05 2fbd 4482 00be d10c 943d
00000380: 0216 503d 5a26 cd3d 5176 13bc 3c5c 163d
00000390: 3d05 9cbd 318c 4bbb aed7 5ebd 0911 83bd
000003a0: c975 153c 27c1 033e 78ae b2bd d9a2 42bd
000003b0: 0009 cc3c 4bc1 a0bd a3c4 cf3d b7fb fdbd
000003c0: 26b4 1dbc 3cd3 e0bd 6597 f83d a377 0dbd
000003d0: a098 b63d edaa b7bd 4c3e d0bc ecff 043e
000003e0: 169c 823c 378e ba3c 113a e03c a058 063e
000003f0: 6bba b03c 2ee7 babc b195 05be 0b0b 8dbd
-0.09167882 -0.015604545 -0.1044346 -0.041788768 -0.10306841 0.021464799 0.035493482 -0.08616001
-0.045278985 0.10573153 0.04876613 -0.047570374 0.042195667 0.11760383 0.096634455 0.015265363
0.005699965 -0.03877691 -0.059929784 0.10273876 -0.109152086 0.005851173 0.112582244 -0.030743392
0.08698713 0.024143413 -0.08099407 0.10800538 0.055500302 -0.032302782 0.058156297 0.015241867
0.07264193 0.07392243 -0.0826395 -0.05066669 -0.029318595 -0.10409878 0.06777162 -0.10470043
-0.123204105 0.034899738 -0.013875741 -0.117045276 0.070285134 0.045462675 -0.08989414 -0.007553374
0.014625725 -0.03871442 -0.039143972 -0.05272891 -0.09620097 0.12892818 0.09788265 0.022627227
-0.007787896 -0.0083030565 0.03861266 -0.110079736 0.06634649 0.13271727 -0.09557658 0.098520935
0.04348737 -0.09126391 -0.108348735 -0.048550867 -0.09947591 -0.121541984 0.008713413 -0.010900253
-0.09460593 -0.052806266 -0.13259168 0.08816584 -0.08993689 -0.098784514 -0.031891756 0.074473105
-0.11458852 0.10577091 0.06764352 0.07729447 -0.026330126 0.08819015 0.030848179 0.07944943
-0.085986644 -0.12655683 -0.04260174 0.049351923 -0.08389558 -0.07433738 0.041264273 0.10082356
-0.10282367 -0.07669254 -0.06564845 0.04743325 -0.041240074 0.04535779 -0.036844857 0.07474648
0.055138625 0.091364205 0.07809407 0.12041647 0.02168151 0.1265632 0.014271904 0.020745097
-0.1071752 0.04412108 -0.0918454 -0.04622279 -0.058789976 0.123031996 -0.023353556 0.0016807436
-0.058753546 0.044073083 -0.053057067 0.07159428 -0.042464502 0.03348557 -0.080283225 0.07349422
0.035678383 -0.1311147 -0.12285311 -0.015365387 0.017623276 -0.12859865 -0.11897985 -0.05489361
0.040572543 -0.06863157 -0.017349599 0.13298851 -0.10735123 -0.062555306 -0.09932507 -0.13081093
-0.074798204 -0.08004709 0.030136952 0.06685281 -0.0019301757 -0.016972678 -0.13264413 0.052341253
-0.07871081 0.044122785 -0.061293826 -0.004095064 -0.044985745 0.03958321 -0.12923925 -0.045062896
-0.05360229 -0.12164916 -0.13329792 0.04464239 -0.06701799 -0.090849 -0.028818648 0.04041286
-0.09139479 -0.12899385 0.053590503 0.00028258248 0.12146774 -0.026161427 -0.093658045 0.0892129
0.031427205 0.003219041 -0.087984115 0.121804625 0.08347611 -0.0750113 -0.07665658 0.028331477
-0.012860951 -0.085647054 -0.039938435 0.02890542 -0.072173685 0.08503131 0.015322026 0.08274769
-0.08687304 0.10368376 -0.04173107 0.07854902 -0.10633642 0.04788829 0.08875463 0.0057330835
-0.044807363 0.11838623 0.101061985 0.0943446 -0.07983614 0.018576097 0.024666874 -0.07925029
-0.04137422 0.10111641 0.042578816 -0.085820846 0.059536792 -0.06703462 0.002390983 0.07960333
-0.0801933 -0.03075241 0.11920152 0.04385199 -0.06664421 -0.042729784 -0.12549692 0.07229007
0.05080224 0.100170806 -0.009000377 0.036709055 -0.076181866 -0.0031058902 -0.054404907 -0.063997336
0.00912232 0.1286665 -0.087246835 -0.047518585 0.024906635 -0.07849368 0.10144927 -0.124015264
-0.00962547 -0.1097779 0.12138251 -0.034537923 0.0891583 -0.089681484 -0.02542033 0.12988251
0.015943568 0.022772891 0.027371438 0.13119745 0.021573266 -0.022815313 -0.13045384 -0.06886872

lstm2.bias_ih_l0 f4 [224]
00000000: 0ce2 c4bd 4d41 353d c1af 2f3d 870d c63c
00000010: 146b f03c d722 b3bd 6d3c f43c 39d7 013e
00000020: f26e e83c 4d56 35be a60e 933d 7c40 6e3d
00000030: 70c5 033e 6707 85bd 0b9d f93c 2e23 a53d
00000040: 4668 d63d 318b ccbd 8445 9d3b c62d 5abd
00000050: 8532 eabc 8774 b83d afc6 5cbe c391 b3b8
00000060: 68f9 8bbc 5692 d6bc 5fd2 c5bd d713 983d
00000070: 304a 68be 84b3 c2bc 2c7e 55bd ccce b3bc
00000080: 86c4 793d 6ce9 603d 68b6 98bc 4e47 893d
00000090: 95cc 403e ad13 80bc a595 043b 4d1b 183e
000000a0: 1287 e0bd 0250 d7bd e28e c23d 0285 f23d
000000b0: 231b 59be dbf3 0dbd 2c4f 5dba 5ef6 01be
000000c0: b349 14be ee26 46bd 1ddb c9bd 5a9a 573c
000000d0: 314e 37be d54a ce3d d93f c53d cf14 ecbd
000000e0: 6b1b 92bd d20a fd3d d1d6 6c3c b0cd ba3d
000000f0: dc72 b6bd b023 44bd e8ff 9f3d 2088 8b3d
00000100: b5fb fabc b7b1 b13d fbdf ac3d 2756 f7bd
00000110: 6ee0 ab3d 01bc 363c fc91 443d 8075 dabd
00000120: d074 c23c aafb 1a3c d7c2 b13b 9967 b23d
00000130: eb53 173d da45 da3d 6b9e afbd 2890 4ebd
00000140: b86b 5dbd 2436 48bd 60a4 8fbc 5ee0 c7bc
00000150: 8482 7e3d 0d35 cf3d a9cd 843d 09f0 b0bc
00000160: 063f b2bd 1ddb 8abd 831c d23d abb1 a6bc
00000170: 477c d0bd 5508 fd3d 7c8d d6bd 0d34 edbd
00000180: 3e20 eb3c 4be3 42bd 1156 d5bd cce7 a6bd
00000190: 15aa 99bd e5ba bd3d b25a 39bc 014c 0d3c
000001a0: f441 0ebd a7ad afba ea99 bd3c bc38 be3b
000001b0: 454d a93d db22 04bd fd37 cfbd 278c 0f3d
000001c0: 7dad 9b3d 9c88 a53d 081b 543d 0360 923d
000001d0: 34b5 08be 1f71 e2bd bcce 623d c28e 5f3d
000001e0: 508c 59bd 909e 9a3d 8b05 903d ca27 c8bd
000001f0: 606d 3dbd daee a1bd 2904 3e3c adab a03d
00000200: cd3a 873c 00e9 823d 9cbb 3bbb e2c4 723d
00000210: 26fe c13d 55c8 d6bd 1e1b 843c 2144 493d
00000220: d050 a93d 7d85 8b3d 6788 b33b 5892 9ebd
00000230: d4a7 7c3d 462e 04be 7818 d73d e78f 023e
00000240: 1f29 aa3d 848d 5cbc 5dac 20bd fd85 763d
00000250: efb0 7abd ebfc 2d3d 7312 b3bd 25f4 94bd
00000260: 9002 43bd 7df5 ca3c 1815 31bd 5c39 603d
00000270: eff1 1c3d f034 af3d 8755 5a3d 428e 393d
00000280: 9a94 8d3b 5c37 153c 22cc fa3b 2bcf 0bbe
00000290: 3d09 1bbd 43e7 14be b314 b83d a3ad 01bd
000002a0: b122 843d eb58 9dbd 4049 883d 100a 2e3c
000002b0: a99a 94bd 3195 b6bd a9ee 6e3c baf9 493d
000002c0: 356d 0c3e 49e0 f8bd 3113 c63b d479 0bbe
000002d0: ad83 cd3d 55b7 13bd f9e0 a7bd 9742 afbd
000002e0: c25d cc3d 57ed 133e aacc 8fbc 03c6 d4bd
000002f0: d132 26bc 1a4a e73c 724c 2e3c a3a4 1c3d
00000300: 7d81 3a3d 1f34 c13d b0e3 293c 8f4a d9bd
00000310: bd33 2cbe 6bcf 673d 53d6 9abd 4da5 99bd
00000320: 17b8 08be 02a3 10bb dca4 98bd fc9b 12bd
00000330: 4465 173e c607 b1bd 93a2 853c 73d1 303e
00000340: 26bf 92bd 606e a33b 322e 33bb 83f8 acbc
00000350: c540 a8bd 2bab 5b3c 9e5e 493c be61 25be
00000360: 8285 533d e79e 823d d2d9 813d 976c c9bd
00000370: c994 40bd d10b 403d f94f 4bbc d1c7 0ebe
-0.096134275 0.04425173 0.04289222 0.024176372 0.029347934 -0.087468795 0.02981397 0.12679757
0.028373215 -0.17708702 0.07180528 0.058166966 0.12868285 -0.064955525 0.030470392 0.080633506
0.10469107 -0.09987486 0.0047995467 -0.05326631 -0.028588543 0.09006601 -0.21560167 -8.5625354e-05
-0.0170867 -0.026192825 -0.09659266 0.07425659 -0.2268455 -0.02376724 -0.05212228 -0.021949194
0.060978435 0.05491011 -0.018641666 0.067030534 0.18828042 -0.015634382 0.0020230797 0.14854164
-0.109632626 -0.10513307 0.09499909 0.118417755 -0.21201758 -0.034656387 -0.00084422785 -0.12691638
-0.14481239 -0.04837697 -0.09856246 0.013159359 -0.17900921 0.10072867 0.096313186 -0.115274064
-0.07134136 0.123555794 0.014455513 0.09121263 -0.089086264 -0.047885597 0.07812482 0.06813073
-0.030637601 0.086764745 0.084411584 -0.12076979 0.08392416 0.011153222 0.047990784 -0.106669426
0.023737341 0.009459415 0.005424838 0.08711166 0.036945265 0.106578544 -0.08575138 -0.050430447
-0.054057807 -0.048879758 -0.017534435 -0.024398979 0.06213619 0.101175405 0.06484539 -0.021598833
-0.08703427 -0.06780074 0.102593444 -0.02034839 -0.10179954 0.12355105 -0.10476205 -0.115821935
0.028701898 -0.047580045 -0.104168065 -0.081496805 -0.07503144 0.09264163 -0.011313127 0.008624078
-0.034730867 -0.0013403193 0.023144681 0.005805103 0.08266691 -0.032259803 -0.10118101 0.03504577
0.0760145 0.08082697 0.05178359 0.07147219 -0.13350374 -0.110567324 0.05537294 0.054579504
-0.053112328 0.07549775 0.07032307 -0.09773214 -0.046246886 -0.079068854 0.011597672 0.078452446
0.01650753 0.063920975 -0.002864576 0.059269793 0.09472303 -0.10487429 0.016126212 0.04913724
0.08267367 0.0681257 0.005478907 -0.077427566 0.06168349 -0.12908277 0.10502714 0.12750207
0.083086245 -0.013461474 -0.03922688 0.060186375 -0.061203893 0.04247753 -0.08743753 -0.072731294
-0.047609866 0.024775261 -0.043233007 0.054742202 0.038316663 0.08555019 0.05330422 0.045301683
0.004320693 0.009107437 0.007653729 -0.13653247 -0.037850607 -0.14541344 0.08988323 -0.031659734
0.06451929 -0.076829754 0.06654596 0.010622516 -0.072560616 -0.08915175 0.014583268 0.049310423
0.13713534 -0.12152154 0.0060447683 -0.13620692 0.10034881 -0.03606351 -0.08197207 -0.08557623
0.099788204 0.14446007 -0.017553646 -0.1038933 -0.0101439515 0.028233577 0.010638343 0.038242947
0.045533646 0.094337694 0.010369226 -0.10609924 -0.16816612 0.056594294 -0.0756041 -0.07502232
-0.13351475 -0.0022069816 -0.074533194 -0.03579329 0.14784724 -0.08644061 0.016312873 0.17267399
-0.07165365 0.004987523 -0.0027340767 -0.021114593 -0.08215479 0.013407509 0.012290625 -0.16150567
0.051640995 0.063779645 0.06340374 -0.09835165 -0.047016893 0.04688627 -0.012409204 -0.13943411

lstm2.bias_hh_l0 f4 [224]
00000000: a341 6a3d f17c 81bc 817f f53c 38bc 063e
00000010: 10fc 213e f95c bfbd 7f5a afbd d75a 0a3e
00000020: d4bb ee3d 26fe ffbd b6ef 49bd eb0f ffbd
00000030: a786 cf3b c0c5 82bd dcee a73c a02f 81bd
00000040: d6cc ad3d 479f fd3d 30a4 913d 8849 433d
00000050: 7ad6 3f3d e3a3 e7bd 7165 1ebe 9909 30be
00000060: ff8f 9f3d 594a 8a3d 4359 c43c bd42 753b
00000070: 1a0b 343c b508 233e 6276 40bd 3cdb d13d
00000080: a091 1dbd 2c32 213d f284 7bbd 4035 ffbd
00000090: 73d0 8f3d caad dc3c 6793 33bc 0039 c53d
000000a0: d820 b73d 0210 d23d f053 79bc 5428 dabd
000000b0: 8c72 85bd a467 093c c02d 39bd 796f 4cbe
000000c0: ce37 5bbd a9b2 9c3d bba2 a6bd e429 d13c
000000d0: 038c 153b 0783 fabd 5d6d a1bd 5b4f 0ebe
000000e0: fe94 f33b 40b6 623d 5fab 153c 2fc2 d03d
000000f0: 6428 92bd f32d 853c e12b 97bd 88ec 80bd
00000100: 6f81 cb3c 38d4 97bd 2683 923d 19cb f7bd
00000110: 272f 833d 7539 c63d a152 02be 2f22 e93d
00000120: 4de8 59bc d65a ad3d 62be de3d f33e be3d
00000130: f8c6 3ebd 3039 013e 5fe3 3abd cbc9 00be
00000140: eb70 afbc 83ac 8bbd 5c0d 3a3c f933 833d
00000150: 55f9 1cbc 8e60 ba3d bb02 e1bd 6d02 dfbd
00000160: 41dd 393d 53c3 bd3d d1f5 0d3d d0f3 dcbd
00000170: 962f 913d 32f4 d3bd 82a3 6ebc 85df e3bd
00000180: 014f 573d 1279 c13d b01c f2bc c9cf 88bd
00000190: 6bfc 66bd 4b22 2f3d 1a84 78bd d851 8a3c
000001a0: 72bd e63d 05c6 a5bd 97bb 853d 0d91 d03d
000001b0: fe3f f3bd 981c 5d3d 1265 7a3d 504f 823d
000001c0: f272 d33c 7f18 e73c d311 11be bad6 dcbc
000001d0: 0516 693c 6bc5 e23d 79da b3bd 6a8d f0bd
000001e0: e342 aa3d 28d4 163c 3fc4 1ebe 86bc 7fbd
000001f0: cb71 8d3d ce54 c23d 1368 80bd bba8 64bc
00000200: ba88 30bd 42ae 8abd 35f7 ac3c eb7b cebc
00000210: 30b8 41bd 6fb0 923d 4e2b 11bd 7636 4bbc
00000220: ee1f 0c3e da6b 123d 9f68 bbbd 8ebd af3c
00000230: 75f0 49bd bc6f 5a3d c2cd f9bd 4032 80bd
00000240: ea35 1bbe 0684 dd3d 686a e33d 5e0f debd
00000250: 49c0 c8bc 8beb 6cbd 8fef a43d 1c59 1f3e
00000260: 14d6 78bc 6694 b4bd ebcb 753c af89 9bbd
00000270: c7a3 9bbd c80f 8cbd 1d15 ecbc d40b 7fbd
00000280: c6f3 353c 81f1 a43c bec9 edbb 8a05 b23d
00000290: 038f 9d3d 48dc 85bd 98d3 f0bc 619f 723d
000002a0: 1763 a73d a150 273d 4e66 cb3d 9b8b 3fbd
000002b0: 5414 39bc fc80 833c a466 9b3d c43c ed3c
000002c0: 01b0 083d 21c9 163d d113 b43d 3a62 a93d
000002d0: ed28 5b3e da00 8c3d 999d fa3c 8321 863d
000002e0: f834 5c3d df4b 65bc 9043 8e3d 1a5f 4d3c
000002f0: 364a 133d 78bb 0dbe 9f18 40be 8774 47bd
00000300: ff29 3fbd a7cb 7ebd c0c4 ecbd e7da d9bd
00000310: 5899 c8bc 930e 663d c504 d53d 6f23 bf3d
00000320: faa3 f8bd f18d 8abd 3ef1 823d 871f 993c
00000330: dc3c 1c3c 44a9 e3bc 1014 cdbc 89ae 123d
00000340: 8d16 813d df07 63bd ace1 103c 90b6 dc3d
00000350: d0e6 38be 70ff 903c 9583 b4bd eb1d f9bd
00000360: 2359 973d a702 77bc 8600 193c 808d 5dbd
00000370: d796 c7bd eb73 04be 07ef 91bd 21ea dabd
0.057191502 -0.015806647 0.029968025 0.13157737 0.1581881 -0.09343905 -0.08562183 0.13511215
0.11656919 -0.12499647 -0.04930087 -0.12454208 0.0063331905 -0.06385374 0.02049964 -0.06307912
0.08486335 0.12383895 0.071113944 0.047677547 0.0468354 -0.11310556 -0.15468384 -0.17191161
0.07791137 0.06752462 0.023968345 0.0037423812 0.010988975 0.1592129 -0.0469879 0.10246894
-0.038468957 0.03935449 -0.061406083 -0.124613285 0.070221804 0.026938338 -0.010960436 0.096300125
0.08941811 0.102569595 -0.015217766 -0.10652223 -0.06515989 0.008386526 -0.045209646 -0.19964398
-0.053520016 0.07651264 -0.08136507 0.02553267 0.002281905 -0.12232023 -0.078821875 -0.13897459
0.0074335327 0.05534959 0.009135096 0.101932876 -0.0713661 0.016257262 -0.07381416 -0.06295115
0.024841992 -0.074135244 0.07153921 -0.12099285 0.06405478 0.09678928 -0.12726833 0.11383473
-0.013300014 0.08464591 0.108761564 0.0928935 -0.04657647 0.12619472 -0.045626994 -0.12576978
-0.021416148 -0.068200134 0.011355724 0.06406397 -0.00958093 0.091004476 -0.10986849 -0.108891346
0.04537702 0.09265771 0.034658257 -0.10788691 0.070891544 -0.10349311 -0.0145653505 -0.11126617
0.05256558 0.094469205 -0.029554695 -0.06680257 -0.05639307 0.042757314 -0.060672857 0.01688473
0.112666026 -0.0809441 0.065299205 0.10183916 -0.1187744 0.053982347 0.061131544 0.06362784
0.025811646 0.028209923 -0.14166956 -0.026957858 0.014226441 0.11072811 -0.08781905 -0.117457226
0.08313539 0.009205855 -0.1550455 -0.06243565 0.0690647 0.094888315 -0.062698506 -0.013956244
-0.043099143 -0.06771518 0.021113971 -0.025205573 -0.047294796 0.07162558 -0.03544169 -0.012403121
0.13684055 0.035747387 -0.09150814 0.021452691 -0.049301583 0.053329214 -0.12197448 -0.062595844
-0.15157285 0.10816197 0.1110428 -0.10842775 -0.024505751 -0.05784182 0.08053505 0.15561336
-0.015187759 -0.08817367 0.015002231 -0.075946204 -0.075995974 -0.068389475 -0.028818661 -0.06226714
0.011105483 0.02013469 -0.0072567156 0.08692463 0.07693293 -0.06536156 -0.02939777 0.059234027
0.08173197 0.040848378 0.099316224 -0.046763998 -0.0112963505 0.016052715 0.075879365 0.02895964
0.033370975 0.036812905 0.08792842 0.08270688 0.2140233 0.068361 0.030592727 0.065493606
0.053761452 -0.01399514 0.0694648 0.012534881 0.035959445 -0.13841045 -0.18759392 -0.048695114
-0.04667091 -0.062205937 -0.115609646 -0.106374554 -0.024487182 0.056166243 0.104013 0.0933293
-0.12140651 -0.067653544 0.063936695 0.018691791 0.009535994 -0.027790673 -0.02503398 0.03581098
0.06303129 -0.05542743 0.008842867 0.107770085 -0.18056798 0.017699927 -0.0881416 -0.121639095
0.07390048 -0.015076316 0.009338504 -0.054090023 -0.09745567 -0.12934844 -0.07125669 -0.10689188
