S/Treinamento/CONV/CONV_2_DENSO_1/conf_2/modelo_seed_09_loss_0.003720.pt (torch, 373841 bytes, 6 tensors)

conv1d_1.weight f4 [152, 76, 3]
0	0x3ca908f8	0.02063416
1	0x3d86ac20	0.06575799
2	0xbb2e8217	-0.0026627833
3	0x3d167bab	0.036739033
4	0x3dbcb093	0.09213366
5	0x3d69d916	0.057091795
6	0xbd0202e4	-0.031741038
7	0x3d8cb5b1	0.068705924
8	0xbc81bad8	-0.015836164
9	0xbc425de1	-0.011863203
10	0x3d53f341	0.051745657
11	0x3c14ef0f	0.009090199
12	0xbd4457ed	-0.047935415
13	0xbd54effa	-0.051986672
14	0x3af152d6	0.0018411528
15	0xbb023594	-0.001986836
16	0xbc2d48af	-0.010576411
17	0xbca6411d	-0.02029472
18	0xbbe33332	-0.006933593
19	0x3b8f9aaa	0.004382451
20	0x3cd34f71	0.025794717
21	0x3d2e6819	0.042579744
22	0x3d7e790d	0.06212716
23	0x3cfb3173	0.030663228
24	0xbbe6efd7	-0.007047634
25	0xbc79d9ac	-0.015249651
26	0x3d63a2da	0.05557523
27	0x3d19c6c6	0.03754308
28	0x3deb1a56	0.114796326
29	0x3c513492	0.012768881
30	0x3c894675	0.01675723
31	0x3d6ba4d7	0.05753025
32	0x3d537d8d	0.051633406
33	0x3d2c6888	0.042091876
34	0x3d614cd7	0.05500492
35	0xbc4a9e36	-0.012366822
36	0xbd098bb7	-0.033580508
37	0xbb0b3e28	-0.0021246765
38	0x3d2e60fc	0.04257296
39	0xbae93134	-0.0017791153
40	0x3c0f896b	0.00876079
41	0xbd35b68b	-0.04436354
42	0x3d15e6a8	0.036596924
43	0xbd45c308	-0.0482817
44	0xbd34bff5	-0.044128377
45	0x3cf8fc96	0.03039388
46	0xbddc8610	-0.10767758
47	0x3d3b039e	0.045657746
48	0x3d14c9c6	0.03632524
49	0xbde86fda	-0.11349459
50	0x3d0ba300	0.034090996
51	0x3c2d07ce	0.010560943
52	0xbbf3220a	-0.0074198293
53	0x3d02e0cc	0.031952664
54	0xbc1eabe6	-0.0096845385
55	0xbc8dde19	-0.017317818
56	0xbc5e0805	-0.013551717
57	0xbcbf9cc8	-0.023390189
58	0xbd54c79c	-0.051948175
59	0x3ccf0626	0.025271486
60	0xbcec2700	-0.02882719
61	0x3b5efdaa	0.0034025707
62	0xbc89d52d	-0.016825283
63	0x3d41cb0a	0.047312774
64	0x3d7031b6	0.058641158
65	0xbd7b91e8	-0.061418444
66	0xb9387749	-0.00017592045
67	0xbc9b8fad	-0.018989408
68	0xbd0e5a39	-0.03475401
69	0x3d68652d	0.056737114
70	0x3c208cfa	0.009799236
71	0xbca7e570	-0.020495147
72	0xbd85bccf	-0.06530153
73	0x3da3e524	0.080026895
74	0xbd4e9d50	-0.050442994
75	0x3bca5163	0.006174253
76	0x3d23583b	0.039879065
77	0xbd66a274	-0.05630727
78	0x3cb2e9aa	0.021839935
79	0x3d4dca0d	0.05024152
80	0xbcdb8c2e	-0.026800241
81	0xbcb6d0e5	-0.022316406
82	0xbda6928c	-0.0813342
83	0xbd86a5a6	-0.06574564
84	0xbc967217	-0.01836495
85	0x3cc24de8	0.02371879
86	0x3998971c	0.00029104284
87	0xbd4bd60e	-0.049764685
88	0x3c4ccbe6	0.012499785
89	0x3be28d3b	0.0069138086
90	0x3d7ba1ab	0.061433475
91	0xbde57dd2	-0.11205639
92	0xbd7715bb	-0.06032346
93	0x3be18d99	0.006883335
94	0xbdee76bc	-0.116437405
95	0xbd68cca7	-0.056835797
96	0x3d3e8c00	0.046520233
97	0xbded426d	-0.11584935
98	0xbd58c6d3	-0.05292399
99	0x3c9d4a8b	0.019200584
100	0xbcb86f98	-0.02251415
101	0x3d7f00eb	0.062256735
102	0xbcaba1f7	-0.020951254
103	0x3bafb606	0.005362275
104	0xbd25b003	-0.04045106
105	0x3c6f6ac8	0.014612861
106	0x3c8c94ec	0.017160855
107	0xbcf4665b	-0.029833963
108	0x3d4afd74	0.049558118
109	0x3cb66785	0.022266159
110	0xbc58eb37	-0.013239673
111	0xbcadf1f7	-0.021233542
112	0x3d23ec82	0.040020473
113	0xbc183b73	-0.009291518
114	0x3c89f6ac	0.016841255
115	0x3cc0d511	0.023539098
116	0x3b147f67	0.0022658946
117	0x3d6fbeb9	0.058531497
118	0xbdadf67d	-0.084942795
119	0x3ce038a1	0.027370753
120	0xbd7e1e35	-0.062040526
121	0xbd44d49c	-0.048054323
122	0x3c82c3ef	0.015962569
123	0x3ccaff6a	0.024779994
124	0xbda5d2dd	-0.080968596
125	0x3d5b4ebf	0.053541895
126	0xbcdf42b6	-0.02725349
127	0x3d972974	0.073809534
128	0x3d30d0b8	0.0431678
129	0xbd7cdf6d	-0.061736513
130	0x3deaaa73	0.11458292
131	0xbd114419	-0.035465334
132	0xbd7e3709	-0.062064204
133	0x3d85226a	0.065007046
134	0xbd55af5a	-0.05216918
135	0x3d516513	0.051121783
136	0x3e4e9e79	0.2017764
137	0xbd33eeb9	-0.043928836
138	0x3cd124a0	0.02553016
139	0x3db727da	0.08943148
140	0x3b4e1354	0.0031444626
141	0x3d11c149	0.03558472
142	0xbd64605d	-0.05575596
143	0x3d41df8d	0.047332335
144	0x3d3da0c6	0.046295904
145	0x3d1080ab	0.035278957
146	0xbbae9e1b	-0.0053289062
147	0xbc3b5c65	-0.011435603
148	0x3b09cd41	0.0021026882
149	0xbd1c95ac	-0.038228676
150	0x3c9e548b	0.019327423
151	0xbc53c2d2	-0.012924867
152	0xbb57764b	-0.0032876905
153	0x3d866e85	0.06564049
154	0xbce48014	-0.027893104
155	0xbd55bbcf	-0.05218106
156	0x3bd9c241	0.0066454713
157	0xbdb67842	-0.08909656
158	0xbd5d5c3f	-0.05404305
159	0xbce5bbc9	-0.028043645
160	0xbda96192	-0.08270563
161	0xbd523465	-0.0513195
162	0xbc6ba0cb	-0.014381598
163	0xbd01b928	-0.03167072
164	0xbb668290	-0.0035173036
165	0x3c28ce5b	0.010303105
166	0xbcbd0dbe	-0.023077842
167	0x3d62423d	0.05523895
168	0x3c0192dc	0.007908549
169	0x3c2fc215	0.010727425
170	0x3b582cd1	0.0032985697
171	0x3ab60550	0.0013887081
172	0xbca1bfab	-0.019744715
173	0xbc1299e5	-0.008947824
174	0x3d6b5a56	0.057459198
175	0x3cf4f46e	0.02990171
176	0x3d52030a	0.05127243
177	0x3ce264a2	0.027635876
178	0x3d8f8700	0.07008171
179	0x3d697e57	0.057005253
180	0xbd4802e9	-0.0488309
181	0xbc7f606c	-0.015586954
182	0xbd6e60db	-0.058197837
183	0xbd7534f3	-0.05986495
184	0xbd010132	-0.03149528
185	0xbd256975	-0.040383775
186	0x3c4bfb75	0.012450089
187	0xbd2defba	-0.04246495
188	0x3d2b26f3	0.04178519
189	0x3d866960	0.065630674
190	0xbceca335	-0.028886417
191	0x3ca05969	0.019573884
192	0xbd80234d	-0.06256733
193	0xbe016456	-0.12635931
194	0xbc74f6e1	-0.014951439
195	0x3d02cb6a	0.031932272
196	0xbcad3d98	-0.021147534
197	0x3c9ca525	0.019121716
198	0xbd703817	-0.05864724
199	0x3e1f39ed	0.1554944
200	0xbd42416d	-0.047425676
201	0x3cf10431	0.029420944
202	0x3e3a9807	0.18222056
203	0xbb36f223	-0.002791532
204	0x3d237b57	0.039912548
205	0x3daf7d00	0.08568764
206	0xbb82fcdb	-0.003997428
207	0xbd827795	-0.06370465
208	0x3adab648	0.0016686404
209	0xbb4a5370	-0.0030872487
210	0x3d28bf2f	0.041197952
211	0x3d4ae4bc	0.049534544
212	0xbbad0735	-0.0052804
213	0xbd073992	-0.033013888
214	0x3d63822e	0.05554407
215	0x3c01cdbc	0.007922586
216	0x3d2dbdd0	0.042417347
217	0xbc0bc570	-0.0085309595
218	0xbc406ba8	-0.011744417
219	0x3d5db416	0.05412682
220	0xbd631ddf	-0.05544841
221	0xbd867e2f	-0.06567036
222	0x3ca8c3c3	0.020601159
223	0xbcaaf13d	-0.020866985
224	0xbd11d1a2	-0.035600312
225	0xbd839c1e	-0.06426261
226	0xbd64be75	-0.055845696
227	0xbc2ab041	-0.010417999
228	0xbd22d5ec	-0.039754793
229	0x3cf03ee9	0.029326873
230	0xbd311ef5	-0.043242414
231	0x3d6ec552	0.058293648
232	0x3d0c2a78	0.03422019
233	0xbc1a7b8e	-0.009428872
234	0x38d03fe5	9.930114e-05
235	0xbc6fe399	-0.014641666
236	0xbb7ca5b5	-0.0038550918
237	0xbd809a88	-0.062794745
238	0xbd97fb32	-0.074209586
239	0xbcd3093d	-0.025761241
240	0x3d00f87a	0.031486966
241	0xbc640898	-0.013918065
242	0xbd69d5b3	-0.057088565
243	0xbd642b1b	-0.05570517
244	0x3d29c6de	0.04144942
245	0x3d37d412	0.04487998
246	0xbd82aed3	-0.06381001
247	0x3d8addde	0.06780599
248	0xbcb6cf7c	-0.022315733
249	0x3b9f20a7	0.0048561874
250	0x3d02b371	0.03190941
251	0x3cb1f2a0	0.021722138
252	0x3d25b811	0.040458743
253	0x3db67f3d	0.089109875
254	0xbd09e9c4	-0.033670202
255	0xbcc129d7	-0.023579521

conv1d_1.bias f4 [152]
0	0x3d2f96ae	0.04286831
1	0x3d71fdbc	0.05907987
2	0xb908e7eb	-0.00013056367
3	0x3d36de2c	0.044645473
4	0x3b4051ae	0.002934556
5	0x3e1ada95	0.15122445
6	0xbdf961b4	-0.121768385
7	0xbc8962c3	-0.016770726
8	0x3dfa1871	0.12211693
9	0xbd452dba	-0.04813931
10	0xbdea9cd2	-0.11455692
11	0xbc8afa8c	-0.016965173
12	0xbc160cca	-0.009158323
13	0xbe152042	-0.14563087
14	0x3ca3ebe6	0.020009946
15	0xbc329727	-0.010900295
16	0x3d540067	0.051758196
17	0xbd9cb066	-0.07650833
18	0xba7f5ded	-0.0009741474
19	0x3dfc505c	0.12320015
20	0xbb4490f6	-0.002999363
21	0x3e05becf	0.13061069
22	0x3e31a544	0.173482
23	0xbcda1855	-0.02662293
24	0x3e708d00	0.23491287
25	0x39fca7d9	0.00048190242
26	0xbd8a204d	-0.06744442
27	0x39d0df89	0.00039839398
28	0xbdd32cfd	-0.10311315
29	0x3e41a6a2	0.18911222
30	0x3d9ea130	0.07745588
31	0x3dcaa43a	0.09894605
32	0xbdce92f2	-0.10086621
33	0x3d27fd9b	0.04101334
34	0x3db64cd4	0.089013726
35	0xbdf956e3	-0.121747755
36	0x3d80624b	0.06268748
37	0xbda76786	-0.081740424
38	0xbd940bcf	-0.07228815
39	0xbd96663d	-0.07343719
40	0x3d87b813	0.06626906
41	0x3cfd7552	0.030939732
42	0x398ba2e8	0.0002663352
43	0xbdb82ff9	-0.08993525
44	0x3dc46143	0.09588864
45	0xbdd63a83	-0.10460379
46	0x3d8c41c8	0.06848484
47	0xbd873f64	-0.06603888
48	0xbdb8ad9e	-0.0901749
49	0x3e1521a2	0.14563611
50	0xbd0f114d	-0.03492861
51	0x3e44f405	0.19233711
52	0x3de2afc3	0.1106868
53	0x3caf14d4	0.021372236
54	0x3e007136	0.12543187
55	0xbdb75b2f	-0.08952939
56	0x3ddb6093	0.107117794
57	0x3ceecad4	0.02914945
58	0x3ade6d2d	0.0016969793
59	0xbc862fdd	-0.016380245
60	0xbe305682	-0.172205
61	0xbd5b13da	-0.05348573
62	0x3c7ba36d	0.015358788
63	0x3c1965b4	0.009362627
64	0xbcb06771	-0.0215337
65	0x3d440711	0.0478583
66	0x3de83987	0.113390975
67	0x3d60e813	0.054908823
68	0x3d857de7	0.065181546
69	0xbcf6fbbc	-0.030149333
70	0x3c96257e	0.018328425
71	0x3e08bbf3	0.13352947
72	0xbe462211	-0.19348933
73	0x3c7b16ec	0.015325289
74	0x3d95e5f6	0.07319252
75	0xbd0f9030	-0.035049617
76	0x3cac434c	0.021028183
77	0x3d92c811	0.07167066
78	0x3d1deeca	0.038557805
79	0xbdab047c	-0.08350465
80	0x3de44992	0.11146845
81	0x3d890edd	0.06692288
82	0x3d58c929	0.052926216
83	0x3c92715c	0.01787632
84	0x3d7633f7	0.06010815
85	0x3df2fb7d	0.11864374
86	0xbd94697f	-0.07246684
87	0x3c40e124	0.011772428
88	0x3d243335	0.040087897
89	0x3cf8bf90	0.030364782
90	0xbd3e1e6c	-0.04641573
91	0x3d292021	0.041290406
92	0x3d88541f	0.0665667
93	0xbcc279d4	-0.023739733
94	0x3cfb778f	0.030696658
95	0xbdbd1feb	-0.092346035
96	0xbe1ff009	-0.1561891
97	0x3e2ed7d0	0.17074513
98	0xbdc945e1	-0.098277815
99	0x3e2444a7	0.16041814
100	0x3d59e701	0.053198818
101	0xbd0dc043	-0.034607183
102	0x3d6c380a	0.05767063
103	0x3e0a3233	0.13495712
104	0xbd9a7f8f	-0.07543861
105	0x3cbc388e	0.022976186
106	0x3dec0f71	0.11526383
107	0x3c68842d	0.014191669
108	0x3df8e683	0.121533416
109	0x3cd1adc7	0.025595559
110	0xbd3679f3	-0.044549894
111	0xbc91acaf	-0.017782537
112	0x3cd898f1	0.026440116
113	0xbe09e7d7	-0.13467346
114	0xbdb94ad8	-0.090474784
115	0x3dc9b3ea	0.09848769
116	0x3dc5272c	0.09626612
117	0xbe19fde2	-0.15038255
118	0x3e13cd30	0.14433742
119	0x3dfdec7d	0.12398622
120	0x3e1968a7	0.14981328
121	0x3cb1c680	0.021701097
122	0x3cff01ce	0.03112879
123	0x3cc1c2a8	0.02365239
124	0xbe2adcfe	-0.16685864
125	0xbd80c8b9	-0.06288285
126	0x3d1ab6ab	0.037771862
127	0x3e2607db	0.16213934
128	0xbcabbd73	-0.02096436
129	0xbe0d27dc	-0.13784736
130	0xbd85ee28	-0.06539565
131	0xbe001bcc	-0.12510604
132	0xbd25997a	-0.04042957
133	0xbd899f01	-0.06719781
134	0x3d9e1a5c	0.077198714
135	0x3e0dea12	0.13858822
136	0x3d39edef	0.045392927
137	0xbb12eea5	-0.0022420075
138	0xbd26d148	-0.04072693
139	0xbd807d39	-0.06273884
140	0xbe54792a	-0.20749345
141	0xba26bfce	-0.00063609786
142	0xbd834967	-0.06410485
143	0xbcfcb3f9	-0.030847536
144	0x3c94763e	0.018122789
145	0x3d6da087	0.05801442
146	0x3dd9d8dd	0.106370665
147	0xbde72fc0	-0.112884045
148	0xbe10f9d6	-0.14157805
149	0xbd3d22cc	-0.046175763
150	0x3e10a296	0.14124522
151	0xbe1d1e69	-0.15343632

conv1d_2.weight f4 [120, 152, 3]
0	0x3bae4608	0.005318407
1	0xbd5b4b51	-0.053538624
2	0xbd31e009	-0.043426547
3	0xbd3650df	-0.04451072
4	0x3b9e68d5	0.0048342743
5	0xbc4f3f51	-0.012649373
6	0xba88162f	-0.0010382588
7	0x3d18d8d8	0.037316173
8	0xbd1f1663	-0.03883971
9	0x3c588ffb	0.013217921
10	0x3d3d523d	0.046221007
11	0xbad219e0	-0.001602944
12	0x3cacc9b5	0.021092275
13	0x3d27112e	0.04078787
14	0x3b8aebd9	0.004239541
15	0x3bd6b2e2	0.006552086
16	0x3d9c6648	0.07636696
17	0xbd34de39	-0.04415724
18	0xbcc741a3	-0.02432329
19	0xbda8dc93	-0.08245196
20	0x3a863168	0.0010238113
21	0xbc1539dc	-0.009108033
22	0x3dab4548	0.08362824
23	0xbd03d2a3	-0.0321833
24	0x3d29c2b5	0.041445453
25	0x3ddca1e6	0.10773067
26	0x3d3ec801	0.046577457
27	0x3d21d882	0.03951312
28	0xbd161deb	-0.036649626
29	0x3d32a687	0.043615844
30	0xbcac4d93	-0.021033084
31	0xbde87ec6	-0.11352305
32	0xbb5089ac	-0.003182034
33	0x3c257cb4	0.010100532
34	0x3d833f4e	0.06408559
35	0xbd2da761	-0.042395953
36	0x3cff0d7f	0.031134365
37	0xbc2e4863	-0.0106373755
38	0xbd14ccb0	-0.036328018
39	0x3d0e2b63	0.034709346
40	0xbe0cf3d6	-0.13764891
41	0xbd1af5d3	-0.037832092
42	0x3cf5c303	0.030000215
43	0xbd58f51f	-0.05296814
44	0xbb983e85	-0.004646125
45	0x3cdf2d5d	0.02724331
46	0x3d4be1e6	0.04977598
47	0xbcba10bb	-0.022713056
48	0xbc58f17a	-0.013241166
49	0x3bc8b5f6	0.006125207
50	0xbcf5fad5	-0.030026833
51	0xbcd9cfa6	-0.026588272
52	0xbde7dbb8	-0.11321205
53	0xbd1279e3	-0.03576077
54	0xbc236af2	-0.009974228
55	0x3cbc8e01	0.023016931
56	0x3d2fcf90	0.042922556
57	0xbd3a9a23	-0.045557152
58	0x3e147dbc	0.14501089
59	0xbd09659d	-0.03354417
60	0x3cf4666a	0.029833991
61	0x3d5891d2	0.05287344
62	0x3d0455f6	0.03230854
63	0x3d389eb7	0.045073237
64	0x3e0d50d5	0.13800366
65	0x3be8cba8	0.007104356
66	0x3d3a8249	0.045534406
67	0x3d138148	0.036011964
68	0x3bbdc6f4	0.0057915393
69	0x3d3119f3	0.043237638
70	0xbd12860d	-0.035772372
71	0xbd224c6a	-0.039623655
72	0xbad53cb8	-0.0016268706
73	0x3e82c2ce	0.2553925
74	0x3b5acd14	0.0033386396
75	0x3c466c2d	0.012110752
76	0xbd25fbee	-0.040523462
77	0xbbaa0750	-0.00518886
78	0x3c868d52	0.016424809
79	0xbcbcc0f1	-0.02304122
80	0x3d01e3f2	0.031711526
81	0x3d35e0c4	0.044403806
82	0xbc757626	-0.014981782
83	0x3cf315a7	0.02967341
84	0x3ca0f958	0.019650146
85	0xbe38b997	-0.18039547
86	0x3cb57d03	0.022154337
87	0xbd07adc5	-0.033124704
88	0x3e03a590	0.12856126
89	0x3ce9dccd	0.028547669
90	0xbd3867c7	-0.045020845
91	0x3d310400	0.043216705
92	0x3be77df4	0.0070645753
93	0xbc81262c	-0.015765272
94	0x3e5e64da	0.2171816
95	0xb93e60ee	-0.00018155921
96	0xbbaf75b8	-0.0053546093
97	0xbcdeac64	-0.027181812
98	0x3d2e527b	0.04255913
99	0x3cf22fbf	0.029563783
100	0xbd36e2c5	-0.044649858
101	0x3c9fb06d	0.019493306
102	0xbcbfbfd8	-0.023406908
103	0x3de1f41e	0.1103289
104	0x3d2d7387	0.042346504
105	0x3cb3f8cf	0.021969227
106	0xbdfa786f	-0.12230002
107	0x3d0c9c75	0.034328897
108	0xbd356a1e	-0.044290654
109	0xbc6a5bcf	-0.014304115
110	0xbd2e8729	-0.042609368
111	0x3cd1074e	0.025516178
112	0xbde610d5	-0.11233679
113	0x3c91a34b	0.01777806
114	0xbbc65679	-0.006052789
115	0xbdc4a108	-0.09601027
116	0x3ce6f4ee	0.028192963
117	0xbcab59d4	-0.020916857
118	0xbdbf0dd5	-0.0932881
119	0x3d0d94af	0.034565624
120	0xbcf6925c	-0.030099086
121	0x3d54b1c8	0.051927358
122	0xbcbd50f2	-0.023109887
123	0x3c3fcb57	0.011706195
124	0xbccbf7ff	-0.024898527
125	0xbd331395	-0.043719847
126	0x3cf3daec	0.029767476
127	0xbd339d2e	-0.04385107
128	0x3cc570b4	0.024101593
129	0x3c8c9387	0.01716019
130	0xbdbd5c67	-0.0924614
131	0x3c405da3	0.011741075
132	0x3cb77dfb	0.02239894
133	0x3d4b7d13	0.049679827
134	0x3cd91135	0.026497463
135	0xbbf853bf	-0.0075783427
136	0xbdf5d315	-0.12003151
137	0x3d1be26e	0.038057737
138	0xbca8763e	-0.020564195
139	0x3d23cb34	0.03998871
140	0x3c8c63e9	0.017137485
141	0x3bb08e5e	0.0053880652
142	0xbd345779	-0.044028733
143	0x3c0e5166	0.008686399
144	0x3cbe31f5	0.02321718
145	0xbcc753f5	-0.024332026
146	0x3b127f6d	0.0022353784
147	0xbbb10c4a	-0.0054030763
148	0x3dc6f578	0.09714788
149	0xbcc3c503	-0.023897653
150	0xbd059171	-0.032609407
151	0x3d71cfb1	0.05903596
152	0xbb0fb64f	-0.0021928733
153	0xbc296799	-0.010339641
154	0x3db9f860	0.09080577
155	0xbd2c279e	-0.04202997
156	0x3c36352e	0.011121077
157	0x3d8fcfc4	0.0702205
158	0xbd248f86	-0.040175937
159	0xbb06bab6	-0.0020558066
160	0x3d985895	0.07438771
161	0x3bb55239	0.0055334833
162	0xbc947b41	-0.018125178
163	0x3df4f1bc	0.1196017
164	0xbc191a3e	-0.0093446355
165	0xbc982817	-0.018573804
166	0xbd8ebe6b	-0.06969913
167	0x3d2c05a0	0.041997552
168	0x3d1335d9	0.035940025
169	0x3c8c3db3	0.017119264
170	0x3d098456	0.03357347
171	0xbbc937cc	-0.0061406847
172	0x3d106795	0.035255034
173	0x3d20ea2f	0.039285835
174	0x3ce9b801	0.028530123
175	0xbdbb036e	-0.091315135
176	0xbce73462	-0.02822322
177	0x3d1fb468	0.03899041
178	0xbd94df2f	-0.072691314
179	0xbcd48f19	-0.02594714
180	0x3ce5048d	0.027956272
181	0xbd9865ec	-0.07441315
182	0x3cbe84a0	0.0232566
183	0x3d217c0e	0.03942495
184	0xbd653df9	-0.055967305
185	0xb827642c	-3.9909195e-05
186	0x3cc3e340	0.023912072
187	0x3d18a180	0.037263393
188	0x3c09d7f4	0.008413304
189	0xbc87e159	-0.016586946
190	0x3d89fc27	0.06737547
191	0x3af94018	0.0019016294
192	0xbcbbf887	-0.022945656
193	0xbcb54b19	-0.022130536
194	0xbc69d0c1	-0.014270962
195	0x3d3021d1	0.043001
196	0xbd20ec8b	-0.039288085
197	0x3cf63121	0.030052723
198	0xbcbff1bb	-0.023430696
199	0x3e1463f6	0.14491257
200	0x3c0e9e33	0.00870471
201	0xbc871d5e	-0.016493496
202	0x3d5c5872	0.053795286
203	0xbd3250fa	-0.043534257
204	0xbd2b66e2	-0.041846164
205	0xbb1599e4	-0.0022827322
206	0x3c5f6abe	0.013636289
207	0x3c879339	0.016549693
208	0xbbf2a125	-0.007404464
209	0xbcb5761e	-0.02215105
210	0xbc564f05	-0.013080363
211	0xba5d0475	-0.0008431145
212	0x3d267628	0.040640026
213	0xbd1cf3fa	-0.03831861
214	0x3e43af6a	0.19109884
215	0xbd0fdec5	-0.03512456
216	0xb9fd2bbd	-0.00048288508
217	0xbe7e007e	-0.24804875
218	0xbce2fbb7	-0.027707918
219	0xbd276030	-0.040863216
220	0xbc08b822	-0.008344682
221	0x3ceb1fd1	0.028701695
222	0xbcf940c3	-0.030426389
223	0x3d8d486d	0.0689858
224	0x3d1ca555	0.03824361
225	0xbd10e77a	-0.035377003
226	0xbdaab12f	-0.08334576
227	0xbd14aa48	-0.036295205
228	0xbc84b7c9	-0.016200917
229	0xbd01847e	-0.031620495
230	0xbcfcb923	-0.030849999
231	0x3be530e3	0.006994353
232	0xbd220594	-0.0395561
233	0xbb97a4f8	-0.00462782
234	0xbcb7291a	-0.022358466
235	0xbc97f49e	-0.01854926
236	0x3cb44bbc	0.02200877
237	0x3d22f420	0.039783597
238	0xbd6b6ba8	-0.057475716
239	0xbc7c5387	-0.015400774
240	0xbccc703d	-0.024955863
241	0xbcf7665e	-0.03020018
242	0xbce59fe2	-0.02803034
243	0xbcf9ca16	-0.03049187
244	0xbdb3f65d	-0.087872244
245	0xbcb73700	-0.022365093
246	0xbc81517d	-0.015785927
247	0x3afff9db	0.0019529419
248	0x3cc5f8ac	0.024166428
249	0xbd089830	-0.033348262
250	0x3d14225b	0.036165576
251	0xbc8852fb	-0.01664113
252	0x3b28815d	0.0025711872
253	0x3da97ab6	0.082753584
254	0xbccec27e	-0.025239225
255	0x3d008d61	0.03138483

conv1d_2.bias f4 [120]
0	0x3dc47334	0.09592286
1	0xbd540b7e	-0.051768772
2	0xbdc29ad7	-0.095021896
3	0x3cdf8a23	0.027287548
4	0x3d53adf6	0.051679574
5	0xbcb0874e	-0.021548893
6	0xbcef7099	-0.029228495
7	0xbc2267ae	-0.0099124145
8	0xbbbba3c7	-0.005726311
9	0x3cd9f593	0.026606357
10	0x3d0e983c	0.03481315
11	0x3cec5bc5	0.028852353
12	0x3c0024cc	0.007821273
13	0xbcea74b0	-0.028620094
14	0xbc29a06c	-0.010353189
15	0x3c2b2eb2	0.010448145
16	0xbd45faec	-0.048335
17	0x3d292ad7	0.04130062
18	0xbd066d69	-0.032819185
19	0xbd032927	-0.032021668
20	0xbd829fa5	-0.06378106
21	0x3c1b3a7e	0.009474395
22	0x3d6ed5fb	0.058309536
23	0x3d5eef10	0.054427207
24	0xbcffbdb9	-0.031218396
25	0xbd00ae88	-0.031416446
26	0xbd55e4ba	-0.052220084
27	0xbe3d6a4b	-0.18497579
28	0x3cec80f2	0.02887008
29	0x3d863766	0.06553535
30	0x3cb90f76	0.02259038
31	0xbcb9dd9c	-0.02268868
32	0xbcb5cc6f	-0.022192208
33	0x3ce20be5	0.027593562
34	0xbd086c23	-0.033306252
35	0x3c3fb766	0.01170144
36	0x3d0342d7	0.032046165
37	0xbc6cd8da	-0.014455998
38	0x3c92b885	0.017910251
39	0xbd0f6f45	-0.035018224
40	0x3d3fce75	0.046827752
41	0xbd16a220	-0.03677571
42	0x3d1d7e31	0.038450424
43	0xbda5a3b2	-0.08087863
44	0x3d46d418	0.048542112
45	0xbcff7728	-0.031184748
46	0x3dbe0fc3	0.0928035
47	0x3c2401c8	0.01001019
48	0xbd6aa3cc	-0.057285115
49	0xbc04a0fe	-0.008095024
50	0xbbea0e76	-0.007142837
51	0xbda9c3f8	-0.08289331
52	0x3d391be9	0.045192633
53	0x3d32e4dd	0.043675292
54	0x39b82a82	0.00035126886
55	0xbc05fc17	-0.008177779
56	0xbcc747d6	-0.024326246
57	0x3bd5d840	0.006526023
58	0xbbc67ba5	-0.00605722
59	0xbcf23823	-0.029567784
60	0xbd38b6a9	-0.045096073
61	0x3cfccd86	0.03085972
62	0x3d46ffc7	0.048583772
63	0xbd0c2a1e	-0.034219854
64	0x3b71677c	0.0036835363
65	0x3c9876e5	0.01861138
66	0xbcef37d1	-0.02920142
67	0x3ca211a2	0.019783799
68	0x3d493e92	0.049131937
69	0xbd923f8c	-0.07141027
70	0xbcc6365e	-0.024195846
71	0x3d693267	0.056932833
72	0xbcc6793d	-0.024227733
73	0xbd846952	-0.06465401
74	0x3c18a88f	0.009317531
75	0x3d7130eb	0.058884542
76	0x3cb6cde9	0.022314982
77	0xbd4d9339	-0.05018923
78	0xbd09b997	-0.033624258
79	0x3d7e326e	0.062059812
80	0xbbda0308	-0.0066531934
81	0xbc5de928	-0.013544358
82	0x3d19ba51	0.0375312
83	0x3d0e6d8b	0.034772437
84	0xba991518	-0.001167926
85	0xbb069c0a	-0.0020539784
86	0x3d8f1ede	0.06988309
87	0x3c6254c1	0.013814152
88	0xbd72dae4	-0.05929078
89	0xbd07591f	-0.033043977
90	0x3d83458d	0.0640975
91	0xbe2eaf55	-0.17059071
92	0xbcd22177	-0.025650723
93	0x3c8e35d7	0.017359657
94	0xbc3d730d	-0.011563075
95	0xbc4df6a6	-0.012571013
96	0xbcfa3e56	-0.030547302
97	0x3d4d25d6	0.05008491
98	0x3d20da58	0.03927073
99	0xbdeb1927	-0.11479407
100	0xbcdafa55	-0.026730696
101	0xbb209776	-0.002450434
102	0xbcdf02b5	-0.02722297
103	0xbd0349b3	-0.032052707
104	0x3c8ab7e4	0.016933389
105	0xbcc03b2f	-0.023465721
106	0xbc929b65	-0.017896364
107	0x3c3a35f7	0.011365405
108	0xbd051427	-0.032489922
109	0xbd905d72	-0.07049073
110	0x3d67f3e2	0.05662907
111	0x3d65abcd	0.056072045
112	0x3d88e105	0.06683544
113	0xbc103e3e	-0.008803902
114	0xbd9c50f4	-0.07632628
115	0x3b9b90bb	0.004747478
116	0xbd052f54	-0.03251584
117	0x3d7e0018	0.06201181
118	0xbca30d2f	-0.019903747
119	0xbd3ee5cd	-0.046605874

features.0.weight f4 [24, 120]
0	0x3da0d828	0.078537285
1	0x3d567c4f	0.052364644
2	0x3c4734aa	0.012158552
3	0xbcc069e3	-0.02348799
4	0xbdaf8bdc	-0.08571598
5	0xbd0429a2	-0.032266267
6	0x3c91143f	0.01770985
7	0x3d2c0825	0.041999955
8	0x3b0c9698	0.0021452066
9	0x3d27c723	0.040961396
10	0xbdf2db8b	-0.11858281
11	0x3a9df244	0.001205035
12	0xbca3bcc0	-0.019987464
13	0x3d3d9dfc	0.046293244
14	0x3a9f5db0	0.0012158658
15	0xbded34f3	-0.11582365
16	0xbd21a63d	-0.039465178
17	0x3cfe467c	0.031039469
18	0xbd0f67c8	-0.035011083
19	0x3d9fa3c0	0.07794905
20	0x3c7d3ca7	0.015456355
21	0xbcb7eec1	-0.022452714
22	0xbd535974	-0.05159898
23	0xbc9a67e5	-0.018848369
24	0xbb93a90c	-0.004506236
25	0x3da370f1	0.07980526
26	0x3a0aced0	0.00052950997
27	0x3971cc66	0.00023059695
28	0x3d408c53	0.047008824
29	0xbd1a1c3b	-0.03762458
30	0xbba94f93	-0.0051669567
31	0x3d2f48cc	0.042794034
32	0xbd9d6ea9	-0.076871224
33	0xbcbc4fbf	-0.022987245
34	0xbd1dab26	-0.038493298
35	0x3d0fa11a	0.035065748
36	0xbd929dfe	-0.07159041
37	0x3c320797	0.010866067
38	0xb91d5824	-0.00015005522
39	0xbd61a2c0	-0.05508685
40	0x394c0666	0.0001945734
41	0xbcde2d84	-0.027121313
42	0xbc97e35c	-0.01854103
43	0x3c0ec475	0.008713831
44	0xbd68a144	-0.05679442
45	0x3dccadd7	0.09994095
46	0x3c131e76	0.00897943
47	0x3bb51b6b	0.00552695
48	0x3ce04958	0.027378723
49	0xbd789cc9	-0.060696397
50	0xbbdca0b3	-0.006733024
51	0x3d0890d8	0.03334126
52	0xbde013c3	-0.10941269
53	0xbda76c2b	-0.08174928
54	0xbcf82f7e	-0.030296084
55	0x3bfb6303	0.007671715
56	0xbbaabf83	-0.0052108183
57	0x3da447d9	0.08021516
58	0x3d9635f5	0.0733451
59	0xbc0fe6da	-0.008783067
60	0xbd31ea5e	-0.0434364
61	0xbcbe7bae	-0.023252334
62	0xbc7fafc5	-0.015605872
63	0x3d0d7cd3	0.03454287
64	0xbbd95200	-0.0066320896
65	0xbd22459a	-0.03961716
66	0xbd998c4a	-0.07497461
67	0xbcf2594c	-0.029583596
68	0xbb7c6580	-0.0038512647
69	0x3d9c8bf0	0.076438785
70	0x3dae2ddb	0.0850484
71	0x3ceae5dc	0.028674059
72	0xbd59ae48	-0.053144723
73	0x3d20514d	0.039140034
74	0x3de0ab2e	0.1097015
75	0x3ca8bc74	0.020597674
76	0xbcda65c9	-0.026659863
77	0x3c4287c8	0.011873193
78	0x3c21e157	0.009880385
79	0xbd2f5a25	-0.042810578
80	0x3cae4acd	0.021275902
81	0xbd11ed82	-0.035626896
82	0x3c9f363e	0.019435044
83	0x3c9b7142	0.018974904
84	0xbd86bf6c	-0.065794796
85	0xbb8caf64	-0.004293369
86	0xbdd30833	-0.10304298
87	0xbcee52cb	-0.029092213
88	0x3b4f43c0	0.0031626076
89	0xbc4ea7a0	-0.012613207
90	0xbd6d70d3	-0.057968926
91	0xbd95b866	-0.07310562
92	0xbd120979	-0.035653565
93	0xbc87736b	-0.016534528
94	0xbcb6d407	-0.0223179
95	0xbd551da8	-0.052030236
96	0x3c59d712	0.013295906
97	0xbc99d217	-0.018776936
98	0xbd85f091	-0.06540025
99	0x3ca20cc5	0.01978148
100	0xbc63bf1e	-0.013900546
101	0xbd71c4ef	-0.0590257
102	0xbd46d9c4	-0.04854752
103	0x3cea5646	0.028605592
104	0x3c0d750d	0.008633864
105	0xbd91ff09	-0.07128722
106	0x3d123497	0.035694685
107	0x3bec2aea	0.007207264
108	0xbc2fda18	-0.01073315
109	0x3cbcdb41	0.023053767
110	0x3c57079c	0.013124373
111	0x3d683ee1	0.05670059
112	0xba48e35f	-0.00076632755
113	0x3c7df768	0.015500881
114	0x3d5d8732	0.05408401
115	0xbd326925	-0.043557305
116	0xbd42337c	-0.04741238
117	0xbd2c4dd6	-0.042066418
118	0xbd2fa011	-0.04287726
119	0x3c914229	0.017731743
120	0x3d9f782b	0.07786592
121	0x3d0747dc	0.033027515
122	0x3dca0b7b	0.09865471
123	0x3d33380f	0.043754634
124	0xbda9131e	-0.082555994
125	0x3dd446b5	0.10365049
126	0xbc92620c	-0.017869018
127	0xbc63bdd1	-0.013900236
128	0xbd727fc6	-0.059203885
129	0x3c356211	0.011070744
130	0xbdede70f	-0.116163366
131	0x3b8c4e3d	0.0042817877
132	0xbcad0dbf	-0.021124719
133	0xbd972a99	-0.07381172
134	0x3ce91ac1	0.02845514
135	0xbdc2207c	-0.09478852
136	0x3ca871f2	0.020562146
137	0xbce3d452	-0.027811203
138	0x3c811a6d	0.015759671
139	0x3d8a6cf1	0.0675906
140	0x3d3128c2	0.04325176
141	0x3d9c460b	0.07630547
142	0x3d1ba725	0.0380012
143	0xbc9d5ee0	-0.019210279
144	0xbda3f630	-0.08005941
145	0xbd5c1f3c	-0.053740725
146	0xbd98aadf	-0.07454466
147	0x3cc0d0e0	0.0235371
148	0x39b59377	0.0003463288
149	0x3d55d0fa	0.05220125
150	0xbcfb6f95	-0.030692855
151	0xbcc62693	-0.024188315
152	0xbd0e3921	-0.03472245
153	0x3d10d188	0.035356075
154	0xbcffbc07	-0.031217588
155	0xbc1dd062	-0.009632202
156	0x3c3d6dd9	0.011561834
157	0xbd3db9e4	-0.046319857
158	0x3bd3eeea	0.0064676898
159	0x3d1d5ddb	0.038419586
160	0xbaa06758	-0.001223783
161	0x3d4bbb32	0.04973907
162	0xbd6c3718	-0.05766973
163	0xbc2a4ee0	-0.010394782
164	0xbd0bf21b	-0.034166437
165	0x3d8db92f	0.069200866
166	0xbca3d86b	-0.020000657
167	0xbce1ef4f	-0.027579932
168	0xbd1922d4	-0.03738673
169	0x3c4aed89	0.012385734
170	0x3c6757af	0.0141200265
171	0xbda8b6b6	-0.08237974
172	0xbda68403	-0.08130648
173	0xbd5dfd1f	-0.054196473
174	0xbd67a289	-0.05655149
175	0x3cd50443	0.026003009
176	0x3c3a0556	0.011353811
177	0x3d25c370	0.040469587
178	0x3dd0d5dd	0.10197041
179	0x3d0583fc	0.032596573
180	0xbd92300a	-0.07138069
181	0xbce5ce5e	-0.028052505
182	0xbdaf7c4c	-0.085686296
183	0x3caf7422	0.021417681
184	0xbc6448b6	-0.013933351
185	0x3d855311	0.06509984
186	0x3cc76741	0.024341227
187	0x3ce5bb23	0.028043335
188	0x3b9dece8	0.004819501
189	0xbcc38346	-0.023866307
190	0x3da9df62	0.0829456
191	0xbdcbcd42	-0.09951259
192	0x3d525fbd	0.051360834
193	0x3b8d455d	0.0043112473
194	0xbd695641	-0.056967024
195	0xbd27911e	-0.04090988
196	0x3cbb9936	0.022900205
197	0x3ce81526	0.028330397
198	0xbb2146bc	-0.0024608811
199	0xbdadd120	-0.08487153
200	0x3d796661	0.06088865
201	0x3c013e93	0.007888454
202	0x3d0a2732	0.033728786
203	0x3b8fe5c4	0.004391404
204	0xbd51654b	-0.05112199
205	0xbd12b9d4	-0.03582175
206	0xbdaf6ef4	-0.085660845
207	0x3d5b8331	0.05359191
208	0xbd39b687	-0.045340087
209	0xbca9fa41	-0.020749213
210	0xbd0f9199	-0.035050962
211	0xbdab6810	-0.08369458
212	0xbbc739f8	-0.0060799085
213	0xbc7c6e43	-0.015407148
214	0x3d0e1f64	0.034697905
215	0x3a138733	0.0005627751
216	0xbb530a3d	-0.0032202147
217	0x3d5e0780	0.05420637
218	0xbd68a843	-0.056801092
219	0x3c9606fe	0.018313881
220	0x3c4b9e29	0.012427845
221	0x3d725514	0.059163168
222	0x3d80e8ba	0.06294389
223	0x3d3b1168	0.045670897
224	0x3d0c813e	0.034302942
225	0x3c5cdd4d	0.013480497
226	0x3ce60301	0.028077604
227	0xbd409946	-0.047021173
228	0x3bd284ef	0.0064245383
229	0xbbca82e9	-0.0061801565
230	0xbd2ee846	-0.042701982
231	0x3d8eaa25	0.06966046
232	0xbcd8544b	-0.026407382
233	0x3c717124	0.0147364475
234	0x3ca95105	0.020668516
235	0xbceef4ec	-0.029169522
236	0xbc429b58	-0.011877857
237	0xbd381358	-0.044940323
238	0x3d820e30	0.06350362
239	0xbca40597	-0.020022197
240	0x3d355493	0.04427011
241	0x3d5a8453	0.05334885
242	0x3d268173	0.040650796
243	0x3ca1c476	0.019747
244	0xbda3d1cd	-0.07999001
245	0xbd720fa9	-0.059096966
246	0x3d8101fc	0.062992066
247	0x3d63e50f	0.05563837
248	0x3d0fb001	0.03507996
249	0xbc893d0e	-0.016752746
250	0xbd8c05c7	-0.068370394
251	0x3d9449aa	0.07240613
252	0xbc30148c	-0.010747086
253	0xbcc02620	-0.02345568
254	0x3c84e863	0.016224092
255	0xbd48cebf	-0.049025293

features.0.bias f4 [24]
0	0x3c629b6a	0.013830999
1	0xbde060ec	-0.109559864
2	0xbdd7a633	-0.10529747
3	0xbe0fdbcd	-0.14048691
4	0xbdc6f055	-0.097138084
5	0xbe1ceb04	-0.15324026
6	0xbe15a494	-0.14613563
7	0xbd99bb6f	-0.07506453
8	0xbdd28250	-0.102787614
9	0xbdca5848	-0.098801196
10	0xbd04f960	-0.032464385
11	0xba96cfab	-0.0011505982
12	0xbcdd5168	-0.027016357
13	0xbdd7550e	-0.1051427
14	0x3d1bfa5e	0.038080566
15	0xbcabc97a	-0.020970095
16	0xbd90e3b9	-0.07074685
17	0x3a5a5df8	0.00083300425
18	0xbcbcab4e	-0.023030903
19	0xbbf3245a	-0.007420105
20	0xbda07915	-0.078355946
21	0xbba29de6	-0.0049626706
22	0x3ced9e31	0.029006096
23	0xbd3dc191	-0.046327177
