S/Treinamento/CONV/CONV_2_DENSO_1/conf_2/modelo_seed_14_loss_0.003689.pt (torch, 373841 bytes, 6 tensors)

conv1d_1.weight f4 [152, 76, 3]
0	0x3c16cfd5	0.009204824
1	0xbd8f2980	-0.06990337
2	0x3d696ca4	0.056988373
3	0x3cf4eeaa	0.02989896
4	0x3dbbccc2	0.09169914
5	0x3d118ebf	0.035536524
6	0xbd6eb3c7	-0.058276918
7	0x3bb58353	0.0055393367
8	0xbce1427f	-0.027497528
9	0x3b7d0e9d	0.0038613447
10	0x3ab8bd21	0.0014094451
11	0x3d334b42	0.043772943
12	0xbc9a35d2	-0.018824492
13	0x3d93ec21	0.072227724
14	0xbb268be7	-0.0025412978
15	0xbd1acdcd	-0.037793923
16	0xbd0296d3	-0.03188212
17	0x3d842bef	0.06453692
18	0x3c9947b8	0.018710956
19	0xbc347ede	-0.011016576
20	0xbbb0f5b9	-0.005400386
21	0x3d72a9a9	0.05924383
22	0xbd448668	-0.047979742
23	0xbc99b3fb	-0.01876258
24	0x3d772549	0.060338292
25	0xbdafe316	-0.08588235
26	0x3a0020b8	0.0004887688
27	0x3d0f48b4	0.034981444
28	0xbdc28e83	-0.09499838
29	0xbd7223cf	-0.05911618
30	0x3d106d76	0.03526064
31	0xbd9f56ef	-0.07780253
32	0x3cfeb5d1	0.031092556
33	0xbc4f753e	-0.01266223
34	0xbc869381	-0.016427757
35	0x3d18dea8	0.037321717
36	0x3c816318	0.015794322
37	0xbe0355e9	-0.12825741
38	0xbc940511	-0.018068822
39	0x3d326312	0.043551512
40	0x3d99ce6e	0.075100765
41	0x3c8663cd	0.01640501
42	0xbd29049f	-0.041264173
43	0x3d132a2b	0.035928886
44	0x3d2f8888	0.042854816
45	0x3cb37742	0.021907452
46	0x3d7f320a	0.06230358
47	0x3add34ca	0.0016876694
48	0xbcf79bf6	-0.030225735
49	0x3dd20b19	0.10256023
50	0x3d70b346	0.05876472
51	0x3cf87f12	0.03033403
52	0x3d27c73b	0.040961485
53	0xbd52dfc8	-0.051482946
54	0xbd271718	-0.04079351
55	0x3d96326c	0.07333836
56	0x3c4bf5fe	0.012448786
57	0x3d67abd9	0.05656037
58	0x3d5ae9e3	0.053445708
59	0x3c856d06	0.016287338
60	0xbd1d8e93	-0.038466047
61	0x3e59b769	0.21261372
62	0xbcb07203	-0.02153874
63	0x3d445ce6	0.047940157
64	0xbda5ad4e	-0.08089696
65	0x3d79dbcb	0.061000627
66	0x3d7a7013	0.06114204
67	0xbdc610fe	-0.0967121
68	0xbd02a892	-0.031899042
69	0xbd33a973	-0.04386277
70	0xbdd6bf5c	-0.10485718
71	0x3d3c70a2	0.046005853
72	0xbc1f9d8f	-0.009742155
73	0x3bd0a53c	0.0063673537
74	0x3d1f8761	0.038947467
75	0x3c9288dc	0.017887525
76	0x3db00651	0.08594955
77	0x3d090a33	0.033456992
78	0x3c6c569e	0.014424948
79	0x3d60156e	0.054707937
80	0xbd833089	-0.06405742
81	0x3c53e3c5	0.012932722
82	0x3dcfcdc7	0.10146671
83	0x3d10529f	0.035235044
84	0x39efdb33	0.00045748948
85	0x3d8d145c	0.06888649
86	0xbd1af8f5	-0.03783508
87	0xbd1fe327	-0.03903499
88	0x3d95b325	0.0730956
89	0xbd843715	-0.064558186
90	0x3cd27ace	0.025693323
91	0xbd4faefb	-0.050703984
92	0x3cdcf69f	0.026973067
93	0xbd090130	-0.033448398
94	0xbdb8805f	-0.0900886
95	0xbcf9ee26	-0.030509066
96	0xbd133901	-0.035943035
97	0xbc0d83ee	-0.0086374115
98	0x3c318992	0.010836022
99	0x3d87728a	0.066136435
100	0x3cb34b6d	0.021886552
101	0xbd777580	-0.06041479
102	0xbc825855	-0.01591126
103	0x3d08489a	0.033272363
104	0x3d60c0c4	0.054871336
105	0x3c55b0e0	0.013042659
106	0xbcb85f9b	-0.022506526
107	0x3d71cfbe	0.05903601
108	0x3d56e701	0.052466396
109	0x3ca7fc20	0.020505965
110	0xbd429647	-0.047506597
111	0xbd0eeb27	-0.034892228
112	0x3d2b66b5	0.041845996
113	0xbbfbfa94	-0.0076897833
114	0x3c4bf3f0	0.012448296
115	0x3dc66d9b	0.09688874
116	0x3d10f487	0.03538945
117	0xbd8461bd	-0.064639546
118	0xbc53c78b	-0.012925993
119	0xbc1191c9	-0.008884856
120	0x3d7a6711	0.061133448
121	0x3bbfc7f4	0.0058526937
122	0x3d85ff91	0.06542886
123	0xbd2c78a6	-0.042107247
124	0x3d48c770	0.049018323
125	0xbd852bfe	-0.065025315
126	0x3d21d3d8	0.03950867
127	0x3cc060a3	0.02348358
128	0x3d279589	0.040914092
129	0xbc8adc21	-0.016950669
130	0x39101122	0.00013739293
131	0xbcecc19f	-0.02890092
132	0xbd09f563	-0.033681285
133	0x3e2e0e8c	0.16997737
134	0x3d39d3bb	0.045367938
135	0x3d7ce9b7	0.061746325
136	0xbd965750	-0.07340872
137	0xbd4be117	-0.04977521
138	0x3d356068	0.044281393
139	0xbe52b14d	-0.20575447
140	0xbc8df4dd	-0.017328674
141	0xbc9767df	-0.018482147
142	0xbe769d59	-0.24083461
143	0xbba278f7	-0.004958268
144	0xbd68fb34	-0.05688019
145	0xbc85cf81	-0.016334297
146	0xbce5b64e	-0.028041031
147	0xbd6ceedf	-0.057844993
148	0x3c672094	0.014106888
149	0x3c8a1b9c	0.016858868
150	0x3d1da5b9	0.038488124
151	0xbd2d69d6	-0.04233726
152	0x3d58f1f2	0.052965112
153	0xbd452b0c	-0.048136756
154	0x3ceeff6a	0.029174525
155	0x3d459804	0.048240677
156	0xbcfe356b	-0.031031331
157	0xbd1a4f06	-0.03767302
158	0x3d84e212	0.06488432
159	0x3d876ea1	0.06612898
160	0x3cf4f351	0.029901179
161	0x3ca7a5ae	0.020464744
162	0xbd3f9df7	-0.046781506
163	0x3d5d6139	0.054047797
164	0x3d6396a0	0.05556357
165	0x3d6153df	0.055011626
166	0xbca6275a	-0.020282436
167	0xbcdf44d5	-0.027254501
168	0xbd86d585	-0.06583694
169	0x3e069459	0.13142528
170	0x3cbbff50	0.02294889
171	0xbd28d79d	-0.04122125
172	0x3df2719c	0.118380755
173	0xbce3efe0	-0.027824342
174	0xbd482cb7	-0.04887077
175	0x3d9c6c5e	0.07637857
176	0xbd389189	-0.04506067
177	0xbd4d6ce2	-0.050152667
178	0xbc21fa21	-0.009886296
179	0x3d009152	0.03138859
180	0xbc95f931	-0.0183073
181	0xbcfa147a	-0.030527342
182	0x3cfcaf19	0.030845212
183	0x3c57c13b	0.013168628
184	0xbd04e934	-0.032448962
185	0xb908d95a	-0.0001305094
186	0x3caabbd0	0.02084151
187	0x3c7f21c5	0.015572016
188	0xbc2480c7	-0.010040469
189	0x3c85ab3e	0.016317006
190	0x3d1826bb	0.03714631
191	0x3d545a95	0.0518442
192	0x3d7150f3	0.05891509
193	0xbc33faa1	-0.010985048
194	0xbd60c86c	-0.054878637
195	0xbd86a77f	-0.06574916
196	0x3cf65576	0.030070048
197	0xbcb1285e	-0.021625694
198	0x3d7ca788	0.061683208
199	0xbdc41560	-0.095743895
200	0x3cad498d	0.021153236
201	0xbd6a49b4	-0.057199195
202	0xbd5416d0	-0.05177957
203	0x3acd4934	0.0015662075
204	0xbd3736fb	-0.044730168
205	0xbd190008	-0.037353545
206	0x3d327e92	0.043577738
207	0x3c2bdbf7	0.010489455
208	0xbd17804d	-0.03698759
209	0x3d1e5947	0.03865936
210	0x3d8328a5	0.06404237
211	0x3cb3df53	0.021957075
212	0x3d0e73d8	0.034778446
213	0x3d870791	0.0659324
214	0xbb2c16d9	-0.0026258735
215	0xbc2da27a	-0.010597819
216	0x3d271a0a	0.040796317
217	0x3d5fb00b	0.054611247
218	0x3cc4ddd3	0.024031555
219	0xbd68ab62	-0.05680407
220	0xbc375880	-0.011190534
221	0x3d00cbbb	0.031444293
222	0x3d8228a8	0.06355411
223	0xbcd9e866	-0.026600074
224	0xbca3bcd8	-0.019987509
225	0x3d74eed3	0.059798073
226	0xbd9f505c	-0.07778999
227	0x3cd65c05	0.026166925
228	0x3b3433df	0.0027496738
229	0x3d8d575f	0.0690143
230	0x3c08ff22	0.00836161
231	0xbcecf06e	-0.02892324
232	0x3d8fc63c	0.07020232
233	0xbd176f70	-0.03697151
234	0x3ca67faf	0.020324556
235	0x3deca89d	0.11555598
236	0x3d031c63	0.032009494
237	0xbd0d0a15	-0.034433443
238	0xbc86c66f	-0.016452042
239	0xbd45610e	-0.04818826
240	0x3b25069f	0.0025180948
241	0x3dafc21f	0.085819475
242	0x3d26af62	0.0406946
243	0xbce29cb2	-0.027662609
244	0xbb1610cf	-0.0022898202
245	0xbd6a1251	-0.057146374
246	0x3ca57a3c	0.020199887
247	0xbd105080	-0.03523302
248	0xbc9d8899	-0.019230174
249	0xbd53fb57	-0.05175337
250	0xbc8670e7	-0.016411258
251	0x3bdeaaf9	0.006795284
252	0x3b46fd40	0.003036335
253	0xbe15e85b	-0.14639418
254	0xbc9faf02	-0.01949263
255	0xbd4aeb6a	-0.049540915

conv1d_1.bias f4 [152]
0	0x3d9a8445	0.0754476
1	0x3dbfc81e	0.09364341
2	0xbc9ea8bb	-0.019367566
3	0xbd89281b	-0.06697103
4	0xbdf4c949	-0.119524546
5	0xbbb58a33	-0.0055401563
6	0xbd5b17c0	-0.053489447
7	0xbdda22a6	-0.1065114
8	0x3cb3a8c3	0.021931058
9	0x3e20ea8d	0.15714474
10	0xbd0ac2d1	-0.033877198
11	0xbddd8f43	-0.10818341
12	0x3cb04c2a	0.021520693
13	0xbb61e101	-0.0034466388
14	0xbd5952c2	-0.05305744
15	0xbe4ae701	-0.19814683
16	0xbd7f47c9	-0.06232432
17	0x3da1a55d	0.07892869
18	0xbd8bd8a1	-0.06828428
19	0xbb568321	-0.0032731968
20	0xbc0c6ac6	-0.008570379
21	0xbe0b6bd4	-0.13615352
22	0xbdeaa8d5	-0.114579834
23	0x3d84f50b	0.06492051
24	0x3e218ca2	0.15776303
25	0xbcf3db1a	-0.029767562
26	0xbd1062ae	-0.03525036
27	0xbd9390d9	-0.07205362
28	0xbd7fa19c	-0.062409982
29	0x3d875fa4	0.06610039
30	0x3e06dbc4	0.13169771
31	0xbd2868d2	-0.04111559
32	0xbe0dda70	-0.13852859
33	0x3e45e545	0.1932574
34	0x3ddc36eb	0.10752662
35	0xbd2caded	-0.042158056
36	0xbe70c53a	-0.23512736
37	0xbda6e086	-0.08148293
38	0xbc9984dd	-0.018740112
39	0x3e5857bb	0.21127217
40	0x3d94453c	0.07239768
41	0xbd4b54a9	-0.049641285
42	0xbbb45470	-0.00550323
43	0xbe167571	-0.14693238
44	0xbd037743	-0.03209616
45	0xbdfd38ad	-0.12364326
46	0x3e57801c	0.21044964
47	0x3dff7be7	0.12474804
48	0x3e22a8b3	0.15884666
49	0xbc581614	-0.013188858
50	0xbdb0a91e	-0.086260065
51	0xbbc05814	-0.0058698747
52	0x3e1d3ddb	0.15355627
53	0x3db4a8e9	0.088212796
54	0xbd793bc0	-0.060847998
55	0xbdd2cf5e	-0.102934584
56	0xbd477cfb	-0.048703175
57	0xbd089121	-0.03334153
58	0xbd88b996	-0.06676023
59	0x3d045b27	0.032313492
60	0xbe2cb475	-0.16865714
61	0x3d141bc5	0.036159296
62	0x3dd49c22	0.103813425
63	0xbdb75291	-0.08951295
64	0x3db20347	0.08692031
65	0x3c5c3122	0.013439449
66	0xbdec3079	-0.11532683
67	0xbe434af8	-0.19071567
68	0xbd74ea35	-0.05979367
69	0x3c2368d4	0.009973723
70	0x3dc92876	0.098221704
71	0x3dd45b2e	0.10368954
72	0xbb3d91e8	-0.0028926078
73	0x3dacd4f6	0.084390566
74	0x3e041e49	0.12902178
75	0xbce399d8	-0.02778332
76	0xbdcbd7e3	-0.099532865
77	0xbd41431e	-0.04718315
78	0xba98a096	-0.0011644538
79	0xbdb9845e	-0.0905845
80	0xbdae5058	-0.08511418
81	0x3d765d2f	0.06014746
82	0x3d6a8306	0.05725386
83	0xbd11b26f	-0.03557056
84	0x3dfd2a0f	0.12361538
85	0xbd1c674e	-0.038184457
86	0x3d26ba1e	0.04070484
87	0xbbcbb9ad	-0.0062172026
88	0xbd9f9bc5	-0.077933826
89	0xbdd29421	-0.102821596
90	0xbe43148e	-0.1905081
91	0x3e3b1cdd	0.18272729
92	0xbcf735d6	-0.030177038
93	0xbdc32ed1	-0.09530414
94	0x3db6efe3	0.089324735
95	0x3cc1dcba	0.023664821
96	0xba9f38b1	-0.0012147633
97	0xbdefd696	-0.11710851
98	0x3c83cfa7	0.016090227
99	0xbc4f28ea	-0.012644032
100	0x3d5b29a4	0.05350651
101	0xbd53ae3e	-0.051679842
102	0xbd0b2650	-0.033972085
103	0x3cc1fc77	0.023679955
104	0x3e0fa4f1	0.14027764
105	0xbde2d3b0	-0.110755324
106	0x3c0b251f	0.008492737
107	0x3cf917ab	0.030406794
108	0xbd4e9344	-0.050433412
109	0xbcc9dcd5	-0.024641434
110	0x3e09f839	0.13473596
111	0xbe26f108	-0.16302884
112	0x3d0e266b	0.034704607
113	0x3dbfaaa8	0.09358722
114	0x3e29866d	0.16555186
115	0xbceb83df	-0.028749404
116	0xbd9b9ed7	-0.07598656
117	0x3ab81437	0.001404411
118	0xbde7fc3e	-0.11327408
119	0x3c0c4822	0.00856212
120	0xbbda0c40	-0.0066542923
121	0x3e051e42	0.12999824
122	0x3df77312	0.12082495
123	0xbdadec6f	-0.08492362
124	0x3e536219	0.2064289
125	0x3d94ac02	0.072593704
126	0xbe124f3f	-0.14288042
127	0x3b69c753	0.0035671785
128	0x3c7eacf8	0.015544169
129	0xbde9dca1	-0.11419035
130	0x3b8eef88	0.0043620504
131	0x3dfae277	0.12250226
132	0xbd197819	-0.03746805
133	0x3dbf2d5b	0.09334823
134	0xbd78b4c2	-0.06071926
135	0x3dcbb7f5	0.099471964
136	0xbb90295d	-0.004399462
137	0x3d032e64	0.032026663
138	0x3ced8c76	0.028997641
139	0x3cb7ce92	0.022437368
140	0x3d9abe1d	0.075557925
141	0x3cbfaf7f	0.023399113
142	0xbe3c261d	-0.18373914
143	0xbd1cd469	-0.038288508
144	0xbc796256	-0.015221199
145	0xbd86543e	-0.06559037
146	0xbe24d03e	-0.16095063
147	0x3d69878e	0.05701404
148	0x3da6ecfb	0.08150669
149	0x3da58973	0.08082857
150	0xbc85d128	-0.016335085
151	0x3ae3c38e	0.0017377005

conv1d_2.weight f4 [120, 152, 3]
0	0xbcc868bb	-0.024464002
1	0x3c99e4de	0.01878589
2	0x3d36ebea	0.04465858
3	0xbb995b92	-0.0046801055
4	0xbccfc2f9	-0.025361525
5	0x3c6e396f	0.01454006
6	0x3c906a4f	0.017628817
7	0xbd31e13e	-0.0434277
8	0x3c595d00	0.013266802
9	0x3d01be1f	0.031675454
10	0x3c84f0a5	0.01622803
11	0x3d226d20	0.03965485
12	0xbd00deab	-0.031462353
13	0x3d800455	0.06250826
14	0x3d0a281f	0.03372967
15	0x3c14e5f7	0.009088031
16	0xba1464ce	-0.0005660773
17	0x3ab020ed	0.0013437547
18	0x3d218c32	0.03944034
19	0x3c24a3dd	0.010048834
20	0x3d1c56d0	0.03816873
21	0x3cb3e489	0.02195956
22	0xbcf68fc8	-0.030097857
23	0xbc28ace4	-0.010295127
24	0xbd32da70	-0.04366535
25	0x3c859dd4	0.01631061
26	0xbd2943a7	-0.041324284
27	0xbc96717f	-0.018364666
28	0x3d833370	0.06406295
29	0xbd233d18	-0.039853185
30	0xbad64d43	-0.001634993
31	0x3bb0dd1b	0.0053974516
32	0x3d2bc2cf	0.04193383
33	0xbd2dbbfa	-0.042415597
34	0xbc8283c9	-0.01593198
35	0xbd15b281	-0.036547188
36	0x3c9a0d47	0.01880516
37	0xbc867637	-0.016413791
38	0xbca9cc6c	-0.020727359
39	0xbc2d8566	-0.010590887
40	0xbc963bc5	-0.018339047
41	0x3cd584ac	0.02606424
42	0x3bfbe736	0.0076874746
43	0x3d491340	0.049090624
44	0xbc252f39	-0.01008206
45	0xbd1c01aa	-0.038087524
46	0xbd221b6e	-0.03957694
47	0xbaa27488	-0.0012394348
48	0xbcedc45c	-0.029024296
49	0x3cf32932	0.02968273
50	0x3d38e434	0.045139506
51	0xbd27dcca	-0.040982045
52	0xbcd1a6dc	-0.02559226
53	0x3cbe05d8	0.023196146
54	0xbc2b90c5	-0.010471527
55	0xbdb51bfe	-0.0884323
56	0xbc32dd06	-0.010916954
57	0xbcb17f06	-0.021667015
58	0xbd4d1848	-0.050071985
59	0x3c5db861	0.013532729
60	0xbd14d01f	-0.036331292
61	0xbc3a4699	-0.011369371
62	0xbd3998ad	-0.04531162
63	0x3d298b29	0.04139248
64	0x3d9ef1e8	0.07760984
65	0x3d3e192b	0.04641072
66	0x3d39b1bf	0.045335528
67	0x3d03edd0	0.032209218
68	0x3d1abacf	0.03777581
69	0xbd35526c	-0.044268057
70	0x3cb4224c	0.02198901
71	0x3bb43485	0.005499425
72	0x3c30a592	0.010781663
73	0x3d14f609	0.03636745
74	0xbd07869f	-0.03308737
75	0xbd388661	-0.04505003
76	0x3cbfd7b9	0.023418294
77	0xbd12fee9	-0.035887633
78	0x3d2d8668	0.042364508
79	0xbcbdde99	-0.023177432
80	0x3d2cc786	0.042182468
81	0xbd2079bf	-0.039178606
82	0x3d0968d4	0.033547238
83	0x3cc8d3fe	0.024515148
84	0xbd07ffe4	-0.03320302
85	0xbd406827	-0.046974327
86	0xbd18d192	-0.037309237
87	0x3ccaedf5	0.02477167
88	0xbbd60f5e	-0.0065325936
89	0xbd321c84	-0.043484226
90	0xbcea9863	-0.028637117
91	0xbc9cfe92	-0.019164357
92	0xbd254b15	-0.040354807
93	0x3bb84b27	0.005624193
94	0x3b3f1160	0.0029154643
95	0xbd3dc835	-0.04633351
96	0x3d3d0157	0.046143856
97	0x3a2a7119	0.0006501838
98	0xbcbe1633	-0.023203945
99	0x3c802645	0.015643248
100	0xbc10b585	-0.00883234
101	0x3cad5054	0.021156467
102	0xbd154f9b	-0.03645287
103	0x3d143c83	0.03619052
104	0x3c90f86c	0.017696582
105	0xbc9cfcbf	-0.019163487
106	0xbda5175d	-0.08061097
107	0xbbf08393	-0.0073399036
108	0xbd2c136b	-0.042010706
109	0x3ce243e2	0.02762026
110	0xbc0209c6	-0.0079369005
111	0xbc29fcd8	-0.010375224
112	0xbd2e91cc	-0.04261951
113	0x3d29c201	0.041444782
114	0xbcc35ccb	-0.023847958
115	0xbd2ad1bd	-0.04170393
116	0x3d0672f6	0.03282448
117	0x3cd06d30	0.02544269
118	0x3d26ca7e	0.040720455
119	0x3bbf78e0	0.005843267
120	0x3b990bd2	0.0046705985
121	0xbd4c4571	-0.049870912
122	0x3bf7dec4	0.0075643975
123	0xbcad7e18	-0.02117829
124	0x3d2d26ab	0.042273205
125	0x3cd7739c	0.026300244
126	0x3ce0e870	0.027454585
127	0xbd803d8a	-0.06261738
128	0x3cbcc0f2	0.023041222
129	0xbaa18464	-0.0012322781
130	0xbd2b33da	-0.041797496
131	0xbb896b6d	-0.0041937144
132	0xbca942f8	-0.020661816
133	0xbd5a3c6c	-0.05328028
134	0x3d3aa2af	0.045565303
135	0x3c7f3a07	0.0155778
136	0xbae637e3	-0.0017564263
137	0xbc65a877	-0.014017216
138	0xbbb2e610	-0.0054595545
139	0xbbbafb3e	-0.00570622
140	0x3adfa69d	0.0017063204
141	0x3cf366f6	0.029712182
142	0x3d205307	0.03914168
143	0xbc9b7448	-0.018976346
144	0x3cfa990d	0.030590558
145	0x3c3e7e72	0.011626827
146	0x3bab450c	0.005226737
147	0xbc1dc7ed	-0.009630186
148	0x3d277012	0.040878363
149	0xbd2147ef	-0.03937524
150	0x3c024da1	0.0079530785
151	0xbcb4e15a	-0.022080112
152	0xba41b6b8	-0.0007389593
153	0x3d1b2f26	0.03788676
154	0xbca060e6	-0.019577455
155	0xbd07275d	-0.032996524
156	0xbd04cb64	-0.03242053
157	0xbc1875a8	-0.009305395
158	0xbb17fa9e	-0.002319015
159	0xbd242606	-0.040075324
160	0xbd93f30b	-0.07224091
161	0x3ca055ad	0.019572103
162	0x3d38eae3	0.04514588
163	0xbc9fc7a1	-0.01950437
164	0x3c22759c	0.009915736
165	0xbc056dd3	-0.00814386
166	0xbdc258a6	-0.094895646
167	0xbd1ab5d0	-0.037771046
168	0x3ca3735a	0.019952465
169	0x3c530505	0.012879615
170	0xbd2cf1ec	-0.042222902
171	0xbb09148f	-0.0020916795
172	0x3d5125ff	0.051061627
173	0x3ca447a4	0.020053692
174	0x3c5b6ce2	0.013392659
175	0xbbb55c20	-0.005534664
176	0x3ac4a5ad	0.0015002989
177	0x3d1c45dc	0.03815256
178	0xbaa7d450	-0.0012804363
179	0xbc334b3d	-0.010943231
180	0x3d04fcda	0.0324677
181	0x3d40bb6f	0.04705375
182	0xbb39c30d	-0.002834502
183	0x3cc04082	0.02346826
184	0xbd79c3a1	-0.060977582
185	0xbc833ffb	-0.01602172
186	0xbc1c7566	-0.009549474
187	0x3ca2efa1	0.019889655
188	0x3d0c5989	0.034265075
189	0xbd08f475	-0.033436257
190	0xbba77563	-0.005110429
191	0x3c18b8f5	0.009321441
192	0xbc193c1a	-0.009352708
193	0xbc309c04	-0.0107793845
194	0x3bb0039d	0.0053715245
195	0x3d0371e2	0.03209103
196	0x3cea4708	0.028598323
197	0xbc97bda2	-0.018523041
198	0x3d3fbe34	0.04681225
199	0x3b6743a4	0.003528812
200	0x3d3ac250	0.045595467
201	0x3d3dc96b	0.046334665
202	0xbd5f306a	-0.05448953
203	0xbcdd3d3e	-0.027006742
204	0xbd14c6fe	-0.036322586
205	0xbc9fa378	-0.019487128
206	0xbb014702	-0.0019726162
207	0x3c1d2376	0.009590974
208	0xbc8876e2	-0.01665825
209	0x3d17b95f	0.037042018
210	0x3c74442f	0.014908834
211	0xbc82b4e4	-0.015955396
212	0xbd0745ef	-0.03302568
213	0xbc9059d6	-0.017620962
214	0x3b7bc57b	0.0038417268
215	0xbb41b509	-0.0029557368
216	0xbb2b215d	-0.0026112415
217	0xbd782622	-0.06058324
218	0x3c96c9f2	0.018406842
219	0x3cf4e6fc	0.029895298
220	0x3d2f1f35	0.04275437
221	0xbc9eb141	-0.01937163
222	0xbd38287b	-0.04496048
223	0x3d352f15	0.044234354
224	0xbcd3bc93	-0.025846755
225	0x3c3110c9	0.010807225
226	0x3cbad1a0	0.022805035
227	0xbd2ab67b	-0.041677933
228	0xbb57e1ae	-0.0032940912
229	0xbca855c6	-0.020548712
230	0xbd0c6237	-0.034273352
231	0xbd002194	-0.031282023
232	0xbd32e101	-0.04367161
233	0x3d39edfb	0.04539297
234	0xbb7df8c2	-0.0038753008
235	0xbcdde2fc	-0.027085774
236	0xbbc6946d	-0.006060174
237	0x3ce33dc5	0.027739415
238	0xbd2459f2	-0.04012484
239	0x3d214b03	0.039378177
240	0xbca3ad00	-0.019979954
241	0x3ca206d0	0.01977864
242	0xbd3dad6f	-0.046307977
243	0x3bd8480d	0.006600386
244	0x3d89c624	0.067272455
245	0x3c6dbc3c	0.014510211
246	0x3b36a275	0.0027867828
247	0x3d9f1716	0.07768075
248	0xbd1c1093	-0.038101744
249	0x3baa03cc	0.005188441
250	0x3cfe6149	0.031052249
251	0xbb83aa76	-0.0040181233
252	0x3cc5dea3	0.024154013
253	0x3d55e8c6	0.052223943
254	0xbcdf5282	-0.027261022
255	0xbbd5b16a	-0.0065213935

conv1d_2.bias f4 [120]
0	0xbd6068f7	-0.054787602
1	0x3ce316e3	0.027720874
2	0x3c181b97	0.009283922
3	0x3beba0e6	0.0071908114
4	0x3d89a190	0.06720269
5	0x3d71b929	0.059014473
6	0xbde15309	-0.11002166
7	0x3d379ea5	0.04482903
8	0x3da4bb80	0.08043575
9	0x3c86b00c	0.016441368
10	0xbd56e43c	-0.052463755
11	0xbdc247af	-0.09486329
12	0xbc041b69	-0.008063176
13	0x3d0bd482	0.03413821
14	0x3d341d1a	0.043973066
15	0xbb55a1a1	-0.003259756
16	0xbc9350bd	-0.017982835
17	0x3c2b78d9	0.010465824
18	0x3d5bf3c8	0.053699285
19	0x3d415742	0.047202356
20	0xbb9c9e1a	-0.0047795894
21	0xbcbef4d0	-0.023310095
22	0x3cca30c6	0.02468146
23	0x3d9ea178	0.077456415
24	0x3ca9a592	0.020708833
25	0x3d234040	0.039856195
26	0xbca1cd32	-0.019751165
27	0x3a3cbdcf	0.00071999145
28	0x3bf4e7ae	0.0074739074
29	0xbb8ce42c	-0.004299661
30	0xbd648a64	-0.055796042
31	0xbce852e4	-0.028359838
32	0x3bd18fe4	0.006395327
33	0x3c89aae5	0.016805122
34	0x3e4a72a9	0.19770302
35	0xbd5959af	-0.053064045
36	0x3d2eae2d	0.042646576
37	0x3db84039	0.089966245
38	0xbb6fc5fc	-0.0036586514
39	0xbd8cfb44	-0.068838626
40	0x3cd0aa99	0.025471972
41	0xbdac3e65	-0.08410338
42	0x3d92a137	0.071596555
43	0xbd742a31	-0.05961055
44	0x3dad3c88	0.08458811
45	0xbd6de7cf	-0.058082398
46	0x3d6599fd	0.056055058
47	0x3abcd915	0.0014407957
48	0xbbb29444	-0.0054498035
49	0x3b0c9fbb	0.0021457511
50	0x3dcc7d75	0.099848665
51	0xbd3ca783	-0.04605819
52	0x3d5a42e9	0.053286467
53	0xbde83c45	-0.113396205
54	0x3e6e3f08	0.23266232
55	0xbcacad75	-0.021078805
56	0xbbe0c3a5	-0.00685926
57	0x3b54767d	0.0032419257
58	0x3cc10a85	0.023564586
59	0x3cbbbd97	0.022917552
60	0xbcc99e6b	-0.024611672
61	0xbb052829	-0.0020318127
62	0xbd38a303	-0.045077335
63	0xbc7f4512	-0.0155804325
64	0xbbce1469	-0.006289054
65	0xbd08d3a9	-0.03340498
66	0xbe1b683f	-0.15176485
67	0x3d901071	0.07034386
68	0xbd6c188f	-0.05764061
69	0x3c2260c1	0.009910763
70	0x3d3fca49	0.046823774
71	0xbc8f8b46	-0.017522465
72	0x3d7a6001	0.061126713
73	0xbcef0242	-0.029175881
74	0x3c5185d7	0.012788258
75	0xbd2dc50f	-0.042424258
76	0x3bcf4fb9	0.0063266424
77	0x3c492e7c	0.012279149
78	0x3dc8d388	0.098059714
79	0x3cd242ae	0.025666561
80	0xbdd2b08b	-0.10287579
81	0xbc3c9ac6	-0.01151151
82	0xbd6174c8	-0.055043012
83	0xbd8a3eb2	-0.067502394
84	0x3dd4a84c	0.103836626
85	0x3caf776e	0.021419253
86	0xbdbaf0e3	-0.09127977
87	0x3cb243bb	0.021760812
88	0x3c2ef131	0.010677622
89	0x3da5ee8d	0.081021406
90	0xbd633cff	-0.055478092
91	0x3d32af0e	0.043623976
92	0xbd91f775	-0.07127277
93	0x3c8cc10f	0.017181901
94	0x3cbf2976	0.0233352
95	0x3c180bb2	0.009280132
96	0xbb74712d	-0.0037298903
97	0xbc2a5e88	-0.010398515
98	0x3d8ffaee	0.07030283
99	0xbc5b9a8c	-0.013403546
100	0xbd250c98	-0.040295213
101	0x3c27f453	0.0102511225
102	0x3b2f0850	0.0026707835
103	0x3d4dc2f4	0.05023475
104	0xbc572e6d	-0.013133627
105	0x3c2c7fab	0.010528485
106	0xbc6d54ce	-0.014485551
107	0xbd88f0e8	-0.06686574
108	0x3c24e160	0.010063499
109	0xbce30bf7	-0.027715666
110	0xbbbf872b	-0.0058449707
111	0x3dba981a	0.09111042
112	0x3d2e6c57	0.04258379
113	0xbc6d4d4a	-0.014483759
114	0x3cd5c02d	0.026092613
115	0x3c1e63dc	0.009667363
116	0x3cabbdec	0.020964585
117	0x3cafb1f2	0.021447156
118	0xbc61e6bd	-0.013787922
119	0xbd16c9d5	-0.036813576

features.0.weight f4 [24, 120]
0	0xbc2bda36	-0.010489037
1	0x3c8a73fd	0.01690101
2	0x3d3352fb	0.04378031
3	0x3daf49c2	0.0855899
4	0xbce8964d	-0.028391981
5	0xbd8e733a	-0.069555715
6	0x3d31ae2e	0.043379
7	0x3c9dbda6	0.01925547
8	0x3de4a5a2	0.111644045
9	0xbb05a8ff	-0.002039492
10	0xbd47369c	-0.048636064
11	0x3c591f6f	0.013252123
12	0xbd8b3c24	-0.0679858
13	0x3d35ae36	0.044355594
14	0x3c9786eb	0.018496951
15	0x3d876702	0.06611444
16	0xbd023704	-0.03179075
17	0x3b82ec1d	0.003995432
18	0xbcfbeb75	-0.030751923
19	0xbca309ad	-0.019902075
20	0x3e0b6f95	0.13616784
21	0xbbde4b81	-0.006783903
22	0xbcdeb876	-0.027187567
23	0x3b804282	0.0039141783
24	0x3cdd3b5b	0.027005842
25	0xbd844199	-0.06457824
26	0xbc872a85	-0.016499767
27	0x3d86814a	0.06567629
28	0x3ba78f5e	0.0051135262
29	0x3cbf021d	0.023316437
30	0x3c1ec6c9	0.009690949
31	0xbcfeb85d	-0.03109377
32	0x3d7edc94	0.06222208
33	0x3d5b078a	0.053473987
34	0x3d048f7a	0.032363392
35	0x3dc0dbb8	0.09416908
36	0x3d165f54	0.036712006
37	0xbd3abced	-0.04559033
38	0xb813a446	-3.5200523e-05
39	0xbc8af1fb	-0.016961088
40	0xbd056534	-0.032567218
41	0xbcf3583c	-0.02970516
42	0xbce59217	-0.028023763
43	0xbca7cf91	-0.020484718
44	0xbc92e751	-0.017932566
45	0xbd401cd6	-0.0469025
46	0x3becc12d	0.007225177
47	0xbd5b1962	-0.053491004
48	0x3d6f9d5b	0.058499675
49	0x3da17a00	0.07884598
50	0xbd961ac3	-0.07329323
51	0x3c0670e2	0.008205624
52	0xbd1172f7	-0.03551003
53	0x39aa6d0a	0.00032506167
54	0xbb82b1b6	-0.00398847
55	0x3d2b0865	0.041756053
56	0xbdae3988	-0.08507067
57	0x3c930eb6	0.01795135
58	0x3cdd58e5	0.027019927
59	0xbd83170a	-0.06400879
60	0xbcb5cefa	-0.02219342
61	0xbcbb1a25	-0.022839615
62	0x3cbbe5fe	0.022936817
63	0x3c3ef13b	0.0116541935
64	0x3d151fa6	0.036407135
65	0x3c9b3701	0.018947126
66	0x3cb86b26	0.02251203
67	0x3cbcb10a	0.023033638
68	0xbd28aedd	-0.041182388
69	0xba54dd2b	-0.0008120115
70	0xbd8ac91f	-0.06776642
71	0x3b6238fb	0.0034518826
72	0x3d25e987	0.040505912
73	0xbca86f39	-0.020560848
74	0xbd1b8db7	-0.037976947
75	0xbbf31582	-0.0074183354
76	0xbcc7bb8a	-0.024381418
77	0xbccd6c04	-0.02507592
78	0x3d67380d	0.05644994
79	0xbc9ac4c2	-0.01889265
80	0x3d4e1b5e	0.050319068
81	0xbb0fa4a2	-0.0021918197
82	0x3c9f8ea6	0.0194772
83	0x3d769166	0.060197257
84	0x3e0de02f	0.1385505
85	0xbd511ab4	-0.051050857
86	0xbd727c29	-0.05920044
87	0xbd9ad918	-0.075609386
88	0xbc82872a	-0.015933592
89	0xbd849980	-0.0647459
90	0xbd34f72a	-0.044181027
91	0x3d2d6b9e	0.04233896
92	0xbcb50c83	-0.022100693
93	0x3cd16c47	0.025564326
94	0x3c85c170	0.01632759
95	0xbdaaa6f9	-0.08332629
96	0x3b8db278	0.0043242536
97	0xbce85e27	-0.028365208
98	0xbd0c2e9a	-0.03422413
99	0x3cff0fce	0.031135466
100	0xbd881e6e	-0.06646429
101	0x3d9f92e8	0.07791692
102	0xbc79467d	-0.01521456
103	0xbdce5568	-0.10074884
104	0x3c9fca5f	0.019505678
105	0x3d4815cb	0.04884891
106	0x3c983a5b	0.018582514
107	0xbd38d186	-0.045121692
108	0x3d86c190	0.06579888
109	0x3d08fedd	0.03344618
110	0x3d430e5c	0.047621116
111	0xbd89bde6	-0.067256734
112	0x3d620647	0.055181768
113	0xbd105db7	-0.035245623
114	0x3c52419f	0.012833028
115	0xbdbcacf6	-0.09212677
116	0x3cf982b3	0.03045783
117	0x3d3d1d27	0.04617038
118	0xbd8a330d	-0.067480184
119	0x3d052dc5	0.032514352
120	0x3c246c34	0.010035563
121	0x3a6177a1	0.0008600895
122	0xbbaa5e33	-0.0051992177
123	0x3d998717	0.074964695
124	0xbd779f49	-0.06045464
125	0x3d5b3593	0.05351789
126	0x3da73af2	0.0816554
127	0xbd1fad51	-0.038983647
128	0x3c93c124	0.018036433
129	0xbcd0ab09	-0.02547218
130	0xbb517bda	-0.003196469
131	0x3d07ed04	0.03318502
132	0x3cd37df2	0.025816891
133	0xbd3b085b	-0.045662265
134	0xbafb9bcc	-0.0019196211
135	0x3d342a4a	0.043985642
136	0xbd0f904c	-0.03504972
137	0x3cc78be5	0.0243587
138	0xbcf7f570	-0.0302684
139	0xbd889e54	-0.06670824
140	0xbbd4ba3e	-0.0064919284
141	0xbcb6ac5e	-0.022298988
142	0xbb6fe772	-0.0036606458
143	0xbc8442db	-0.01614516
144	0xbd9c5599	-0.07633514
145	0x3c945754	0.018108048
146	0x3cb090de	0.021553453
147	0xbd316434	-0.04330845
148	0x3c370bc9	0.011172243
149	0xbc87027e	-0.01648068
150	0xbd22e07b	-0.039764863
151	0x3c885bba	0.016645301
152	0xbd8ce292	-0.06879152
153	0x3ccf1c94	0.025282182
154	0xbb3daa0b	-0.0028940465
155	0x3d65147e	0.055927746
156	0xbdd5a963	-0.104326986
157	0x3b33c02e	0.002742778
158	0xbd0d0a43	-0.034433614
159	0xbcb02790	-0.02150324
160	0x3d7d8090	0.061890185
161	0x3dcf09ff	0.101093285
162	0x3d08cd7a	0.033399083
163	0xbd0bb92d	-0.034112144
164	0xbdc5a0ed	-0.09649835
165	0x3cec53cf	0.028848557
166	0xbd9c6a2e	-0.0763744
167	0xbd76fad9	-0.06029782
168	0x3d7526a6	0.05985131
169	0xbcc00bba	-0.023443092
170	0xbce0126e	-0.027352538
171	0x3cf053ec	0.029336892
172	0x3d5fd67c	0.054647908
173	0xbb04ca43	-0.002026216
174	0x3c5a9308	0.013340719
175	0x3cf2ca1f	0.029637394
176	0x3d775eb2	0.060393043
177	0xbca1dec8	-0.01975955
178	0xbc8cdde6	-0.017195653
179	0x3c470d03	0.012149098
180	0x3c921508	0.017832294
181	0x3d0f8e72	0.035047956
182	0x3c0d5659	0.008626544
183	0xbdaac66c	-0.08338627
184	0xbd673f3b	-0.056456786
185	0x3cbb1744	0.022838242
186	0xbc674fe2	-0.014118167
187	0x3c83a732	0.016070936
188	0x3d52a25a	0.05142436
189	0x3ca458b4	0.020061828
190	0x3d897dbd	0.06713436
191	0xbd6143c0	-0.054996252
192	0x3c0da4bf	0.008645236
193	0x3cb10122	0.021606985
194	0xbcc5afe4	-0.024131723
195	0x3cb444f3	0.022005534
196	0x3db653fc	0.089027375
197	0x3d855b68	0.06511575
198	0x3c1f9bd5	0.009741743
199	0x3c5d420d	0.013504517
200	0x3df5cd2a	0.120020226
201	0xbcd2c164	-0.025726981
202	0xbcbcfee2	-0.023070756
203	0x3d0b2d5f	0.033978816
204	0x3e0987fa	0.13430777
205	0x3d5e2314	0.05423267
206	0x3cfecc63	0.031103319
207	0xbd968ca5	-0.073510446
208	0x3ceb9bf7	0.028760893
209	0xbd3072b3	-0.043078136
210	0x3d619b00	0.05507946
211	0xbd32be54	-0.043638542
212	0x3d6bda6e	0.057581358
213	0xbcca7b71	-0.024717065
214	0xbc97091b	-0.018436959
215	0x3d24b05b	0.04020725
216	0x3c54eb45	0.012995546
217	0x3c812c71	0.015768262
218	0xbc5d3fd1	-0.013503985
219	0x3cce56a4	0.025187798
220	0xbc9ee28b	-0.019395133
221	0xbdb09a5d	-0.086231925
222	0xbd0a33e4	-0.033740893
223	0xbda21f96	-0.07916181
224	0xbc9e3463	-0.01931209
225	0x3d1db6bc	0.038504347
226	0x3b3472b3	0.0027534186
227	0xbd55f63a	-0.052236773
228	0x3d2a318c	0.041551158
229	0xbd282c2e	-0.041057758
230	0xbd356c9c	-0.04429303
231	0xbd6b808d	-0.057495642
232	0xbda58360	-0.080816984
233	0xbd5fb22d	-0.05461328
234	0x3d530317	0.05151662
235	0x3c45d86c	0.012075525
236	0xbd71faf6	-0.059077226
237	0x3c81fee8	0.01586862
238	0x3cc2b22d	0.023766601
239	0xbd4a8bcf	-0.049449738
240	0x3d2afe8b	0.041746657
241	0xbd8f0c0f	-0.06984722
242	0xbcb0f387	-0.021600498
243	0x3d84b33c	0.06479499
244	0x3d37d878	0.044884175
245	0xbdc4a3f8	-0.09601587
246	0x3db7bdc6	0.08971743
247	0xbd8a862f	-0.06763875
248	0xb899ec80	-7.33966e-05
249	0xbd61c076	-0.055115186
250	0xbd76c03a	-0.060241915
251	0x3dae1fbb	0.08502146
252	0x3b374aac	0.0027968092
253	0xbc8e4a2b	-0.01736935
254	0xbb5e5144	-0.003392295
255	0x3d82f5a9	0.06394512

features.0.bias f4 [24]
0	0xbdb286fc	-0.087171525
1	0xbcf3a1f4	-0.029740311
2	0xbd840c45	-0.06447653
3	0xbce1b522	-0.027552191
4	0xbc36d693	-0.011159557
5	0xbd52dfbd	-0.051482905
6	0xbb9d5b58	-0.004802149
7	0xbde12c7f	-0.10994815
8	0xbdfce6a7	-0.12348681
9	0x3b09255e	0.0020926814
10	0xbd3d560c	-0.04622464
11	0xbda45a4a	-0.08025034
12	0x3c4de3c5	0.0125665115
13	0xbd07b34e	-0.033129983
14	0x3b5bbb42	0.0033528362
15	0xbd4f2709	-0.050574336
16	0xbcce756b	-0.025202474
17	0xbd3255a6	-0.043538712
18	0x3c15bcc2	0.009139242
19	0x3cfbf0a4	0.030754395
20	0xbc3cefc0	-0.01153177
21	0x3b8e1457	0.004335921
22	0x3ccfa5ba	0.02534758
23	0xbcad3898	-0.02114515
