NE/Treinamento/LSTM/LSTM_1_DENSO_1/conf_1/modelo_seed_34_loss_0.004435.pt (torch, 205905 bytes, 6 tensors)

lstm1.weight_ih_l0 f4 [344, 53]
000000 d1 6b 06 3e 73 4d 1d bd 15 99 86 3d 04 1f 4e bb
       0.13127066 -0.03840394 0.06572167 -0.0031451592
000010 22 45 a9 3d 43 b2 67 bd b7 05 06 be 20 50 ed 3d
       0.08265139 -0.056566488 -0.13088118 0.11587548
000020 42 01 12 3e 7e 11 72 3e 19 f0 2d 3e 97 87 30 3e
       0.14258292 0.23639485 0.16986121 0.17239223
000030 e6 a4 f1 3c 21 00 35 3e 07 f1 dc 3d 12 be 3a 3c
       0.029497575 0.1767583 0.1078816 0.011397855
000040 b3 46 dd bc 4c fd c4 bc 0b 45 0d 3e 9a 21 ae 3d
       -0.027011251 -0.024046563 0.13795869 0.08502503
000050 ae df 68 3d 86 72 56 bc 45 e0 e4 bd 53 58 9a bd
       0.056853943 -0.013088828 -0.111755885 -0.07536378
000060 af cd 9b be 5b 3d 9e be 19 02 52 bd 4d 6a 26 be
       -0.30430362 -0.30906186 -0.05127153 -0.16251488
000070 47 7b 0d 3d 54 c3 b6 3d b0 71 74 bd 55 34 e7 3c
       0.034541395 0.08923975 -0.059678733 0.028223196
000080 65 6b a6 3d 32 d7 31 bc 77 18 8c 3c 0c ed 30 bc
       0.08125953 -0.010854529 0.01710151 -0.010798704
000090 e3 05 e2 3c 33 cf 1c bd c7 0a 57 3d 4c 50 f4 3d
       0.027590698 -0.038283538 0.052500512 0.11929378
0000a0 26 d7 5e 3e 50 51 0b 3e d8 d1 03 3e 77 5f 9f be
       0.2176176 0.13605237 0.12873018 -0.3112752
0000b0 ab cc e8 be a7 2d 03 bf a2 83 5e be 9e 22 41 be
       -0.4546865 -0.51241535 -0.21729901 -0.18860862
0000c0 b7 fc 7b 3e 4c 00 fb 3b d1 09 01 bb fe 3c 82 bf
       0.24608122 0.0076599475 -0.001968969 -1.0174863
0000d0 18 f2 07 3e 37 0f e3 bd c5 a8 06 be ed 17 3f 3d
       0.13275945 -0.110868864 -0.13150318 0.046653677
0000e0 dc 71 00 3d 99 6c 99 3d 46 68 93 bd 48 fd b2 3d
       0.031358585 0.074914165 -0.07197623 0.08739716
0000f0 a2 14 5f 3d 19 5f 96 bd ab 82 d8 3d eb 2b 8c 3d
       0.054463036 -0.07342357 0.10571798 0.06844314
000100 a7 6d ad 3d e2 6d 31 bd 4b 60 18 bc 98 50 a2 bd
       0.0846818 -0.043317683 -0.009300302 -0.07925528
000110 28 1a c5 bd 56 19 72 3c 2c 00 2b 3e 27 e5 8c bc
       -0.096241295 0.014776548 0.16699284 -0.017199112
000120 83 89 fe bd 75 8b 6e 3d 71 5b 0e be d7 14 51 be
       -0.12428572 0.058238465 -0.1390207 -0.20418106
000130 d0 d2 3d be e9 cd 12 be 7e 0c 4b be f2 3a 06 be
       -0.1853745 -0.14336361 -0.19828984 -0.13108423
000140 98 1c 39 be 6d 93 fa bd 16 41 8e bd a2 77 e6 bc
       -0.18077314 -0.122351505 -0.06946008 -0.028133217
000150 a1 75 7d bd 8a 86 fb 3d a4 ba 4d 3e d1 26 78 3e
       -0.061879758 0.12281521 0.20090729 0.24233557
000160 96 18 d5 3d 27 03 1f 3d b6 46 1b 3e 3c 75 ab 3d
       0.1040508 0.038821366 0.15163693 0.0837197
000170 d2 0f 2e 3e e6 e6 f0 3d 25 6a 53 3c 03 a7 3e 3d
       0.16998222 0.117627904 0.012903725 0.046545994
000180 5c c4 f1 bd 67 dd e5 3d 28 a4 23 be c4 da 31 bd
       -0.11805031 0.1122387 -0.1598059 -0.04342152
000190 9d 78 3c be c2 5f 41 3d 25 16 57 3e 53 87 c2 bd
       -0.18405385 0.047210462 0.21004541 -0.09498467
0001a0 5e 5b af be 41 66 79 3f 26 16 25 bd c2 f3 65 3d
       -0.34249395 0.9742165 -0.040304326 0.05614067
0001b0 d6 8a 01 3d d6 38 d3 bd 4a e3 3b 3d 8b d5 02 3d
       0.031626545 -0.10313575 0.045871057 0.03194193
0001c0 c7 07 c9 3d 9c 6c b5 bc d7 f6 35 3d fe 90 d6 bd
       0.098159365 -0.022146516 0.044424858 -0.10476874
0001d0 ef 4b b1 bd 43 16 d4 bd 32 fc 79 3c c0 9f e3 bd
       -0.08657061 -0.103558086 0.015257882 -0.11114454
0001e0 df 43 28 be fd 83 36 be db 35 95 bc f6 96 c0 bd
       -0.16432141 -0.17823787 -0.018214157 -0.094037935
0001f0 8f 28 aa be 72 70 06 3c 56 7f 20 3e dd 42 f1 3d
       -0.3323407 0.00820552 0.15673575 0.11780331
000200 54 02 d2 3d 80 a1 8d 3d f5 c3 c9 bc 4d 63 e4 3d
       0.1025435 0.06915569 -0.024629572 0.111517526
000210 02 16 a8 3d ee c3 9f bc 8c cf 80 bd ad a1 94 3d
       0.08207323 -0.019502606 -0.062895864 0.072574
000220 00 17 06 3e 50 60 09 38 08 35 58 3c b6 83 8e bd
       0.13094711 3.2753043e-05 0.013196237 -0.069587156
000230 b2 d5 0e be 97 2e 91 3d e8 39 a0 3c 6b 11 7c bd
       -0.13948706 0.070889644 0.019558862 -0.06154005
000240 64 fb 3b 3d 9d 10 c0 3c cf e9 ee 3d 3d aa f1 3d
       0.04589404 0.023445422 0.11665689 0.118000485
000250 1a 70 83 be 32 5d 3a 3e e0 85 e4 3e 1f 44 b9 3e
       -0.25671464 0.18199614 0.4463339 0.36184785
000260 4c 23 4a 3e 74 d5 1c 3e 01 ab 11 be 16 42 b3 be
       0.19740027 0.15315801 -0.14225389 -0.35011357
000270 e3 a2 51 be ab 2a 48 3e ab 92 95 be f2 90 e1 3d
       -0.20472293 0.19547527 -0.2921346 0.11013974
000280 12 78 6f 3d d5 c5 0d 3e b5 0a 9d 3c 32 e4 b2 bc
       0.058464117 0.13844998 0.019170145 -0.021837328
000290 07 1b d1 3b 30 23 da 3d 38 d4 38 3e 6c 82 73 3d
       0.0063813957 0.10651243 0.18049705 0.059450552
0002a0 96 59 58 3d d1 ed b2 bd bb 98 17 3e 7a a1 f5 3d
       0.05281981 -0.08736766 0.14804356 0.1199369
0002b0 e5 75 0e bd b5 b7 d1 bb e1 ce b5 bc 39 f2 72 3d
       -0.0347804 -0.0064000734 -0.022193374 0.059313033
0002c0 1d c2 33 3e f1 33 11 3e 52 fb 24 3d 64 f2 4c 3e
       0.17554517 0.1417997 0.04027874 0.2001434
0002d0 ba f5 52 3d 01 c9 5e 3c 48 b1 f6 bc 51 df 75 bd
       0.051503874 0.013597728 -0.030113831 -0.060027424
0002e0 68 17 44 3d 09 c5 a0 bd 2e 6b cd 3c b1 e2 82 bd
       0.047873884 -0.078500815 0.025075521 -0.06390894
0002f0 52 22 33 be ff c5 36 3d 61 93 bf 3c ba 9f b7 3d
       -0.17493561 0.044622418 0.023385705 0.08966012
000300 8c 5f a3 3c 38 9d ba 3d 22 1f b6 3c 47 27 ce 3d
       0.019943021 0.09112018 0.022231642 0.10066085
000310 40 47 ec 3d 9d fd da 3d 5d 6f b3 bd 40 ca 09 3e
       0.11537027 0.10692904 -0.08761475 0.13456059
000320 30 b6 01 3e c3 e6 88 3a 76 f7 d1 3c 15 ef 9a 3d
       0.12667155 0.0010444749 0.025630694 0.075651325
000330 48 fc ac bc 93 81 9c bd 08 08 db bd 26 f3 06 be
       -0.02111639 -0.07641902 -0.10694891 -0.13178691
000340 bf 41 3b 3f 4c bf ca 3d b6 6e 39 be 0f ab 26 3e
       0.73147196 0.09899768 -0.18108639 0.16276191
000350 c8 1e aa 3e 81 e4 d8 3e b4 0a d3 3e f2 07 a3 3e
       0.3322661 0.42361835 0.41219103 0.31842
000360 be dc d3 3e fb 39 ba 3e b5 57 3c 3e 21 e6 ca 3e
       0.4137935 0.3637236 0.18392833 0.396287
000370 9e 3e b6 3e c2 bb 7a 3e 00 2d 05 3e be 35 eb 3c
       0.35594648 0.24485686 0.13005447 0.02871215
000380 f2 6e 2a 3e 0d 9e 80 3e d1 a5 61 3e 7e 4e 57 3d
       0.16643885 0.25120583 0.2203591 0.05256509
000390 c6 53 61 bd 56 54 91 bb 4b 6e 19 3e 5e 82 b9 3d
       -0.055011533 -0.0044351025 0.1498348 0.09058069
0003a0 65 c9 ad 3e f9 38 52 3e d8 ac 15 3e 76 5a 99 3d
       0.33942714 0.20529546 0.14616716 0.07487957
0003b0 da c7 ce 3d 28 12 fb 3d d6 60 e9 3d ad 19 ee 3d
       0.100967124 0.122593224 0.11395423 0.11625991
0003c0 9a 87 fa 3d 01 0d 16 3e ea dd 05 3d 21 6b 7f 3e
       0.12232895 0.14653398 0.032682337 0.2494321
0003d0 01 0a bc 3e 39 32 96 3e c7 8d 44 3e c2 22 98 3d
       0.36726382 0.29335192 0.19194709 0.074285045
0003e0 75 e1 82 3e 80 d7 08 3e f5 d4 99 3c 68 68 82 bd
       0.25562635 0.13363457 0.018778304 -0.0636757
0003f0 87 08 fa 3d fa 3f b1 3d 11 1f 0e 3d 1e 0b aa 3d
       0.12208658 0.08654781 0.034697596 0.08302902

lstm1.weight_hh_l0 f4 [344, 86]
000000 68 96 9b 3d e5 69 52 bd 82 e8 a9 3d fc d6 db bd
       0.07597047 -0.05137052 0.082963005 -0.107343644
000010 29 c7 b5 bd 92 b1 a3 3d e6 69 0b 3d a9 52 9d bd
       -0.088758774 0.07992853 0.03403654 -0.07681782
000020 73 de 94 bc 5d 3b d8 3c b0 e0 d6 3d 52 3d 94 bd
       -0.018172478 0.026395494 0.104920745 -0.072382584
000030 c9 40 d7 bd b0 a8 fc 39 89 b4 10 3d c5 c9 97 bd
       -0.10510404 0.00048190868 0.03532842 -0.07411531
000040 29 e1 06 3d f1 48 67 3d 3f 82 a1 3d 87 c8 e0 3c
       0.032929573 0.056466047 0.078861706 0.027439369
000050 26 c4 8f 3d 9f 7a 4a 3c df 18 e0 bb d2 99 ce bd
       0.07019834 0.012358337 -0.0068389024 -0.10087933
000060 e6 7a 9d 3b 11 47 6d 3c 0a 94 25 bd 1f 39 cb bd
       0.0048059104 0.014482276 -0.040424384 -0.09923004
000070 32 88 d6 bd 5c 38 b8 3d 49 e5 b4 3d 7b dc 80 bd
       -0.10475196 0.08995125 0.08832795 -0.06292053
000080 f1 a9 b3 bc ea 02 ed 3b df 50 b8 bd 14 85 8a 3d
       -0.02193162 0.0072330134 -0.089998 0.06763664
000090 16 95 41 3d 70 35 f2 3c 57 e7 20 bd ea 43 36 bd
       0.04726132 0.029566497 -0.039283123 -0.04449836
0000a0 f3 22 05 bd a2 90 b2 bc 25 cd 7a bc c7 06 79 3d
       -0.032504033 -0.021797482 -0.015307699 0.06079748
0000b0 e3 92 72 3d bb d0 93 3d 7b 31 db bd 15 27 fa 3b
       0.059222113 0.072175466 -0.10702797 0.0076340535
0000c0 74 8e 80 3c 5d ee c9 3d 0d ed ad bd cd 32 71 3d
       0.015692927 0.09859917 -0.084924795 0.058886338
0000d0 44 08 da bd f8 f0 cb bd 4c a9 dc 3d d5 0a 08 bd
       -0.10646108 -0.099580705 0.10774478 -0.033213455
0000e0 82 30 c2 bd 89 ec b7 bd 0c d2 af bd a4 0f 4c bc
       -0.094819084 -0.089806624 -0.08584985 -0.012454901
0000f0 af 68 f2 3c 45 3c 7a 3c 5c bb 7b 3d ff ce 66 bd
       0.029590933 0.015273158 0.061457977 -0.05634975
000100 56 63 d9 bc e8 ab c6 bd 9e 7e d2 3d 45 d3 0d bd
       -0.026536625 -0.09700757 0.102780566 -0.03462531
000110 13 f3 b4 3c 72 3f a9 bd 4e a4 bd bd 8a 7f b6 3d
       0.022088563 -0.08264054 -0.09259854 0.08911045
000120 5c ac d5 3c ca e3 77 3d 84 31 c9 3c 0d 70 b0 3c
       0.026083164 0.06051997 0.024559744 0.021537805
000130 97 4c a2 3c 46 f9 82 bd 6d cc c2 bc 08 fc 3d bd
       0.019811912 -0.063952014 -0.023779118 -0.046382934
000140 58 38 4a 3d cf 3c 7a bc 96 22 79 3d 01 98 8f 3c
       0.04937014 -0.015273287 0.060824 0.017528536
000150 35 2d fe bb 52 d0 aa bc c1 c3 46 bd bc 97 a9 3d
       -0.007756854 -0.020851288 -0.04852653 0.08280894
000160 94 ea d1 bd 20 e5 8b bc 36 6c 97 bc 81 0d d7 bd
       -0.1024982 -0.017077029 -0.018484216 -0.105006225
000170 ae aa 67 3c aa 87 0d bd 51 c6 b5 bd a9 c8 d7 bd
       0.014139814 -0.034553207 -0.088757165 -0.1053632
000180 c5 b9 63 3d 2b 37 28 3d fc fb a2 bd b7 87 a7 bd
       0.055597086 0.041068237 -0.079582185 -0.081801824
000190 ca dc a3 3d 23 11 31 bd e6 ba 4e bd be 09 56 3d
       0.080010965 -0.043229233 -0.05047121 0.052255385
0001a0 93 b2 fd 3c 39 df aa bd 28 29 b0 bd f8 a6 ce bd
       0.03096894 -0.083433576 -0.086016 -0.100904405
0001b0 32 bd 91 bd c4 a6 17 bc 77 8a 90 bc d6 f2 a8 3d
       -0.07116164 -0.009256069 -0.01764415 0.08249442
0001c0 4d e0 2e 3d 2d fb bc 3b bf 32 a0 bc ef 68 a1 3d
       0.04269438 0.005767247 -0.019555448 0.078813426
0001d0 8a 6c d8 bd 11 e4 63 bc 46 1c a7 3d 00 1c a8 bd
       -0.10567577 -0.013909356 0.081596896 -0.082084656
0001e0 96 d8 a4 3d b2 00 93 bc 03 6a b5 3d 50 e7 b7 bd
       0.08049123 -0.017944667 0.08858111 -0.08979666
0001f0 47 87 8f bd e8 ee 4f 3d 64 4c 6f 3c 45 ec 1b bd
       -0.07008224 0.050764948 0.014605615 -0.03806712
000200 0f 1b 6f 3b 3c 42 07 bd c4 9e 10 3d c1 ea 88 3d
       0.0036484634 -0.03302215 0.03530766 0.06685401
000210 49 6f af 3d 55 fc 01 3d 5d ac 86 bd dc 50 d3 bd
       0.08566148 0.031734783 -0.065758444 -0.10318157
000220 68 1c cd 3d a3 cc 28 bd fc 55 9c 3d 4a 07 2b 3c
       0.10015184 -0.04121078 0.07633588 0.01043875
000230 95 1a dc bd 97 7d 7d 3d 22 41 7d 3d ee 20 0f bd
       -0.107472576 0.06188735 0.061829694 -0.034943514
000240 8b 4a 4a bd 1e 7e 54 bd 4b cb 3d 3b 69 42 0a 3d
       -0.049387496 -0.051878087 0.0028960283 0.03375474
000250 02 e3 7f bd ba e6 b4 3a 33 4c d5 bc 77 41 46 3d
       -0.06247235 0.0013801672 -0.026037311 0.048402276
000260 ab fc 09 3d e5 cf 8e bd 53 f5 bd bd a3 6f 47 bd
       0.03368823 -0.069732465 -0.092753075 -0.04869045
000270 49 34 b9 3d 19 13 25 3d 68 5e 40 3d 14 52 72 3d
       0.09043176 0.040301416 0.046965033 0.059160307
000280 94 e6 62 3d 12 29 0f bc 79 9e 2a 3d 3b ae 7e bd
       0.055395678 -0.008737819 0.041655038 -0.062177878
000290 b9 ea a4 3d d2 80 ca 3d 7b 1c b0 bc 45 5d d0 bd
       0.08052582 0.09887852 -0.021497956 -0.1017404
0002a0 ea e8 59 3d 33 33 cd 3d 6e f9 91 3d 17 4b c4 bd
       0.05320064 0.10019531 0.07127653 -0.09584635
0002b0 44 fd c2 bd 4a af d9 bd 33 3e f2 3a a0 60 23 3d
       -0.09520963 -0.10629137 0.0018481672 0.03988707
0002c0 dd b3 de bc 5e 0f 94 bd 69 0f c4 39 f1 31 1f 3d
       -0.027185375 -0.072294936 0.00037395515 0.038865987
0002d0 c8 77 f2 bc a0 a5 d4 3c a9 8e 89 3d 1e ef 43 bc
       -0.029598132 0.025957882 0.067166634 -0.011958865
0002e0 9b 88 ba bd d1 c4 8b 3d d3 d3 04 bd b2 d2 bf 3c
       -0.09108087 0.06824649 -0.032428574 0.023415897
0002f0 22 38 b9 bd 3c b4 49 bd a8 15 85 3d 74 4d c2 bc
       -0.090439096 -0.04924415 0.06498271 -0.023718573
000300 1d 4c c0 bc e1 c9 37 3d 78 ab 55 bb 58 a0 43 bb
       -0.023473794 0.04487026 -0.0032603424 -0.002985021
000310 8d 96 ac bd 22 74 af bd e7 1a d4 3d c5 40 ce 3d
       -0.08427153 -0.085670725 0.10356694 0.100709476
000320 3d ec dd bc a5 d2 8e 3a 28 ac 58 3c e9 fb 7e bd
       -0.027090186 0.0010896517 0.013224639 -0.06225196
000330 f6 0d 95 3d 39 9d 9c bc 9f 9d 9f bd 5f 27 5b bd
       0.072780535 -0.019117938 -0.07793736 -0.053504344
000340 43 4d d0 3d e9 91 c0 3c 36 b1 70 3d e5 f4 7f bd
       0.101709865 0.023507075 0.05876275 -0.06248941
000350 38 13 4e bd 94 12 4f bd a0 42 91 bd b5 31 9d 3d
       -0.050311297 -0.050554827 -0.07092786 0.076754965
000360 91 b6 b1 bd aa a0 a9 3d 27 a2 c0 bd 3f 9e 89 3d
       -0.086774 0.08282597 -0.09405928 0.06719636
000370 f3 f8 29 bc 27 79 11 3d e5 8a 96 3d ca c8 a5 3d
       -0.0103742955 0.03551593 0.07350711 0.08094938
000380 f6 07 c6 bd 14 d9 20 3d 89 b1 68 3d dc 0a 08 bd
       -0.09669487 0.03926952 0.056809936 -0.03321348
000390 4a c5 a0 bc cb f3 2b 3d b2 b9 00 3a 45 a1 fd bc
       -0.019625325 0.041980546 0.0004910483 -0.030960688
0003a0 2d dd d2 bd cb 3b 35 3d 9e 76 5d bd bc de 21 bc
       -0.10296092 0.044246476 -0.0540682 -0.009879764
0003b0 f9 8d a4 bd 10 4a c6 ba b4 39 76 bc 6d e2 19 3d
       -0.08034892 -0.0015128274 -0.015028406 0.037569452
0003c0 6d ac b3 3d 2f b6 cd bb 25 e6 d6 3d 83 09 93 bc
       0.08773122 -0.0062778215 0.10493115 -0.017948871
0003d0 1c d4 9b bd 71 82 29 bd 4c c6 d3 3d 69 e2 8f 3c
       -0.07608816 -0.041384164 0.103405565 0.017564015
0003e0 1a 56 9d bd 66 35 77 3d 5e 36 6a 3d 58 ef 64 bd
       -0.07682438 0.06035366 0.057180755 -0.05589232
0003f0 b3 74 40 bd 02 2d af bd 27 88 b5 bb 07 97 98 3d
       -0.046986293 -0.085535064 -0.0055399123 0.07450681

lstm1.bias_ih_l0 f4 [344]
000000 5c e4 df 3b 3a 5a 39 be 41 05 11 3d 38 10 17 3d
       0.0068326425 -0.18100825 0.0354054 0.0368807
000010 66 af 12 be b1 d9 b5 3d 0b 83 f5 bd 51 d6 8f bc
       -0.14324722 0.08879412 -0.11987885 -0.017558249
000020 a8 c3 8c bd a9 a0 a1 bd fc 18 bd bc a4 28 86 3d
       -0.06873256 -0.078919716 -0.023083203 0.0655072
000030 8e a9 62 3d 17 b2 70 3e 80 01 96 b9 91 4c bb bc
       0.05533748 0.23505436 -0.00028611347 -0.022863658
000040 9e ca 50 3e 0b 54 dc bc 6f 46 6f bd 89 d0 3d bd
       0.20389792 -0.026895544 -0.05841678 -0.046341453
000050 4f 16 32 bd fe c1 cc bc f0 b7 ad bd cc 56 42 bd
       -0.043478306 -0.024994846 -0.08482349 -0.047446057
000060 d1 e8 25 3d 09 a8 27 3d 35 3a 14 3e a3 f1 c9 bb
       0.040505234 0.040931735 0.14475329 -0.0061628385
000070 c8 70 31 bb 47 dc 89 bc ac 01 aa bd 2d 1b 80 3d
       -0.002707528 -0.01682867 -0.083011 0.06255183
000080 33 cc 29 be 59 ca 2c 3c 28 a8 04 bd a4 4a 0c bc
       -0.16581802 0.01054629 -0.03238693 -0.008562718
000090 c6 52 96 3c 11 fe 60 bd 0e 5a fd bb e8 bf 99 bc
       0.018350016 -0.054929797 -0.0077316826 -0.018768266
0000a0 42 66 3f 3d 8f 4c 61 3e e0 0e 32 bd d2 3f d4 3c
       0.04672838 0.22001861 -0.043471217 0.025909338
0000b0 e5 4f 91 3c 06 02 83 bd dd a2 42 3c be 74 68 3d
       0.017738292 -0.0639687 0.01187965 0.05675196
0000c0 37 87 28 be 1c 6d 6d bc e6 2b 17 be 03 7d 5e be
       -0.1645783 -0.014491346 -0.1476284 -0.21727376
0000d0 04 55 77 bd 1d 74 ec 3c 16 60 05 3e 12 c4 b9 3b
       -0.06038381 0.02886396 0.13024935 0.0056691254
0000e0 18 3f 8d 3d 1d cd 93 bd d7 12 dd bc 23 6c af bd
       0.068968 -0.07216857 -0.026986523 -0.08565547
0000f0 5d dc 27 bb 7f dd d0 3d c8 2d d7 3d d0 bc a1 bc
       -0.0025613524 0.10198497 0.10506779 -0.019743353
000100 5d 9a 27 3d 27 ef a9 bd fa 05 5c 3d ca 37 89 3c
       0.040918697 -0.08297568 0.053716637 0.016750235
000110 5c a1 9e 3d b8 d0 01 3e 65 f3 84 3d 27 3a b9 bd
       0.077456206 0.12677276 0.06491736 -0.09044295
000120 d7 e8 28 bc 2d 6d 90 3d 10 64 a5 bd 17 7e dc bd
       -0.01030942 0.07052074 -0.08075726 -0.10766237
000130 49 f4 0f 3d f6 a0 85 be 16 66 c8 3d ad d9 0b be
       0.035145078 -0.26099366 0.09785096 -0.13657255
000140 61 16 1c bd 93 64 93 3d ba 6e 8e bd 1b 3e a5 bc
       -0.03810728 0.071969174 -0.06954713 -0.020171216
000150 54 c6 57 be 30 cd 30 3d ed 1a 1e bc e6 94 84 bd
       -0.2107175 0.043164432 -0.009649974 -0.064737126
000160 82 3d 65 bd ab 52 d0 bc df a1 27 3d 36 bb 1f 3d
       -0.05596686 -0.025430044 0.040925857 0.038996898
000170 87 ee bd bd ef 12 d2 bd b5 5f d8 bd 79 96 72 3d
       -0.09274011 -0.102575175 -0.1056513 0.059225533
000180 b6 62 b8 bd b0 cd be bd 32 e9 be bd e3 ac 57 3d
       -0.090032026 -0.093165755 -0.09321822 0.052655112
000190 99 8b af 3d b0 3a 7e b9 69 e6 5e 3c 00 1d 57 bd
       0.08571548 -0.0002424519 0.013604739 -0.05251789
0001a0 51 79 ed 3b 5f a8 a8 bd f3 00 13 bd 27 f8 ab 3d
       0.007247128 -0.08235239 -0.035889577 0.08396941
0001b0 f8 75 07 bd 18 f8 9c 3d 4f 70 b9 3d 09 d8 3c 3d
       -0.03307149 0.07664508 0.09054624 0.046104465
0001c0 46 fd 50 3d 7f d5 a3 3d 0d 52 91 3d 60 b5 9b bd
       0.05102279 0.079997055 0.07095728 -0.07602954
0001d0 bb 6a 19 3d 8d 05 92 3c 9f d1 9b bd ee d2 33 bd
       0.0374553 0.017824912 -0.076083414 -0.04390233
0001e0 8f e7 b6 3d 38 78 95 3c e8 6d d3 3c 63 3d 14 bd
       0.08930885 0.018245801 0.025809243 -0.036191355
0001f0 15 77 54 3d db c6 91 bd df 09 6f bd 20 cb 90 bd
       0.051871378 -0.07118007 -0.058359023 -0.07069993
000200 9c f3 2f bd 52 5a b4 3d c0 a5 ac 3d 21 74 c4 3c
       -0.042956933 0.0880629 0.08430052 0.023981156
000210 d9 ce ac 3d d6 b8 10 3d 69 fb ad 3d 73 a3 c6 3d
       0.084378906 0.035332523 0.08495218 0.09699144
000220 3c a4 91 bd 66 7d ea 3c 2d 9b 81 3b 3c 1e cd bd
       -0.07111403 0.028624248 0.003955266 -0.100155324
000230 97 0a a3 3c 35 05 c0 bd fa de fd bc 49 60 c8 bd
       0.01990251 -0.09375993 -0.030990113 -0.0978399
000240 df a2 24 3b 90 92 5f 3d 70 c5 99 3d 0d 50 91 3d
       0.0025121493 0.054583132 0.07508361 0.070953466
000250 40 59 d4 bc b3 48 23 bd ec 41 66 3b 28 5f 00 bd
       -0.025921464 -0.039864253 0.0035134507 -0.031340748
000260 1b 58 ae 3d 26 b1 8a 3d 9d a0 d2 3d c2 1f dc 3d
       0.085128985 0.0677207 0.10284541 0.10748245
000270 c1 03 b5 bd fa a8 6d bb 2d 98 b4 3d 1f 85 55 3d
       -0.088386066 -0.0036264048 0.08818088 0.052128907
000280 90 0d 9f bd 63 e1 6d 3d ce 1e c7 3d 3f 70 bd 3d
       -0.07766259 0.058076274 0.097226724 0.09249925
000290 98 48 80 bd 6c 2c cd 3d 5d 52 a6 3c ed c2 c4 3c
       -0.06263846 0.100182384 0.020302946 0.02401873
0002a0 20 4d 4b 3d a9 9b ac bd d6 e4 87 3d 29 1a 30 3d
       0.0496341 -0.08428127 0.06635444 0.0429937
0002b0 0d 5f e7 3d e0 4d ff bd 6f 4b 74 bd 78 67 ed 3d
       0.112974264 -0.12466025 -0.05964225 0.11592001
0002c0 82 36 91 3d 39 6c 8f bd 5e ee 9a 3d 31 ae dd bd
       0.07090475 -0.07003064 0.07564996 -0.1082424
0002d0 cd 73 86 bc c4 d0 75 3c f8 4a 8a 3a 04 2a a8 bd
       -0.01641264 0.015003387 0.0010550907 -0.08211139
0002e0 2c f0 9c 3d 27 53 3c bd d6 f3 27 3c d2 bb 36 3d
       0.07662997 -0.045977738 0.010251006 0.044612713
0002f0 c4 6b 34 3b 4c 31 d5 bc 11 f8 cc 3d fc 7d b8 bd
       0.0027530054 -0.026024483 0.100082524 -0.090084046
000300 9e f6 d9 ba c9 cb 49 3d 02 ee c0 bd 67 cf c5 3d
       -0.0016629284 0.04926661 -0.094203964 0.096586995
000310 f3 ea 37 bd 8e a3 7b 3d 0d 47 17 be cc 8f 5c bd
       -0.0449018 0.061435275 -0.14773197 -0.053848073
000320 52 12 43 3c d3 34 57 bc bf 0d 59 bd 82 d4 00 3e
       0.011906223 -0.013135153 -0.052991625 0.12581065
000330 52 ae a2 bd 77 07 95 bd 82 e8 88 3d 0a b9 c2 3d
       -0.07943405 -0.072768144 0.06684972 0.0950795
000340 17 5a 69 bd a4 c3 b6 3c f7 3b 2b bd 9f 90 85 3d
       -0.056970682 0.022310086 -0.041805234 0.06521725
000350 79 71 f4 bc 98 10 7a 3b 47 1c f8 bc a4 57 45 bd
       -0.029839264 0.0038156863 -0.030286921 -0.048179284
000360 61 fb 00 be e1 26 5e 3d bd c3 9e 3d 47 5d c8 3d
       -0.12595893 0.054236297 0.07752178 0.09783416
000370 b5 e6 79 bd 0f e2 27 3c d3 4d 27 bd 32 cd a4 bc
       -0.061011035 0.010246768 -0.040845703 -0.020117376
000380 cd 10 fb bb 74 44 8b 3c 71 22 1b 3c fb 8e 72 bc
       -0.007661915 0.017000414 0.009468661 -0.014804597
000390 3d 76 c1 3d a5 46 8c 3a d9 5f 21 bd 88 b5 26 3b
       0.0944638 0.0010702206 -0.039398048 0.002543779
0003a0 1e df 69 3d 1f a0 a5 3c 33 47 89 3d d3 a3 de 3d
       0.057097547 0.020217953 0.06703033 0.10871091
0003b0 1e f3 b7 3c e6 11 f7 3d 51 c2 0e 3d 22 90 0b 3e
       0.022454794 0.12063961 0.034853283 0.13629201
0003c0 b8 a5 e9 3d 26 77 ca 3d 8d 23 f9 bc d7 6f d4 bd
       0.114085615 0.09886007 -0.03041246 -0.10372894
0003d0 3a d9 07 bc 08 c3 1b bd 92 fa 40 3d e2 d1 86 3d
       -0.008291537 -0.038027793 0.047113962 0.06583001
0003e0 40 2b 27 3c b4 60 2f 3d 6a f8 a4 bd 8b 06 e1 bd
       0.010203183 0.042816833 -0.08055194 -0.10987576
0003f0 2b b1 a7 bd 34 b6 f9 bd 81 77 d9 bc d9 ab dc bd
       -0.08188089 -0.121929556 -0.026546242 -0.10774965

lstm1.bias_hh_l0 f4 [344]
000000 6c 57 f2 3c fe 09 71 3c 39 27 44 3d a8 59 73 3d
       0.029582702 0.014711855 0.04788897 0.059411675
000010 be 2d 19 be c4 7d 1a 3e f9 78 73 3d 7f 1e 83 3c
       -0.14958856 0.15087038 0.05944154 0.016005753
000020 8e cb 4e bd 87 fc 72 3d 8c 6d 8a bc cc 90 65 3d
       -0.050487094 0.05932286 -0.01689794 0.056046292
000030 44 03 1e bd 22 78 93 3d e0 4c 36 3e c1 4b f9 bc
       -0.038577333 0.07200648 0.17802763 -0.03043163
000040 9c 4a 15 3e a3 16 a1 3c c3 e7 3d bc 40 f3 ee 3c
       0.14579242 0.019664114 -0.011590901 0.029168725
000050 89 7c c0 3d d4 9d 55 bc d0 59 7d 3d 7c 4a 5d bd
       0.09398753 -0.013038117 0.06185323 -0.054026112
000060 ff 46 04 be 50 d6 3e 3e 37 52 0f 3e bc da 86 bc
       -0.12917708 0.18636441 0.13996206 -0.016461723
000070 31 d1 b1 bd 86 08 7a 3d b7 10 23 be b8 4e 9b 3d
       -0.08682478 0.061043285 -0.15924345 0.07583374
000080 37 ef 6f be 53 1d 59 bd 0a 78 86 3c bb 93 df bd
       -0.23431097 -0.05300648 0.016414661 -0.10916849
000090 95 5e 03 3e f3 a4 10 3d 70 ca ef 3d f6 b7 5d 3d
       0.12829049 0.035313558 0.11708534 0.054130517
0000a0 11 2e aa 3d 7b 2b 63 3e ee 52 bc bd 9d fb f2 3c
       0.08309568 0.22184555 -0.09195505 0.029660994
0000b0 9b f4 d3 bd 85 14 81 3d 13 49 5b bd 4a e4 80 3d
       -0.10349389 0.06302742 -0.053536486 0.06293543
0000c0 d9 e5 cd bd 67 47 aa bd 18 3f b0 bd ab 74 b6 bd
       -0.100536056 -0.083144 -0.08605784 -0.089089714
0000d0 e5 03 f3 bd a6 0d 26 bd 54 23 88 3d ff b8 f1 bc
       -0.11865977 -0.04054036 0.06647363 -0.029507158
0000e0 75 93 5a ba 26 d8 6c 3d 4f f8 e0 3c 19 3d b3 bd
       -0.0008338013 0.057823323 0.027462153 -0.08751888
0000f0 29 90 15 bd a3 cf bd 3d 65 9f fa 3d f0 65 1a bc
       -0.036514435 0.09268119 0.12237433 -0.009423718
000100 9c 40 54 3e b5 74 b3 bd 90 f3 2f 3d ca 97 b3 bc
       0.20727772 -0.087624945 0.04295689 -0.021922965
000110 c1 62 08 3d 6e 2b cb 3d 91 3d 2d bd 22 f1 53 bb
       0.033297304 0.09920393 -0.042295042 -0.0032339771
000120 f3 34 05 bd 29 ab c9 3b 10 9b 31 3d b3 0a 86 3c
       -0.0325212 0.006154437 0.04336077 0.016362524
000130 ea 32 30 3e 07 cf b3 be 16 62 d7 bc 5d c3 02 be
       0.17206922 -0.35118887 -0.026291888 -0.12769838
000140 ea 16 f2 3b b4 9d 08 3e 55 38 5c bd a2 7a e6 bd
       0.0073879855 0.13341409 -0.05376466 -0.11253859
000150 9c ed 66 bd 99 f1 9d bd fa 42 d3 bd 41 06 1d bd
       -0.056378946 -0.07712097 -0.10315509 -0.038336042
000160 61 47 d8 3d 26 01 91 3d 19 f1 db 3a c8 9e 2d bc
       0.105604894 0.07080297 0.0016780227 -0.010596938
000170 15 d8 91 bd e5 c0 43 bd 35 a2 7e 39 f6 4e 32 3c
       -0.071212925 -0.04779138 0.00024283754 0.010883084
000180 8f 09 b3 3d 8e 90 9e 3d 04 57 b9 3d 7b c7 99 3d
       0.087420575 0.07742415 0.090498 0.07508751
000190 48 91 cf bd 2c cb 94 3c c8 49 85 bd 1a 72 9a bc
       -0.10135132 0.018163286 -0.06508213 -0.018853236
0001a0 18 5e ba 3d 1a 20 56 bd fb 33 c1 bd 34 16 da bc
       0.09099978 -0.05227671 -0.094337426 -0.026621915
0001b0 59 8c da bd b3 22 f2 bb f1 ba f6 3c d1 d3 bc 3b
       -0.106713004 -0.0073893904 0.030118437 0.005762555
0001c0 ab 9f ce 3c 53 ed 98 bd 81 cc b4 bd 36 00 43 3d
       0.02522262 -0.07467141 -0.088280685 0.047607623
0001d0 e9 40 93 3c cb ad 9a bd 7d 47 f4 bc 30 11 8f b9
       0.017975288 -0.0755268 -0.029819245 -0.0002728789
0001e0 b3 f3 33 bd ee d7 a3 bc a4 8a b3 b8 23 c8 a9 bd
       -0.04393358 -0.020000424 -8.561209e-05 -0.08290126
0001f0 03 13 d1 bb 65 6f 81 bd fa 81 9c 3d 82 3c 83 3d
       -0.00638044 -0.06320075 0.076419786 0.06408025
000200 03 f7 88 bb 16 c7 92 bb f5 e3 92 bc f1 37 47 bb
       -0.0041798367 -0.0044792993 -0.017930964 -0.0030398334
000210 25 59 41 bd 70 12 b4 3d 6f 79 9e 3d fb cd 83 bd
       -0.047204155 0.08792579 0.07738005 -0.06435772
000220 be ec 97 bd e7 c2 39 bd 71 af 2d bc fc da ac 3c
       -0.07418202 -0.04535189 -0.0106009105 0.021100514
000230 1a c3 d0 bd 4f 7b 5d bd 05 15 8e 3c db 57 b1 3d
       -0.10193463 -0.054072674 0.017344007 0.08659335
000240 37 da af bc 16 d0 2e 3d 75 a0 9c bc af f9 8d bd
       -0.021466358 0.042678915 -0.01911948 -0.06932389
000250 ae d0 3b 3d 3c 33 6b bb 8d bc dc 3c 56 9a a5 3d
       0.04585331 -0.0035888692 0.026945377 0.08086078
000260 f3 64 29 3b 19 91 33 bd 71 18 c4 3c 6e 43 94 3d
       0.0025847524 -0.043839548 0.023937436 0.07239424
000270 1d b3 a1 bd ec fe 8b 3c 6a 74 af 3d 25 09 95 bd
       -0.07895491 0.01708933 0.08567126 -0.07277135
000280 8e a3 1a bd 69 5b 61 bd 0a 45 d4 3d bf 4f 37 bd
       -0.037753634 -0.055018816 0.10364731 -0.044753786
000290 eb 00 aa bd 41 5a 1d 3d fd a6 33 bd ca 97 94 bc
       -0.08300956 0.03841615 -0.043860424 -0.018138785
0002a0 51 b4 1b 3d 34 05 2d bd 80 d4 d6 3d c5 be 2d bd
       0.03801376 -0.04224129 0.1048975 -0.04241826
0002b0 c4 ca 47 bd 72 dc 57 bc e0 f3 e3 3a a8 3e 02 3e
       -0.048777357 -0.013175117 0.0017391406 0.12719214
0002c0 d9 91 27 bd a3 72 bd bd d2 47 c4 3d 25 3e f8 bd
       -0.040910576 -0.09250381 0.09584011 -0.12121228
0002d0 9c 42 31 bd 28 56 8a 3d 24 13 3a 3d cc d6 0f be
       -0.043276414 0.06754714 0.04542841 -0.14046782
0002e0 7a 0d 11 bd b6 94 06 3c 5a 24 c0 bd fc 9f c2 3c
       -0.035413243 0.008214166 -0.093819335 0.023757927
0002f0 0f d8 00 be 12 8b dd bc 23 25 b2 bd 59 de 01 be
       -0.1258242 -0.027043853 -0.086984895 -0.12682475
000300 5f bf db bd 99 99 f9 bc eb 3e 0e be 03 cd f4 3d
       -0.107298605 -0.030468749 -0.13891189 0.119531654
000310 83 35 b9 bc 9d 39 85 ba fd c4 18 be 88 fd de 3d
       -0.022608524 -0.0010164265 -0.14918895 0.10888201
000320 d7 c8 6b bd 0b 18 b5 3d d8 f7 90 3d b1 5d 9f bd
       -0.057564583 0.088424765 0.070785224 -0.07781542
000330 65 a5 2f 3d b9 fe 8c 3d 38 0a d6 3d 2a ff f7 3d
       0.042882342 0.06884522 0.10451168 0.121092156
000340 6c f3 a4 bd fc 09 4d 3d 28 d7 db bc 14 f7 91 3c
       -0.080542415 0.05005835 -0.026835993 0.017818011
000350 b6 fa 2a 3c c1 76 06 be 43 20 16 bd 8c 1a 6e 3d
       0.010435751 -0.13131239 -0.03665186 0.058130786
000360 55 1c aa bc a3 d8 db bb 0a b0 6d bd 25 61 80 3d
       -0.020765463 -0.0067091747 -0.058029212 0.06268529
000370 16 32 92 bd 98 78 b2 bd bb 2e a8 bd be c9 91 3d
       -0.071384594 -0.08714408 -0.08212038 0.071185574
000380 58 88 16 3d 37 07 eb 3d 07 17 68 3d ec f2 d8 3d
       0.03675112 0.114759855 0.056662586 0.10593209
000390 6f 4c a2 3d 78 4e 8e bd cc bd e8 bc 50 c3 e7 bd
       0.07924735 -0.069485605 -0.028410815 -0.1131655
0003a0 4f bf be bc 77 02 8e bd 64 db 41 bc 57 d5 35 bb
       -0.023284582 -0.06934064 -0.011832092 -0.0027745569
0003b0 44 f1 a3 3c fa 6f 9b bd 43 b2 a8 bc 64 ca 01 3e
       0.020012505 -0.07589717 -0.020592814 0.12674862
0003c0 2b 8b dc 3c 1e 58 cc 3d 8e 0c 7c bd f6 d4 83 3c
       0.02692183 0.099777445 -0.06153541 0.016092759
0003d0 c8 e4 7e b9 b7 6f 92 3d 00 12 12 3d d6 1b 1c 3d
       -0.00024308555 0.07150214 0.035661697 0.038112484
0003e0 80 93 95 bd 4a 85 bd 3b df e2 81 bd 8f d9 85 3d
       -0.07303524 0.0057837116 -0.063421 0.06535637
0003f0 43 b5 e2 bd 00 64 76 3d 6e 4b d8 3d f5 0f 86 bd
       -0.11069729 0.06015396 0.10561262 -0.06546012

features.0.weight f4 [24, 86]
000000 e2 1f e7 bc ca 09 1d 3e e0 de 1f 3e d8 e6 7a 3b
       -0.028213445 0.15335765 0.15612364 0.0038284566
000010 65 44 2a be 3f 8f 0f 3e 96 e7 45 bb d5 19 e0 3d
       -0.16627653 0.14019488 -0.003019785 0.10942427
000020 86 0f 17 3e d8 02 61 3b 33 b6 df 3d 9e 38 b8 bc
       0.14752015 0.003433397 0.109234236 -0.022487935
000030 cb 9d a4 bd 57 d9 55 be 98 74 d3 bc e7 e6 17 be
       -0.08037909 -0.2088369 -0.025812432 -0.14834176
000040 af c8 13 be 10 3c 24 3d 30 b1 2c be 28 9a 2f 3d
       -0.14432023 0.040096343 -0.16864467 0.042871624
000050 24 8e 05 3d 80 30 91 bd e3 20 37 bd b0 39 3c bd
       0.03260626 -0.07089329 -0.044709098 -0.045953453
000060 b3 fa 56 3d 8d 58 21 3e 1b 2b 24 bd 24 87 9a bd
       0.05248518 0.15756436 -0.04008017 -0.07545307
000070 3a 06 74 3d 8a 8e c7 3c 66 d4 0f 3e 96 7c 8b bd
       0.05957625 0.02435996 0.14045867 -0.06810872
000080 14 d4 6d bd 72 20 ad bd cd e0 84 3c aa aa 14 3e
       -0.05806358 -0.08453454 0.016220475 0.14518228
000090 e5 c6 b4 bd a3 22 77 bd 97 79 7f 3c 46 57 18 bc
       -0.088269986 -0.060335767 0.015592954 -0.009298151
0000a0 dc 87 0b 3e a9 14 5b be 2a b5 e8 bd 30 e5 94 3d
       0.13626045 -0.213946 -0.11362679 0.072702765
0000b0 dd 9f aa bd 5f 2e 1c bd e3 3c 63 bd 5a 82 22 bd
       -0.08331273 -0.03813016 -0.055477988 -0.039675094
0000c0 db 39 df 3d 84 a1 ac bd d3 cb c4 bc 84 15 c6 bd
       0.10899707 -0.08429244 -0.024022972 -0.096720725
0000d0 dd 1d 98 3c d8 d3 30 3d 77 a0 13 be e1 04 48 3c
       0.018568927 0.04317078 -0.14416681 0.0122081945
0000e0 7b 57 ad bd 3c 7c 0f 3e a2 a0 c4 bd 5b 99 b1 3d
       -0.08463951 0.14012235 -0.09600951 0.08671828
0000f0 66 7a 99 3d 30 7f db 39 02 49 50 3d bb 27 8c 3d
       0.07494049 0.00041865697 0.050850876 0.068435155
000100 bb 44 b0 bd b5 0b d5 3c 82 b1 82 bd 7f bd d9 bc
       -0.08606859 0.026006559 -0.06381513 -0.026579617
000110 ac f2 12 bd 28 70 56 3d d0 5a b8 bb ac cf 78 bb
       -0.03587596 0.052353054 -0.00562606 -0.003796558
000120 b3 d0 84 be e8 46 13 3e 92 ae ee bd 86 0c 38 be
       -0.25940475 0.14382517 -0.116543904 -0.17973527
000130 e1 ba 83 be 4f fe 15 3d 93 16 14 be 3e d3 42 3d
       -0.25728515 0.03661948 -0.14461736 0.047564737
000140 d6 e0 38 bb 8b 8f d6 bc a3 91 4a be 72 88 b1 3d
       -0.0028210185 -0.026191493 -0.19782118 0.08668603
000150 21 4b 63 3b bd d7 7c 3b 52 9e 0d 3d 3a af 85 bb
       0.0034682231 0.0038580738 0.034574814 -0.0040797265
000160 79 5b 0d 3e 8c 3e fe 3b be a9 76 bd 1e 27 15 bd
       0.13804425 0.007758921 -0.060220473 -0.03641426
000170 8e 60 40 bd dc 71 e5 3c c0 a0 2a 3c 25 c1 55 bc
       -0.04696708 0.028008394 0.010414302 -0.0130465375
000180 f8 09 fe 3d 31 f8 ef 3d 31 fa be bd 20 95 46 be
       0.12404245 0.11717261 -0.09325064 -0.19392824
000190 22 5b 13 3d eb c9 fa bd 75 75 37 be fc 6e 3c 3e
       0.035975583 -0.12245544 -0.179159 0.18401712
0001a0 d0 c4 00 be 4f 29 16 bd d8 0d f9 bd 34 63 9e 3c
       -0.12575078 -0.03666049 -0.121608436 0.019334413
0001b0 1b f0 b9 3d c7 98 aa bd 26 4b 0a 3d d6 11 35 3e
       0.090789996 -0.08329921 0.033763073 0.17682585
0001c0 bc 18 98 bc d2 6e 89 3c 70 e2 60 ba e6 55 9f 3c
       -0.018566482 0.016776476 -0.00085786637 0.01945014
0001d0 d6 3e 7f 3d 41 bd 6f bd 8c 4f 44 3d 97 2c a9 bd
       0.062315784 -0.058530096 0.047927424 -0.08260458
0001e0 f3 e0 34 bd b6 19 f5 3c c4 78 93 bc 46 a9 2a be
       -0.04415984 0.029919486 -0.018001921 -0.16666135
0001f0 54 d7 19 bd 81 ed df bd ac b2 26 3e ab e3 4c be
       -0.03755887 -0.10933972 0.16279095 -0.20008723
000200 24 c3 9f bd 7d b0 6e 3c fc 60 c7 bc ef e7 c4 3c
       -0.07800892 0.014568445 -0.024338238 0.024036376
000210 7e 13 10 3e 6f 28 8c 3c 62 80 3b 3d fe be 7d bd
       0.14069936 0.017109124 0.045776732 -0.061949722
000220 8f 19 08 bd 4e d8 18 bd 77 2f 92 3d 9c f0 9a bd
       -0.0332275 -0.03731566 0.071379595 -0.07565424
000230 b1 8e 41 bd 92 d3 72 bd bb 66 b5 3d f7 4f 2a 3d
       -0.04725522 -0.0592838 0.08857485 0.041580167
000240 4a 68 9b 3d 71 b9 57 3d 0b df 35 bd 34 73 0f 3e
       0.07588251 0.052667085 -0.044402163 0.1400879
000250 ff 35 0b 3e e0 f5 8a 3d 8b 30 0c be 5b b4 c0 bd
       0.13594817 0.06785178 -0.13690393 -0.094094
000260 ab 76 3c bd cf 2d 93 bd c4 b7 4c 3d 6a f2 cb bc
       -0.046011608 -0.07186472 0.04997994 -0.024895865
000270 db 49 1c 3e c8 99 f6 3c 7c d8 5d be f4 2d b2 3d
       0.15262549 0.030102625 -0.21664613 0.08700171
000280 10 93 10 bc 80 7d 33 3c 33 0e 91 be 26 ab 11 3d
       -0.008824125 0.0109552145 -0.28331146 0.03556361
000290 a7 29 42 bd 77 12 16 3d df 1e 66 3c 52 89 ce 3d
       -0.047403004 0.036638703 0.014045446 0.100847855
0002a0 50 3d 37 be 9d 81 a7 bd 94 16 ed 3d df 4f bf bd
       -0.17894483 -0.08179019 0.11576572 -0.09341406
0002b0 e8 35 80 bc 46 bf dc 3d c8 64 fa bc 5d 6a f1 bc
       -0.015650705 0.1077867 -0.030565634 -0.029469663
0002c0 07 56 b6 bd d7 98 02 3d 23 55 98 bd 5f 32 2d bc
       -0.08903127 0.03188404 -0.074381135 -0.010571091
0002d0 0c ad 19 3e e7 d4 74 bd 6d 79 2c 3e ed fe ca 3d
       0.15007418 -0.059773352 0.16843195 0.099119045
0002e0 11 9a 3d bd 71 be 5e be 6b 7a 7d 3c d8 6d 25 be
       -0.046289507 -0.21752335 0.015471081 -0.16155183
0002f0 1f 26 2a be b8 73 15 3e 8b 92 64 bd 7a fe 1e bd
       -0.16616105 0.14594924 -0.055803817 -0.038816907
000300 ce ed a0 bb b1 7a c1 3c 00 01 ff 3d 8f 24 b4 3b
       -0.004911161 0.023618074 0.124513626 0.005497522
000310 32 68 40 3d cd b8 5d 3d 88 92 98 3d c2 96 1e bc
       0.04697437 0.054131318 0.074498236 -0.009679498
000320 36 97 4e 3d 08 b1 dc 3d 8f 54 3e 3d de 41 f0 bd
       0.050437175 0.107759535 0.04646736 -0.11731313
000330 01 c7 3a 3c 7e 8f e4 bd 2a 10 c2 bd b1 7a 00 3e
       0.011399985 -0.111601815 -0.09475739 0.12546803
000340 af 8b 39 bd 42 d6 eb 3b c0 60 8b 3d 33 68 3d bd
       -0.04529923 0.0071971724 0.06805563 -0.04624195
000350 d0 74 51 3e dd 59 fe bd 7a ed 8a bc 96 30 a1 3d
       0.20454717 -0.12419484 -0.01695894 0.07870595
000360 fb 74 d0 bd 0b c9 4c 3d 1f e9 88 3d dc 0a 10 be
       -0.10178562 0.049996417 0.06685089 -0.14066643
000370 d2 18 0f 3e d4 c0 27 be 95 7c 79 3d 2e 2e 47 3d
       0.13974312 -0.16382152 0.060909826 0.048628025
000380 34 5e 9f 3d 50 bb dd 3c ba 92 1a be 78 39 4f 3b
       0.0778164 0.027066857 -0.15095034 0.0031619947
000390 dd 8c 45 3d 69 0a d4 3d 71 7a ab 3d 86 9f 17 3d
       0.04823004 0.10353548 0.08372963 0.037017368
0003a0 74 22 de bd df f7 f7 bc cd a4 72 bd 97 59 e0 bc
       -0.10846415 -0.030269561 -0.059239198 -0.02738647
0003b0 f0 d4 1d be 7c dc 6a bb 80 a6 8b bd 7c 4c aa 3c
       -0.1541326 -0.0035836985 -0.06818867 0.020788424
0003c0 87 99 40 bc a8 8e ac bd 59 5a dc 3d c3 9c 50 bd
       -0.011755354 -0.08425647 0.1075942 -0.05093075
0003d0 24 63 4c be 1f 32 a6 3d 28 9a 36 bb d5 ae 2c bd
       -0.19959694 0.081150286 -0.002786288 -0.04215892
0003e0 a1 2a 37 be 4d 0b d4 3c 23 87 16 3d 43 aa 89 3c
       -0.17887355 0.025884295 0.03674997 0.01680482
0003f0 52 77 4c 3d 6a 89 d7 3d 4f 35 4f be b7 39 44 bc
       0.04991848 0.105242565 -0.2023518 -0.011976651

features.0.bias f4 [24]
000000 e8 0a d2 3b 07 3a 8a bd 3e 47 7f bd f5 37 fe bc
       0.0064099915 -0.06749349 -0.0623238 -0.031032542
000010 4c 60 ee bd ca a3 ec bd 69 34 0b be 76 ad 98 bd
       -0.11639461 -0.11554678 -0.13594212 -0.0745496
000020 15 c0 a4 bd 93 7a 87 bc 92 97 bc bc 4c 7f 13 3d
       -0.08044449 -0.01653794 -0.023021493 0.03601007
000030 a3 99 a0 bb a8 8f 6b bd c4 64 6b 3c c2 d4 7d 3c
       -0.0049011274 -0.05751005 0.014367286 0.01549262
000040 4a bf 2b bd 1a 17 dd bc 18 4a 93 bd 96 9d fc bc
       -0.041930474 -0.026988555 -0.07191867 -0.030836862
000050 44 5c 7a 3c c1 a6 11 3d cd 5d cc 3b e8 ba 07 3d
       0.015280787 0.03555942 0.006236768 0.033137232
