N/Treinamento/LSTM/LSTM_1_DENSO_2/conf_1/modelo_seed_22_loss_0.002899.pt (torch, 729395 bytes, 8 tensors)

lstm1.weight_ih_l0 f4 [608, 76]
00000000: 498f 15bd 6054 c13c 4934 0abd 3f55 afbd
00000010: 70b8 c13c 68ef 4dbd 5c95 9c3d 2d70 7a3d
00000020: 63cb b33d 3e6f ba3d 5037 d23d abe2 c63d
00000030: 6cdf a33c 9179 a2bc 30d0 d23d 776d cf3d
00000040: 89b4 da3c 5bb5 c63d 61a3 b53d 45cc 8abc
00000050: 8aa7 953c 5a06 42bd 2006 df3a 7995 efbc
00000060: ea5e 97bd b4ad 0a3d 52ee 113d 1936 c03c
00000070: 4cb3 43ba fc97 5fbd 066e 8d3c 4dc9 a9bd
00000080: 40e5 853c 5a62 2c3b 28f9 01bd d7ff 29bd
00000090: 94b4 363d 3179 4abd f4bd 33bd 8891 773c
000000a0: ba53 3d3d 9799 9cbc 85eb afbc b402 1bbb
000000b0: 537a 36bd 9a5d c6b9 41e5 b43c 356d 323d
000000c0: c4f3 223d c700 1b3e 8737 a33d f270 0dbd
000000d0: 9178 003e 0cb7 34bb 953d 513d a21b 3c3d
000000e0: fb86 cabc 8388 dfbd d3b7 c6be 5701 9fbe
000000f0: d03d 5ebe 1f70 c6bd ba6a 56be 6823 0fbe
00000100: c21a 35be a9d5 5dbe 8cfd 52be 4e79 41be
00000110: 6356 2ebd ea5d 99bd b98d 333c 649f 36bd
00000120: 1f66 2cbe 1587 a2bd 839e 53bd e5f9 debd
00000130: 717d a93c b92f 5e3d d48b aabd 7e38 cd3b
00000140: d8b8 6e3c e6fc b9bc 09a3 30bb f682 c2bd
00000150: 1644 e3bd 6b16 98bd 2fda 4ebc 3b49 69bd
00000160: 4d32 e9bb 72b6 2e3c fd2c 21bd 37fd 07bd
00000170: 9f05 63bd 8cc2 493c 765e f7bd 58e1 d4bd
00000180: ef67 16be 401b 0cbd ca48 babd 0968 b03b
00000190: 5235 f33b 423c 1cbd 8b4f 8bbd b16d 65bd
000001a0: 8ecc 62ba 056e bb3c ff3b e6bc 07a7 1fbd
000001b0: 5833 39bd 879f 013c edb8 a1bc 5abb 413d
000001c0: e96e 433d f570 d1bd bd9d 533d fa7a 9d3d
000001d0: fb78 863d 683d 0bbd 9068 b6bd 240a fbbc
000001e0: e965 bcbd 782d c63c 47b9 afbd e614 8fbc
000001f0: accc bcbc fed5 163d 67c0 8dbd 2515 15bd
00000200: 1ab4 5c3c 5a3b 233d 7d38 81bd 214e 9f3d
00000210: 212a 543c 076a 6cbd ea76 86bd 7507 83bd
00000220: 0e49 a73d 2725 1f3c c80c 1c3d 2caf a83d
00000230: 9fac f63a 822f c2bd 6b2a febd faa9 1fbd
00000240: c5f6 02bd f442 d13c 832a 963d e031 7abd
00000250: dad5 c3bd 8f5e 1bbe 732d cfbd 35e1 cebc
00000260: 33f8 53bc eb90 85bd 9cf9 a93d 8de9 7fbd
00000270: fa53 1bbc 40b9 053d dbc4 8e3d b5b3 63bd
00000280: 6f2a 64bc a9b7 7bbc db1a d9bc 2a75 843c
00000290: 5ff8 78bd 554a a2bc fe4e 903d 0801 5d3d
000002a0: 99ef a03d f137 40bc 603f f638 29bb 013d
000002b0: 4c76 f93c 9897 99bb 49b3 bd3c c8bc 093c
000002c0: cbc5 bf3b b412 fabc 8a56 723d 0e48 7abd
000002d0: 06b3 e4bc a0c8 493c e311 6c3d 4279 513d
000002e0: 48f6 083d d2cb 42bd ca22 3d3d d50a 4c3d
000002f0: 2e8f 673d 5cc0 853d 75d3 2fbd 7396 8e3d
00000300: 3a8e 513d 5287 893d 6d80 2c3d 54f9 653d
00000310: 4499 353d d2d8 6b3d 2879 0abd 133d 7b3d
00000320: cc76 04bd 9e88 60bd dc1d a63d ce03 4f3d
00000330: 2e5e 703d 0f07 29bd f2d8 863d 7625 78bd
00000340: 35ca e0bc 287f 393b 7588 7cbd 88ac cb3c
00000350: a5e6 583d 332e b33c 6338 1dbd 10a7 5fbc
00000360: 6abe 3abd 138e 36bd c2ab 2abd d1cf a33d
00000370: 0515 aabb 376a 133d 216e 9f3c cb8d 80bc
00000380: d361 febd b8f8 82bd efe8 e53c 5087 bdbc
00000390: 53d7 00be ff40 59bb f610 7ebd b85f 14bd
000003a0: 17ab 00bc 1c17 033d 75dc 8f3d e499 343d
000003b0: 2415 0fbd e5f3 c83c 79e2 f53c 1e34 7e3d
000003c0: a2e7 eb3c f791 89bd f93f e53c b9db 893d
000003d0: 6626 81bd 89c1 6bbb 7644 06bc db8a d8bd
000003e0: 8ab5 9c3c a63b 37bd d667 763d 0469 343d
000003f0: 6cf0 e5bc 4bb0 e83c fc38 663c fb39 d9bb
-0.0365136 0.023599803 -0.03374127 -0.08561181 0.023647517 -0.050277144 0.076456755 0.061142135
0.08779027 0.09103249 0.10264456 0.09711202 0.020003997 -0.019833358 0.10293615 0.10128301
0.026697414 0.097025596 0.08869053 -0.016943106 0.018268365 -0.04736934 0.0017015375 -0.029246079
-0.0739115 0.033857062 0.03562767 0.023463296 -0.0007465377 -0.054588303 0.017264377 -0.08290348
0.016344666 0.002630374 -0.031731755 -0.041503754 0.044605806 -0.049431983 -0.043882325 0.015110381
0.046222426 -0.019116206 -0.02147461 -0.0023652734 -0.04455025 -0.00037835242 0.022081973 0.04356118
0.039783254 0.15137015 0.079695754 -0.03453154 0.12545992 -0.0027574925 0.05108412 0.04592479
-0.024722567 -0.109147094 -0.38812122 -0.3105571 -0.21703267 -0.09689354 -0.2093915 -0.1397835
-0.17685989 -0.21663536 -0.20604533 -0.1889393 -0.042562854 -0.07488616 0.010959082 -0.0445856
-0.16835831 -0.07935921 -0.05166484 -0.10887507 0.020689698 0.05424473 -0.08327451 0.006262838
0.014570437 -0.0227036 -0.0026952645 -0.09497635 -0.11096971 -0.07426151 -0.012625261 -0.056954604
-0.007116592 0.010663616 -0.039349545 -0.03320047 -0.055425283 0.01231445 -0.12078564 -0.103945434
-0.14688085 -0.034205675 -0.09095915 0.0053834957 0.0074221278 -0.038143404 -0.06802281 -0.056012813
-0.0008651697 0.02287961 -0.02810478 -0.03897765 -0.04521498 0.007911569 -0.0197415 0.047297813
0.047713194 -0.10226623 0.051664103 0.076894715 0.06566044 -0.03399411 -0.089066625 -0.030644484
-0.09199125 0.024191603 -0.08580261 -0.01746602 -0.023046814 0.036825173 -0.069214635 -0.036397118
0.013470674 0.039851524 -0.063096024 0.07778574 0.012949497 -0.057718303 -0.0656565 -0.06397907
0.08168231 0.009713448 0.038098127 0.082365364 0.0018819756 -0.09481718 -0.12410434 -0.03898046
-0.03197362 0.025544621 0.07332327 -0.06108272 -0.09562273 -0.1517279 -0.101160906 -0.025253871
-0.012937593 -0.065217815 0.08299562 -0.06247859 -0.009480471 0.03264737 0.06971141 -0.055591304
-0.013926133 -0.015363612 -0.026502063 0.01616915 -0.06078374 -0.019810835 0.070463166 0.05395606
0.078581996 -0.0117320875 0.000117419986 0.03167263 0.030451916 -0.004687261 0.023156779 0.008406825
0.005852436 -0.030526496 0.05916456 -0.061103873 -0.027917396 0.012315899 0.057634246 0.05114103
0.033437997 -0.04755766 0.046175756 0.049815018 0.05653303 0.0653083 -0.04292627 0.0696229
0.05116103 0.067152634 0.042114664 0.05614598 0.04433562 0.057579823 -0.03380695 0.06133754
-0.032339856 -0.05481779 0.08111164 0.050540738 0.058683567 -0.041266497 0.06584348 -0.0605826
-0.02744017 0.002830455 -0.061653573 0.024862543 0.052954335 0.021872615 -0.038383853 -0.013650671
-0.04559175 -0.044569086 -0.041667707 0.07998622 -0.005190494 0.035989966 0.019461693 -0.015692612
-0.12421002 -0.063950956 0.028065173 -0.023135811 -0.1258214 -0.0033150313 -0.062027894 -0.036224097
-0.007853291 0.03200446 0.07024471 0.044092074 -0.03493227 0.02453036 0.030015217 0.06206142
0.028796975 -0.06717294 0.027984606 0.06731362 -0.06306152 -0.003597351 -0.008195033 -0.105733596
0.019129533 -0.04473462 0.06015762 0.044045463 -0.028068744 0.028404376 0.014051672 -0.0066292263

lstm1.weight_hh_l0 f4 [608, 152]
00000000: f5e0 4bbc 90b8 2e3d 7f13 3a3d 6961 933d
00000010: 81de e8bb b695 063d 155e 27bd aee8 603d
00000020: a450 abbb 29e3 0b3d c3cf 3bbd 3622 8d3d
00000030: a0fe 34bd e43b 873d 2fc7 12bb dd58 8e3d
00000040: f814 773d dcba 3c3d 1fc7 6dbd aa7f 723c
00000050: f5be 453d 14f6 463d c9de 7b3d ab03 9cbd
00000060: fada 513d 90ad 12bd 0ee9 3e3d c5fd 603c
00000070: 0070 7bbb 7ea7 9dbd 1cb5 df3c 31e0 703d
00000080: 6407 dfbc 5182 95bc 16f3 e43b 0595 7a3d
00000090: b16a 613d 77d6 4d3d d378 18bc 72e9 4dbd
000000a0: c2b5 cdbc b768 553d 7ed1 57bd 2d3d 36bd
000000b0: d455 13bd b0ef 053c 7404 67bc 0eb6 97bd
000000c0: 55fe 6fbd 561f 2dbc 15e4 263d f23b 053d
000000d0: 8a98 90bd 436f 963d de5f 8bbd bcf7 653d
000000e0: b07a 44bd 702c 8b3d 7dc3 65bd cbfd 6fbc
000000f0: 3a09 8d3d 45b3 8bbd 2521 f53c 44e3 25bd
00000100: e8be a53d a5f9 22bd d3f4 2a3d c75a 673d
00000110: 6194 5f3c bef8 52bc 7795 a43c cc95 813d
00000120: 4ada 143d 3315 243d d485 ef3c d946 a23d
00000130: fe1c 193c d5cd 9ebd 869b 9f3d d91c 923d
00000140: 6641 623c 0ee6 07bd 0547 7fbd c058 50bd
00000150: 8a96 d6bc 7156 ab3c df1b 16bd dabb ec3c
00000160: faf6 9cbd 41d7 14bc ab90 2b3d 3bcf 993d
00000170: 8b13 5dbd e8df 61bd 96af 013d d101 433d
00000180: 281e 1abc 22ea 783d 72ff 913d 4356 77ba
00000190: 3138 21bd 9524 753d a18d 98bc 9c89 503c
000001a0: 64f1 90bc 02e0 813c 21e1 e6bc 3b93 523d
000001b0: 3102 0abd 3f68 2b3b f844 97bc 62ea 33bd
000001c0: 6a54 73bc 761c 673c 788f b7bc c0e9 863d
000001d0: 4863 acbb 2ab9 1b3d 0e79 52bd 50b5 5a3d
000001e0: 5d68 8c3d 5e60 443d 034a 8b3c a486 993c
000001f0: 2049 773d 4257 fbbc 3f8c a9bc f1a9 2ebd
00000200: 3a36 293d 7e20 34bc 9ca6 ff3c ff94 87bc
00000210: d6cf bfbc f4f7 163c 63be 7e3c e682 78bd
00000220: fb4c 5bbc 6af2 fd3c 6aeb 38bd 4c56 523d
00000230: dfbc 943d a55e 3fbd dfe7 393d 5b44 143d
00000240: 6617 7f3d c1de 86bd 7bd0 4bbd c5a3 1bbd
00000250: 431c 643c e2ea 6dbd 890f 9e3c 9c5a c6bc
00000260: dd8e 94bd b7bc 87bd 7f6a 85bd bb63 87bd
00000270: caf7 c43c e708 ccbc 2acf 993d 7017 7f3d
00000280: a84e 3f3d 806a 433d e923 783d b627 993d
00000290: 3935 70bd 17ed 693c 5dda 84bd aef3 333c
000002a0: 35bd ab3c a68f 45bc f2ad 373d 5bfb 70bd
000002b0: 1b41 60bd c192 4e3d 24c3 46bd 2c7f 9f3c
000002c0: 49e7 2b3d 2d36 72bd 94f8 82bd 9a41 013c
000002d0: b423 17bd 1932 a23d feb4 a0bd d4da 1cbd
000002e0: 998c 9bbd ea48 6f3d b192 9bbd 110b 59bc
000002f0: 6049 55bc 83a5 44bd 49e5 fbba 4ebc 523d
00000300: 90ce 0abc 7e1b 7b3d 5548 75bd f05d 233d
00000310: 3376 7e3c f7f4 6a3d 3948 8a3c 3a9d 8e3c
00000320: 94c9 94bd 5487 1e3d f4a7 91bc 7b33 f63c
00000330: 00db debb 7e2a f13c 7f09 64bd de0f 4c3d
00000340: 0768 45bc 3350 06bd d363 5fbd 92c9 6e3a
00000350: 3ebd 9fbd 3f96 9a3d 233f 88bd 03ce 413d
00000360: 0cd8 813d 8519 99bd c200 8cbd 5279 ef3c
00000370: c033 88bc b282 e23c 1303 943d fc63 c43b
00000380: 1489 babc bd23 7abd cc15 9bbd 78fe e93c
00000390: 29c4 c7bc dc39 95bd faf0 64bd eb37 eebc
000003a0: b3d2 6b3c 7d23 1e3d 5c89 2b3d 69fc 273d
000003b0: a4f6 8cbb 4e25 17bd 59dd b6bc db5d 71bc
000003c0: 62fe b63c ac4a 84bd 7219 1dbc f8f2 873d
000003d0: e18d 393c 86a4 5a3d 941a 673d a65d 46bd
000003e0: ac78 5a3c 1467 db3c ffb0 a33d 9612 91bd
000003f0: 7f6d 20bd 0c7e ac3b 9464 6cbc c064 283d
-0.012443771 0.04265648 0.04542875 0.07196314 -0.0071066027 0.03285762 -0.040861208 0.0549094
-0.005228119 0.034152184 -0.045852434 0.06891291 -0.04418814 0.0660322 -0.0022396555 0.06950543
0.06032273 0.04607664 -0.058051225 0.014800945 0.048277814 0.048574522 0.06149176 -0.07617887
0.051234223 -0.035810053 0.046608977 0.013732378 -0.0038366318 -0.07697962 0.02730804 0.058807556
-0.027225204 -0.018250616 0.006986986 0.061177272 0.05503339 0.050253358 -0.0093061505 -0.05027146
-0.025111083 0.052101817 -0.05269002 -0.044491936 -0.035970524 0.008174822 -0.014100183 -0.07407771
-0.05859216 -0.010566553 0.04074486 0.03252787 -0.070603445 0.0734544 -0.068053946 0.05614446
-0.047968566 0.06795585 -0.056094635 -0.014647911 0.068865255 -0.06821302 0.029923031 -0.04049994
0.08093053 -0.03978886 0.04173739 0.056483056 0.013646216 -0.012876688 0.020090802 0.063273996
0.03634099 0.04005928 0.029238619 0.07923669 0.009345291 -0.07754103 0.077933356 0.071344085
0.0138095375 -0.03317838 -0.06232359 -0.05086589 -0.02619483 0.020915242 -0.036647674 0.028898168
-0.076642945 -0.009084524 0.041886013 0.07510229 -0.053973716 -0.055145174 0.031661592 0.047609154
-0.009406604 0.06077016 0.071288005 -0.0009435156 -0.03936023 0.05984934 -0.018622221 0.012728121
-0.017693229 0.015853886 -0.028183522 0.05140994 -0.033693496 0.0026154665 -0.018465504 -0.043924697
-0.014851669 0.014105907 -0.022407278 0.06587553 -0.0052608587 0.038018383 -0.051384978 0.05339557
0.06855843 0.047943465 0.017003065 0.01874096 0.06037247 -0.030681256 -0.020696757 -0.042642538
0.04131148 -0.010994075 0.031207375 -0.016550539 -0.023414534 0.00921439 0.015548321 -0.06067171
-0.013385053 0.030999381 -0.045146383 0.05135183 0.07262587 -0.04672112 0.045387145 0.036198
0.062278174 -0.06585456 -0.04975937 -0.03799798 0.013922754 -0.05808533 0.019294517 -0.024213128
-0.072538115 -0.066277914 -0.06514453 -0.06610819 0.024043936 -0.024906589 0.075102165 0.06227821
0.04670587 0.04770899 0.06058112 0.074782774 -0.058644507 0.014277718 -0.06486962 0.010983391
0.020964244 -0.012058174 0.04484362 -0.05883346 -0.05474959 0.050432924 -0.048525944 0.01946982
0.041968618 -0.059133697 -0.06395069 0.007889176 -0.036899284 0.079197116 -0.078470215 -0.03829463
-0.07595176 0.058419146 -0.075963385 -0.013247267 -0.013017982 -0.048009407 -0.0019218113 0.051449113
-0.0084721 0.061305515 -0.059883434 0.039884508 0.015531111 0.057362523 0.016880142 0.017408956
-0.072650105 0.038703278 -0.017780282 0.030053845 -0.006801009 0.029439207 -0.05567312 0.04981982
-0.012048728 -0.032791328 -0.05453856 0.0009109016 -0.07799767 0.075481884 -0.066526674 0.04731561
0.06340036 -0.074755706 -0.06836082 0.029232655 -0.016626239 0.027650211 0.07227149 0.0059933644
-0.022770442 -0.06106924 -0.07572517 0.028563723 -0.024385529 -0.072864264 -0.055893876 -0.029079398
0.014393496 0.038608063 0.041879043 0.0410122 -0.004301863 -0.03690081 -0.022322344 -0.01473185
0.022338096 -0.06459555 -0.009588586 0.066381395 0.0113253305 0.053379558 0.05642183 -0.048429154
0.0133344345 0.02678255 0.07992744 -0.07083623 -0.039166924 0.0052640494 -0.014428277 0.041111708

lstm1.bias_ih_l0 f4 [608]
00000000: 78bf 11bd be71 473b ed88 063d c5a3 c63c
00000010: 9241 52bd 1b2f 143c ad7c 753b eb3f ebbc
00000020: 8254 1cbe f92b 99bd 77b1 5ebd 7d54 93bd
00000030: b258 823c a4af 0e3d 5359 70bd 1a5b 59bd
00000040: 8a99 be3c bdf3 4bbd 292f cebd 84c4 70bc
00000050: 398a e73c a24e 63bc 8613 97bc 13a6 ccbc
00000060: 80fc 1b3c e0fc 92bc 24b6 c5bd 9968 6d3c
00000070: 32cf d9bc e827 abbd b336 d5bd 07ed debc
00000080: 6a71 9cbd 0e16 193b 0c20 9abd 30df b23a
00000090: 58e4 17bd edba e9bd 8807 aa3b 6443 dfbd
000000a0: 5935 d43b 9347 c5bd 59db ef3b 82f4 06be
000000b0: b1ba 1fbd 4220 8dbc c6f2 d5bd a75a debd
000000c0: b205 f43b dc89 03bd ce33 9fbc 3e67 ac3c
000000d0: 63fa 143d 2615 1e3d 7468 fdba 1444 8fbc
000000e0: 0f03 27bd 9cfb f3bc 1a40 8cbd 7de9 b9bd
000000f0: 35b7 3d3c 095c 21bd c5df 3d3c 2797 46bd
00000100: 3817 1abe 1393 57bd f972 e4bd 012b debd
00000110: 441c 813c 9575 d53c 86a1 b6bd c1c1 c0bd
00000120: cc46 093d 1c85 2abe 4088 92bd 44bd 8cbd
00000130: 10fd bfbd 2afd 893c 3078 0abe 9fce ad3a
00000140: e26a 723c 4097 073e c816 59bd d11f 1bbe
00000150: 172f e8bc e18a febb 1865 5cbd 732d e2bd
00000160: babe f9bd e642 eebd 6bd0 2dbd 95c0 87bd
00000170: 45cd 8e3c 723e 54bd 1949 83bd b05d 91bc
00000180: b398 323d 8ac2 9dbd 9819 23be d290 f93c
00000190: d739 15bc 01f6 d0bd 4767 eabd a691 5abd
000001a0: 9124 023d 9923 1f3c 2772 a13c bf12 5dbc
000001b0: 926e cebc 1583 073c b923 abbd 44ee 96bd
000001c0: 41bc f1bc e606 c43a fc0c 8fba 3e68 013d
000001d0: 3ee2 c9bd 4dc4 b0bd d39b 46bd e962 163c
000001e0: 743f 853c d76d fbbc 5904 73bd d34d 8bbb
000001f0: d493 2dbd c819 dabd d92f b0bd a727 20bd
00000200: 4ff3 f63c 74db 1dbd 0d95 06bd 21e0 d43d
00000210: c08f 86bd 5fb1 183d 5ad6 23bd 292e 3a3d
00000220: 586d 96bd 1aa6 d5bd a600 ec38 5f72 e5bd
00000230: e556 11be 0a00 b7bd b556 00be f25e d6bd
00000240: dda5 13bd 106e 193d 77ea 513d 7b7a e23c
00000250: 944d 80bd b0bb 4fbc 0f40 bebc 6199 333e
00000260: 5afe 9b3c a6d7 ae3c 41d3 4e3d cbda 713d
00000270: 53ea 76bd b974 8cbc 05b8 a1bd ebcf 483d
00000280: 1e66 923c de9d ffbc dd37 5d3c cd05 4c3d
00000290: 99de 9f3c c554 663c f965 eb3c ea75 98bd
000002a0: 743c 62bb f1a9 f93a 7bd0 bb3a 2866 54bd
000002b0: b313 86bc 666d 213d e9cf 933d 26b4 873d
000002c0: eb63 0dbd 7439 993d a411 9e3d 1236 713b
000002d0: e931 0b3d bc6b 9bbd b990 c8bc a7d2 8bbd
000002e0: 997c b1bc f488 99bb afb1 8abd c854 973d
000002f0: 1a44 243d db89 843d 6f92 9cbd 14d4 9c3c
00000300: 6173 c8bc 055e 113d 44ef 5abd a841 a3bd
00000310: 9bfc ff3c 9952 00bd 4731 603d 0f3d 603d
00000320: f893 533d adb9 603d 0266 a03d af11 a1bd
00000330: 5650 7d3a 7121 35bd 43ae 0ebb db90 55bd
00000340: 5e6f 95bd 3bde 1d3d 96e3 e3bc dc66 33bd
00000350: 1ba9 6a3d f864 a1bd 0e29 55bd 2543 54bb
00000360: f81d 923c 8399 5f3d bd7b 293d 6f6c 6a3d
00000370: 57a7 9b3c 90cd 46bd e85f 08bd 0c43 bf3b
00000380: 11a9 90bd 82d2 ffbc 34df 193d 711a 2dbd
00000390: 89af 5ebd baf6 58bd 4204 84bc 77f5 e2bc
000003a0: 2d6c 20bc a0cb 3bbd eeae eb3b 372b 173c
000003b0: 6a9d 2f3d 9abb a5bd ec31 34bd a16e 503d
000003c0: 8b43 ddbc 6d55 8fbd c517 95bd 9466 553c
000003d0: 8c4d 85ba 3e76 253c 9df5 043d d2a1 9ebc
000003e0: 5255 433d f1e7 963d 16df 53bd 34a5 6cbd
000003f0: 2094 34bd c4ed 11bd f98c 4a3d 8a50 27bd
-0.03558299 0.0030432786 0.032845426 0.024248013 -0.051332064 0.009044434 0.0037458346 -0.028717002
-0.15266612 -0.0747909 -0.054368462 -0.07193849 0.015911434 0.034835473 -0.058678936 -0.053065397
0.023266573 -0.049792994 -0.10067589 -0.0146952905 0.028264152 -0.013873728 -0.018441927 -0.024981534
0.00952065 -0.017942846 -0.09653881 0.01449027 -0.026588056 -0.08357221 -0.10410824 -0.027212633
-0.076388195 0.0023359093 -0.07525644 0.0013646837 -0.037083 -0.114126064 0.005188886 -0.109015256
0.006476086 -0.09632792 0.0073198495 -0.1317921 -0.038996402 -0.017227296 -0.10446696 -0.10857134
0.007446968 -0.032113895 -0.019433882 0.021045323 0.0363716 0.038594387 -0.0019333498 -0.017488517
-0.0407744 -0.029783063 -0.06848164 -0.090777375 0.0115793245 -0.039394412 0.011588995 -0.048483994
-0.1504792 -0.052630495 -0.11154742 -0.10848046 0.015760548 0.026057044 -0.08917527 -0.094119556
0.033514783 -0.1665234 -0.07154894 -0.06872037 -0.0937444 0.01684435 -0.1352241 0.001326043
0.014795991 0.13241291 -0.05300024 -0.15148856 -0.028342767 -0.0077680205 -0.053807348 -0.11043825
-0.12194581 -0.116338536 -0.04243509 -0.06628529 0.017431865 -0.051817365 -0.06410427 -0.017744869
0.043602657 -0.07703121 -0.15927732 0.030464564 -0.009108028 -0.102031715 -0.1144548 -0.053361557
0.031773154 0.009713077 0.019707752 -0.013493239 -0.025199208 0.0082709985 -0.08356423 -0.07369664
-0.029508712 0.0014955669 -0.0010913904 0.031593554 -0.098576054 -0.086311914 -0.04848845 0.009178855
0.016265608 -0.030692024 -0.059330318 -0.0042512207 -0.042377308 -0.10649449 -0.08602876 -0.039100315
0.030145315 -0.038539365 -0.03285699 0.10394312 -0.06570387 0.03727853 -0.039999343 0.045454178
-0.073450744 -0.10432072 0.00011253478 -0.11203455 -0.14193304 -0.08935554 -0.12533076 -0.10467328
-0.03604685 0.03745848 0.051248994 0.027646294 -0.06264797 -0.0126790255 -0.023223905 0.17538978
0.019042183 0.021343064 0.050494436 0.059046548 -0.060282063 -0.017145501 -0.07896427 0.04902641
0.017870959 -0.031203207 0.013502088 0.04981022 0.019515323 0.014058297 0.028735148 -0.07444365
-0.0034520896 0.0019047839 0.00143291 -0.051855236 -0.016366815 0.03941097 0.0721739 0.066261575
-0.034519117 0.074816614 0.077182084 0.003680591 0.033983145 -0.07588908 -0.024483072 -0.06827288
-0.021665858 -0.0046855155 -0.06772172 0.073892176 0.04010401 0.06471606 -0.076451175 0.019144095
-0.02446908 0.035490055 -0.053450838 -0.07971507 0.031248381 -0.03132877 0.054734495 0.05474573
0.051654786 0.054864574 0.078319564 -0.07864701 0.0009663155 -0.044221345 -0.0021771349 -0.052140098
-0.07296632 0.038542014 -0.027818482 -0.043799266 0.057290178 -0.078805864 -0.052041106 -0.0032388654
0.017836556 0.05458976 0.04137777 0.057232317 0.019000692 -0.048535883 -0.03329459 0.00583685
-0.07063497 -0.031228308 0.03756638 -0.042261545 -0.054366622 -0.05296967 -0.016115312 -0.027704937
-0.009791416 -0.04584849 0.007192484 0.009226612 0.04287473 -0.08092423 -0.04399292 0.050886754
-0.027009746 -0.069987155 -0.07279924 0.013024945 -0.0010170205 0.010098992 0.032460798 -0.019364271
0.04768879 0.07368458 -0.051726423 -0.057774737 -0.044086576 -0.03562714 0.04945085 -0.040848292

lstm1.bias_hh_l0 f4 [608]
00000000: c6d3 2abd c0a5 18bd b5a7 8ebc 9632 eebb
00000010: 48e9 bbbd 78da b33c fbae 353d 7e4b 7dbc
00000020: c3c5 cabd 1827 c5bc 673f afbd 8bb9 093d
00000030: 20c2 dbba 6c9c eebd 6321 c0bc 4c90 3ebd
00000040: d9c7 75bd cd70 aa3d b03c 06be 0795 79bd
00000050: 1d92 ef3c 5b8d b2bd 474f bebd d6f6 cabd
00000060: 2842 89bc 4aaf 0e3d d8d3 1c3d a5ca cbbd
00000070: ee9b 96bd 6c3b 1c3d 37c6 0cbe db63 803d
00000080: e1f0 51bd 48e0 0ebd 2882 30bd f842 5bbc
00000090: efe0 9c3c e9b3 06bd 1c90 d4bc f4f6 88bc
000000a0: 29f4 aabb 7a0b a63c e6f7 51bd 4451 97bc
000000b0: 77f1 8bbd 78c4 ed37 bcd9 86bc 3362 0ebe
000000c0: 558a d9bc b972 f3bd f9e9 5ebd dd24 0d3d
000000d0: d366 b2bc 0e4c 33bd 7ff4 f73c 42a9 06bc
000000e0: c8cf 6a3c 2575 a5bd 093a 7cbd f975 eebd
000000f0: e861 a5bd d686 10bd c975 c0bc f8f6 bbbd
00000100: 13f8 02be 395a bc3d fdf3 c83b db45 06be
00000110: 51d9 e6bd c95a 03bc 842e b23c 11fc bdbd
00000120: f22a 62bc 20a3 0dbe bca2 cabd 4d0c 983c
00000130: 844e e0bd 0aee 923c a360 50bd 34c7 96bd
00000140: 441e 853c c288 163d 1566 a5bd e261 dcbd
00000150: 78d2 4dbd fa70 df3c d935 a93d e2dc 04be
00000160: 752a 7dbd 13d2 1bbe a52d c33b 1fe6 4cbd
00000170: a9c6 7fbd 4a5d a1bc 3e54 b6bd f6a2 ecbc
00000180: 7d89 55bd a2ab c1bc 87c4 dcbd acf5 aebc
00000190: eb07 0fbd e460 36bd 414b 163d 0fb6 1bbd
000001a0: 67f6 c7bd 919b 89bd 9ff2 f3bb 1855 a2bd
000001b0: 595c f6ba 07fe 953c be1a 6a3d 5f9d 0fbe
000001c0: 88f6 2bbe 4fa4 0bbd 6d35 aabd a53e d73b
000001d0: 0c85 bd3c 3883 4f3c b90a 48bd 145f b83c
000001e0: 07ba 3c3b 9ac0 b6bd ffe0 b6bd cb3c bebd
000001f0: 29f4 d0bd f988 83bd 7d15 193a b2ed dabd
00000200: 02dd 1cbd adb5 35bd 59af 3ebd a4ce 9a3c
00000210: d1ef e8bc fa94 07bd ae17 a1bd a248 acbd
00000220: ba49 ccbd 010a 92bd e0c2 4a3c 1d15 71bd
00000230: 1e4c febd f6ad 33bd 34a1 9cbd 8e63 c7bd
00000240: 4643 6bbb a504 92bd fb73 3bbd 400b 093c
00000250: 0164 1fbd a5e8 0cbd 4f7a 8dbd 8d4d 4e3d
00000260: 24dc 10bc 0e4c 67bd 3f97 90bd 96ef 15bd
00000270: b9dd 78bd 2e76 5e3d 180e 96bc 3758 0bbd
00000280: 63ff 48bd 7e19 05bd c184 0b3d 9e82 3d3d
00000290: 9b08 903c 3b26 3f3d 1dc0 05bc a5c7 1f3d
000002a0: fe5f 84bc 255a 2abd e3f4 823d 93ea 99bd
000002b0: d288 463c e6ad 39bd 6e1b 7d3d c246 563d
000002c0: c3c0 94bd 7e8a 8dbd 2cd9 993d 6ab6 0e3c
000002d0: 4e90 5f3d ecde 933d 1c93 f23c 4c59 52bd
000002e0: 9e0f 65bd ea6b 273c 147d b73c 5eaa cb3c
000002f0: 095e a3bd 9a6d 9fbd e74f 943d 4a61 8a3d
00000300: 42c0 603d f9e9 18ba 0841 083d 7cdf 8fbd
00000310: e780 a2bd ac25 803c c853 853d e6ec 9fbd
00000320: 133c 9f3c 60d6 21bb f535 3dbd 37a9 7abd
00000330: 3a2f 90bd 3b48 92bd 35fa 45bd 2e67 bbbc
00000340: e1a2 24bd 6593 5fbd 79e0 73bd 4e69 a53c
00000350: f45a 6dbb 459f 243d b98e 1b3d 21c3 203d
00000360: e06c 853d 3af9 a43d e559 303c aa18 4b3d
00000370: ce03 88bd 20ba 833d f554 72bc 7856 8cbc
00000380: 8f0a f9bb 8c2e 913c 9221 8a3d 44f5 e63c
00000390: eece 74bd 5f0e 9c3d 3c0b c5bc 5221 253c
000003a0: 4ca1 683d 6788 003d 6206 40bd 46ce cdbc
000003b0: 21bf a3bd 0c95 7b3d 807a 05bd f189 963d
000003c0: 1c7f 2fbd 32ab aabc e546 9f3d 4d38 0dbc
000003d0: 32e9 813d a69d 8b3d 81f5 57bd 56b0 083c
000003e0: b7fb 6abc 316d 873c bf09 c03c 294d 2cbd
000003f0: c4f9 89bc c398 8d3c 76b8 e43c 749b 953d
-0.04170587 -0.037267447 -0.017413953 -0.007269214 -0.09175354 0.02195476 0.044356328 -0.015459893
-0.09901001 -0.024066493 -0.08557015 0.033624213 -0.0016766228 -0.11650929 -0.02345342 -0.04652433
-0.060005043 0.08322296 -0.13109088 -0.06093314 0.029244477 -0.08718368 -0.09292465 -0.099103615
-0.016755179 0.034835137 0.038287967 -0.09950761 -0.0735396 0.038142607 -0.13747488 0.06269046
-0.05125511 -0.03488186 -0.043092877 -0.013382666 0.019150225 -0.03288642 -0.025947623 -0.016719319
-0.0052170944 0.020269144 -0.051261805 -0.018471368 -0.06833165 2.834409e-05 -0.016461246 -0.13904648
-0.02655522 -0.11887116 -0.054422352 0.034458984 -0.021777546 -0.043773703 0.030267952 -0.008219065
0.0143317655 -0.08078984 -0.061578784 -0.11643595 -0.08075315 -0.03528484 -0.023493664 -0.09177965
-0.12789945 0.09196896 0.0061326013 -0.13112585 -0.112719186 -0.00801725 0.021750696 -0.092765935
-0.013804184 -0.13831758 -0.0989432 0.018560553 -0.10952476 0.017935771 -0.05087341 -0.07362214
0.016249783 0.036751516 -0.08076111 -0.10760857 -0.050249547 0.027275551 0.08262224 -0.12974885
-0.06180807 -0.15216856 0.005956369 -0.050024148 -0.062445316 -0.019697804 -0.08902787 -0.0288863
-0.052133072 -0.023641411 -0.10779672 -0.02135738 -0.03491966 -0.044525996 0.03669286 -0.03801542
-0.097637944 -0.06719125 -0.007444694 -0.079263866 -0.0018795832 0.018309606 0.05715441 -0.14024876
-0.16793263 -0.034092244 -0.083109714 0.006568747 0.02313473 0.012665562 -0.04883835 0.022506274
0.0028797404 -0.089234546 -0.08929633 -0.09288939 -0.1020282 -0.0642261 0.0005839689 -0.10689868
-0.038296707 -0.044362713 -0.046553943 0.018897362 -0.028434666 -0.03310106 -0.07865845 -0.08412291
-0.09975 -0.07130814 0.012375563 -0.058858026 -0.12416862 -0.043867074 -0.076479346 -0.097357854
-0.0035898252 -0.07129792 -0.045764904 0.008364499 -0.03891373 -0.034401555 -0.06908094 0.050366927
-0.008841548 -0.056469016 -0.07060098 -0.03660544 -0.060758326 0.054311924 -0.018317267 -0.034019675
-0.04907168 -0.032495014 0.03406215 0.046267144 0.017582228 0.04666732 -0.008163479 0.039008755
-0.016159054 -0.041589875 0.06394365 -0.075154446 0.012117581 -0.045331858 0.061793737 0.052313574
-0.07263329 -0.06911181 0.075121254 0.008710483 0.05458098 0.07220253 0.029611163 -0.05135469
-0.055923097 0.0102186 0.02239851 0.02486151 -0.0797692 -0.07784577 0.07241803 0.06756838
0.05487085 -0.00058332045 0.033265144 -0.07025048 -0.079347424 0.015642963 0.06510121 -0.07808857
0.019437825 -0.0024694428 -0.046194036 -0.061196532 -0.07040258 -0.07142683 -0.04833432 -0.022876348
-0.040194396 -0.054583926 -0.059540246 0.020191815 -0.0036217542 0.040190954 0.037977908 0.03924859
0.06514907 0.08055349 0.01076362 0.04958407 -0.06641351 0.06431985 -0.014790763 -0.017131075
-0.0076001356 0.01772239 0.06744684 0.028193124 -0.059767656 0.076199286 -0.024053209 0.010078745
0.05679445 0.031380083 -0.046881087 -0.025122773 -0.07995439 0.06142144 -0.03258753 0.07350529
-0.04284583 -0.020833585 0.07777194 -0.00861938 0.063433066 0.068171784 -0.052724365 0.008342823
-0.01434224 0.016531559 0.023442147 -0.042065773 -0.01684273 0.017284757 0.02791999 0.07305041

features.0.weight f4 [234, 152]
00000000: 0fa5 cc3c 26f9 7a3c 6ba7 9b3a 179d 753c
00000010: 3b50 ecbc 5606 593d 9d27 efbc 8d40 cd3c
00000020: 1cb2 4f3e 0460 4d3d 9348 9d3d 6a21 26bd
00000030: e49a a23d bf42 8e3c 40a5 873d 88b7 1abd
00000040: f301 ae3c a6ed 9a3d aa4a 83bd 2ca8 0b3d
00000050: 9250 843d 72a2 203c 0e4e 2bbd 1ee7 29bd
00000060: 4ba3 cdbc 2734 26be dc39 bebb 29bf 103d
00000070: db3f 823d d444 1fbd c579 b63d e5ba df3d
00000080: 8b25 fabc 167c 8539 0605 1dbd f6d4 f03b
00000090: f980 703d b6dd 26bd 38a3 3e3b e069 503b
000000a0: fdbb 76bd eed9 d13c d148 933d ba57 283e
000000b0: e9a5 68bd eb99 393c 9bd2 5dbc ff75 6fbc
000000c0: d45e d93c b2e4 2e3c 5a0a 1cbd 1eac c03c
000000d0: f3da 973d af58 193c b051 cf3c 4f5c 353c
000000e0: 7e79 b1bc faf1 583d 91e1 8cbc 5508 393d
000000f0: 98ea 363c 7876 b23d a41f 463d b79c 8f3c
00000100: 88bb a1bd db5f 193d 6c8b 38bd b033 7c3d
00000110: f975 babc fb25 dc3c a05f 6abc 9f94 29bd
00000120: 2ab3 273d 9b30 dbbd 5951 4fbd eecf e9ba
00000130: b27a e1bc 13cb 36bd e848 1fbd 92bc 33bd
00000140: 52d5 97ba 7217 e2bd 2b63 253b 1d05 853c
00000150: 6185 69bd f9c4 86bc 7ab8 583d 4b3d 7abd
00000160: 5612 3ebd 9043 803d 7fcd c13b 6470 a2bb
00000170: 0e91 34bd 545a 78bd 8cbd 093c f3d5 4abd
00000180: 1a53 88bd 923c 8cbd 407b 60b7 b4e9 41bd
00000190: d166 133d c3bb 40bc deea de3c e97f af3b
000001a0: 5bac 3cbb be3e 1abc da48 81bd 8e5a 123d
000001b0: 123d 883d 2304 1b3d cc5e 4a3d 8ef6 0ebe
000001c0: 03ca bebc b711 55bd 19ee 72bd 0e66 cabc
000001d0: 669e 803d 5755 a73c 193b 6bbd 2e81 d03d
000001e0: daf1 1a3d 89fa 15bd e2af 6fbb 4233 95bd
000001f0: 0979 c33c f68a 863d c591 973c 2c3f dd3d
00000200: db46 b53c 002d 8f3c a252 1c3d 224e 2fbd
00000210: ba04 1a3d f2fe ccbb 0dc7 ad3d 3956 3dbc
00000220: 475a 64bd 7e07 1bbd c7fa 4f3b 8770 5bbd
00000230: 4fc7 a63d 0f3f 0f3d 59e6 b5bd c3f0 9abd
00000240: 36fd 26bd 14d8 93bc 9099 ef3c 5f9f 94bd
00000250: f668 93bd 8862 9c3d b321 96bd 0da3 08be
00000260: cd1e 50bd 06a3 8d3c 6334 80bd c6c1 9a3d
00000270: 9e16 bebc fe47 aebd 9753 f73c 1323 8a3d
00000280: 8dd0 97bd 0078 a5bc 304c 27bd f6be 09bd
00000290: 2e62 33bc db6a c1bd 12d0 20bd 7a85 3f3d
000002a0: 25bc 01bd b6df 05be 9f9e 833c 24eb d83d
000002b0: a30b 853d 2579 b13c c02f be3d 1c33 ba3b
000002c0: dd89 81bd 8019 2b3d aeb8 d03c 909e b9bd
000002d0: 0258 67bd 96da 14bc 24ae 353c 2e92 0e3e
000002e0: aad3 a43d a43b 563d a90b 37bd 5589 06bd
000002f0: 0b08 a1bd ae20 a53d cebd 783d c9ea 8ebd
00000300: 6ddc 883d dd59 673c 86d0 783d a3b3 5dbd
00000310: 2f35 d73d dcdc 78bd f40b f3bc b96e 633d
00000320: 9965 903d 1ff2 443c a8bf c1bc e758 a13d
00000330: c292 02ba cdfc c0bc 54f1 21bd bc4b 96bd
00000340: b45b 6ebc 8c1f 97bd b281 bdbc 3c78 0d3d
00000350: ea44 883d 4556 43bc 6982 29bd 19e9 993c
00000360: f85b 87bd 9fd9 8f3c 00fd a9bd ed70 6e3d
00000370: 1c76 fd3b 169c d5bd d667 6fbd e873 323d
00000380: ea12 c33c 27d2 1a3d 547f 973d a9f7 71bb
00000390: 1133 08bd d105 ebbc e4c2 91bd 17c2 48bd
000003a0: 51df 273d 7282 213e f7be 5fbd fffe 80bd
000003b0: ce6e 293d f1d9 723c aa9c c2bd f80b 8d3d
000003c0: 7646 90bd 8e32 0b3d 2b91 a13d 4fa8 af3d
000003d0: 3121 883d 13f3 0fbd 4088 d33d f180 963d
000003e0: 93a6 e9bc b984 99bb ea01 afba b1d0 8b3d
000003f0: 10b3 74bd bc93 a5bc 8035 943d 23b4 223d
0.02498105 0.015318191 0.0011875456 0.014991066 -0.02884685 0.052984558 -0.029193694 0.025055194
0.20282787 0.050140396 0.07679858 -0.04055921 0.07939699 0.017365811 0.06623316 -0.037772685
0.021241164 0.07564859 -0.064107254 0.034095928 0.0646068 0.009804355 -0.041822486 -0.041480176
-0.025102278 -0.16230832 -0.005805237 0.035338555 0.06359836 -0.038884 0.089099444 0.10924319
-0.03053548 0.00025460188 -0.03833487 0.0073496057 0.058716748 -0.040738784 0.0029088985 0.0031801388
-0.060237873 0.025616612 0.07191623 0.16439715 -0.05679885 0.011328201 -0.013538982 -0.014615535
0.026534475 0.010674642 -0.03809581 0.023519572 0.07414808 0.009359523 0.025307506 0.011069371
-0.021664377 0.05296514 -0.017197402 0.04517396 0.01116433 0.08714002 0.04837002 0.017530782
-0.07897097 0.03744493 -0.045054838 0.06157273 -0.022761332 0.02687358 -0.014305025 -0.0414015
0.04094235 -0.1070263 -0.05061469 -0.0017838457 -0.027524326 -0.04462726 -0.03888789 -0.043881007
-0.001158396 -0.11039628 0.002523611 0.01623779 -0.057011966 -0.016451346 0.052910306 -0.06109361
-0.046404205 0.062628865 0.0059143896 -0.0049572457 -0.044083647 -0.06063302 0.008407008 -0.049520444
-0.06656475 -0.0684749 -1.3380137e-05 -0.047342017 0.035986725 -0.011763516 0.027211603 0.0053558243
-0.0028789255 -0.009414373 -0.063127235 0.03573089 0.06652273 0.037845742 0.04940681 -0.1396124
-0.023289686 -0.052018847 -0.0593091 -0.024706867 0.06280212 0.020426435 -0.057429407 0.10180889
0.037828304 -0.036615882 -0.003657334 -0.07285167 0.023861425 0.065694734 0.018502126 0.10803065
0.022128513 0.017477512 0.038164742 -0.042799123 0.037602164 -0.006255978 0.084852315 -0.011556202
-0.055750158 -0.037848942 0.0031735168 -0.05357411 0.08143484 0.034972247 -0.08881826 -0.07565453
-0.040768825 -0.01804737 0.029248029 -0.0725696 -0.07197754 0.07635981 -0.07330646 -0.13343449
-0.050810624 0.01728965 -0.06259992 0.075564906 -0.023204144 -0.08509825 0.030191226 0.06744971
-0.07412825 -0.020198822 -0.040844142 -0.03362938 -0.010948701 -0.09444209 -0.03926093 0.046758153
-0.03167357 -0.1307362 0.016066847 0.105917245 0.0649636 0.021664212 0.09286451 0.0056823622
-0.063251235 0.041772366 0.025478687 -0.090634465 -0.056480415 -0.009085318 0.011088882 0.1392295
0.08048184 0.05230297 -0.044688854 -0.032845814 -0.07862862 0.08062874 0.060727887 -0.069783755
0.06682668 0.014120546 0.06074574 -0.054126393 0.10508191 -0.060757503 -0.029668786 0.055525515
0.07050628 0.012020617 -0.02365096 0.07878285 -0.0004980975 -0.023558045 -0.03953679 -0.07338664
-0.014548231 -0.07379064 -0.023133133 0.034538493 0.06653769 -0.011922424 -0.041384134 0.018787907
-0.066093385 0.017559825 -0.08300209 0.058213163 0.007735027 -0.10430162 -0.058448635 0.043567568
0.02381273 0.037798073 0.07397333 -0.0036921299 -0.033251826 -0.028689297 -0.071172506 -0.049013223
0.040984455 0.15772417 -0.054625478 -0.06298637 0.041365437 0.014822469 -0.095025375 0.068870485
-0.07044689 0.03398376 0.07889017 0.08577024 0.06646956 -0.035143923 0.10328722 0.07348812
-0.028521812 -0.004685011 -0.0013352011 0.06826914 -0.05974108 -0.020212047 0.07236767 0.039722573

features.0.bias f4 [234]
00000000: 2062 b4bc 8395 973c b440 dd3c f72a bbbc
00000010: c9cd c2bc 8a0d acba 9a11 89bc 6160 0dbd
00000020: 9ffa 933b e78f 7e3d c0ba 04bd d72d 02bd
00000030: 8927 723d 6c6b a3bc 3a80 8cbd d46b 04bc
00000040: ea66 47bd 6fc7 a33c c5c6 043d fa7b 9b3d
00000050: ddaa c03c 380d 20bd f081 a83d 437c d5bc
00000060: 4889 133c f9b2 83bc d04d 48bd f10e b23d
00000070: 28d7 24bd 75ab 37bb 4ef2 52bc 8bb5 e83c
00000080: 15d9 403d 3744 053d e423 12bd b214 b03c
00000090: 5702 edbc 528f adbc 65d0 f3bc 4c78 453c
000000a0: 0ff6 df3c 04e8 4c3d 590c 4fbd f5d6 49bc
000000b0: 3a7f 593d 540a acbc ebf9 bc3c cd74 8e3c
000000c0: 4e1d 003d 0fa6 80bc b8f4 40bd 532c 52bd
000000d0: 0aec 4d3d 74e5 ef3c d8d9 31bc 07f7 c8ba
000000e0: 1ed5 96bc d6d6 943c 443c 51bd fb72 05bd
000000f0: 97c0 20bc 89a8 58bc 5d67 853d 193e 3cbc
00000100: 7b44 b43c 62cd 233c a806 343c 8342 b7bc
00000110: 1c73 9ebd ad53 61bd 71b5 533d 8291 b83b
00000120: cc1d 573d d044 30bd 2481 543d f489 0f3c
00000130: ba9f c1bc 5873 9a3c 2e76 47ba ce1d 763d
00000140: 4e7d e63b 8221 113d 9274 433d 24f5 b73d
00000150: 8028 82ba 3aab 8e3d 20bb c3bc 6803 c63c
00000160: a115 d6bc a8df 533d 7b2a 33bd a546 45bd
00000170: f0ca 1abd 0f6c bdbb 5a20 e03c 45a4 793c
00000180: 83bd b3bc 3f9b ad3c 5025 7bbc bbdc c0bc
00000190: 0c73 f7bc 6688 a03c 52b2 8a3c ecee 093d
000001a0: eef4 893b b55c 963c 4bc9 e4bc eacc 053c
000001b0: 80dc c33b 79fd 0b3d 8ca2 b93c a52e 36bc
000001c0: 8764 a03d f0d1 ce3a ad75 6abc ed2e fcbc
000001d0: 74a7 dd3c 356d 14bd 8625 c93c e621 90bc
000001e0: 9c73 3e3d bac4 9ebc d992 57bb aae1 4bbd
000001f0: e08a 5b3b 1a61 60bc 624c c4bc b64a 22bd
00000200: 8c14 a9bb cc0f 023d 4ab0 453c ef80 dcbc
00000210: a326 893d 3ce8 8abd 8403 123c e5fa 70bd
00000220: 97be 79bd 73b4 bb3c 231b f13c b62a 29bd
00000230: 1f51 1a3d b978 2e3d 2d70 2bbd 17d0 11bd
00000240: ddb1 3d3b e98e 7a3d 589a ffbc e042 14bd
00000250: 0167 2b3d 1475 a03d 9698 6ebd f726 ab3c
00000260: 3301 3f3d 8a20 aebb a723 3e3d 4881 793d
00000270: 44c5 cb3a 4a03 a93a ae56 683b d69c 7fbc
00000280: bad3 583d 546c 513d f669 3f3d 573f 893d
00000290: cdf8 8dbd 4a66 513d 099e e33b 56dd 633d
000002a0: a5b6 dfbb a7e0 b33c 68fb e33c d4fe 363d
000002b0: d45c 4b3c a507 54bc f962 833c 9817 313c
000002c0: a214 a93c ae87 343d baa9 5d3d 9cd6 a1bd
000002d0: d97e 04bd 5d27 eebc f017 843d ac87 bc3b
000002e0: 06e5 43bb 3824 693d f2e2 5ebb 04d2 15bc
000002f0: 8570 7d3d 8df5 383d 918b db3c f653 56bd
00000300: 696e 25bd 2622 643c 8c9e 8fbc 0a50 a7bc
00000310: 532d 20bd c6bd 733c 21e7 3abd be67 3ebd
00000320: 88c0 853d 10f7 1c3d a5f6 3dbc 7f1b f5bb
00000330: 4d5c 12bd b363 40bd e26a 683c 8a29 4abd
00000340: 4ebb 0e3d fc6c 6cbd 2d25 7fbc c49a 603d
00000350: f939 853d e17a 7cbc f4af f13a 8f82 433c
00000360: fe9e 16bd cd15 81bd 30e7 8a3d 8c52 e3bc
00000370: 07c1 9d3d 6510 94bd 3936 2ebc f0ea 1e3d
00000380: 3101 913c 007a be3c a06b 773c a827 4f3b
00000390: 20f4 6bba f5d1 4cbd 0c14 b2bb cf8b 5fbd
000003a0: f28c 573d bd73 a8bb
-0.022019446 0.01850391 0.027008392 -0.022847636 -0.023779767 -0.0013126594 -0.016732026 -0.034515742
0.0045159603 0.062148955 -0.03240466 -0.031781998 0.059119735 -0.019948684 -0.06860395 -0.008082349
-0.04868213 0.019992558 0.032416124 0.07592006 0.023518974 -0.039075106 0.082279086 -0.02606023
0.009004898 -0.016076552 -0.048902333 0.08694256 -0.04024425 -0.002802578 -0.012875153 0.028406879
0.047082026 0.032535758 -0.03567876 0.021494243 -0.02893178 -0.021186505 -0.029762456 0.012052607
0.02733901 0.050025955 -0.050548885 -0.012319316 0.05309985 -0.021001019 0.023068389 0.01738968
0.031277947 -0.015704183 -0.047108382 -0.051311802 0.050273933 0.029284216 -0.010855161 -0.0015332409
-0.01841217 0.018168848 -0.051082864 -0.032580357 -0.009811542 -0.013223776 0.065138556 -0.011489415
0.02200531 0.009997698 0.010987915 -0.022370582 -0.07736799 -0.05501144 0.051686708 0.0056325803
0.05251865 -0.043034375 0.05188097 0.008760918 -0.023635734 0.018853828 -0.00076088577 0.060087018
0.0070339805 0.035432346 0.047718592 0.08982304 -0.0009930283 0.069662526 -0.02389294 0.024171546
-0.02613336 0.051726967 -0.043741684 -0.048163075 -0.037791193 -0.005780704 0.027359176 0.015236919
-0.021940952 0.021192191 -0.01532872 -0.023542752 -0.030206226 0.01959629 0.016930733 0.03367512
0.004210106 0.018354753 -0.027928015 0.008166531 0.0059772134 0.034177277 0.022660516 -0.011119519
0.07831674 0.0015779119 -0.014310283 -0.030784095 0.027057387 -0.03623696 0.024554025 -0.017594289
0.046496972 -0.019380916 -0.0032893925 -0.049775757 0.0033499524 -0.013695026 -0.023962203 -0.03962203
-0.00515992 0.031753346 0.012065956 -0.02691695 0.066968225 -0.067825764 0.008911971 -0.05883302
-0.060972776 0.022913193 0.029431885 -0.041300498 0.03767502 0.0425956 -0.041855026 -0.03559884
0.0028945126 0.061171446 -0.031201527 -0.03619659 0.04184628 0.07834831 -0.058250986 0.020892603
0.046632003 -0.0053139376 0.04642072 0.060914308 0.0015546461 0.0012894657 0.0035452056 -0.015601357
0.052936293 0.0511287 0.04673191 0.06701534 -0.069322206 0.05112294 0.0069463295 0.055631004
-0.006827193 0.021957709 0.02782984 0.044676617 0.012412269 -0.012941276 0.016038405 0.010808848
0.020639721 0.044074707 0.054116942 -0.079022616 -0.032347534 -0.029071504 0.06449878 0.005753478
-0.0029891147 0.056919307 -0.0034009782 -0.00914431 0.061874885 0.04515605 0.026799949 -0.052326165
-0.0403885 0.013924157 -0.017531656 -0.020423908 -0.039105725 0.0148767885 -0.045630578 -0.046485655
0.06530863 0.038321555 -0.011594449 -0.0074800844 -0.035732556 -0.04697008 0.014185639 -0.04935602
0.034846596 -0.057721123 -0.015572828 0.054835096 0.06505198 -0.015410156 0.0018439279 0.011932983
-0.03677272 -0.06302986 0.06782377 -0.027749322 0.07702833 -0.072296895 -0.010633045 0.038798273
0.017700763 0.023251534 0.015101343 0.003160933 -0.0009000916 -0.050004918 -0.0054345187 -0.05457669
0.05262465 -0.00514075

features.2.weight f4 [24, 234]
00000000: 28c5 a0bc 8e9e 61bd 6ef0 7ebd 65a8 80bb
00000010: 928d 46bd 8730 08bd 4913 87bc ff0e 29bd
00000020: a4f2 a0bc f08f 213c 89a0 33bd a0f1 6abd
00000030: ef61 bdbc fbea 4fbd e6b7 df3c ee68 353d
00000040: 74af 583d 6d04 b53c 1da1 56bd 61d9 8f3c
00000050: 0851 083d 787c 7b3d 25cc a53c 9f4c e7bc
00000060: 096b 7ebd acaa 783c 2b4a b6bc acd6 cfbc
00000070: bb62 2d3c c3d7 073d cc9a 3abd c6fa 833d
00000080: 5b01 e0bc cd46 3e3d 3f94 803b bf0b e93b
00000090: 9563 133d c203 8f3d 48da 0d3b 4a6f 193d
000000a0: efbb 243d fe94 263d a5dd ae3c db50 4ebc
000000b0: 6415 4cbc 5393 fbbc 45c2 59bc 401b 913d
000000c0: 3359 02ba cc4d 3abd c759 64bd 3215 9ebc
000000d0: 376e 263d 0954 82bd 3a2e 62bd 5388 4a3d
000000e0: 1e12 1ebd d786 22bd 5c75 7b3d 7250 3f3d
000000f0: 4026 f8bc 3309 f93c 23a3 64bd 8d57 1a3d
00000100: e10f 953d e2f8 24bc d452 93bc 7006 363d
00000110: cdd5 20bd 6c96 a93c bdeb 0bbd 2a4e 97bd
00000120: 87f3 583d d6f5 423b f414 85bd 8e21 a3ba
00000130: 6978 89bc 6f08 2bbd 5df0 5fbc 20d4 07bc
00000140: e4b3 c2bc feed de3c bb12 41bd c823 d53c
00000150: 9113 3b3d c6c2 8cbd 6f1f 613c 9d61 3c3d
00000160: 03e6 0fbc 4e73 09bc 02ef b2bc 835e 2a3c
00000170: e747 32bd b51c 463d 20bf 11bc 0f91 08bc
00000180: 845c 1ebd 5d4f cebc 321e 2ebd 1518 9abd
00000190: 90bb e2bc 98fa 833d 9435 8d3c 102c fdbc
000001a0: 8a5c 01bd 7caa 6abd 6823 5b3d 9a30 ad3d
000001b0: 199f c9bc 0a7c 84bd 8648 2c3d 517d b23c
000001c0: 22cf 803a f938 9cbd bb75 873c d99c 31bd
000001d0: 4247 99bc 451a 01bc 0ced a03b 4073 2fbc
000001e0: 1651 a63b bb71 b7bc 35e7 63bc a2ab bfbc
000001f0: e536 a83d d558 d33c 07e7 733d be79 14bd
00000200: efd9 96bc a15a 84bd 648c 2f3d 847b 823d
00000210: f7bc 083d c4bb 3c3d 47d5 703d b992 883c
00000220: 40c9 07bd 3785 803d 6460 f93c 06c5 6f3b
00000230: 2e95 293d c139 cebc ed3c d03c b16c 093d
00000240: c55d 52bd 0179 a8bc 404b ecbc 382d 123d
00000250: ea20 45bd 28a0 81bd 148f 86bd 8dae b7bc
00000260: ade5 0cbd 2171 5bbc b99a 70bd f4a5 74bb
00000270: b318 44bd 2986 0f3d 76af 853b 4c80 4dbd
00000280: b0e8 12bb c30c 34bd 7dad 9ebd bc5b 803d
00000290: 758c 90bd a448 9c3a 6aa1 fa3c 9412 7f3d
000002a0: 2b3a 81bd 4f57 f33a 16ac cbbc cc28 dcbc
000002b0: d94c 233d 4d90 63bd 1b61 2e39 5382 06bd
000002c0: 08a8 1b3a b40c 6ebc 0f81 f63b 538d a3bc
000002d0: a2ed a2bb 6a23 16bd af3d a3bd d76b 083d
000002e0: 5d9f 503c 3280 80bd 16b2 53bd 0135 a6bb
000002f0: 0929 c53c 24c7 34bd 4631 193d 4c38 2a3c
00000300: 7a0d edbc 239d c33c c8b5 b93c 0c02 573c
00000310: b494 b33b 3614 c73c b5f6 4fbd 0627 6ebd
00000320: c1c2 0d3c 9d8e fbbc cab3 2c3a 6009 11bd
00000330: b8df 54bd 32f1 003d 48cd 7cbd 16ee 76bb
00000340: afc9 2a3c 8be3 163d 637c cabc fa05 253d
00000350: 0e5b 2fbd 10c6 eb3c 6acc 363d 7656 043d
00000360: e2f3 b1bc 9ce4 053c 81ec e3bc 3ce6 5d3c
00000370: b2e0 74bc 5c88 04bd 1af9 08bd 78d6 873c
00000380: 3c36 203d 98ae 7d3d 770b a2bd f69d 56bd
00000390: 233f 553d 51f2 9d3d ab86 12bc 7751 433c
000003a0: cd40 813d f875 5abd d6ca 273d 0f88 84ba
000003b0: a10e 283d d651 f13c 3474 643d e9f3 e73c
000003c0: 2b70 683d 3a1c debc 5e65 18bd 1c2b 48bd
000003d0: 1f9a 783d e3a1 2f3d 8fb7 343d 5350 e13c
000003e0: bb81 20bd a02e a03d e0d4 a8bc 7ad3 14bd
000003f0: fc77 0ebd 9b2f 063c 44f5 793d a268 34bc
-0.019625261 -0.05508285 -0.06224101 -0.003926324 -0.048474856 -0.033249404 -0.016488688 -0.041274067
-0.01964695 0.0098609775 -0.04385427 -0.057359338 -0.023117987 -0.050761204 0.02730937 0.044289522
0.0529017 0.022096837 -0.052399743 0.017559709 0.033280402 0.061398 0.020238945 -0.028234778
-0.062113795 0.01517741 -0.022252163 -0.025370918 0.010582621 0.03316475 -0.045557782 0.064443156
-0.027344396 0.04645424 0.0039239223 0.007111996 0.03598364 0.069831386 0.0021644998 0.03745965
0.04021829 0.040669434 0.021345923 -0.01259252 -0.012456272 -0.030709898 -0.013290946 0.07085276
-0.0004972398 -0.04548435 -0.05574968 -0.019297216 0.040632453 -0.06363685 -0.055219866 0.049446415
-0.038591497 -0.039679375 0.06139122 0.046707578 -0.030291677 0.030399894 -0.05581964 0.03768115
0.07278419 -0.010069104 -0.017983831 0.044439733 -0.039266396 0.02070161 -0.034160364 -0.073879555
0.05296662 0.002974858 -0.06498137 -0.0012445913 -0.016781049 -0.04175609 -0.013668147 -0.008290321
-0.02376742 0.027213093 -0.047137003 0.026018038 0.045672957 -0.068730876 0.0137404045 0.04599153
-0.008782866 -0.008389307 -0.021842483 0.01039851 -0.043525603 0.04836722 -0.008895665 -0.008335366
-0.03866245 -0.025184328 -0.042509265 -0.075241245 -0.027677327 0.06444281 0.017237462 -0.0309048
-0.031582393 -0.057291493 0.053500563 0.08456536 -0.024611996 -0.06468971 0.04206135 0.021788271
0.0009827355 -0.07628054 0.01653563 -0.043362472 -0.018710736 -0.007879798 0.0049110707 -0.01070863
0.005075584 -0.022393098 -0.0139101045 -0.02339727 0.08213595 0.025799194 0.059546497 -0.036248915
-0.018414466 -0.064625986 0.042858496 0.06371215 0.033383336 0.046077505 0.058797147 0.016671525
-0.03315091 0.06275409 0.03044147 0.003658594 0.041402034 -0.025174024 0.025419677 0.03355092
-0.051358957 -0.020565512 -0.028844476 0.035687655 -0.048127092 -0.063293755 -0.06570259 -0.0224221
-0.034398723 -0.013393671 -0.058741305 -0.003733036 -0.047875118 0.035040054 0.0040797545 -0.05017118
-0.0022416525 -0.043957483 -0.07747934 0.06267497 -0.0705804 0.0011923504 0.030594546 0.062273577
-0.06309923 0.0018565449 -0.02486233 -0.026874922 0.03986821 -0.055557538 0.00016630108 -0.03283913
0.00059378194 -0.014529396 0.007522709 -0.01996485 -0.0049721757 -0.036654867 -0.079707496 0.03330597
0.012733308 -0.06274451 -0.051683508 -0.0050722365 0.024067419 -0.044135228 0.037400506 0.010389399
-0.02893709 0.02387864 0.022669688 0.013123047 0.0054803733 0.02430163 -0.050772388 -0.058142684
0.00865239 -0.030707652 0.000658807 -0.03540933 -0.051971167 0.03148002 -0.06171921 -0.0037678531
0.010424062 0.036838096 -0.024717515 0.040288903 -0.042811446 0.028780967 0.04462854 0.032309018
-0.021722738 0.0081721805 -0.027822735 0.013543662 -0.01494615 -0.032356605 -0.033440687 0.016581759
0.039114222 0.061934084 -0.07912343 -0.052396737 0.052062165 0.07712234 -0.00894324 0.011921278
0.06311188 -0.05333516 0.040964924 -0.0010111349 0.041029576 0.029457968 0.055774882 0.028314548
0.056747597 -0.027113069 -0.037206046 -0.048869237 0.060693856 0.042878997 0.044120368 0.027504122
-0.03918622 0.07821393 -0.02060932 -0.036334492 -0.034782395 0.008190061 0.06102492 -0.0110112745

features.2.bias f4 [24]
00000000: a5c3 b1bc e76c 30bd 973b 93bd 325b 0dbd
00000010: 9657 62bd 3df2 9cbd 5e69 433c 8818 93bd
00000020: aa87 96bd 581c bf3c 3a58 9f3c 8b9b 6dbc
00000030: d35f d73b 7477 6bbc dcbb cebc e1d4 f73b
00000040: 902d 8ebd 3741 9cbc 9513 71bc e735 ffbc
00000050: 4d77 15bd 23c6 01bd 4be7 be3c 2e7f 86bb
-0.021699736 -0.043072607 -0.071891 -0.0345108 -0.05525931 -0.07663391 0.011926977 -0.07182413
-0.073500946 0.023328945 0.01945125 -0.014502416 0.0065727024 -0.014371742 -0.025236063 0.007563219
-0.06942284 -0.019074066 -0.014714141 -0.031153632 -0.036490727 -0.0316831 0.023303648 -0.0041045165
