N/Treinamento/LSTM/LSTM_2_DENSO_1/conf_2/modelo_seed_38_loss_0.003706.pt (torch, 553045 bytes, 10 tensors)

lstm1.weight_ih_l0 f4 [424, 53]
00000000: 57e2 4b40 6193 f03f 8cc0 b13f 5b99 623f
00000010: 7500 4c3f c1ce f03e a185 323f a074 1d3f
00000020: 4a9d 323e e0b5 853d ad93 363f 4855 da3f
00000030: fb70 1340 4737 1440 deff 973f e971 b13f
00000040: 84e1 3f3f 9f59 b83e 35ed 41be a673 ed3e
00000050: 66dd ef3e b2f0 ae3f 7e66 8d3f 7896 933f
00000060: 3b38 213f 1c03 c0bd f6e6 4cbf d540 cbbe
00000070: 9fab 1ebe 4787 7bbe 1388 d5bc 13ce bb3d
00000080: a659 75bd 9bce 10be 2483 acbd 6d82 413f
00000090: de8d db3e fe10 ea3f 73bc 5c3f 2c20 363f
000000a0: cefd 333f 9c34 233e 51e9 053f 3abe c53e
000000b0: fabb 843e 7f8d ff3d c2a6 883f 04b3 ac3f
000000c0: a8fb 12be 90a9 af3f 2c24 5d3f 50da 60be
000000d0: 7dd5 073e 79ce 17be 67b3 943d 214b 3c3e
000000e0: 5a17 7f3e 1984 973e 0e92 193e bc0c 453e
000000f0: fa74 8d3d 2594 28bd 6832 39bd fc6a 38bd
00000100: 666e 9bbd 643a 2d3d e7c5 a2bd 3132 ca3c
00000110: b6a4 1f3e 266c 5a3e 8b12 d43d 6aa4 7c3c
00000120: d8d5 d93a 4690 3b3c 996a 043d d180 53be
00000130: 8e39 86be 2b82 b6be 3d95 a5be e931 08be
00000140: 11f7 cc3b be59 df3b d88a b5bb 1c0a 013d
00000150: ceae 063e aead 65bc a2b2 103e b319 cb3d
00000160: f77a ee3d e25d 5f3e 6c8b 80bd dc04 a53d
00000170: ad30 0dbe d2a8 2c3e f702 003e e511 0bbe
00000180: 4bc3 e0bd 9cb2 8f3c b350 703e b1e2 6b3d
00000190: 6ced 4abe b215 6b3e 80f4 eabe 9ba5 31bf
000001a0: 58a9 99be 2ba4 b83f 21f3 db3e 78e3 cf3d
000001b0: eafa 073d eee2 803e 033b a73e eb1c d33e
000001c0: be65 ca3e 94e6 fd3e 3761 d63e 0404 483d
000001d0: 1142 163e 527b 883e 59aa 9b3e 4390 ce3e
000001e0: 599a 98bc c200 f4be 2499 b5be c7dc 6dbe
000001f0: 1dea 933e 3eb8 cd3e 49e2 233e d1d2 583e
00000200: 259f a4bd 3b89 03be 853e 60be 484f 60ba
00000210: 9245 f2bd a6f4 8ebd abd2 a43d bf95 e6bc
00000220: ada6 273e 15e9 913e a9d1 9e3e 5fec d13d
00000230: 397a ae3e 0a86 f43e 154e aa3e c4ac 183f
00000240: bff2 173e 44d2 25be e964 11bc 81b9 b13e
00000250: ab36 1f3f 262d 9a3e 45cc 523e 6910 eb3d
00000260: 2ab3 363e 4647 a23e cac1 033f 7bcf 7a3f
00000270: 4b7b 503e cf47 703e dc06 b33e e8db 26bf
00000280: 09fb d1bc bc77 afbd 59ce 6b3e 5ed9 e03e
00000290: 3748 543e ee24 e63e 24ec 0b3f 3721 ad3e
000002a0: e884 e43d 7132 883d 2af2 ed3d e610 a43c
000002b0: b9f8 7b3d 80c4 1cbd a18b a1be 4e90 203d
000002c0: 7271 bd3e d8b1 223f aa50 1c3f 956f 063f
000002d0: c3ec fb3e 62e1 603e 202c 8e3e a3b3 cdbe
000002e0: 86ca 19bd 1e90 ccbe f2bb 90be 7a46 32be
000002f0: e423 a0be 0804 2e3e 0bfe 8e3e 9783 903e
00000300: fac4 a63d d3db b03e c755 203f 22d1 023f
00000310: 55ea f83e b382 8ebd ec6c 0ebf 46e1 dfbd
00000320: c8ca 223e 18bb 283f 35ba c23e e437 cf3d
00000330: 6cd5 353b a866 c7be c4d5 f3be 3c75 ef3c
00000340: ef26 65be cf1b 09bf 3413 143f 9078 083f
00000350: e4df 79bf 2d26 d6be c472 85be 98ad 66be
00000360: 290f aebd d4f5 d7ba 103b 883e b971 e83e
00000370: 9617 823e b727 a23c cbef acbd ee1a f83d
00000380: 18fd ddbd 6c51 3fbe f7cf 9fbe 5eaf 54be
00000390: 110d 7d3e 273f 1e3f 1c7a 113f 0b38 b73e
000003a0: 660f b23e 2212 993e 54fe 833e 035d 363e
000003b0: 4ee0 623e 1f94 893e dbed 853e cf5c 5e3e
000003c0: b6ca b63e e22e 953e 3b7c 083f a0d2 233f
000003d0: 9753 033f b2d3 d33d d2ab d2bd 73ee 1e3d
000003e0: f3d5 8c3e 6db6 303e 36a4 e53d 4579 853e
000003f0: 6e84 b93d ad12 06bc a951 813e 0762 e93e
3.1856897 1.8794976 1.3886886 0.8851525 0.796882 0.4703274 0.6973515 0.6150608
0.17442814 0.065288305 0.71319085 1.7057276 2.3037708 2.3158739 1.187496 1.3862888
0.74953485 0.36005875 -0.18938144 0.46377295 0.468486 1.3667204 1.1046903 1.1530294
0.62976426 -0.09375593 -0.8003992 -0.396979 -0.15495156 -0.24563323 -0.026065862 0.09170165
-0.05989995 -0.14141314 -0.084234506 0.7558964 0.42881674 1.8286436 0.8622505 0.7114284
0.7030915 0.15938038 0.5230914 0.38621694 0.25924665 0.1247816 1.067589 1.3492131
-0.14353812 1.3723621 0.8638332 -0.2195828 0.13265033 -0.14824857 0.07260781 0.18388034
0.24911252 0.2959297 0.14997122 0.19243139 0.06907077 -0.041156907 -0.045214087 -0.045023903
-0.07589416 0.042292014 -0.07947903 0.024682136 0.15590176 0.21330318 0.10355099 0.015420059
0.0016619517 0.011447972 0.032328222 -0.20654608 -0.26215786 -0.35646185 -0.32340422 -0.13300289
0.0062550385 0.006816118 -0.005540233 0.03150378 0.1315262 -0.014018459 0.14130643 0.09917011
0.116445474 0.21813157 -0.062765926 0.080575675 -0.137881 0.16861275 0.12501131 -0.13581045
-0.10974749 0.017541222 0.23468284 0.057589237 -0.19817132 0.22957495 -0.45889664 -0.6939332
-0.30012012 1.44251 0.4295893 0.10150808 0.033198275 0.25173134 0.3266221 0.41233
0.39530748 0.4958998 0.41871044 0.048831955 0.1467364 0.26656586 0.30403402 0.40344438
-0.018628286 -0.47656828 -0.354684 -0.23228751 0.28889552 0.40179628 0.1600429 0.2117417
-0.08038167 -0.12845318 -0.2189885 -0.00085567357 -0.11829676 -0.06980257 0.08047994 -0.028147576
0.16372176 0.2849814 0.31019333 0.10250162 0.34077623 0.47758514 0.33262697 0.5963862
0.14838694 -0.16193491 -0.0088741565 0.3471184 0.6219279 0.3011257 0.20585735 0.11477739
0.17841783 0.31695002 0.51467574 0.9797284 0.20359533 0.23464893 0.3496617 -0.651793
-0.025632398 -0.085677594 0.23027934 0.43915838 0.20730673 0.4495005 0.54657197 0.33814403
0.11158162 0.06650246 0.11618455 0.020027589 0.061516497 -0.038273335 -0.3155184 0.03920012
0.37000614 0.6355262 0.61060584 0.5251401 0.49204072 0.21960977 0.2776804 -0.40176114
-0.037546657 -0.39953703 -0.2826839 -0.17409697 -0.31277382 0.16993725 0.27928194 0.28225395
0.08143039 0.34542713 0.62630886 0.5110036 0.4861628 -0.06958523 -0.5563495 -0.109316394
0.15897667 0.6591048 0.3803269 0.10118082 0.0027745618 -0.38945508 -0.47624028 0.029230706
-0.22378133 -0.5355806 0.578418 0.53308964 -0.97607255 -0.41826 -0.26064122 -0.22527158
-0.08498985 -0.0016476461 0.2660756 0.45399264 0.2540862 0.019794328 -0.084441744 0.121145114
-0.108392894 -0.18683404 -0.31213352 -0.20770022 0.24712016 0.6181511 0.5682695 0.35784945
0.34777373 0.29896647 0.25779974 0.17808919 0.22155878 0.2687082 0.26158032 0.21715091
0.3570153 0.2913733 0.5331456 0.63993263 0.5129942 0.10343112 -0.102866784 0.03880162
0.2750698 0.1725709 0.112129614 0.26069084 0.09058462 -0.008183164 0.25257614 0.455826

lstm1.weight_hh_l0 f4 [424, 106]
00000000: 8b63 a03d 45d8 243d d45f 463c a49c a03c
00000010: 336d bc3d 74b8 c9bc 570f 5d3d 18aa 443d
00000020: a28a 973d ef3e 0fbd bb1a ad3d 2708 c2bd
00000030: 0ffe febc 347a 14bc 902a 92bd f1df b8bc
00000040: 2640 ae3d fade acbd 4046 adbd 3bdc a8bd
00000050: 452b 703d 5676 803d 2a16 c5bd 5c62 bc3c
00000060: ceff b6bd dd7f b33d 6110 7dbd 41cb 96bd
00000070: 5a68 b6bd 3bb3 5b3d 0951 a13c d2a4 35bd
00000080: 40bb eebc b616 c2ba 9dc9 f4bc 4685 a2bd
00000090: bae9 53bd 7f64 283d 0f4f 883d dd3c a43d
000000a0: d2c4 6b3d 1e2a a53d ae84 28bd 80a2 aa3d
000000b0: b192 0bbb 0215 b4bd d264 ed3c 74d9 37bd
000000c0: 7210 2c3d f72f 5f3d 71a1 1bbd 8c6f 61bd
000000d0: b5c3 983c 96a5 8f3d 8169 483c 654e bfbd
000000e0: 4485 acbd 76d0 67bd 9a6f c53c f360 b2bd
000000f0: 6767 b0bd 31c0 3b3d 7148 1e3c ec40 0b3d
00000100: 6de0 813d 906f 5c3d fc1b ad3d 6e8c 84bc
00000110: aaa9 bc3d 53e2 aa3c e002 a63d 1323 0abd
00000120: aa92 963d 5184 1d3d 8d50 c13d 6010 b93d
00000130: 03db 223d 6781 3ebd 3435 a5bd 3b14 92bc
00000140: ec70 4fbd 51e8 63bc d472 8cbd cc98 e43c
00000150: a055 2a3d 989e d8bb 295d 9438 d152 143c
00000160: 793a 383d e56c b0bd 7785 3f3d 6d39 323d
00000170: 712a 46bd 01a3 48bd f4c0 4f3d edf5 15bc
00000180: ee91 e83c 60dc 313d 5e78 b63c deb7 57bd
00000190: 6ddc bcbc 27bf 9dbb a245 31bd 0604 8d3d
000001a0: 034f 96bd 5716 e9bc 1b96 fa3c 5d3d ba3d
000001b0: 30b8 d83c 4b58 473d 68ea bd3d eb67 a63b
000001c0: 0969 433d 8603 b3bc 0b21 c1bd ff9a db3b
000001d0: 7e94 acbc 47b1 7e3d afd6 043d bd7f c6bd
000001e0: 74b1 7b3c 6df2 b8bd 6899 a7bd 423c 6dbd
000001f0: bc89 56bd 539d 9c3d d8b7 403d 6812 9bbd
00000200: e345 ba3c 9afd ab3c 4147 a23b b308 903d
00000210: 8e65 fc3c 5b80 b73d af5f a2bd 3466 0c3d
00000220: ef9a b83d cae1 a63c da81 6f3d 1bbc 823d
00000230: 48d3 81bd d866 923d b0e3 373d 47ee bc3d
00000240: 2ba5 a2bd dbe0 09bd 1159 6b3d 3cb4 553d
00000250: 758d 45bd f569 c1bd 12a7 483d 40bf 2a3d
00000260: 68d8 783c 2f44 3fbd 47a3 163d 4480 1cbd
00000270: 7ee7 a93d 2767 28bd f079 bf3d 4ff1 0dbd
00000280: 435e b3bd 558d 723b 76c5 13bd a314 923d
00000290: 48b3 b03c 483e 17bd d2bb 9e3d 5405 a9bb
000002a0: 8096 80bd 407a 1dbd b81b cabb d226 cbbb
000002b0: 9b2f adbb 79c8 3dbd dd9b b33d 2559 8cbd
000002c0: 9f72 973a 4bea 42bd d0fd 9bbc 58e4 91bc
000002d0: 5054 dfbc 73fa 1b3d 2c4e 9a3d f1bd a03d
000002e0: e4d3 db3c ea95 ae3c d14e 773d 523d 88bd
000002f0: 690e 723d 9ddf e93a 3047 313d 554c 74bd
00000300: c787 1d3d 8228 b83d 0ea2 273d 4e79 94bc
00000310: d53c 373c 2d3b 6b3d bad1 983d a793 8d3c
00000320: 662e 3bbd 2694 883d 0dd5 c0bd a860 10bd
00000330: f05b d43b 80e7 23bd 0165 933d ce9c 81bd
00000340: 7bc2 d0ba d74c 0c3c bc47 663d 4b82 85bd
00000350: 0028 b63d 99b8 bf3d aae2 80bd 5b1d 3d3d
00000360: 47dc 87bd 1600 173d 609a 60bb 73c5 d13c
00000370: ea7e 49bd 99f0 133d 21b0 1e3d 2bd6 573d
00000380: c9b7 ab3d 003d aabd b8f3 963d f389 05bd
00000390: 4178 70bd a7e2 9e3d 26e3 76bd 461e 023d
000003a0: 6692 623d 69be afbd 0898 8dbd 297c 8cbd
000003b0: 6484 7ebd 1a29 efbb 1bb8 95ba a148 e93c
000003c0: 33fd a53c 3b47 a33d d2bf 00bd def3 c3bd
000003d0: e7dd 9b3c 0491 5bbd 7038 113d 6134 3cbd
000003e0: 5f72 b03d 330c 7dbd d35a 883c dbab 84bd
000003f0: dda6 113d 9e9e c0bd bb11 abbd 13de 903d
0.07831486 0.040245313 0.012107808 0.019605942 0.092005156 -0.024624087 0.053969707 0.048013777
0.07399489 -0.034972128 0.08452364 -0.09474211 -0.031127004 -0.009062339 -0.071370244 -0.022567721
0.08508329 -0.08440967 -0.08460665 -0.08245131 0.058635015 0.06272571 -0.09623368 0.02299612
-0.089355096 0.08764622 -0.0617832 -0.07362986 -0.08906622 0.053637724 0.01969196 -0.044346638
-0.029142022 -0.0014807794 -0.029881293 -0.07935576 -0.05173657 0.041111466 0.06655704 0.08019421
0.05756075 0.08064674 -0.04114216 0.08331776 -0.0021297152 -0.087930694 0.028978739 -0.044885114
0.04200787 0.054489102 -0.03799576 -0.05503802 0.018648008 0.07014005 0.012232185 -0.093411244
-0.08423856 -0.05659529 0.024101067 -0.08709898 -0.086134724 0.045837585 0.009660826 0.03399746
0.06341634 0.05381733 0.08452603 -0.016180243 0.09212048 0.020859873 0.08106017 -0.033724856
0.07352193 0.038456265 0.09439192 0.090363264 0.039759647 -0.046510126 -0.08066788 -0.017831912
-0.0506448 -0.013910369 -0.06857839 0.02790489 0.041585565 -0.0066107027 7.0745424e-05 0.009052948
0.04497764 -0.0861452 0.04675814 0.043511797 -0.04838032 -0.048983578 0.050721124 -0.009152872
0.028389897 0.043423057 0.022274192 -0.052665584 -0.023054326 -0.004814047 -0.043279298 0.06885533
-0.07339289 -0.028453035 0.030589154 0.09093735 0.026455015 0.048668187 0.09273225 0.005078306
0.04770759 -0.021852266 -0.094301306 0.0067018266 -0.0210669 0.062180784 0.0324313 -0.09692333
0.015362132 -0.09030614 -0.08183557 -0.057918794 -0.052377447 0.07647195 0.047050327 -0.0757187
0.022738403 0.02099495 0.004952342 0.07032909 0.030810144 0.08960029 -0.079284064 0.034277156
0.09013926 0.020371336 0.058473445 0.063835345 -0.06339127 0.07148522 0.044894874 0.09225135
-0.079416595 -0.033661705 0.057457987 0.052173838 -0.048230607 -0.09444038 0.048987456 0.041686296
0.015188314 -0.046695884 0.036776807 -0.03820826 0.08296107 -0.041114 0.093494296 -0.034653958
-0.08758213 0.003701051 -0.036076985 0.071328424 0.021569863 -0.03692463 0.07750668 -0.005158106
-0.062787056 -0.038446665 -0.006167855 -0.006199696 -0.005285216 -0.046333764 0.08769963 -0.068529405
0.0011554545 -0.04758672 -0.019041926 -0.017809078 -0.027261883 0.038080644 0.07534441 0.078487284
0.026834436 0.021311719 0.0603779 -0.06652321 0.059095774 0.0017843131 0.04328078 -0.05964311
0.038459565 0.08992101 0.04092603 -0.018124249 0.011183937 0.05742948 0.07461877 0.01728232
-0.045698546 0.06668882 -0.09415636 -0.03524843 0.0064806864 -0.040015697 0.07196999 -0.06328736
-0.00159271 0.008563242 0.056220755 -0.06518992 0.08894348 0.09361381 -0.06293233 0.046170574
-0.066338114 0.036865316 -0.0034271702 0.025606846 -0.0491933 0.036118124 0.03874219 0.05269448
0.083846636 -0.08312416 0.073707044 -0.03260226 -0.058708433 0.07758074 -0.06027522 0.031767152
0.055315398 -0.0858124 -0.06913763 -0.06859619 -0.062137976 -0.007298601 -0.0011422666 0.028477015
0.020262336 0.079725705 -0.031432934 -0.09567998 0.01902671 -0.053605095 0.035454214 -0.04594839
0.086155646 -0.061779212 0.01664487 -0.06478091 0.035559524 -0.09405254 -0.08352991 0.07073607

lstm1.bias_ih_l0 f4 [424]
00000000: 09b2 a43e b02b 92be 49ec d0bd c6b8 0d3d
00000010: 0bf0 1a3e 15af 95be f201 9dbe 1939 a5be
00000020: adab 683e 3aaf 60be 48ef b5be de2f 843e
00000030: 7967 503e c219 c73e 1b9b 7dbe 66d6 90be
00000040: 900e 31be 8d0b 09be af54 24be aa7a d6be
00000050: c4e8 89be 7a4a 2ebe 2020 8abe 9ab4 aabe
00000060: e40d acbe e0af 5abc c2d3 eabe 474c 3bbe
00000070: d818 c93d 5515 4abe 7fb8 a2be b5db 9fbe
00000080: dc1b aabd 7e20 8abe fc7c 84be 55da 30be
00000090: 71cf ccbe f91b f2bd f2e8 593f 191d c4be
000000a0: 2306 b1bd 6dc8 b5be 7917 24be b85d cfbe
000000b0: cfe0 8fbe d800 9bbe a829 91bd 9baf e1be
000000c0: fbbd 5cbe 426c 48be 7941 81bd 4922 02be
000000d0: 8f2b 99be b463 55be 2792 ccbe 06cc 22bb
000000e0: 4f1e 1dbe a1db 86be 88eb 573e d9cd 5abe
000000f0: 3e5c 6ebe f7a7 40be 8573 bd3c 78de eabe
00000100: e0f9 6f3d 353e 58be f212 d6be 49f4 8bbe
00000110: bd5c 94be 4723 d2be 1a24 4d3e 716e 073f
00000120: 9eab cbbe 199a 5b3e 5d12 afbd 3eba 46be
00000130: 2b01 b8be 42ed 87be 1b30 a8be c2b6 23be
00000140: 335f a0be 4e32 a6be 3d57 2abe 4527 3fbe
00000150: 5b24 a6be ac7d 84be 3524 c2bd f851 6abe
00000160: 7ca9 72be 962d c7be 8c18 90be 4b4f 88be
00000170: d56e bebe b0d2 8f3c e20f b6be 4ef8 97be
00000180: 10f7 843d 9406 a5bc 2675 f6be a3ba b4bd
00000190: f262 533f eaa4 45be 6e7b bfbe 2c1d c4be
000001a0: 21b3 a93d eb83 51be bdff bcbd ef19 41bd
000001b0: 8607 a93d 7056 c2bd ab24 6dbb 7aed a93d
000001c0: a67f 953d 9d42 d83c fdc1 a93d 67f4 be3d
000001d0: fc22 d2bc 4f35 a73d 9f4e ad3d 849a 4d3d
000001e0: b5d1 b6bd ab6e fabc 4982 723d 6d3f d73c
000001f0: 7b03 13bd 97bb a83d ee56 ac3d a6e6 143d
00000200: 492b 6d3d d7c4 bdbd ecce 9b3b 444c a6bd
00000210: 7091 95bd c4bf 9b3d c7e4 02bd d941 973d
00000220: 39fe 4c3d 7ae1 d63c 0d45 2c3d af96 5ebd
00000230: 6621 553a 0dab 73bd 95e1 8dbd 4017 8b3d
00000240: 9382 793d 733e e53b 5c18 9dbc e500 d6bb
00000250: 4327 79bd c4d5 8bbd 1567 ac3d 46ad 9e3d
00000260: 5f79 773d f689 bcbc ff3a b03d f5cf be3c
00000270: a8a7 a43d 3b90 91bd 6a08 99bd 0b81 8fbb
00000280: 9407 7abd 51d7 82bd 7115 033d 9061 32bd
00000290: ccb6 1d3c 7d0e c0bc 1b6e 463d 1bbd 63bd
000002a0: 6f3a c23d 3e42 4e3d d5e4 abbd 185c 9e3d
000002b0: 9d62 66bc 8779 18bd 9932 0fbd 0652 7039
000002c0: fca3 4f3d c0d9 96bd 1594 a93c 2195 723d
000002d0: 858f 8dbd 23b8 16ba 0f1d 843d 6b04 a0bc
000002e0: 9e15 ac3c ba8a a43d d1e4 7e3d 178e 2f3d
000002f0: bd3e b53c d39b 823d 23da 723d 1fa3 1f3d
00000300: 9502 563d 7c95 64bd 5365 a2bd af19 f33c
00000310: 3c37 713d 3aa0 a7bd 314f 1a3d a74f 883d
00000320: 7e79 30bd 209d b2bc 870e 423d d38c 533d
00000330: 3d73 873d 6676 c03d 3ce9 8b3c 44bc 96bc
00000340: 14fd bbbc 8bfc c33d 2eb8 8f3d 5be7 b13d
00000350: 7883 50be 8a88 ef3d 5be0 f0bd 4c34 dfbc
00000360: 8ddc d2bd 7ae2 6fbe 318b 4ebd 7d2a 46be
00000370: 02e1 013e 2a67 6b3d 0dc0 d1be 6a3c 77bc
00000380: 0021 fe3d c6fc 41be 2e03 40bc 9472 5a3e
00000390: 9842 1ebe da87 f3bc e9c4 5cbc ac61 0e3e
000003a0: dac5 d8bc b6fd 45bd 00d5 7d3e 9aba a03e
000003b0: 1969 3e3e e925 8fbe 4307 8bbe 2d8f cfbd
000003c0: 860f 383e fadc 9abe d31a 0b3e 5b0d f6bd
000003d0: 73bb 623d 8819 5c3e b06e 3dbe 43f8 863e
000003e0: 3aed 9bbe 3c7f 583e 95bd 403d 1f09 6c3e
000003f0: b4fa 7d3e 09d8 6abe 6776 8dbd e83f d53d
0.3216708 -0.28548956 -0.10201318 0.03460004 0.15130632 -0.2923514 -0.30665547 -0.32270125
0.22721739 -0.21941844 -0.3553412 0.2581777 0.20351972 0.3888684 -0.247662 -0.28288573
-0.17290711 -0.13383313 -0.16047929 -0.4189046 -0.269354 -0.17020598 -0.26977634 -0.33340913
-0.33604348 -0.013347596 -0.45864683 -0.18290816 0.09819192 -0.197347 -0.31781384 -0.3122231
-0.08306095 -0.26977915 -0.25876606 -0.17270787 -0.40002015 -0.118217416 0.8512107 -0.3830345
-0.086437486 -0.35504475 -0.16024579 -0.4050119 -0.28101203 -0.3027408 -0.070880234 -0.4407929
-0.21556847 -0.19572547 -0.06311316 -0.12708391 -0.29916045 -0.20838815 -0.39955255 -0.0024840846
-0.15343593 -0.2633944 0.21085942 -0.21367587 -0.23277375 -0.18814074 0.023126373 -0.45872855
0.05858791 -0.2111748 -0.4181133 -0.27334812 -0.28977004 -0.4104254 0.20033303 0.52902895
-0.3977937 0.21445502 -0.085484244 -0.19406983 -0.3593839 -0.265482 -0.32849202 -0.15987685
-0.3132263 -0.32460254 -0.16634841 -0.18667324 -0.32449612 -0.2587713 -0.09479562 -0.22882831
-0.23697466 -0.38901967 -0.28143728 -0.26622996 -0.37193933 0.017556518 -0.35558993 -0.2968163
0.06492436 -0.020144738 -0.48136252 -0.08824661 0.82572854 -0.19301191 -0.37398857 -0.38303506
0.08286119 -0.20460479 -0.09228466 -0.047143873 0.08253388 -0.09489143 -0.0036185186 0.08297248
0.07299738 0.026398951 0.082889535 0.0932396 -0.025651447 0.08164465 0.084622614 0.050196186
-0.08926717 -0.030570349 0.05920628 0.026275361 -0.03589199 0.08238905 0.08415018 0.036352776
0.057902608 -0.0926606 0.0047548916 -0.08120015 -0.073031306 0.07604936 -0.03195646 0.07385606
0.050047133 0.026230562 0.04205804 -0.05434292 0.0008130282 -0.0594893 -0.06927792 0.06791544
0.06091554 0.00699597 -0.019176655 -0.0065308684 -0.06082846 -0.06827882 0.08418099 0.07747893
0.060418483 -0.023015004 0.086050026 0.023292521 0.080397904 -0.07107588 -0.07472308 -0.004379397
-0.061042383 -0.063887246 0.03200287 -0.043550074 0.009626102 -0.023444409 0.04844485 -0.055600267
0.094838016 0.050356142 -0.083932556 0.07732409 -0.014061597 -0.037225273 -0.034960363 0.0002291874
0.050693497 -0.07365751 0.020700494 0.05922425 -0.0691214 -0.00057494844 0.06450855 -0.019533357
0.021006402 0.080342725 0.062229935 0.042860117 0.022124643 0.06377377 0.059290063 0.038973924
0.052248556 -0.055806622 -0.07929482 0.029675333 0.058890566 -0.08184858 0.03767318 0.066558175
-0.043084614 -0.021803439 0.047377136 0.051647972 0.06613777 0.09397583 0.017078988 -0.018400319
-0.022947825 0.09569653 0.07017551 0.08686706 -0.20362651 0.11695965 -0.117615424 -0.027246617
-0.10295973 -0.23426238 -0.050425712 -0.19352145 0.1268349 0.05747143 -0.40966836 -0.015090087
0.12408638 -0.18944082 -0.011719508 0.2133277 -0.15455091 -0.029727865 -0.013474681 0.13904446
-0.02646153 -0.04833766 0.24788284 0.31392366 0.18594779 -0.2795861 -0.27153978 -0.101347305
0.17974672 -0.30246717 0.13584451 -0.12014266 0.055354547 0.21494114 -0.18499255 0.26361284
-0.30454427 0.21142286 0.0470558 0.23050354 0.24802667 -0.22933973 -0.06907349 0.1041258

lstm1.bias_hh_l0 f4 [424]
00000000: f1c8 973e 20ec 94be bafc 42be 8d31 8f3d
00000010: 8cea 913e e43f 92be cf96 73be aa58 e0be
00000020: c957 233e 5229 2fbe 8e09 79be dbaa 0c3e
00000030: d5b7 493e 6896 c93e 51bd a5be df07 9abe
00000040: 2aeb 2dbe 453c 88be df8c 25be fd36 98be
00000050: 2656 8fbe c253 80bd b015 7fbe c036 f7be
00000060: 63ae 99be 0ceb f83d 74b2 fcbe 35fb 5cbe
00000070: c3d9 67bc c0d2 6dbd 7b4c 3bbe 0711 95be
00000080: 0e26 9abd 5313 39be b980 93be 0322 febd
00000090: 6923 cfbe 4437 e23b 56f7 6a3f 7161 b5be
000000a0: b9fa 19be 7567 b6be 8c55 8fbe aaf6 c8be
000000b0: 9a18 c7be 68c6 aebe 4e78 b7bc 27b3 fcbe
000000c0: a98a 50be b92d 84bd d97b 34be 23cc 1bbe
000000d0: fd61 c8be e6dc 9abe a521 c5be 4068 8bbd
000000e0: ef34 6abe 3fc7 84be 7ebc 8e3e daa9 71be
000000f0: b460 87be 0bdf 20be edd2 08bd b6c1 f3be
00000100: 616a a2bc 0555 09be e2bf abbe 530c 38be
00000110: df7b 96be 6771 b5be c6ee 273e a9e5 df3e
00000120: c69e 89be c724 773e 0264 0dbe f504 82be
00000130: 3f90 c6be 419e 97be c79f a3be a124 a83c
00000140: 96d3 7ebe 963e e3be 0ea0 58bc 1f5f 3abe
00000150: c627 a4be a87e 8cbe 0c76 c1bc b526 eabd
00000160: 6f4e b0be 1eb9 b1be be5e abbe 83b3 40be
00000170: 5dd0 afbe 704e 063e 5a74 e0be 763b adbe
00000180: 8428 a23d e61c ebbd e005 b3be ba0a 42be
00000190: 9a08 4a3f d0cb 3cbe 26de 9fbe 8a0e e1be
000001a0: 369b d83d 89d7 9cbe eacf bd3d 1434 8e3d
000001b0: ba1d a33d 680f 3dbd 16e6 43bd 604b 093d
000001c0: ee80 bd3d 8680 323c d7df c03d 1601 8c3d
000001d0: 9fa9 ee3c 683a 993d 898a 16bc eb52 b9bc
000001e0: 3c2e 073c 6db8 a83d 2a3d 5abd adbd 04bd
000001f0: 40f1 a43d b376 a83d ef4a 363d e9a8 5b3d
00000200: ea57 43bd 3003 c33d fd46 ebbc 62a0 86bd
00000210: 3e9f acbd 1b56 9cbd ba05 a4bd 4ca5 803d
00000220: 8f62 a7bc f75f af3c 7f0a a5bd 8b0c 313d
00000230: 3103 13bb ef95 78bd f62a 7cbb ebb8 25bd
00000240: cd25 cbbc b608 35bb d381 383b 24ab 60bd
00000250: 0fa9 56bd 9ece babd 7df2 b83d a924 23bd
00000260: 6469 90bd 67c7 a13d 3505 c6bd 6f14 533d
00000270: d82e ba3c b976 5f3d a0b2 97bd 5ee8 19bd
00000280: 89e2 c1bd d8ca 893c 5028 bf3d 7ce6 3dbd
00000290: ea45 b63d e60f 54bd 4e2f 92bd a3bf cc3a
000002a0: 2ed1 4ebb 499b ffbc eae2 b23c 234c 343d
000002b0: a641 c7bc 6492 02bd 4408 ee3c 14c1 b3bd
000002c0: 1a25 51bd f7f3 9bbd 5b57 7dbd 14c1 48bd
000002d0: 7e18 14bd 4dfe 0bbd 541c 8bbd e7b4 193d
000002e0: f645 923c 68c7 8e3d 9f35 563d 338a 323d
000002f0: fb7f 4e3b c27b b2bd a756 d5bc 782b 28bd
00000300: f6aa b83c 26a2 febc d410 623d 549b 6ebd
00000310: dfb1 2a3d 14b4 bd3d 1ccb b13d e1ef cbbc
00000320: 175d cb3c da73 c5bc 224d 433b e7b7 d93c
00000330: 102e 853d 45a2 b63d 4f7b a1bc d9b3 33bd
00000340: 2948 c33d 17e5 c2bd 2335 443d b6cf 6d3c
00000350: f56a 2fbe 266c 863d fcfe 64be 8fd5 453d
00000360: 8edf 01be 4adb 80be 7f80 20be 6ac6 8ebe
00000370: a8d5 fd3c 019e 40bd 4c97 86be 7fb8 923d
00000380: 3e1c b33d 2ce0 a5bd 3f19 d6bb 5eec 963e
00000390: cbd5 03be cfee 383d e958 c6bb 114e 023e
000003a0: 968e c7bc ea4a c7bd 46b5 c73e 0a15 b53e
000003b0: 78f0 ac3e 936c 9bbe 18d6 86be 4f16 f5bd
000003c0: 0aed 403e c4fa 3fbe fe31 393e 7dda 54be
000003d0: 04c2 87bd 27b8 153e 22df 32be 09fc 673e
000003e0: ec63 9ebe 33ac 0c3e 9bb0 28bd 2149 953e
000003f0: c779 873e 31fe 73be 67e7 6fbd 43be d03c
0.29645494 -0.290864 -0.1904172 0.06991873 0.28499258 -0.2856437 -0.23787998 -0.43817645
0.15951456 -0.17105606 -0.24320051 0.13737051 0.19699033 0.39372563 -0.32371 -0.3008413
-0.16984239 -0.26608482 -0.1616702 -0.29729453 -0.27995414 -0.062659755 -0.24910617 -0.48283958
-0.3001586 0.12154207 -0.493549 -0.21580203 -0.0141510395 -0.058062315 -0.18290894 -0.29114553
-0.075267896 -0.18073778 -0.28809145 -0.12408831 -0.40456703 0.006903561 0.91783655 -0.35425904
-0.1503705 -0.35625806 -0.27994955 -0.3925069 -0.38885957 -0.34135747 -0.022396233 -0.49355432
-0.20365395 -0.064540334 -0.17625369 -0.1521459 -0.3913726 -0.30246657 -0.3850223 -0.068069935
-0.22871755 -0.25933263 0.27878183 -0.2359995 -0.26440966 -0.15710084 -0.03340428 -0.47608727
-0.019826116 -0.13411339 -0.33544832 -0.17973451 -0.2939138 -0.35438082 0.16399679 0.43729904
-0.26878947 0.24135123 -0.13807681 -0.25394407 -0.38781926 -0.29612926 -0.31957838 0.020525279
-0.24885401 -0.44383687 -0.013221754 -0.18200348 -0.32061595 -0.2744038 -0.02361586 -0.11433164
-0.3443484 -0.34711546 -0.3347072 -0.18818478 -0.34338656 0.13115859 -0.4383877 -0.33834428
0.07917884 -0.11480121 -0.3496542 -0.18949404 0.78919375 -0.18437123 -0.31224173 -0.43956405
0.10576479 -0.3063319 0.09268172 0.06943527 0.07964654 -0.04615727 -0.04782685 0.03351915
0.09253107 0.0108949 0.09417694 0.068361446 0.029133616 0.07481843 -0.009188303 -0.022622546
0.008250769 0.082383014 -0.053280987 -0.03240745 0.08053827 0.08225765 0.044505056 0.053627882
-0.047691263 0.09522092 -0.028720373 -0.06573559 -0.084288105 -0.07633611 -0.08008905 0.06281528
-0.020432739 0.021408064 -0.080586426 0.043224853 -0.0022432322 -0.060689863 -0.0038477755 -0.040459555
-0.024798298 -0.00276236 0.0028153553 -0.054850712 -0.05240732 -0.0912144 0.09030626 -0.039829884
-0.07051352 0.07899361 -0.09668962 0.05153316 0.022727415 0.054556582 -0.07407117 -0.03757512
-0.09467036 0.016820356 0.09333861 -0.046362385 0.08900054 -0.051772974 -0.07137929 0.0015621077
-0.0031557786 -0.031201975 0.021836717 0.044017922 -0.024323296 -0.03187789 0.029056676 -0.08777061
-0.051060773 -0.07614892 -0.061850887 -0.04901226 -0.03615617 -0.034178067 -0.067925125 0.037526038
0.017855626 0.069716275 0.05229723 0.04358883 0.0031509388 -0.08715011 -0.026042296 -0.04105708
0.022542458 -0.031083178 0.05519183 -0.0582536 0.041673537 0.09262863 0.08681318 -0.024894657
0.024824662 -0.024103094 0.0029800613 0.02657695 0.06502926 0.08917669 -0.019712118 -0.043872688
0.09535248 -0.09516352 0.047902238 0.014514854 -0.17130645 0.065635964 -0.22362894 0.04829937
-0.12682936 -0.25167304 -0.15674017 -0.27885753 0.030985668 -0.047025684 -0.26287305 0.07164096
0.08745621 -0.08099398 -0.0065337713 0.2947721 -0.12874524 0.04514962 -0.0060530794 0.12725092
-0.024359982 -0.097310856 0.39005488 0.35367614 0.33777213 -0.30356273 -0.26335216 -0.11967146
0.18840423 -0.18748003 0.18085477 -0.20786472 -0.066288024 0.1462103 -0.17467931 0.22654738
-0.3093561 0.13737564 -0.04118405 0.29157355 0.26460096 -0.23827435 -0.05857029 0.025481349

lstm2.weight_ih_l0 f4 [344, 106]
00000000: 9e49 d73e 6065 493a c68e 2c3e ad72 a6bd
00000010: c914 bd3e 9cd8 a73d 60bd 4ebd 9a76 003e
00000020: 8b4a a1bd f310 21bd aa60 3f3d 390e 6abf
00000030: af24 64be e0f9 423f e350 023d 3e5a f83c
00000040: 1f0e 9abc a040 f9bd b84b 83bb ef1e e03d
00000050: 9a57 393d 63e3 8cbd 4f05 f2bc f954 26bd
00000060: 90b4 9a3c 2176 ed3e 55e3 663d 45b6 c23c
00000070: 7895 a1be 9759 973e d07b 5ebc 4252 0abc
00000080: 1094 543c 857f 1cbc 66d5 c73e bd6b 2fbc
00000090: bfab 30bd aaaf 3e3e bb7c 0d3e 4650 7cbd
000000a0: 6a26 16be 686f 513c c4a6 293d 7001 14bc
000000b0: 5aaf 87bd c639 853d 706b b3ba baa2 783d
000000c0: 87eb fb3d a73f bb3c 9467 bebc 8496 cd3c
000000d0: 86ce 0dbd 4112 75bc b387 08bd e93d 1abd
000000e0: 9ea0 a5bd e065 903d 0128 3cbe c047 bb3c
000000f0: f543 15bd 225d 4a3e 25c2 04be de03 6ebd
00000100: 3052 963e 473c 0a3e 1a0c 9abd f903 573d
00000110: 0bfb 9b3d eb7b 6d3d 0a53 0abf c389 ae3d
00000120: 0305 89bd fa02 95be 665c 1b3e 7681 0a3e
00000130: 669d 263d d2a4 06bd 4549 b13b 44b5 c53e
00000140: 1193 6fbd f560 21bd ca89 833d 50d7 273e
00000150: 8c81 90bd 44cb 7fbd 13d5 823d b9f3 9dbd
00000160: c213 e9bd 7e32 d03e 6e51 8e3d 90fb b4bd
00000170: 85da c73c 46cb c9be 0ff4 a2bd 2439 763d
00000180: ee74 68be d40a 193f 1cca c3bc 4184 a73d
00000190: 7c2b d93e d68a 5abe b5f5 69bc ebc8 df3d
000001a0: 927f 213e 6a5a 99bd efcf f63e 3dbd 563e
000001b0: 38eb 923c ffc2 cc3e 2e52 623e ccd0 03be
000001c0: dc29 32be 25eb 12be 1abf 4f3f 3397 d83d
000001d0: 3172 4fbe 0e3d 56be 4372 e0bd 3981 c03e
000001e0: b619 cb3d 6f95 333e bf8a 713b 9d66 a8be
000001f0: 7db7 02bd ca23 d53d 66a8 74be 1660 37bd
00000200: 9b9c 333e 4ecc 683e 5edb dd3d ad3c 673f
00000210: 5903 06be 8410 083e 5c15 fdbe 6651 ac3e
00000220: df72 b0bc 1061 06be c969 a4bc f40e 38bd
00000230: 9d0a c7be ea0f 283f b356 2dbe e764 3fbf
00000240: 1f95 d23f ac84 703e cd6d 493e 2d80 d53d
00000250: 9157 2a3d 1b82 8ebd d3c7 84be 8b95 2ebe
00000260: 2ac4 753e b583 51be 7d30 be3d 6e10 c93e
00000270: d111 c7be 43a0 0d3e 37af 46be 773e c33e
00000280: 517d 3b3e 2675 14be 4011 cf3d 0c64 0dbd
00000290: 123d 863f daf9 97bd d7df 56be 90b3 223e
000002a0: 0dd7 aebd f2de acbd 7d41 023f 3a17 5ebe
000002b0: 93af ae3d 0370 88bd 2e54 233e 4958 dd3d
000002c0: 92e5 87be b5dc 4d3e 0c28 6c3e c0ba 04bf
000002d0: 0047 473a 0330 8c3e 9524 3c3e 07cb 43be
000002e0: 97f4 57be 971f 5b3c 0e12 913d 7218 e1bc
000002f0: ff6d 683d 4313 c2be cb08 013e f160 133d
00000300: cc70 3d3d 2800 813e 5ff1 3bbc 8b11 093e
00000310: e549 3d3e caac 26bd 827e 0e3b 8954 36bf
00000320: 4165 13be d641 2c3e bc1c 90be cc06 2bbd
00000330: 2fe3 df3d 76df 393f 530d 1c3f 094a 8cbd
00000340: 35ef 14be 22fc 84be 683f b5be a6f3 dcbd
00000350: b0fd aebd be68 283e a988 2e3e 6935 11be
00000360: 5019 3b3d c7bc eabd d902 5bbd f3cc 19be
00000370: f9a7 3cbe 3307 b73d 14de bbbd 0a33 4fbc
00000380: f0f0 d7be c8be 423f c687 1d3e c4ff 8d3e
00000390: abe4 24be f7ad debd 7e02 fabd 0340 0d3e
000003a0: 6212 d63c 10ec fabd 1f1c 023e 049e 193e
000003b0: 76cc 713e 40eb 133f 9cd9 13bd 3823 21be
000003c0: 2937 bbbd 1be1 5b3e 3483 84bb a7d2 573c
000003d0: ad26 6d3d 7b56 b23d 696e 853e 3c73 c5bd
000003e0: c073 70be 8fda 93bc 0162 71be 93fa de3d
000003f0: 0676 aebd 2dad 40be 9168 0cbe 76ad 56be
0.42048353 0.00076826476 0.16851339 -0.081273414 0.3692992 0.08195612 -0.05047357 0.12545243
-0.07875546 -0.039322805 0.046723045 -0.9142795 -0.22279619 0.7616253 0.03181542 0.030316468
-0.018805562 -0.12170529 -0.004006829 0.109434 0.04524956 -0.06879308 -0.029543547 -0.04060838
0.018884927 0.46379188 0.056369144 0.023768554 -0.31559348 0.2956054 -0.013579324 -0.008442463
0.012974754 -0.009551887 0.39029998 -0.010706839 -0.04313254 0.18621698 0.13817112 -0.061599992
-0.14663091 0.012782909 0.041418806 -0.009033546 -0.066252425 0.0650516 -0.0013688635 0.060702063
0.12300783 0.0228575 -0.02324275 0.025096186 -0.034620784 -0.014957965 -0.033332538 -0.0376567
-0.08087276 0.07050681 -0.18374635 0.022861362 -0.036441762 0.1976209 -0.12964685 -0.058109157
0.2935958 0.13499556 -0.075218394 0.052494023 0.07616242 0.057979506 -0.5403296 0.0852237
-0.06690409 -0.29103833 0.15171966 0.13525948 0.04067745 -0.03287203 0.0054103457 0.38614857
-0.058489863 -0.039399106 0.064227656 0.16390729 -0.07055959 -0.06244971 0.06388297 -0.07712502
-0.11380722 0.40663522 0.06949125 -0.08837044 0.02439619 -0.39412898 -0.07956707 0.060113087
-0.22700855 0.5978215 -0.023900084 0.08179522 0.42415988 -0.21342024 -0.0142797725 0.10926994
0.1577132 -0.07487948 0.48205516 0.20970626 0.017934427 0.3999252 0.22101662 -0.12872618
-0.1739878 -0.14347513 0.8115097 0.10575714 -0.20258404 -0.20921728 -0.10959294 0.3759859
0.09917013 0.17537473 0.003685638 -0.32890788 -0.03191327 0.10407217 -0.23892364 -0.04476937
0.17540209 0.22734186 0.108328566 0.9032696 -0.13087215 0.1328755 -0.49430358 0.33655852
-0.02153915 -0.13122964 -0.020069974 -0.044936135 -0.38875285 0.6564928 -0.16927604 -0.7476334
1.6451758 0.2348811 0.19670792 0.10424838 0.041587416 -0.069584094 -0.25933704 -0.17049234
0.24000612 -0.20460398 0.09286592 0.39270347 -0.3888078 0.13830666 -0.19402777 0.38133594
0.18309523 -0.14497814 0.10110712 -0.03451924 1.0487387 -0.07420702 -0.20983826 0.1588881
-0.085371114 -0.08440961 0.5088118 -0.21688548 0.08529582 -0.066619895 0.15950081 0.10807855
-0.26542336 0.20103724 0.23062152 -0.5184746 0.00076018274 0.2738038 0.1837333 -0.19120418
-0.21089397 0.013374231 0.07083522 -0.027477477 0.056745525 -0.3790532 0.1260101 0.035981122
0.04625015 0.25195432 -0.011471122 0.13385598 0.1848522 -0.04069213 0.0021742885 -0.7122274
-0.14394094 0.1682199 -0.28146923 -0.04175453 0.10932004 0.726066 0.6095783 -0.068500586
-0.14544375 -0.25973612 -0.35399938 -0.1078866 -0.08544481 0.16446206 0.17044319 -0.1418053
0.045678437 -0.11461788 -0.053469513 -0.15019588 -0.18423451 0.0893692 -0.091732174 -0.012646446
-0.42176008 0.7607236 0.15383825 0.27734196 -0.16102855 -0.10873025 -0.122075066 0.1379395
0.026131812 -0.122520566 0.1270604 0.15001684 0.23613152 0.5778084 -0.0360962 -0.15736091
-0.0914138 0.2147259 -0.004043961 0.013172782 0.057898212 0.08707901 0.260608 -0.0964112
-0.23481655 -0.018048553 -0.23572542 0.10887637 -0.08518605 -0.18816061 -0.13711764 -0.20964608

lstm2.weight_hh_l0 f4 [344, 86]
00000000: 3266 d7bd ba6c 813c d06d 863d ecfc be3d
00000010: 7a96 a8bc 2462 bdbd b886 713c 1860 5d3d
00000020: 2a40 4a3d 5583 efbb 968e 963d 2b26 5e3d
00000030: bff5 e4bc 5daf ae3d 7514 333c 4717 30b9
00000040: dd62 ab3d e5e4 293c f5ba b2bb 6f96 bd3d
00000050: e919 abbd 1ca5 3c3d a99e 433d 0e9c 5fbc
00000060: fbdb 753d 7193 393d 6ef1 03bc e6fa 763d
00000070: ecc6 b83d 17a2 063d 3865 5f3d 0d4b 3d3d
00000080: 107d a4bd 2165 c7bd 5583 b43d db22 6ebd
00000090: f346 a33c 4836 ca3c a7e3 723d 8ff7 babd
000000a0: b94f b53d e81b b13d 9331 3dbc 6c5d dbbd
000000b0: ebc0 9e3d 13c1 cd3c afa7 dabd d178 99bd
000000c0: 0358 2e3d 81d5 643d afd3 513d 3a81 783d
000000d0: 9231 41bd 4b5d eaba 61a7 c3bd 6eb0 883d
000000e0: 8df3 85bd 62a1 c8bd f057 a7bd 8d2e 83bc
000000f0: 4ac3 3fbd 1d21 cabd e4ba 703d 512b 81bd
00000100: c640 adbd a440 b2bd 4900 1f3d 66fe 983c
00000110: 928b 1bbc 0544 4fbd fb35 f63c 662f cb3d
00000120: 7e61 303d 48b5 b5bc f0e2 993d 3a89 993d
00000130: d35d 80bd 513d 96bd 0479 c63d 6db2 993c
00000140: 2675 fbbb 52e7 7dbd 4bd3 263d eb46 29bd
00000150: 8b6c 4e3d 87d2 b0bc 105f 8b3d 0c97 bebd
00000160: c068 823d 5f9e 213d 516b c3bc 290e 543d
00000170: 92e9 96bc 06ce 433d bf71 97bd 3205 963d
00000180: 4941 443d b26d afbd b7c3 28bd 1404 64bd
00000190: f0e2 a73d 252b c7bd b852 a5bd bd00 66bd
000001a0: 1802 62bd 3dca a9bd bc26 a8bd da89 1a3c
000001b0: 7a91 953c 44fa cd3d 1585 eabb b83f bcbd
000001c0: 5cef 89bd 3fbe c3bd 9095 4b3d 8057 83bc
000001d0: 2a3d 823d 392b 263c a0a9 cf3d 150a cd3c
000001e0: 5c55 bbbd 587a c8bd ce49 b93c 9409 6fbd
000001f0: 12b4 723d 3529 22bd ecd2 d13d 7255 ae3d
00000200: d41a 1cba 3176 00bd 7428 cbbd bd21 8a3c
00000210: 88dd 853d efeb 2ebc 8bce 473d 17e4 9cbd
00000220: 4c9e a23d 2e62 40bd 1644 65bb 5b66 9f3d
00000230: a5c8 493d b837 363d 28d4 0d3d 2200 91bd
00000240: 8b38 35bd c3dc 58bd a0b1 c0bd c686 90bd
00000250: c96b 8b3c 979f 79bc 6f23 bbbd 96ed c63d
00000260: aa85 863c 8c91 adbd 029b 76bd b41f 903d
00000270: 0a71 edbc 0a8f 7ebd 81f7 b63d a42a d5bd
00000280: 424f 0cbc c7ec acbc 7c7b 653d 4025 b93d
00000290: d76f 813d f159 80bb 1860 733d 041e 983d
000002a0: ebec 6ebd 917c a2bd 12da 863d 7649 92bd
000002b0: 6f0c c5bd b156 843d 0e4e b8bd 6734 4e3c
000002c0: b2b7 883d cdf0 bc3d 026c 87bd e31f 3e3d
000002d0: 1ac2 cdbc 383e 1d3d e96f 86bd a701 ae3d
000002e0: b393 61bd 41b9 18bc fccf acbc d34c fabb
000002f0: de29 9fbd 1aab a43d a1ce c1bd 88a1 b7bd
00000300: f6bf 953d b468 4bbd 6da7 d2bd 0709 ac3d
00000310: f2e8 a5bd 9dac 25bd 5e34 143c 1976 dcbd
00000320: 0a67 34bd bca9 62bd 0eed bcbd 78fd 39bd
00000330: 29b6 ce3d 10c0 2dbd 560e 5c3d c463 fa3c
00000340: 04e0 d4bd 5568 24bd 5e2c 2ebd 9103 9bbd
00000350: de80 61bd a0c4 c3bd 5afc e93c af8f c3bc
00000360: 3cb6 c8bd e41a 92bd 4f11 b73b 29a7 d4b9
00000370: 036d 7fbd 75e3 a83d d284 53bd 2cb3 8f3d
00000380: 02fa ccbd 4449 0b3d f365 1b3d 0642 27bb
00000390: 7fd4 1dbd 956b 773d bf42 0d3d 7b10 15bd
000003a0: 2019 adbb 7959 96bd 5b31 bebc ce70 9a3d
000003b0: 5075 913d a40a aa3d ff61 a3bd ad51 aebd
000003c0: 27bb 843d 9ae6 70bd 9e0c f33c dcb2 473d
000003d0: 1d73 8dbd 6847 2e3d 1c29 b5bd 21a2 42bc
000003e0: 4d2d 0a3c db2b 80bd b7bd a0bc adb0 d8bd
000003f0: b54e 01bd 1507 5fbd 29aa 0f3d 9197 963c
-0.10517539 0.015798915 0.06563914 0.09325585 -0.020579565 -0.092472345 0.014741592 0.05404672
0.049377598 -0.007309357 0.07351415 0.05423562 -0.027949212 0.08529542 0.01093017 -0.0001679334
0.08368466 0.010369514 -0.005454416 0.092572086 -0.08354551 0.046055898 0.047758732 -0.013648046
0.060024243 0.045306627 -0.008053167 0.06029787 0.09022316 0.032869425 0.05453989 0.046214152
-0.08031666 -0.09736086 0.08814112 -0.05813871 0.019931292 0.024684086 0.059299137 -0.09129249
0.088530965 0.08647901 -0.011547464 -0.10711178 0.0775164 0.025116479 -0.10676514 -0.07493747
0.042564403 0.055867676 0.051227268 0.060670115 -0.047166415 -0.0017880587 -0.09553409 0.06674276
-0.06540594 -0.09796406 -0.081710696 -0.016013408 -0.0468171 -0.09869597 0.058771983 -0.0630709
-0.0845962 -0.087037355 0.03881863 0.018675994 -0.009493725 -0.050601978 0.030055037 0.0992115
0.043061726 -0.022181168 0.07513988 0.07496877 -0.062678955 -0.07335914 0.09691051 0.018761838
-0.0076738773 -0.061988182 0.04072885 -0.0413274 0.050396483 -0.021584762 0.06805241 -0.09306154
0.06367636 0.039457675 -0.023854883 0.051771317 -0.018421922 0.0478039 -0.07394742 0.0732521
0.047913823 -0.085658446 -0.041202273 -0.05566795 0.08197582 -0.09725026 -0.08072418 -0.056153048
-0.055177778 -0.08290527 -0.08210513 0.00943228 0.018257845 0.100575 -0.007156978 -0.09191841
-0.06735107 -0.09557771 0.04970318 -0.016032934 0.06359322 0.010142141 0.10139775 0.025029222
-0.091471404 -0.0978896 0.0226182 -0.058358744 0.05925376 -0.03959008 0.10245308 0.08512391
-0.00059549254 -0.031362716 -0.09919825 0.01686179 0.06536394 -0.010676368 0.04878096 -0.07660692
0.07940349 -0.04696863 -0.003498321 0.07783195 0.049263615 0.04448673 0.034626156 -0.070801035
-0.044243377 -0.05294491 -0.09408879 -0.07056956 0.01701917 -0.015235803 -0.09137618 0.09713285
0.016421158 -0.084750265 -0.06020642 0.07037297 -0.028984565 -0.06214813 0.089339264 -0.10408524
-0.008563818 -0.021108998 0.056025967 0.09040308 0.0632016 -0.003916972 0.059417814 0.074276
-0.05833141 -0.079339154 0.06584562 -0.07142918 -0.09621512 0.064618476 -0.08999263 0.012585736
0.06675662 0.092256166 -0.06612398 0.04641713 -0.025116969 0.038389415 -0.06564314 0.08496409
-0.055072498 -0.009321512 -0.021095268 -0.0076385527 -0.077716574 0.080404475 -0.094632395 -0.089663565
0.07312004 -0.0496604 -0.1028584 0.08400159 -0.081010714 -0.04044782 0.009045688 -0.10764713
-0.04404358 -0.055337653 -0.09224902 -0.045407742 0.10093338 -0.042419493 0.05372461 0.03056515
-0.1039429 -0.04013856 -0.04252278 -0.075690396 -0.055054538 -0.095589876 0.028562713 -0.023872225
-0.098003834 -0.07134035 0.00558678 -0.00040560335 -0.06235982 0.08246509 -0.05164034 0.07016596
-0.10008623 0.03400542 0.037939023 -0.002552153 -0.03853273 0.060405333 0.034487482 -0.03639267
-0.005282536 -0.07341284 -0.023216894 0.07541047 0.07102454 0.08302811 -0.07977676 -0.08511672
0.06481009 -0.05881367 0.029669102 0.048754558 -0.06906722 0.042548567 -0.088457316 -0.011879475
0.008433652 -0.06258365 -0.019621713 -0.10580573 -0.0315692 -0.054450113 0.035074387 0.01838282

lstm2.bias_ih_l0 f4 [344]
00000000: 171b 07be 2fad 06bf 5e2f 7ebe 606b bcbe
00000010: e065 97be 17a9 23bf 1522 a2be 09c9 33be
00000020: cf68 14be 7187 98be d8d6 a8be 70f4 5bbf
00000030: 9672 acbe c536 93be dab3 c1be d8c4 73bd
00000040: 7ed8 2ebe e794 adbb df71 14bf ca7c 63be
00000050: e19a 16be cbcf d2be 8b26 ffbd 1d1c 82be
00000060: 3bea b8be 8461 22bf 888b 9dbe d7cc afbe
00000070: a627 fbbe f112 f0bc 86c9 1bbe 75e4 d9be
00000080: a8a3 07bf 3232 9ebd ab3f 93be aac2 82be
00000090: 7c79 aebe 6f9b d3be 47bf d1be f802 09be
000000a0: ee78 95be 44c1 94be 9eaa 99be 9495 98be
000000b0: fa64 e8bd d067 69be 1576 c8be f133 91bd
000000c0: 3fde bcbe 55b1 ebbe 0a00 07be d3d0 93be
000000d0: 26c3 78be 3d5c 34be 946c 11bf 3b1b 0bbf
000000e0: f015 43be f9ef 00bf ad4a f7be d744 6bbe
000000f0: 1ea3 23bf 2147 103d d28c 0fbe 3ba7 d7be
00000100: ca0a a0be 4294 80be df95 b7bd 0a09 23be
00000110: 6b6b fabd 5c55 eebe a0b7 e2be 4b25 2bbe
00000120: 42b4 cdbe 0db4 bfbe 7b98 27be b6a6 8ebe
00000130: d275 5bbe b3da f7be c032 d8bd 01ce d8be
00000140: b8d3 58be 89d9 91be d8b2 0bbe 63ac bdbe
00000150: 952c 51be 654f 02bf 6c57 1d3a 2232 a9bd
00000160: 4f0b 50bd 7d93 1abd a47c d33d e7ab 213d
00000170: 5eb3 9abd 96e7 d13d 4566 b43d 9dc7 e5bc
00000180: c37a ef3c 229f f9bc 1124 663d 26cc 0bbd
00000190: e245 c13b a7b2 833d 7f2e 833d 2926 9fbd
000001a0: f240 953d b111 e73c 2447 66bd b69c 723d
000001b0: 50de 81bd 8188 d53d 36c1 55bd 4e38 cfbc
000001c0: 4e3f c1bc 8ab9 973d 0e79 a23d 0cc9 b9bc
000001d0: 0f9d 3dbd c201 44bd e22e 5a3d 9430 97bc
000001e0: 1885 9a3d a112 f3bb cb52 bcbd b983 5f3d
000001f0: 5bc6 61bd 6e17 e2bc e206 a03d c20a 07bb
00000200: 6c3c a63c 3b09 633d 7e88 b4bd 24b2 143d
00000210: 0421 b03d 2d4f 25bd c6fc bebd c591 51bd
00000220: 7d04 9dbd a6cf 7dbd bc08 83bd 1d71 05bd
00000230: 3868 c53d 24bb c2bd 641a 483d 748e c5bd
00000240: 4897 99bd e317 0cbd 3783 b6bd d822 cc3d
00000250: d942 7a3c 07fb c43c 0cf8 db3d a713 b93d
00000260: 54e7 ad3c da34 d83d 3c96 893d e917 dabd
00000270: 5739 9fbd 8a5b 95bd 752a c4bd 9aac 323d
00000280: 7f40 d83d 66d4 80bd 85de 21bc 5cfa 9dbd
00000290: a495 7f3c fe44 063c 65e8 94bc 7d57 13bd
000002a0: 6dd1 2abc 33de 85bc 2f93 033d e850 193d
000002b0: 4a66 3cbd b64e 9f3c ecd7 a9bd d380 2f3c
000002c0: 8216 c13d 8998 38bd 5762 92bc 92bc f43c
000002d0: 976b f33c 9d60 493d 4309 06be 568f 63be
000002e0: 5677 a23c bb9e b03d f45c cc3d 9ae7 eebd
000002f0: 4fb6 963d 05a6 873c 5070 793b 0a80 b8bb
00000300: 30af 3fbd 7c54 c83b 60bd 16bd eac4 8b3c
00000310: 0822 dabd 0812 20bc 5445 61bc 1034 54bc
00000320: e2ce 843d 2f63 963d aa0f b53d b437 26bd
00000330: 7060 a6bd 1a08 813e 6e5e 38bb 15a2 a83d
00000340: 4248 553e 3242 843b 9f90 35be 35e1 cf3c
00000350: f9ab 533d 4374 f73c 411d 663d 0753 0a3d
00000360: b950 a6bc da1e b1bd bbc2 9cbc 55d5 c3bd
00000370: c6eb 753d bf7f dfbd 5a88 76bd 4543 36bc
00000380: 02b3 d5bd 2320 a33d 9252 513d 4845 c93d
00000390: 5aa7 9cbd e5a8 e43d d3c9 ec38 04a4 b5bd
000003a0: 54fc b53d eeb9 b8bd 5089 71bd 9db9 94bc
000003b0: cd31 e33c 8815 2dbd 0ebd 5f3e afbb e9bc
000003c0: 806d 633c bf91 af3c e96c 213d 7d14 80bd
000003d0: 3bf8 44bc ddd2 8bbd 9db3 9c3c 47c9 6dbd
000003e0: 533b 303d 7946 eabb 18d3 623b 8c4f 63bd
000003f0: 4a5b 56bd af8d 3cbd c9aa 3abd 51d0 b0bc
-0.13193928 -0.5260801 -0.24822757 -0.3680067 -0.29569912 -0.63929886 -0.31666628 -0.17557158
-0.14493106 -0.29790834 -0.32976413 -0.8591986 -0.33681172 -0.28752723 -0.37832528 -0.059513897
-0.17074773 -0.0052972916 -0.57986253 -0.22215572 -0.14707519 -0.41174158 -0.12458523 -0.25412074
-0.36116204 -0.6343005 -0.30770516 -0.34335968 -0.49053687 -0.029305907 -0.15213594 -0.4255711
-0.52984095 -0.07724418 -0.28759512 -0.25539142 -0.3407706 -0.41329524 -0.40966246 -0.13380039
-0.29193825 -0.290537 -0.30012983 -0.2980162 -0.11347385 -0.22793508 -0.3915259 -0.07089985
-0.3688831 -0.4603373 -0.13183609 -0.28870258 -0.24293193 -0.17613311 -0.568063 -0.54338425
-0.19051337 -0.5036617 -0.4829916 -0.22975479 -0.6392077 0.035224084 -0.14018562 -0.42119774
-0.3125823 -0.25113112 -0.089641325 -0.15921417 -0.122275196 -0.465495 -0.4428072 -0.16713445
-0.40176588 -0.37442055 -0.1636676 -0.27861565 -0.21431664 -0.48409042 -0.10556555 -0.42344669
-0.21174514 -0.2848628 -0.13642442 -0.37045583 -0.20427163 -0.50902396 0.00060021016 -0.08261515
-0.050792035 -0.037738312 0.10326508 0.03947058 -0.07553743 0.1024925 0.08808569 -0.028049285
0.029233342 -0.030471388 0.05618674 -0.034130238 0.0058982233 0.064305596 0.06405353 -0.0777095
0.07287778 0.028206678 -0.05622019 0.059231482 -0.06341231 0.10426427 -0.052186213 -0.025295403
-0.023589756 0.07408436 0.079332456 -0.022678874 -0.04629236 -0.04785324 0.053267367 -0.018455781
0.07544917 -0.007417992 -0.09195479 0.05456898 -0.055120807 -0.027599063 0.07813813 -0.0020605777
0.020292483 0.055428725 -0.08815096 0.0363027 0.08600047 -0.04035871 -0.093255565 -0.051164407
-0.07666872 -0.061965607 -0.0639815 -0.032578576 0.09639019 -0.095083505 0.048853293 -0.096463114
-0.07499558 -0.034202468 -0.08911746 0.099675834 0.015274727 0.02404548 0.107406706 0.090369515
0.02122847 0.10556956 0.06718108 -0.10649092 -0.077746086 -0.0729285 -0.095784105 0.043621637
0.10559177 -0.06290512 -0.009879713 -0.07713768 0.015599642 0.00819516 -0.01817722 -0.035972107
-0.010425908 -0.016341304 0.032122787 0.037430674 -0.045995988 0.019446712 -0.08293137 0.010711866
0.09428121 -0.045067344 -0.017869158 0.029875074 0.029714389 0.049164403 -0.1308947 -0.22222647
0.019832294 0.086240254 0.09978667 -0.11665268 0.07358991 0.016558656 0.0038061328 -0.005630498
-0.04679793 0.006113587 -0.036801696 0.01706167 -0.10651022 -0.009769924 -0.013749439 -0.012951866
0.06484772 0.073431365 0.08840878 -0.040580466 -0.08123863 0.25201494 -0.0028132456 0.0823404
0.20828345 0.0040362114 -0.1773095 0.025375942 0.051677678 0.030206805 0.056180242 0.033770587
-0.020302163 -0.086484626 -0.019135823 -0.09562174 0.060039304 -0.109130375 -0.06018863 -0.011124437
-0.10434534 0.07965114 0.051104136 0.098276675 -0.07649107 0.111650266 0.000112909496 -0.08869174
0.088860184 -0.09019838 -0.058968842 -0.018154914 0.027733708 -0.042256862 0.21849462 -0.028531877
0.013881087 0.021431802 0.039410505 -0.06253908 -0.012022073 -0.06827328 0.019128615 -0.05805328
0.043025326 -0.0071495143 0.0034610685 -0.055495784 -0.052333154 -0.046033558 -0.04557303 -0.021583708

lstm2.bias_hh_l0 f4 [344]
00000000: fa77 9cbe f0da edbe 5568 99be 2edf dfbe
00000010: 75a8 2bbe 7aaa 0dbf c2db 1abe 0319 e8bd
00000020: b14a 90be 1842 4ebe 0858 c7be 007e 54bf
00000030: 9ed9 33be 705e 71be f659 debe c7bd 60be
00000040: 1d69 09be 9915 17be 8d53 0bbf 50a0 7ebe
00000050: ec26 3abe 771e 77be 4073 0fbe 9506 1fbe
00000060: e5de 9fbe d258 2fbf 87a2 51be d9e2 c3be
00000070: 52de 0bbf 7d27 50be 8505 90be 19ed e5be
00000080: 9a5f 04bf b2c6 02bd 7d7b dbbe 38fe 7cbe
00000090: 26e5 c2be 28ba 6fbe 9d58 afbe 3437 80be
000000a0: 91cb 5fbe b058 85be 5d63 15be 44d3 5ebe
000000b0: 6d82 4fbe 865a d8bd 494a d9be 242b 1cbe
000000c0: c329 b3be 3dfd bdbe e3d6 22be efd6 95be
000000d0: bf4c 26be 4780 6cbe be36 25bf 79be edbe
000000e0: 81bf 96be 5cdf 12bf 3a67 05bf c5bc 88be
000000f0: 2cbd 21bf 8cf4 25be 9c4d 89be bf18 e0be
00000100: 987a 2abe e09d 36be c0c7 8dbd 62e4 52be
00000110: 9549 e7bd db4d 9ebe 21c2 03bf 0248 8cbe
00000120: 56a8 b4be 7745 e2be cd30 61be edda 9ebe
00000130: c669 6cbe 3f26 eabe 59bd 34be 2614 05bf
00000140: 5b68 81be e51a 49be a4ba 4fbe b50e cdbe
00000150: 7b9a 5cbe 0d09 14bf 52b3 d93b 83c7 3ebc
00000160: 0638 813d 07c2 c2bd f050 d13c 6b80 703d
00000170: 33a0 be3d b91c 353d 68d5 2c3d 5117 c4bd
00000180: 1589 b8bd abb4 9c3d 0760 aabd 966e 2c3d
00000190: 466b ecbc d2fe 6e3d 13d5 793c 8a7e d33d
000001a0: 06c5 63bd 1cb7 9cbd 77d1 48bd 90f9 cb3c
000001b0: 95cb 843d 3435 d13d 4d72 50bd a767 3dbd
000001c0: 02a8 a4bd 3f65 3f3d 2de9 35bd 1144 a83d
000001d0: 9e0c 22bc 6f94 8f3d 0c00 933d 99cf ea3c
000001e0: f17e 00bd 3952 9abd 2b5a 49bc 8fd6 733c
000001f0: 6fef b93c fefc ba3c f5fd 15bd 7358 bc3d
00000200: 79b5 993b 7a74 523d 8934 ab3d 4ef9 3b3d
00000210: 1481 3f3d 09cd a13d 9fee 42bd 5db3 cb3d
00000220: 795b 27bd b054 6b3d f925 a7bd 321f fdbc
00000230: d114 cc3d 96b1 9a3c c76c a63d b71e 20bd
00000240: e3b5 3d3c 3c74 19bc 574d afbd adb1 ab3d
00000250: 8565 f9bb 86bd cdbd 6662 1f3d a8a1 423d
00000260: 45b2 133b 03f2 afbd 90e5 50bc 0b0a 943d
00000270: 7f14 ec3b c2fa 0e3a 1dc7 173d 611f 6ebd
00000280: 7d13 c83b c4ea 45bd e919 b03d f7a3 093d
00000290: ce20 8c3d 78a1 703d 2476 303d 5528 a43d
000002a0: 14f2 643c 0494 afbc 2526 8a3d 5fd5 7e3d
000002b0: 996f d03d 668a 82bd c537 7bbd 768d 96bd
000002c0: f6c8 b33c 237e d33d 7a89 55bd 6f9a 8fbd
000002d0: 85ce 5fbc 4f49 5c3d 75f4 7c3d 395f b7be
000002e0: 92a7 95bc 3fe2 38bd 14f0 01bd 6c06 69bd
000002f0: 99ab cd3d c5ba 153e a19b 97bd ce55 95bd
00000300: 62eb b6bd f331 843d c487 c83d c275 33bc
00000310: dead cc3d ca4a 233d c8c5 153e d3d2 943c
00000320: 96d9 f4bb 09db 8a3d ce81 bebd e6ee e3ba
00000330: a5ae edbd 90ef 7b3e 8c73 7e3d 712b 85bc
00000340: 66c2 4f3d 75fe 87bd 1d45 91bd dff0 19bd
00000350: 7327 2fbd eb16 d63d ed36 11bd e6a5 93bd
00000360: e130 f83c 0e04 a1bd 226c f33c 8462 54bc
00000370: d473 cfbd 4b67 c13d 8469 5dba 830e 88bc
00000380: db50 c23c d7fc 05bc bb42 9bbd 7423 dbbd
00000390: ee2a 1a3d 6f90 073e b026 56bd a08d 843d
000003a0: 8828 4a3d f0ca 32be f32a e0bc c45e 813d
000003b0: 8e93 053d 406b 713d 105c 553e d123 97bc
000003c0: 4017 80bc 3d47 813c 3349 1f3d 16f3 10bd
000003d0: 2927 463c 7ae8 c33d e615 59bd 5955 493d
000003e0: b62d ca3d c3c2 f4bc 66ee 3d3b a7c0 8b3d
000003f0: 2f01 9d3d 754f 153d 9f66 463d 5d2d c9bd
-0.30560285 -0.464561 -0.29962412 -0.4372496 -0.1676348 -0.5533825 -0.15122893 -0.113328956
-0.28181985 -0.201424 -0.3893435 -0.8300476 -0.17563483 -0.23571181 -0.4342801 -0.21947394
-0.13419004 -0.14754333 -0.54424363 -0.24865842 -0.1817891 -0.24132715 -0.14008808 -0.15529855
-0.31224743 -0.68494904 -0.20472156 -0.3825901 -0.5463611 -0.20327564 -0.2812921 -0.44907454
-0.51708376 -0.031927772 -0.42867652 -0.24706352 -0.3806545 -0.23410857 -0.34247294 -0.25042117
-0.21854998 -0.26044226 -0.14588685 -0.21760279 -0.20264597 -0.10564141 -0.42439488 -0.15250832
-0.349928 -0.37107268 -0.15902285 -0.29265544 -0.16240214 -0.23095809 -0.64536655 -0.46434382
-0.2944298 -0.5737207 -0.52110636 -0.2670652 -0.6317928 -0.16206568 -0.26817024 -0.4376888
-0.16648328 -0.17833662 -0.06922865 -0.20594934 -0.112933315 -0.30918774 -0.5146809 -0.27398688
-0.3528468 -0.44193622 -0.21991272 -0.31026402 -0.23087224 -0.45732304 -0.17650355 -0.5198387
-0.2527493 -0.19639166 -0.20286041 -0.40050283 -0.21543305 -0.5782631 0.006643691 -0.011644247
0.06309514 -0.09509664 0.02555129 0.05871622 0.09307899 0.044216845 0.042195708 -0.0957476
-0.09010521 0.07651647 -0.08319097 0.04209765 -0.028859746 0.058348484 0.015248555 0.1032687
-0.055607818 -0.07652113 -0.049027886 0.024899274 0.06484143 0.10215226 -0.050890256 -0.04624143
-0.080398574 0.046727415 -0.044411827 0.08216108 -0.0098907035 0.07010733 0.07177743 0.028663443
-0.03137106 -0.07535214 -0.012289564 0.014882698 0.022697179 0.022825714 -0.036619145 0.09196558
0.0046908227 0.051380612 0.0835963 0.045892052 0.046753958 0.079004355 -0.047590848 0.0994632
-0.04085872 0.05745381 -0.081615396 -0.030898664 0.09964908 0.018883508 0.081262164 -0.039091792
0.01157901 -0.009366091 -0.08559673 0.08383498 -0.007610979 -0.10045914 0.0389122 0.04751745
0.0022536677 -0.08591082 -0.012750044 0.07228478 0.0072045918 0.0005454236 0.037055124 -0.058135394
0.006105839 -0.048319593 0.08598692 0.033603635 0.068421945 0.05874774 0.043081418 0.08015505
0.013973732 -0.021432884 0.06745557 0.062215205 0.101775356 -0.06374054 -0.061332483 -0.073512
0.021946412 0.10326793 -0.05213306 -0.07011878 -0.013660078 0.05378085 0.06175657 -0.35814837
-0.01826838 -0.04513764 -0.031723097 -0.05689089 0.10042495 0.14622028 -0.07402731 -0.072917566
-0.089316145 0.064548396 0.0979152 -0.010953369 0.099941 0.039866246 0.14626229 0.018166935
-0.0074722273 0.06780059 -0.09302102 -0.0017389923 -0.116055764 0.24603105 0.062121913 -0.016256066
0.050722502 -0.06640331 -0.070932604 -0.03758323 -0.04276223 0.1045359 -0.035452772 -0.07209377
0.030296745 -0.078621015 0.029714648 -0.012962941 -0.10129514 0.0944353 -0.0008446204 -0.016608482
0.023720196 -0.0081779575 -0.07581087 -0.107001215 0.037638597 0.13238691 -0.05228299 0.06472325
0.04935506 -0.17460227 -0.02736423 0.06316903 0.032611422 0.058940172 0.208359 -0.018449696
-0.015636086 0.01578104 0.038888168 -0.035388075 0.012094297 0.09565826 -0.0529994 0.04915366
0.09872 -0.029878026 0.0028981208 0.06823855 0.076662414 0.03645273 0.04843771 -0.098231055
