N/Treinamento/MLP/1_camada/conf_2/modelo_seed_41_loss_0.002629.pt (torch, 37295 bytes, 4 tensors)

features.0.weight f4 [86, 74]
-0.084465474 -0.06009352 0.06527302 -0.073619895 -0.044349656 0.0787864 -0.09450832 0.01678452
0.03577735 0.008891114 0.018412018 0.02569164 0.08231114 -0.004653669 -0.123460025 0.03804815
-0.0053728498 -0.041905355 -0.10534732 -0.08486268 -0.13966256 0.08847221 0.0495284 0.14729832
0.11952843 -0.0067312424 -0.05466056 0.057514407 -0.054982048 -0.006187813 0.05437311 -0.11843436
-0.039852157 0.0031364863 0.013279443 0.066107616 0.005871225 -0.09594638 0.12679164 0.016880358
0.11704824 0.10314733 -0.009895915 -0.23067257 -0.0070272456 -0.089944206 0.07618993 0.0032692524
-0.026080843 0.07132669 -0.0973373 0.037143223 -0.020249434 -0.08737883 0.0030432001 -0.06282001
-0.009882628 -0.0048228176 0.039599527 -0.010256828 -0.084919244 -0.06289735 -0.03962716 0.064874046
0.042974845 -0.1276453 0.022024337 -0.03916064 0.06665828 0.013197376 0.09920873 0.02306962
-0.07774022 0.0316101 -0.020311344 0.045141287 -0.10221225 -0.023565203 0.055896766 0.036063053
0.008845367 0.010886554 -0.012729821 0.02512476 0.016574105 -0.019009098 0.08917914 -0.0500785
0.010502021 -0.016518017 -0.084535085 0.056262065 -0.020593986 -0.11042749 0.024080055 -0.07455693
0.016114859 -0.096522465 0.08489095 -0.082826614 0.0030009404 0.10837164 0.031381037 0.11017656
-0.08909125 -0.17453028 -0.12942049 -0.0028569568 -0.025181638 -0.048703294 0.010022426 0.036136486
-0.10331845 -0.045395706 0.13057907 0.0013700913 -0.061651714 -0.16049092 -0.092095695 -0.1557975
0.07396352 -0.06795904 -0.05876443 -0.020983225 0.04445146 0.11296136 -0.03204266 -0.11795598
0.110991046 -0.027850775 0.06689135 -0.09815542 -0.06295955 0.016208585 -0.03963196 0.03862256
0.10274744 0.0377293 -0.037540264 -0.0028863107 0.051496413 0.034163065 0.06455342 0.07643815
0.045554005 0.06786497 -0.08242665 -0.14270796 0.027162874 0.07758525 -0.09663501 0.051158767
-0.058922157 -0.025188576 0.10290843 -0.06295995 0.06205616 0.06642705 0.026878806 -0.08623347
0.018815955 -0.13083373 -0.06683839 -0.06292261 0.10271233 0.042624105 0.118018664 0.07700994
-0.05143702 0.08599111 -0.12527668 -0.07484046 -0.036770012 0.039021272 -0.06264058 -0.113255635
0.054576144 0.08003797 0.06176416 0.076456666 -0.030108288 -0.066369236 -0.09857399 0.033679336
0.113079585 0.091716684 0.08119839 -0.10079161 -0.13862172 0.010169785 0.08225524 -0.023553183
0.047961026 0.05099864 0.02270877 -0.08175791 -0.116040505 -0.03434593 0.04431157 0.0012369117
-0.053715155 -0.107323185 -0.08784207 0.038179092 -0.0065039475 0.078465775 -0.020984389 0.06134049
0.024230987 0.13364148 0.10828969 -0.043580126 -0.06714406 -0.008720151 -0.0456003 0.06624354
-0.0699313 -0.03252301 0.10259729 -0.087794594 -0.011514307 -0.013585168 0.0817434 -0.023196757
0.08181047 0.057729583 -0.093575895 0.07769232 -0.11937776 -0.024474645 0.06108269 0.038949344
-0.10736975 0.0013563485 -0.0468679 -0.035993174 -0.063403025 0.0741534 0.15608607 0.07103562
0.033359885 -0.08849674 -0.057717826 0.0121919345 0.014146136 -0.088799536 -0.13369149 -0.017391808
-0.044459436 0.045085274 -0.00074031926 -0.08275075 -0.017404698 0.0072843106 -0.07681038 0.07028828
00000000: 3cfc acbd 9f24 76bd dcad 853d 07c6 96bd
00000010: fca7 35bd c45a a13d 948d c1bd b17f 893c
00000020: 458b 123d 09ac 113c cdd4 963c 4677 d23c
00000030: be92 a83d ce7d 98bb 9cd8 fcbd 60d8 1b3d
00000040: bb0e b0bb f3a4 2bbd 56c0 d7bd 7ccc adbd
00000050: b403 0fbe eb30 b53d 4bde 4a3d 5fd5 163e
00000060: 52cb f43d c191 dcbb c0e3 5fbd 3a94 6b3d
00000070: db34 61bd 23c3 cabb 57b6 5e3d b78d f2bd
00000080: 043c 23bd 828d 4d3b 0592 593c 6e63 873d
00000090: 6863 c03b 897f c4bd abd5 013e ad48 8a3c
000000a0: fdb6 ef3d e83e d33d 7a22 22bc 6e35 6cbe
000000b0: cf44 e6bb ab34 b8bd 7709 9c3d f440 563b
000000c0: 7ea7 d5bc ba13 923d c758 c7bd 7e23 183d
000000d0: 24e2 a5bc acf3 b2bd 6d70 473b c7a7 80bd
000000e0: bfea 21bc ba08 9ebb 1d33 223d 410c 28bc
000000f0: 24ea adbd 53d0 80bd 1750 22bd afdc 843d
00000100: 6406 303d 73b5 02be 626c b43c e866 20bd
00000110: 2384 883d cf39 583c f22d cb3d 80fc bc3c
00000120: 4436 9fbd 9879 013d fa63 a6bc 12e6 383d
00000130: a854 d1bd d00b c1bc 02f4 643d dab6 133d
00000140: 28ec 103c 845d 323c bd90 50bc 71d2 cd3c
00000150: 6bc6 873c f8b8 9bbc 8ea3 b63d 1d1f 4dbd
00000160: ab10 2c3c cb50 87bc bb20 adbd 0d73 663d
00000170: b8b4 a8bc cf27 e2bd 8943 c53c 4eb1 98bd
00000180: 4f03 843c 92ad c5bd 4edb ad3d 00a1 a9bd
00000190: 6dab 443b f3f1 dd3d 6789 003d 40a4 e13d
000001a0: 7975 b6bd 11b8 32be ce86 04be c83b 3bbb
000001b0: b949 cebc 1b7d 47bd 1a35 243c da03 143d
000001c0: a098 d3bd d9f0 39bd 85b6 053e a394 b33a
000001d0: 8286 7cbd bb57 24be ab9c bcbd 6189 1fbe
000001e0: 307a 973d 1c2e 8bbd f9b2 70bd 03e5 abbc
000001f0: bc12 363d 4958 e73d 2a3f 03bd e892 f1bd
00000200: 464f e33d 4f27 e4bc 55fe 883d b505 c9bd
00000210: f0f0 80bd dec7 843c 1f55 22bd b132 1e3d
00000220: 406d d23d 0a8a 1a3d d2c3 19bd 4228 3dbb
00000230: e7ed 523d 92ee 0b3d 9534 843d 9b8b 9c3d
00000240: d696 3a3d cafc 8a3d 4ecf a8bd 0922 12be
00000250: ad84 de3c 04e5 9e3d 93e8 c5bd db8b 513d
00000260: 5c58 71bd 4658 cebc a8c1 d23d 25f1 80bd
00000270: 9a2e 7e3d e80a 883d f130 dc3c 2c9b b0bd
00000280: eb23 9a3c 47f9 05be 91e2 88bd 92dd 80bd
00000290: d85a d23d 9d96 2e3d c5b3 f13d 63b7 9d3d
000002a0: a0af 52bd 1b1c b03d 8848 00be f545 99bd
000002b0: 279c 16bd c5d4 1f3d b449 80bd 92f2 e7bd
000002c0: 3c8b 5f3d f2ea a33d 6afc 7c3d 5095 9c3d
000002d0: a8a5 f6bc 98ec 87bd 29e1 c9bd 58f3 093d
000002e0: 4596 e73d f5d5 bb3d 574b a63d d56b cebd
000002f0: daf2 0dbe 2b9f 263c 6f75 a83d 9bf2 c0bc
00000300: c872 443d f3e3 503d be07 ba3c b170 a7bd
00000310: a5a6 edbd 51ae 0cbd 0c80 353d df1f a23a
00000320: 6c04 5cbd 42cc dbbd 8be6 b3bd ae61 1c3d
00000330: 111f d5bb aab2 a03d 74e7 abbc 2a40 7b3d
00000340: 1080 c63c 50d9 083e fcc6 dd3d 1381 32bd
00000350: d382 89bd f7de 0ebc 61c7 3abd b1aa 873d
00000360: 2438 8fbd d936 05bd 871e d23d a7cd b3bd
00000370: 81a6 3cbc 5394 5ebc 1569 a73d 2007 bebc
00000380: 3f8c a73d db75 6c3d b8a4 bfbd 271d 9f3d
00000390: 547c f4bd 0d7f c8bc d831 7a3d 5989 1f3d
000003a0: ace4 dbbd 81c7 b13a 8ef8 3fbd 946d 13bd
000003b0: 72d9 81bd bddd 973d 07d5 1f3e 207b 913d
000003c0: 60a4 083d c73d b5bd 8769 6cbd aec0 473c
000003d0: 32c5 673c 88dc b5bd 6ce6 08be 4479 8ebc
000003e0: 191b 36bd 56ab 383d fc11 42ba 3a79 a9bd
000003f0: 4c94 8ebc 3ab1 ee3b c34e 9dbd 4df3 8f3d

features.0.bias f4 [86]
-0.07363207 -0.09723965 -0.07733067 0.079894915 0.055122793 -0.05723991 -0.04636028 -0.07222939
-0.13669628 0.0572209 -0.04302804 0.07970653 -0.027294748 -0.01803152 -0.025791816 0.14219965
-0.04759932 0.017928014 -0.077169046 0.043787926 -0.006605652 0.036807287 -0.017902024 -0.06708485
0.01545665 0.037978955 -0.022379577 0.19869083 0.06698847 -0.039064232 -0.018208992 0.12033013
-0.26531658 -0.24367481 0.050986253 0.020289995 0.040803816 -0.055349976 0.017863847 0.025267735
-0.034168933 0.030063726 -0.0604232 -0.09678039 -0.0074973 -0.13050449 0.08884052 -0.013551345
-0.082642555 0.023097515 -0.0484474 0.112758495 -0.053849522 -0.066551656 -0.069172285 -0.08705991
0.11292971 -0.09411803 -0.036037426 -0.026735349 0.012256799 -0.0039045021 -0.027126217 -0.052593082
-0.10914558 -0.07085681 -0.021424709 -0.121072814 -0.07002444 -0.065117955 -0.0668904 0.007906571
-0.019765045 0.03174679 -0.041290507 0.07379239 0.035969287 0.10443704 -0.050572872 0.11347654
0.13640246 -0.05967442 0.060712527 0.07323996 -0.015499951 0.044984587
00000000: 69cc 96bd 9525 c7bd 8b5f 9ebd f29f a33d
00000010: 70c8 613d 6574 6abd 47e4 3dbd 01ed 93bd
00000020: 1cfa 0bbe 7660 6a3d 2c3e 30bd 2d3d a33d
00000030: 3c99 dfbc d7b6 93bc 5c49 d3bc c99c 113e
00000040: 81f7 42bd c5dd 923c ce0a 9ebd f85a 333d
00000050: 3a74 d8bb 3dc3 163d 44a7 92bc c863 89bd
00000060: e43d 7d3c d28f 1b3d 6055 b7bc 9c75 4b3e
00000070: 4031 893d d101 20bd 062b 95bc a56f f63d
00000080: 93d7 87be e485 79be f6d6 503d 3437 a63c
00000090: e721 273d a8b6 62bd 3457 923c 48fe ce3c
000000a0: b9f4 0bbd 3448 f63c 517e 77bd cc34 c6bd
000000b0: e9ab f5bb f8a2 05be 05f2 b53d 7606 5ebc
000000c0: 8040 a9bd 0037 bd3c c870 46bd eded e63d
000000d0: 5191 5cbd 3c4c 88bd 33aa 8dbd 774c b2bd
000000e0: b147 e73d f4c0 c0bd fb9b 13bd 1704 dbbc
000000f0: bed0 483c ade2 7fbb cd37 debc d86b 57bd
00000100: b887 dfbd 601d 91bd df82 afbc 06f5 f7bd
00000110: f968 8fbd 905c 85bd d6fd 88bd 908a 013c
00000120: 4eea a1bc ec08 023d 3c20 29bd 7720 973d
00000130: 8854 133d 16e3 d53d 8025 4fbd 6366 e83d
00000140: 16ad 0b3e 2a6d 74bd b3ad 783d d5fe 953d
00000150: 82f3 7dbc c241 383d

features.2.weight f4 [24, 86]
0.06152483 -0.12844412 -0.08364827 0.04525991 -0.08314272 -0.05623868 -0.063054785 -0.0642982
-0.10830452 0.014654913 0.05958754 -0.015505947 -0.011454228 0.10836237 0.0067135682 0.09598027
0.023334248 -0.10233472 0.01061232 -0.046858694 0.034305334 -0.048497815 0.017703364 0.007865897
-0.05671601 -0.0050950996 -0.120606065 -0.02297995 0.0068242527 -0.107061565 -0.018645018 -0.013584715
-0.072520666 0.079701796 -0.06404276 0.010261861 0.037285615 -0.08615201 0.041556112 0.025210371
0.025229244 -0.05317783 0.0545695 -0.072875865 0.062374715 -0.11002645 -0.04571613 0.1204425
-0.06351169 0.065326765 0.006106393 0.03855378 0.015852347 -0.08520641 -0.08148496 -0.02210902
-0.097935446 -0.051705323 -0.11110531 0.023198195 0.08870448 -0.009061102 0.030825587 -0.040202584
-0.056276754 0.08356368 0.028171312 -0.0911984 -0.039512306 0.10907194 0.020621082 -0.014293946
-0.0903547 -0.06271467 0.028469294 0.001382942 -0.08295204 0.033394724 0.02582875 0.05796973
0.015739534 -0.119038835 0.023858523 -0.12275411 0.102574304 -0.026170818 -0.034601167 -0.07697968
0.028899783 0.060486663 -0.020372383 -0.07112994 -0.00710456 0.05231327 -0.003703863 0.02471223
-0.044259198 -0.07377918 0.06673514 0.07006341 -0.037317634 0.014898846 -0.08091591 -0.054027896
-0.010550827 -0.049279485 -0.05831385 0.05041883 0.042915575 -0.011958117 -0.015805386 0.04219517
0.018597834 0.0683944 0.06382436 0.055112734 -0.026530728 0.05522307 -0.16808625 0.030499596
0.06377187 -0.08414744 0.06507814 -0.10366071 0.108644985 -0.01674391 -0.08104083 -0.039868545
0.038733054 -0.019727737 0.014114505 0.015617557 0.060717322 0.1635034 0.045536797 -0.04333332
0.028810937 -0.007943596 -0.040956073 -0.01454357 -0.03747409 -0.030773675 -0.04083395 0.08058142
-0.011583149 -0.016961245 0.09515519 -0.047067013 -0.08374746 -0.10799514 0.03466603 -0.005027872
-0.099278726 -0.120571494 -0.055879727 -0.044522375 -0.07840269 -0.026483135 -0.008048207 -0.05001474
-0.023094427 0.09974644 -0.047613285 0.113484666 -0.02768664 0.019343814 -0.00013907482 0.04104309
-0.073002726 -0.013858202 0.1008628 -0.059533864 -0.035956517 0.056150347 -0.017119132 -0.087338865
-0.06351313 -0.07855397 -0.047513552 -0.10087416 0.09283241 -0.01958369 0.09221842 -0.04577592
8.7994325e-05 0.122994855 -0.012641953 0.032314055 0.011330911 0.0763211 0.06776577 0.105161026
0.024095025 0.04635907 -0.05274113 -0.12408884 0.0343551 -0.064533114 -0.04885581 0.1338073
0.13449116 -0.041203223 -0.00999982 -0.07578395 -0.15396631 0.03252759 0.03488257 -0.007807151
0.0436732 -0.0038693466 0.1045215 -0.0981052 -0.011301114 -0.016109647 0.0044196206 0.011121035
0.043903828 0.10820042 0.063416965 0.029981628 0.020116208 -0.012431348 -0.05328912 0.14608283
0.018988127 0.025569899 -0.041021764 -0.010555824 -0.06269757 0.14081492 0.005295736 0.053240966
0.09840614 -0.04423949 0.0888741 -0.053734493 -0.02007607 -0.032926735 0.084073536 -0.10075106
0.0735648 -0.04071067 0.020049607 0.09643589 -0.0284159 0.09037783 0.01753865 0.03506623
0.008737047 0.124668285 0.04470615 -0.06512614 -0.031544015 0.050246067 0.043430902 -0.09050884
00000000: 7601 7c3d db86 03be c94f abbd 7562 393d
00000010: bb46 aabd 885a 66bd de22 81bd c6ae 83bd
00000020: c3ce ddbd 291b 703c 1012 743d a80c 7ebc
00000030: 84aa 3bbc 17ed dd3d 7efd db3b 4e91 c43d
00000040: 7727 bf3c de94 d1bd 4cdf 2d3c e7ee 3fbd
00000050: c083 0c3d a5a5 46bd a506 913c f7df 003c
00000060: 0c4f 68bd cbf4 a6bb 5000 f7bd 7340 bcbc
00000070: fb9d df3b 1843 dbbd 70bd 98bc 6d92 5ebc
00000080: b785 94bd b23a a33d da28 83bd 5d21 283c
00000090: cdb8 183d 7770 b0bd be36 2a3d fb85 ce3c
000000a0: 8fad ce3c ffd0 59bd 4584 5f3d f13f 95bd
000000b0: a17c 7f3d 8c55 e1bd d640 3bbd 8faa f63d
000000c0: 6b12 82bd 0aca 853d 2318 c83b 92ea 1d3d
000000d0: c8dc 813c b380 aebd 96e1 a6bd fa1d b5bc
000000e0: 6192 c8bd f6c8 53bd 2e8b e3bd 240a be3c
000000f0: b2aa b53d 0475 14bc f185 fc3c 77ab 24bd
00000100: 7482 66bd 6f23 ab3d 86c7 e63c 3ac6 babd
00000110: a8d7 21bd 1c61 df3d 8bed a83c 2831 6abc
00000120: e30b b9bd 8d70 80bd 7038 e93c d543 b53a
00000130: c2e2 a9bd e8c8 083d d196 d33c ab71 6d3d
00000140: 32f0 803c a2ca f3bd f372 c33c 8266 fbbd
00000150: 7a12 d23d 2f64 d6bc f4b9 0dbd 86a7 9dbd
00000160: 3dbf ec3c ddc0 773d fce3 a6bc 93ac 91bd
00000170: 5ecd e8bb 7046 563d 82bc 72bb 4d71 ca3c
00000180: 2249 35bd 8a19 97bd 6fac 883d 687d 8f3d
00000190: 60da 18bd 4a1a 743c 3eb7 a5bd 5b4c 5dbd
000001a0: 60dd 2cbc 49d9 49bd 81da 6ebd fa83 4e3d
000001b0: 3ec8 2f3d faeb 43bc 4c7a 81bc d8d4 2c3d
000001c0: 7c5a 983c 5d12 8c3d 59b6 823d e4bd 613d
000001d0: f856 d9bc 9631 623d cd1e 2cbe 4ada f93c
000001e0: d49a 823d 7e55 acbd b047 853d 114c d4bd
000001f0: 4381 de3d 862a 89bc bcf8 a5bd 334d 23bd
00000200: 8da6 1e3d 109c a1bc 8640 673c c8e0 7f3c
00000210: bab2 783d 6f6d 273e cb84 3a3d 487e 31bd
00000220: ea04 ec3c db25 02bc 8ec1 27bd 2748 6ebc
00000230: 6e7e 19bd 1319 fcbc 8041 27bd df07 a53d
00000240: 40c7 3dbc 4ff2 8abc b9e0 c23d 57c9 40bd
00000250: ca83 abbd 8e2c ddbd f8fd 0d3d d9c0 a4bb
00000260: a552 cbbd 30ee f6bd 24e2 64bd 185d 36bd
00000270: 9791 a0bd 29f3 d8bc a0dc 03bc 42dc 4cbd
00000280: 8630 bdbc dd47 cc3d 2606 43bd a66a e83d
00000290: 18cf e2bc eb76 9e3c 9dd4 11b9 cd1c 283d
000002a0: 7482 95bd 830d 63bc 2891 ce3d c8d9 73bd
000002b0: 2447 13bd e8fd 653d 6c3d 8cbc b8de b2bd
000002c0: 2c13 82bd e7e0 a0bd 929d 42bd 1d97 cebd
000002d0: eb1e be3d fa6d a0bc 03dd bc3d 887f 3bbd
000002e0: 9889 b838 bae4 fb3d 3220 4fbc be5b 043d
000002f0: 49a5 393c 3d4e 9c3d c8c8 8a3d aa5e d73d
00000300: ee62 c53c 02e3 3d3d 1507 58bd 4a22 febd
00000310: efb7 0c3d f029 84bd 081d 48bd c804 093e
00000320: 0db8 093e b6c4 28bd 49d6 23bc 9e34 9bbd
00000330: 58a9 1dbe a63b 053d 07e1 0e3d 21d3 ffbb
00000340: abe2 323d dd94 7dbb 5e0f d63d 61eb c8bd
00000350: 4f28 39bc 61f8 83bc 77d2 903b 0035 363c
00000360: 80d4 333d 2f98 dd3d c1e0 813d 089c f53c
00000370: bfca a43c daac 4bbc b145 5abd bd96 153e
00000380: fd8c 9b3c f777 d13c 7006 28bd 56f2 2cbc
00000390: 9567 80bd c931 103e da87 ad3b 3313 5a3d
000003a0: 2989 c93d 7834 35bd a003 b63d b318 5cbd
000003b0: 9276 a4bc 2fde 06bd bf2e ac3d 9256 cebd
000003c0: 24a9 963d 3bc0 26bd 133f a43c 2e80 c53d
000003d0: 76c8 e8bc 0318 b93d 37ad 8f3c 9ba1 0f3d
000003e0: d525 0f3c 1652 ff3d cc1d 373d db60 85bd
000003f0: 4c34 01bd d2ce 4d3d 9ae4 313d b35c b9bd

features.2.bias f4 [24]
0.084936164 0.024268452 0.07749404 0.005499756 -0.028058838 -0.074370585 0.006364656 0.030148698
0.012142519 -0.037527796 0.06576128 0.017651964 -0.063070655 0.021729913 0.03644962 -0.04062407
0.018284813 -0.0072154026 0.015751079 0.06172813 -0.012140699 0.060342733 0.07788627 0.0059269825
00000000: 03f3 ad3d a2ce c63c 32b5 9e3d 4c37 b43b
00000010: a6db e5bc 9b4f 98bd 9b8e d03b 67fa f63c
00000020: 6af1 463c bfb6 19bd daad 863d da9a 903c
00000030: 302b 81bd ee02 b23c 324c 153d 6d65 26bd
00000040: 08ca 953c 2f6f ecbb 6808 813c a3d6 7c3d
00000050: c8e9 46bc f129 773d d682 9f3d 2237 c23b
