N/Treinamento/MLP/1_camada/conf_2/modelo_seed_36_loss_0.002796.pt (torch, 37295 bytes, 4 tensors)

features.0.weight f4 [86, 74]
00000000: 1ad7 28bb bf2d c3bb 1ce8 e7bd 982c 333c
00000010: b3df 993d 62d3 a9bd 7eba 803d e675 233e
00000020: d1ca a33d 9ebc 2bbd 1b59 c23d 7207 ac3d
00000030: 426d 3a3d f1be bcbd 6612 30bd 21e6 67bd
00000040: 126d 83bd 2f7b d7bd 85db 1ebd 626e cabd
00000050: 819d 453d 433a 42bd fe73 20bc 6e60 c1bd
00000060: 025c 9b3c 233a c5bb b541 05bd 90d3 183d
00000070: 4137 89bc 89ed f1bd bf67 2c3d 7bf6 5d3d
00000080: ad53 fa3d c7d6 aa3d 41f3 c0bd cfa8 8e3d
00000090: 6b25 1c3e d04f c73c 3166 023e e188 4f3d
000000a0: 3b94 843d 23f1 97bd f955 ec3d dc9f 47bd
000000b0: 5497 063e 5449 f53d f527 9a3d aa27 dc3c
000000c0: 2087 cf3d 30d7 e73d 311a 953d be26 a4bd
000000d0: 9648 f5b9 19eb 993c 926d 8cbd 5d79 cb3d
000000e0: 0dad 013e b063 fc3b 6137 d53d 0e91 4b3d
000000f0: 07a0 cfbd 7d80 a8bc e771 0abe 4b5c d43c
00000100: 0fab a7bd 6a90 a7bd a872 b9bd b6fb ec3b
00000110: 7521 47b9 7d2d 84bd c63d 703c 4284 f83d
00000120: b2e2 a6bd 2de9 48be ade6 bdbc b7c4 b0bd
00000130: f2d9 31bc c0b3 eebc 7de2 193c 630a 6fbd
00000140: 5665 9e3c 2056 c4bd c74a a1bc 1b69 3fbd
00000150: 60db 9b3d 92bb ed3c a2d9 ebbc 15f4 51bd
00000160: 60b2 ca3d 0475 743d 290b e3bd f3a9 ca3c
00000170: 3bd3 ebbb c384 9bbd 6722 e8bd 1ed5 f3bd
00000180: 356f a8bd e237 ec3c 049b 0cbd 96f7 99bd
00000190: 9738 f83b 1db4 4fbd ac91 47bd 2dcc 85bd
000001a0: 3ad9 333d 29b9 06be 1599 d9bd 2e76 eb3d
000001b0: e3d8 9f3d 3dc9 bd3d 4957 5abd 5781 35bc
000001c0: a6c9 c3bc d149 f03c 493d 9d3d 37da 2c3e
000001d0: cd8c b2bc 2d26 383c c0f3 54bc 18fd d93c
000001e0: 7c90 9dbd 3e4f bfbd 3f19 a73d fe3f bcbd
000001f0: ea79 77bd 3a74 78bd 76b2 613c 186c 4f3d
00000200: eed7 c83c 4e93 52bc 4c97 d83c 8d24 aebd
00000210: 4b7d eabd 8ce5 d9bc bd51 f2bd 729b 32bd
00000220: 2673 d4bb adbc a3bc d90c a4bc 7452 4dbd
00000230: d851 8dbd 404a bf3d 68dc babc 1bbf 07bd
00000240: 38a6 d33d 631d 9ebd 556c 3d3c 2600 b23d
00000250: 973f 153d a4bb 90bd 4e47 81bc a888 883c
00000260: 4ae9 c6bb fc3c a93d 5e9b f8bb 824e 40bc
00000270: 408c 90bc 2153 cc3d 8018 b13d 1c6d 4ebd
00000280: 4fd2 20bc 2194 fa3a 962c 813d 9213 503d
00000290: 5937 37bd 6162 763b e97a 8c3d ec9a 0fbe
000002a0: 00a7 25bc d5d1 b1ba 1ea2 763d ef90 63bd
000002b0: 5f43 253d a50a 98bd 11f5 663c 19cb 29bd
000002c0: 046c 213c 6648 303d 96e1 ecbb 4d59 153d
000002d0: 15a7 ca3d a4d9 7c3d 9c82 a63c 6d1f 133d
000002e0: 0def 7e3d d7b5 3d3e b974 cdbd c2bb 25be
000002f0: a5f3 503d 3ba0 dbbc 06ce e4bd 259b d03b
00000300: 4b15 1e3e e50f ba3d 5a7c 4c3d 2da1 483d
00000310: 27f1 cabd 4145 733d 0f9f debd e210 c2bd
00000320: 6353 f03d 1a8b 40b9 51cb 693c d566 17bd
00000330: d62c a23b 64a4 1a3d b0d2 073e 756e c63c
00000340: 21f4 b6bc 8731 acbc 8352 bf3d cfbd 3cbd
00000350: 6e60 ab3d 73e1 c13c 7451 09be 8510 b1ba
00000360: bc35 1bbe 1b31 30bc d5ce 51bd 01d0 a53d
00000370: 362b e23b 4024 dfbd c57e e9bc c2f5 a5bd
00000380: 9bef e83d 6fd6 21bc 5465 e7bd d9aa 40bc
00000390: bf17 85bd 7356 34bd 2f23 7bbc 9955 7fbc
000003a0: e52d 913d 60e4 b7bb 12a3 a3bd 5556 063d
000003b0: f4d8 c2bc a978 a6bd 14bd aa3c 2425 e1bc
000003c0: 68fe a2ba 7575 2b3d 6c57 d4bd 348e aebd
000003d0: 1cd7 b1bc 1713 023d a1e6 543d d5ec 833d
000003e0: 6409 003e f6ef 903d 0920 8e3c d93a 123d
000003f0: 7d74 a9bd 8bfe c0bd f585 513d 99c1 34bc
-0.0025762976 -0.005956381 -0.11323568 0.010935925 0.0751337 -0.08292271 0.062855706 0.15962943
0.079976685 -0.041927926 0.09489652 0.083998576 0.045514353 -0.09216107 -0.042986296 -0.056615952
-0.06417288 -0.10521542 -0.03878357 -0.09884335 0.04824591 -0.047418844 -0.00979328 -0.09442221
0.018964771 -0.0060188933 -0.032533366 0.037311137 -0.01674998 -0.11812884 0.042091127 0.05419014
0.12222991 0.08341747 -0.09421397 0.069657914 0.15248649 0.02433005 0.12734295 0.050667647
0.06473585 -0.0741904 0.115398355 -0.04873644 0.13143665 0.11976877 0.075271524 0.026874382
0.10133195 0.11320341 0.07280386 -0.08015202 -0.00046784122 0.018788861 -0.068568364 0.099352576
0.1266367 0.0077023134 0.10410953 0.04969888 -0.10137945 -0.02056908 -0.13520013 0.025922915
-0.08186924 -0.08181842 -0.09055072 0.0072321547 -0.00018990583 -0.06453989 0.014663165 0.12134601
-0.081487074 -0.196202 -0.023181284 -0.086312704 -0.010855185 -0.029138446 0.009392378 -0.058359515
0.01933543 -0.095867395 -0.019688977 -0.046731096 0.07610202 0.029020105 -0.028790299 -0.051258165
0.098973036 0.059681907 -0.11086113 0.024739241 -0.0071968115 -0.07593682 -0.11334687 -0.11905883
-0.08224336 0.02883524 -0.034327522 -0.075179264 0.0075751054 -0.05070888 -0.048722908 -0.06533084
0.043908335 -0.1315657 -0.10624901 0.1149715 0.0780504 0.09266899 -0.053305898 -0.0110782
-0.023899864 0.029332073 0.07677705 0.16880117 -0.021795655 0.011239571 -0.012997568 0.026609942
-0.07693574 -0.09341286 0.08159112 -0.09191893 -0.060419 -0.060657717 0.013775459 0.050640196
0.024517026 -0.012852503 0.026439331 -0.08503065 -0.11449679 -0.026598714 -0.118319966 -0.043605275
-0.0064834533 -0.019987429 -0.020025657 -0.05012746 -0.06900376 0.09340334 -0.022810176 -0.033141237
0.10334438 -0.07720449 0.011561473 0.086914346 0.036437597 -0.070670396 -0.015781071 0.016666725
-0.0060702907 0.08263585 -0.0075868806 -0.011737468 -0.017645001 0.09976793 0.08647251 -0.050397024
-0.0098157665 0.0019117632 0.06307332 0.050799914 -0.044730518 0.003759526 0.06859381 -0.14023942
-0.010110617 -0.0013566563 0.0602132 -0.05555814 0.040347453 -0.07423905 0.014096514 -0.041453455
0.009852413 0.043037795 -0.0072290404 0.036462117 0.098951496 0.061730996 0.020325951 0.03591864
0.062239695 0.18526398 -0.10032029 -0.16184905 0.051013608 -0.026809802 -0.11172108 0.006366151
0.1543781 0.09085063 0.04992328 0.048981834 -0.099092774 0.059392218 -0.10870182 -0.094758764
0.11734655 -0.00018362366 0.014269666 -0.036963303 0.0049491925 0.03775443 0.13263965 0.024222592
-0.022333207 -0.02101971 0.0934191 -0.046079453 0.08368002 0.023667073 -0.13409978 -0.0013508952
-0.15157217 -0.010753895 -0.05122264 0.08096314 0.006902124 -0.10895586 -0.028502831 -0.08103515
0.11373826 -0.009877785 -0.11298624 -0.011759483 -0.0649867 -0.044027757 -0.015328213 -0.015584373
0.07088832 -0.005611941 -0.079900876 0.032797176 -0.023785092 -0.08128483 0.020842113 -0.02748353
-0.0012435438 0.041860063 -0.10368237 -0.08523217 -0.021709017 0.031756487 0.051977757 0.064416565
0.12503582 0.07077019 0.01734926 0.035700653 -0.082741715 -0.0942355 0.051153142 -0.011032485

features.0.bias f4 [86]
00000000: 0e3d 933d 092c 13be 1e96 a63d 703e 80bd
00000010: 050a 96bc 26d0 2bbd 723a 20bd 2b28 843d
00000020: 7808 11bc 11e8 803b 3829 56bd e122 debd
00000030: 8817 f6bd dd00 3a3d d897 143c fb9b 18be
00000040: be36 073e 7efd 15bd a62f b43d 79db 6e3d
00000050: 0d2b 073e 8da5 7f3c 57ac b33d dd1c 2cbd
00000060: 6402 e5bd 8def 0d3e 050e 0d3d 21f7 55bc
00000070: 3d46 2b3d 8979 903d 3b3a fd3d 6772 9cbc
00000080: 3cb2 073e 3dcd 20bd 098e 7fbd 1212 acbd
00000090: f02f 9cbd 9614 653d ad2f 0d3c 51f3 163d
000000a0: 6b0e 1bbd feec 21bd 227e f83d 0a11 17be
000000b0: 0ae2 dabb f42f ab3d 9ed6 28bc b804 5e3d
000000c0: 9319 b03d 1f43 023d 9867 573c b6ea d7bd
000000d0: 6c4b b43d 1431 33bd 8808 b4bc fd26 9bbd
000000e0: 97f0 b5bc 9b20 d2bc 9f93 813d 55eb d13d
000000f0: bebb ee3d 6fb1 3dbc b5dd bebd f730 25be
00000100: f0ad 90bb eeaa 04bd f896 ccbd cc09 5ebd
00000110: 1ab9 febd fa80 f23d eb32 b03c 06f6 cabd
00000120: b38e 5d3d d667 8ebd 075d 3d3d 69ca f5bd
00000130: 9f86 0fbe 396e b0bd 3ab1 57bd 2468 a5bd
00000140: 0d64 57bd 98e9 4fbd e210 3b3c 77a5 c8bc
00000150: 4aca 673e ef95 713b
0.0718938 -0.14372267 0.08134101 -0.06261909 -0.018315325 -0.041946553 -0.039118238 0.06452974
-0.008852117 0.0039339145 -0.052285403 -0.108464964 -0.12016207 0.04541098 0.0090694055 -0.14903252
0.13204476 -0.036618702 0.08798151 0.058314774 0.13200016 0.015603435 0.087731056 -0.042019714
-0.111820966 0.13860913 0.0344372 -0.013059408 0.04181503 0.07054431 0.12364622 -0.01909752
0.13251585 -0.03925823 -0.062391315 -0.08401884 -0.07626331 0.055927835 0.008617324 0.03685314
-0.037855547 -0.039532654 0.12133433 -0.14752594 -0.006679778 0.08358756 -0.010305075 0.05420372
0.08598628 0.031802293 0.013147257 -0.105428144 0.08803448 -0.043747976 -0.021976724 -0.07575796
-0.022209449 -0.025650313 0.063269846 0.10249964 0.11656903 -0.011577948 -0.09319631 -0.1613196
-0.004415266 -0.032389574 -0.099897325 -0.05420856 -0.12437649 0.118410066 0.021508655 -0.099102065
0.054091167 -0.06953399 0.046231296 -0.12001497 -0.14016198 -0.08614773 -0.05265925 -0.08076504
-0.05258565 -0.05075988 0.011417599 -0.024492962 0.22635761 0.003686305

features.2.weight f4 [24, 86]
00000000: 685a d73d 94d1 05be 355f c3bd 81a3 853d
00000010: 5b43 6b3d 2211 36bd e280 56bd 799d c4bd
00000020: bb9c 863c 4b8c e13c c139 a9bc 1fc3 cdbb
00000030: f297 31bc 1e7f b0bd 50ab 2bbc d9fd 99bd
00000040: 69df 113e 79e9 bc3d 91a5 df3d 4a75 553d
00000050: 69c0 353d a30f 76bd 5279 2d3b 692e 94bd
00000060: da6e ee3c fb05 043c 3c28 503d 1681 6fbd
00000070: 304d 13bd 375c fd3b b5b0 79bd 89cc f0bb
00000080: 3f2d cd3c ccd2 e23c 6027 15bc 6166 003d
00000090: 57fe 29bd df93 553d 0873 cc3d 6b5e 9fbd
000000a0: 617d ba3d 9bb4 633d a93f b73c 16cc 133d
000000b0: ffc4 cf3d 80ff b33c 7225 9ebd 9d60 84bd
000000c0: 84fd 603d 797b 873d ba29 323d 2c23 073c
000000d0: 01af cd3d 1fdd 97bd 0c67 bc3a 542a b63b
000000e0: 0e0e 0ebe 56a0 63bd 2c81 8d3d 02bb 6c3d
000000f0: 56aa 6d3d 7cb6 493d dc87 2b3d fcd0 fb3b
00000100: 147f aebc ff95 b1bd 0a21 0b3a 0a5b 953d
00000110: fe18 d3bc 9fdc 823d 3cf3 653d 9ecd d6bd
00000120: 0bbc 5a3d 4ad4 a4bc 6e4a 77bd f154 26bd
00000130: ad0f 99bd b6a9 cdbd 8268 a53d 23f0 c6bc
00000140: c80d 66bd b252 ba3d a87a ab3b cd9d 6d3d
00000150: bbbd 113d a59d 283d 8f92 4f3d c586 26be
00000160: b275 873c fffa 7cbd 34c2 733c 3935 a2bb
00000170: fed1 02ba 1acc 35bc 7b89 a0bc fb91 803d
00000180: 2a91 5abd 46a0 acbd 01ac bdbd 1d30 c13d
00000190: 5932 113d e7a5 9bbd 4b47 49bd 626e bb3d
000001a0: 29b8 0dbd ed95 2d3d 4183 a13d b53b fa3c
000001b0: 5063 9dbd 0906 093c cc11 793b 5cfe 153c
000001c0: 7d42 813c 16a4 af3c 60a1 f3bd 050a 8d3d
000001d0: f129 773d d86d a5bd b32f 463d 7cf0 ef3c
000001e0: e15f b0bd 1ce8 c8bd 4915 94bd 99d7 ac3d
000001f0: 5db6 963d bd58 383d 9536 10bc a887 43bd
00000200: 77d4 803d 4a6c cfbc 425d 13bd e22b abbd
00000210: 4166 11bd 52f0 3abd ef31 7fbd c657 78bc
00000220: d2b2 43bd 6287 27bd 20ec 4abd a6e8 b1bd
00000230: 15e4 2dbd 6573 863d 9849 27be 36fe f7bb
00000240: d384 af3d a04e 9bbd 34f5 be3d 23c5 6e3c
00000250: 387e 9e3d f48f 6dbd ef41 a23d 0531 933d
00000260: e20f a03d cc6c 8fbc 34bf abbc 7b45 f53d
00000270: 6920 98bc f112 06be 57d9 b0bb 7cf6 44bd
00000280: cab3 0bbd 7a84 083d ec2b 8fbd 2bd8 57bd
00000290: ecc6 003e 9b4f bb3c 84ad 7abd 68c3 fa3d
000002a0: e260 52bd 68bc 4fbd 704c d93b 2a46 9b3d
000002b0: 70bb e33d c533 093b 4477 093d e394 98bd
000002c0: a5de a7bb bb47 9fbd 156c 703d f3ae 06be
000002d0: 2103 b9bd 3e10 75bc db69 923d 18b9 4f3d
000002e0: 1908 353d 766e b83d d05d 65bd 2099 f4bc
000002f0: 2449 d53a b75b 203d 619e ca3d 322a 5e3c
00000300: afef ae3d 1627 c53d c01b 0c3d ec4e 6b3d
00000310: 8be8 deb9 63c5 273d 4503 d3bd d5ca 7cb9
00000320: ef66 fdbc 065a bb3d 2ae3 66ba 2cfe d53c
00000330: c987 fd3d 777e 023e b749 82bc 079a 8fbd
00000340: 5e6a 103c 7a45 ef3d 7fcd 38bd 395b 70bd
00000350: a3ff 403d 6980 0f3d 57c6 033d a74e 4dbc
00000360: 4e92 91bd 21b1 47bd 8634 d03c 098d 403c
00000370: a84b 82bc 2b6a 8ebd 2de6 3dbc 443e 8e3d
00000380: dfd2 583d d756 c0bd b737 883c 13d5 d7bb
00000390: e57a d3bd dd20 81bc 1114 c53d fcd6 0c3d
000003a0: 6c18 043e f63c 12be 0631 243d 8cd0 cd3c
000003b0: b679 66bd d7bd de3c 182a 39bd fb0b 44bc
000003c0: 4115 99bc c6ae 483e 9fe5 77bc aec7 d5bd
000003d0: d685 a23d 6844 a3bd 3c2b bc3c 8b83 af3c
000003e0: e7fc c4bc ed19 dcbd 3c79 013b b167 8fbd
000003f0: d0df a4bd 540d 793d 5488 8f3d 674a 28bc
0.105152905 -0.13068229 -0.09539644 0.065253265 0.057437282 -0.044449933 -0.052369006 -0.09600348
0.016432157 0.027532717 -0.020657422 -0.0062793638 -0.010839449 -0.08617996 -0.010477856 -0.07519121
0.1424538 0.09224219 0.10920251 0.05211381 0.04437295 -0.060073506 0.0026470018 -0.072354145
0.029105593 0.0080580665 0.05081962 -0.058472715 -0.035962284 0.00773194 -0.060959537 -0.0073486012
0.02504599 0.027688406 -0.009103626 0.031347636 -0.041502323 0.052142974 0.09982878 -0.07781681
0.091059454 0.05559216 0.022369223 0.036083303 0.10144996 0.021972418 -0.07721986 -0.0646374
0.05492927 0.066153474 0.043496825 0.008248132 0.10043145 -0.074152224 0.0014373972 0.005559245
-0.13872549 -0.05557283 0.06909403 0.057795532 0.058023773 0.049246296 0.041877612 0.007684825
-0.02130083 -0.086711876 0.00053073524 0.07292755 -0.025768753 0.063897364 0.05614017 -0.10488437
0.053401988 -0.020120759 -0.060373716 -0.04060835 -0.07473693 -0.100421354 0.08076574 -0.024284428
-0.056165487 0.09097804 0.0052331276 0.05801182 0.03558133 0.041165967 0.05067688 -0.16262348
0.016535614 -0.061762806 0.014877845 -0.0049501923 -0.0004990398 -0.011096025 -0.019596806 0.062778436
-0.053361095 -0.08429007 -0.09261323 0.09433005 0.035448406 -0.07600003 -0.049140256 0.09151913
-0.034599457 0.04237931 0.07886363 0.030546049 -0.07684958 0.008363255 0.0038004993 0.009154882
0.015778774 0.021440547 -0.11896014 0.06886677 0.060342733 -0.08077592 0.048385333 0.029289477
-0.086120375 -0.09809896 -0.07230622 0.084395595 0.07359002 0.045006502 -0.008802076 -0.047736794
0.062905245 -0.025320191 -0.03597761 -0.08357979 -0.035497908 -0.045639344 -0.06230348 -0.015157646
-0.04777796 -0.040900595 -0.049541593 -0.08686952 -0.042453844 0.065649785 -0.16336668 -0.007568146
0.08570256 -0.07583356 0.093241125 0.014573368 0.07738918 -0.057998613 0.07922732 0.07187084
0.078155294 -0.017507933 -0.020965196 0.11976143 -0.018570142 -0.13093163 -0.0053970027 -0.04808663
-0.034107007 0.033329464 -0.06990799 -0.05269639 0.12575883 0.022865107 -0.061200634 0.12244302
-0.051361926 -0.050716788 0.0066314265 0.07581742 0.11119735 0.0020935398 0.033561006 -0.07450273
-0.005122977 -0.077773534 0.058696825 -0.13152675 -0.090338 -0.014957486 0.071490966 0.05071363
0.044197176 0.09005444 -0.05599767 -0.029858172 0.0016272408 0.039149966 0.0989349 0.013559865
0.0854181 0.09626596 0.034206152 0.057448313 -0.00042516398 0.040959727 -0.10303358 -0.00024108154
-0.030932872 0.0914803 -0.0008807654 0.026122175 0.123794146 0.12743555 -0.01590429 -0.070118
0.008814422 0.116831735 -0.04511785 -0.058680747 0.047118794 0.03503457 0.032171573 -0.012530959
-0.071079835 -0.048752908 0.02541567 0.011752375 -0.015905216 -0.06953844 -0.011590523 0.0694547
0.052935477 -0.093915634 0.01662813 -0.0065866797 -0.10326175 -0.01576274 0.09622968 0.034384713
0.12899941 -0.14281067 0.040085815 0.025123857 -0.056268416 0.027190132 -0.04520616 -0.011965747
-0.018686892 0.19597921 -0.0151304295 -0.104384765 0.079356834 -0.07972032 0.022969835 0.02142503
-0.024046374 -0.107471325 0.00197561 -0.070021994 -0.08050501 0.060803726 0.070084244 -0.010271645

features.2.bias f4 [24]
00000000: 2a87 7f3c 2902 37bc 195a 5fbd eb29 8b3d
00000010: 8508 06bb e093 6c3d 4ab3 cabd ef18 b3bc
00000020: de9d c3bd 8f4e f23c 8ae3 843d 205d 213d
00000030: 9dec d6bc cafe 91bc b745 0ebd 9a9e eabb
00000040: fb53 3bbc e36c ef3b d3f2 59bd 6d4e 153d
00000050: 4a46 a73c e85d 82bd 090b 8a3c e1b7 09bd
0.0155961905 -0.011169949 -0.054529283 0.067951046 -0.0020451855 0.057758212 -0.09897478 -0.021862475
-0.09551595 0.029578475 0.06488712 0.03939545 -0.026235873 -0.017821688 -0.034734454 -0.00716002
-0.011433597 0.0073066815 -0.05321009 0.036451746 0.020419259 -0.063655674 0.016850965 -0.033622626
