SECO/Treinamento/LSTM/LSTM_2_DENSO_1/conf_1/modelo_seed_08_loss_0.002719.pt (torch, 475413 bytes, 10 tensors)

lstm1.weight_ih_l0 f4 [344, 74]
000000 0e 44 04 bd b5 9d d5 bc 22 5b ac bc 82 f2 29 be
       -0.032291465 -0.026076177 -0.02103955 -0.16596416
000010 a8 58 f3 bd f0 50 b7 bd 1c f9 e9 bc be 2c 42 be
       -0.11882144 -0.089509845 -0.028561167 -0.1896238
000020 97 55 02 bd cf 38 b1 bd b3 af d4 3d a6 70 bc 3d
       -0.031819906 -0.086534135 0.103850745 0.092011735
000030 00 d0 06 3c 80 22 df bc cf ea 73 bc c0 79 4e 3e
       0.008228302 -0.02723813 -0.014887526 0.20163631
000040 bb 32 44 3e 67 9f 34 3d 2e f5 3c 3d 52 98 69 3d
       0.19159977 0.04409733 0.04613226 0.05703003
000050 e5 58 da 3d 2c a1 96 3d fc 47 89 bd de 2b 9e bd
       0.106614865 0.0735496 -0.06703183 -0.07723211
000060 3a 6e 7d bc e9 72 44 be 2e b7 17 be 12 98 03 be
       -0.015468175 -0.1918446 -0.14815971 -0.12850979
000070 bc 70 c0 bd 45 fb 06 be 3a 48 5c be 36 fe 11 be
       -0.093965024 -0.13181789 -0.21511927 -0.1425713
000080 78 77 2e be 6b d3 f6 bc d4 ce 44 bc 55 4e 1c 3e
       -0.17037761 -0.030130109 -0.012012202 0.15264256
000090 3c 78 52 3d fe 81 db 3d 31 a1 ad bd b3 92 9e bc
       0.051384196 0.107181534 -0.084780104 -0.019357061
0000a0 17 15 5d 3d 5a bd b1 3c 5e 2f f5 3b f8 f8 e3 3d
       0.05397519 0.021696735 0.0074824532 0.111314714
0000b0 b0 e9 7c 3e 30 f8 83 3d 00 35 65 be 10 26 77 be
       0.2469852 0.064438224 -0.22383499 -0.24135613
0000c0 d9 ba 14 be d8 d1 b3 bc 9e dc 14 bd eb f7 4b 3d
       -0.14524402 -0.021950647 -0.03634321 0.04979698
0000d0 0a ce 5c 3c c4 19 7f 3d d7 fc 1a bd c6 6f ef 3c
       0.013476858 0.06228043 -0.037838783 0.029228102
0000e0 40 12 54 3c 0a 3c c6 3c bf 09 03 bd 0b 97 a9 3b
       0.012943804 0.02419855 -0.031991716 0.0051754764
0000f0 69 49 ab 3d 07 28 f3 3c c5 c1 f9 bc 75 2f bb 3c
       0.08363611 0.029682172 -0.030487904 0.022849778
000100 42 1f 9a 3d 20 06 ed bd 11 4b 11 bd 30 da 82 bc
       0.07525493 -0.11573434 -0.03547198 -0.01597318
000110 db a0 e8 bd 8f a9 c9 bd 02 dc 78 3d 11 f5 06 3c
       -0.11358806 -0.09846794 0.06075669 0.008237139
000120 ab 67 36 3e e3 43 b9 3d 48 64 f9 bd ab 43 fe bd
       0.17812984 0.090461515 -0.1217733 -0.124152504
000130 a0 40 40 be b4 6c 0b be 6e 61 fa bd 51 e4 59 bd
       -0.18774652 -0.13615686 -0.122256145 -0.053196255
000140 cf a8 4f bd 4e dd e8 bd bd aa 9e bb 4e a9 06 bc
       -0.050698098 -0.113703355 -0.004842131 -0.008219076
000150 b7 c6 bb 3d 79 26 1c 3e a9 3c 81 bc be 28 97 bc
       0.09168761 0.15249051 -0.015775995 -0.018452045
000160 61 06 d2 3d 8c 7f 56 3e 94 0a db 3d 2a e8 4a 3e
       0.10255123 0.20947093 0.10695377 0.19815126
000170 38 9d d4 bd e8 28 28 bd 8a bf 84 be 2c f6 b3 bb
       -0.103815496 -0.041054636 -0.25927383 -0.0054919925
000180 48 eb 8d 3d 87 8b ed bd 6b bf 7d bc e4 7c 5e 3c
       0.06929642 -0.11598878 -0.015487532 0.013579581
000190 37 9b 10 be ea e1 8d bd 7e 75 94 bd d3 6f 23 be
       -0.1412171 -0.06927855 -0.07248972 -0.15960626
0001a0 48 6c 15 be 46 60 07 3d be 42 2f 3c 54 d7 0b 3d
       -0.14592087 0.033050798 0.010697065 0.0341409
0001b0 59 c0 ff 3c 74 cc 3a bc f9 4c e2 3d 3e 6f f3 bc
       0.031219648 -0.0114012845 0.110498376 -0.02971613
0001c0 7e f6 51 3c 69 fb ad 3d 37 b8 d0 3d fd c4 e3 3c
       0.012815116 0.08495218 0.10191386 0.027803892
0001d0 01 b1 93 3c d4 b3 d3 3d a9 92 0d be 4f fc fa bd
       0.018028738 0.10337034 -0.13825478 -0.12255155
0001e0 ed 42 61 be 82 e2 ee bd 8c 95 79 bc ff 29 b4 3d
       -0.21998186 -0.11664297 -0.015233409 0.087970726
0001f0 e2 7e 94 3d a7 44 ca bb c6 3d 14 3d 68 6a 5b 3d
       0.072507635 -0.006172735 0.036191724 0.053568274
000200 39 58 11 bd b7 f1 5d bb b2 cf 64 bd db 2f cb 3c
       -0.035484526 -0.0033865997 -0.055862136 0.024803093
000210 02 5e 27 bd e6 1e 21 3d a9 be 1e 3e e4 aa 09 3e
       -0.040861137 0.039336108 0.15502419 0.13444096
000220 79 b2 ce 3d 49 74 ce 3d 05 54 1b 3e d7 17 fc bc
       0.10092635 0.100807734 0.1516877 -0.030773086
000230 2c 86 e0 3d 34 87 59 3e d8 49 b2 3d e2 96 53 3d
       0.10963091 0.21242982 0.08705491 0.051657565
000240 13 a6 27 3d 07 22 69 bd d5 3c a0 bd 62 3c c1 bd
       0.040929865 -0.056917217 -0.07824103 -0.09435345
000250 b9 67 9b 3c 02 67 c2 bd 7e 9b 84 bd 3b 60 75 bd
       0.018970357 -0.094923034 -0.0647497 -0.059906226
000260 fa a1 32 3d 00 05 91 bd 08 52 c7 3b 76 cb b9 bd
       0.043611504 -0.07081032 0.006082777 -0.0907201
000270 70 79 91 bd 6f ac 1a be 97 73 a8 bc ef 56 f2 bd
       -0.071032405 -0.1510484 -0.02056293 -0.118329875
000280 a9 d4 27 3d 6d 9c 08 be e2 95 d6 bd b2 30 05 3d
       0.040974293 -0.13340922 -0.10477807 0.032517143
000290 d6 f3 c7 bc a0 b8 40 3d 47 d2 ba 3c 66 e4 d5 3d
       -0.024408262 0.047051072 0.022805346 0.10443954
0002a0 72 1c 94 3c e8 6f 56 3d 7b 05 ae bb 58 9d a2 3d
       0.01807997 0.052352816 -0.005310712 0.07940167
0002b0 77 a2 c1 3c 61 aa da bd 59 4f e7 bd fe 0c 9c 3b
       0.02363704 -0.106770284 -0.11294431 0.004762291
0002c0 cf 97 42 bd 98 56 77 3d 8f 54 b6 bd f3 9b b9 3c
       -0.047508057 0.060385317 -0.08902847 0.02265737
0002d0 c0 8c 0a 3d aa 8f 53 3d d3 bf 98 3c 5e ff a4 bd
       0.033825636 0.05165068 0.018646156 -0.0805652
0002e0 94 3c 28 3d aa ea 89 bd 36 9e 5f bd a2 7c 85 3d
       0.041073397 -0.06734212 -0.05459424 0.065179124
0002f0 32 24 99 bc 5e ad 98 bd a1 c5 bd bd 98 cc a2 3d
       -0.018694017 -0.07454942 -0.0926621 0.079491794
000300 80 79 32 bd 5b e1 4f bd 74 a0 d4 bd 00 84 64 bd
       -0.043572903 -0.050752025 -0.103821665 -0.055789948
000310 c4 ec da bd b0 a1 6b 3d 2c 3a 96 3d 5e 72 5e 3c
       -0.10689691 0.057527244 0.07335314 0.013577072
000320 18 3e e5 3c 14 0f ed ba 7b 2f 27 bd 5e 2f 6f bd
       0.02798371 -0.0018086159 -0.040816765 -0.058394782
000330 59 39 9c 3d 00 fc 05 bd a8 1f c7 bd e7 c6 94 ba
       0.07628126 -0.03271103 -0.09722835 -0.0011350781
000340 4b 2f 88 3d bc cc 18 3e 70 9c 65 bd 23 79 00 bb
       0.066496454 0.1492185 -0.056057394 -0.0019603453
000350 e7 e7 2c 3d 1e 73 a8 3d 7e ca ac bd a6 a2 92 bd
       0.042213347 0.08225082 -0.0843706 -0.07159929
000360 ac 19 39 bd 0b 65 09 3e 25 00 4a bd 7e 41 a9 3d
       -0.0451905 0.13417451 -0.049316544 0.08264445
000370 e9 a8 8e bc 49 20 11 3e e2 bc ca bd 00 a6 fa 3c
       -0.017414527 0.14172472 -0.09899308 0.030596733
000380 9c dc 4b bd 95 06 55 bd 0d a4 c8 bd 13 14 92 3a
       -0.049770936 -0.05200823 -0.09796915 0.0011144899
000390 c5 4c f6 bd 84 43 1e be 8b 4e 43 bd 1f e2 f6 bd
       -0.120263614 -0.15455443 -0.047682326 -0.12054848
0003a0 61 e0 34 bd 9d 50 87 bb a7 dc 05 3d da db 2f 3d
       -0.044159297 -0.004129483 0.032681134 0.042934276
0003b0 52 ce fb 3c a4 1b ef bb 86 01 80 3d 64 b7 34 3d
       0.03073803 -0.007296996 0.062502906 0.044120207
0003c0 3f 2a 65 bd 57 16 c0 3d f7 c9 fc 3d a3 15 63 bd
       -0.055948492 0.09379261 0.12343209 -0.055440556
0003d0 b0 74 38 bd 1c 0a 52 3d 62 42 ff bd f0 3c 24 bb
       -0.045033157 0.051279172 -0.124638334 -0.0025060736
0003e0 a0 ea b2 bd 91 1e e1 3c ae 26 6d 3d 29 e8 87 3d
       -0.087361574 0.027480396 0.057898216 0.06636078
0003f0 aa c9 09 be 18 c1 d2 bd 93 28 bf bd b0 4a 12 be
       -0.13455835 -0.10290736 -0.09333911 -0.14286304

lstm1.weight_hh_l0 f4 [344, 86]
000000 0f 37 02 3d f1 a3 1b 3c 2b 35 cd bd c5 9d 56 3c
       0.03179079 0.009499536 -0.100199066 0.013099139
000010 53 a6 ea bc e4 1c 26 bd e8 15 cd bd 40 68 99 bd
       -0.028643763 -0.040554896 -0.10013944 -0.07490587
000020 97 69 ff 3c bc a5 ca 3d 8a 15 b2 bb a6 f2 ee bc
       0.031178279 0.098948926 -0.0054346966 -0.029168438
000030 52 78 86 bd 5f 68 da bb b3 91 6a 3d 67 27 27 3d
       -0.06565918 -0.006665274 0.057267856 0.04080906
000040 cd c0 be bd df 04 d0 3d ba 7a 9d 3d d7 80 08 bd
       -0.093141176 0.10157179 0.07689424 -0.033325996
000050 78 a9 80 bc 7b b8 29 3d bc 7b 28 bd e6 2c d5 bd
       -0.015705809 0.0414357 -0.041133627 -0.10408954
000060 7d 4a c2 bd 8c 0f 49 3c 23 00 ca 3d 94 bf dc 3d
       -0.09486864 0.012271773 0.09863307 0.10778728
000070 a4 55 20 bd 95 77 80 bd 13 f4 b6 3d 4d cb c9 bd
       -0.039144173 -0.062728085 0.08933272 -0.0985323
000080 d4 d2 f0 3c b9 83 3f bd 18 0c bc 3d 41 0a 8d 3d
       0.029397406 -0.04675648 0.09181994 0.068867214
000090 b7 c2 74 bc d0 bc a8 bc 49 9d 40 bd 68 dc 82 3d
       -0.014939002 -0.020597845 -0.047025 0.063896954
0000a0 f6 bd 0f 3d c0 34 b8 3d 2a 76 d4 3d 5d a4 07 bd
       0.03509327 0.08994436 0.103741005 -0.033115733
0000b0 01 5e c2 3c e6 f5 bd bd 10 46 b8 3c d9 98 85 3d
       0.023726465 -0.09275417 0.022494346 0.06523294
0000c0 ff 54 c4 bd 06 bf a1 bd b0 0c 85 bd e4 1f aa bd
       -0.09586524 -0.07897763 -0.064965606 -0.08306864
0000d0 dc 57 b4 3d 42 47 90 bd 08 b3 ae bd 21 25 b1 bd
       0.0880582 -0.07044841 -0.08530241 -0.0864966
0000e0 03 59 5e bd 5c 08 6a bd da de e5 3c cf d2 c6 bd
       -0.054284107 -0.05713688 0.028060365 -0.09708177
0000f0 34 85 c2 bd 13 5e 2c bd 35 15 9e 38 bb 20 0c bb
       -0.09498063 -0.042081904 7.537977e-05 -0.0021381814
000100 f1 c7 c0 bd 41 e8 79 bd 6f 01 a1 bd 5e 8d 58 3c
       -0.09413136 -0.06101251 -0.078616016 0.013217298
000110 e6 dd 86 3b 0f 5f cf bd 75 fc a3 3c 66 2d 8c bc
       0.004115808 -0.10125553 0.020017842 -0.017111491
000120 a8 47 83 3d ff 48 59 3c f3 6d 25 bd 58 d4 ae 3c
       0.06410152 0.0132620325 -0.04038806 0.021341488
000130 e0 da da bd 1c d6 94 3d 07 4a d0 3d 7b 5e a5 3d
       -0.10686278 0.072674006 0.101703696 0.08074661
000140 bd f3 7c 3c 1e fe d1 3c 2a 22 9b 3d 41 f8 e9 3b
       0.015438971 0.025633868 0.07574876 0.00714019
000150 c5 29 c4 3d 6b f1 c9 bd 1d af 5f bd 82 2c d8 3d
       0.095782794 -0.098605 -0.05461036 0.10555364
000160 cc 50 d5 3d cc 9b cc bc 04 c1 d6 3d e1 14 9a bd
       0.104158014 -0.024976633 0.104860336 -0.075235136
000170 14 62 cc bd ca 76 9a 3d 36 9b cd 3d e8 cb 94 3d
       -0.099796444 0.075421885 0.1003937 0.072654545
000180 58 90 36 3c 5f 15 8e bd 87 1b 86 bd 76 15 9c bc
       0.011142813 -0.0693767 -0.06548219 -0.019053202
000190 54 e0 80 3d 2f 3a a6 bd d1 ce 87 bd 4e 81 d0 3d
       0.06292787 -0.081165664 -0.06631244 0.10180913
0001a0 bb eb a0 bd 6c 74 11 3d 36 21 0d 3d 98 ed bc 3d
       -0.07857462 0.03551142 0.0344555 0.09225005
0001b0 84 64 4a 3c 39 8e 96 bd 5a 92 89 3d ef 25 c7 3c
       0.012353066 -0.073513456 0.067173675 0.02431008
0001c0 45 7f 86 bd 46 02 d2 3d a7 ca c5 bd 1f b4 a5 3c
       -0.065672435 0.1025434 -0.096577935 0.02022749
0001d0 70 23 9f 3b dd 05 c4 3d 9c b6 ff 3c ec 18 6b 3d
       0.0048565194 0.09571431 0.031215005 0.057396814
0001e0 03 49 49 bd f0 70 71 3d 98 3c 99 3b 75 96 52 bc
       -0.049141895 0.058945596 0.004676413 -0.012853255
0001f0 d7 76 0b 3d 1c 20 62 bd a2 d1 83 bd 5f f1 fb bc
       0.03404888 -0.055206403 -0.06436469 -0.030754743
000200 1d b3 d3 3d 5d 61 62 3d f8 6d 86 bc 4b 62 d2 bc
       0.103368975 0.055268634 -0.016409859 -0.025681635
000210 56 1d c9 3d 52 85 58 bd 03 55 a5 3b 3f 44 d2 bd
       0.098200485 -0.05286152 0.0050455346 -0.10266923
000220 6f 66 b9 bd cd 6f 3c 3c 20 38 8e bd 1b 4a ce bc
       -0.09052741 0.011501265 -0.06944299 -0.02518182
000230 76 d1 33 bd 58 9c 0f bd 50 11 c5 3d 2e bd c5 bc
       -0.04390093 -0.03506121 0.09622443 -0.02413806
000240 1a 1a 00 3c 0e 50 be bd 2b c5 23 3d f9 30 55 bd
       0.007818723 -0.09292613 0.039982956 -0.052048657
000250 45 8c 19 3d 13 6e 72 3b bd 27 ba 3d 55 34 c9 3d
       0.037487287 0.003699188 0.09089611 0.09824435
000260 96 98 4d bc ac 1c d6 3d 39 4e da 3c 65 5d 9d 3d
       -0.012548586 0.104546875 0.026648628 0.07683829
000270 8c 7d 98 3d 84 d9 c4 bd da 0b d9 bd 00 e9 a7 3c
       0.07445821 -0.096118 -0.10597964 0.020496845
000280 85 9f 51 3d 2f c0 02 bd 2a de 70 3d 26 88 46 3d
       0.05117752 -0.03192156 0.058805622 0.048469685
000290 ae 20 a2 bd c9 d7 22 3d 7f 60 82 3d 16 be 9d bd
       -0.079163894 0.03975657 0.063660614 -0.07702272
0002a0 63 60 12 bd 7a 4e a0 3d d2 62 67 bd 09 71 ba bd
       -0.035736453 0.07827468 -0.056490727 -0.09103591
0002b0 15 b8 40 bb 22 0a 25 bd 3d 02 94 bd 28 74 1e 3d
       -0.0029406596 -0.040292867 -0.072269894 0.038684994
0002c0 84 1b db bd f6 13 c4 3d 6d 36 5e 3d ab fe 49 3d
       -0.106986076 0.0957412 0.054251123 0.049315136
0002d0 c2 79 68 3d 9e ec 31 bc df 78 89 3c 7d 0c 0b bd
       0.056756742 -0.010859637 0.016781269 -0.033947457
0002e0 fe d5 e3 bc 0d 48 df bc 5b ea 46 3d 98 45 50 bd
       -0.027812 -0.027256036 0.048563343 -0.05084762
0002f0 81 b0 9f bd 63 c4 61 bd 9b d4 96 3d 02 9c d8 bc
       -0.07797337 -0.05511893 0.0736477 -0.026441578
000300 0e 47 d5 bd 00 3c 9e bd d2 0c a4 3d 19 e6 94 3d
       -0.10413943 -0.07726288 0.08010258 0.0727045
000310 7d 3f a2 bd ca c1 db bd fd d7 d3 bc 47 86 43 3d
       -0.07922266 -0.10730322 -0.025859827 0.04773548
000320 5f bc 65 3c d7 0e bd bd 96 5b d1 bd b1 01 5f 3b
       0.014021962 -0.09231346 -0.10222547 0.0034028108
000330 7d 44 aa bd f8 76 0f bd 67 ce 0a bc 9c d6 ae 3d
       -0.08313844 -0.035025567 -0.008472062 0.08537027
000340 50 e1 a3 3c 70 ac 84 3d 4d 08 a0 3d d6 1d b6 bd
       0.020004898 0.06478202 0.07814083 -0.088924095
000350 c0 3e d8 3d dc d3 b7 bd e1 b9 d2 bd 8a c3 9a 3d
       0.105588436 -0.08975956 -0.1028936 0.07556827
000360 85 77 aa 3c da 93 d3 bd 4b 83 ad 3d df 75 ac bd
       0.020808944 -0.10330935 0.08472308 -0.084209196
000370 4b 3d 81 bd 89 0d a8 bd 61 6a d6 bd 00 73 3e 3d
       -0.06310519 -0.082057066 -0.10469509 0.04649639
000380 cb 0d d6 bd cd 0e ca bd 5e 0b d3 bd 0a e2 7c bd
       -0.104518496 -0.09866104 -0.103049025 -0.061739005
000390 e8 4e cd 3c c8 fa 84 3c 48 66 17 3d 17 c4 30 bd
       0.02506204 0.016232863 0.036962777 -0.043155756
0003a0 88 b7 be 3d 55 1d 3a 3d 0a dd ab bc 2d 86 54 bd
       0.093123496 0.04543813 -0.020979423 -0.051885772
0003b0 57 d2 76 3d d6 c6 ad 3d 68 0e 0d bd 21 f7 90 3d
       0.06025919 0.084851906 -0.034437567 0.07078386
0003c0 0f 02 53 3d a1 41 aa 3c 38 2c 8b bd 53 58 ca 3d
       0.051515635 0.020783247 -0.067955434 0.09880128
0003d0 f4 3d 7d bd fc ef 17 bc f2 9a 7d bd 03 07 24 3d
       -0.06182666 -0.009273525 -0.061915345 0.04004575
0003e0 c7 96 42 3d b9 db 25 bd 81 bd 6d 3d 2e 33 c0 bc
       0.047507074 -0.040492747 0.058042053 -0.023461904
0003f0 41 f5 8f bb 66 0d 60 bd 03 af 7b 3d 6e 18 a1 bc
       -0.00439325 -0.054700278 0.0614462 -0.01966497

lstm1.bias_ih_l0 f4 [344]
000000 b4 7b 2e 3e 60 de 73 3e e4 99 0a 3e dc 3d c2 3d
       0.17039376 0.23815298 0.13535267 0.09484455
000010 33 ba 15 3e c2 38 1f 3e 73 10 2e 3d 11 98 05 3e
       0.1462181 0.15548995 0.042496156 0.1304629
000020 3f 1f 87 3e 59 89 90 bc 8e d9 09 3e 1a 94 c5 3d
       0.26391026 -0.017643617 0.13461897 0.09647389
000030 99 5b 01 3e 30 a7 e8 bc c5 a4 42 3e e9 03 75 3e
       0.12632598 -0.028400034 0.19008167 0.23927273
000040 08 64 b2 3d 21 e6 bf 3b 07 53 e8 3d b6 e6 6d bd
       0.08710486 0.005856291 0.11343961 -0.05808135
000050 04 d0 b2 3d 77 ab 41 3e 8d ec 81 3d 6f 13 a5 3e
       0.08731082 0.18913065 0.063439466 0.3224139
000060 78 c8 56 3d 3b 90 60 3d e9 73 09 bc 04 e0 83 3d
       0.052437276 0.05482505 -0.008389452 0.06439212
000070 8d d4 6f 3d 84 a6 fd 3c ce 3e 8f 3d 63 f1 58 3e
       0.058552314 0.03096319 0.06994401 0.21185832
000080 93 66 1e 3e 12 ec 23 3e 8e f1 dc 3d fb a9 06 3d
       0.15468816 0.16008022 0.107882604 0.03287695
000090 02 7b 3e 3d 26 e4 03 3e e6 cf c9 3d b4 e5 29 3e
       0.04650403 0.1288 0.098541066 0.16591531
0000a0 7f 17 0f 3e de 95 93 3e cb 7f 15 3d da a0 c6 3c
       0.13973807 0.28825277 0.036498826 0.024246622
0000b0 82 6e e4 3d a7 2f 8f 3d 2c 90 03 bc 7d 77 1a 3e
       0.1115389 0.06991511 -0.008029979 0.15084644
0000c0 a9 33 da bc 3f 7c b6 3d 7b 71 df 3d 10 b1 9e 3d
       -0.026635962 0.08910417 0.109103166 0.07748616
0000d0 1e a4 70 3e 70 38 4c 3b 38 62 d3 3d 28 3e 07 3e
       0.23500106 0.003116157 0.10321468 0.13207304
0000e0 4f b0 85 3b 86 1f eb 3c ee 82 3a 3e 67 f6 c8 3c
       0.0040798555 0.028701555 0.18214008 0.024531556
0000f0 ed 91 f9 3c 69 d4 00 3d e5 17 f1 3d fc 90 82 3d
       0.03046509 0.03145257 0.11772136 0.0637531
000100 ef 0e 2a 3e 17 de 63 3d 45 f4 0f 3d 58 66 27 3d
       0.16607259 0.055631723 0.035145063 0.040869087
000110 1d e6 9f 3c 57 f3 d3 3c 4d a3 15 3e ce 7e 9d 3d
       0.019518906 0.02587287 0.14613076 0.07690202
000120 76 42 13 3e b9 8c d8 3d fb a5 e8 3c c9 46 08 3e
       0.14380822 0.10573716 0.028399458 0.13308252
000130 bf 3d b4 3d 2e db 15 3e af 1b 72 3d 35 22 01 3e
       0.0880084 0.14634392 0.059108432 0.12610705
000140 34 17 c5 3d f6 02 cc 3d 0f 60 cc 3d b6 06 07 3d
       0.09623566 0.09961502 0.09979259 0.032965384
000150 4b 94 07 3d 3e 79 6f 3d 64 be d0 bc 31 a7 79 3a
       0.033100408 0.058465235 -0.02548141 0.00095235097
000160 77 2c 4e bd 44 c8 a6 3d 53 b7 3e bd cf 38 ab 3d
       -0.050335374 0.081436664 -0.04656155 0.08360445
000170 7f 4e b1 bd 9e ea 32 bc 85 73 86 bc 7e 58 5a bd
       -0.0865755 -0.010920195 -0.016412506 -0.05330705
000180 e9 01 d7 bd 69 a0 81 bd 52 c7 bd bd 02 c4 b7 3d
       -0.10498411 -0.06329424 -0.09266533 0.089729324
000190 fe ad 90 3d f1 32 c4 3c 27 7d c7 bd 19 cc 7e bd
       0.070644364 0.023950072 -0.09740668 -0.06220636
0001a0 15 1a 3d bd ff f1 ad 3d 62 a2 d4 bd 13 ff 15 3d
       -0.046167452 0.08493423 -0.103825346 0.03662021
0001b0 8c b2 5d 3a 9e 1d 95 bd 7f dc 47 bd 40 f8 95 3d
       0.00084570865 -0.0728104 -0.048794266 0.073227406
0001c0 e0 80 3f bd a7 4d 35 bc b8 90 8b 3c 3d fe 28 3d
       -0.046753764 -0.011065877 0.01703678 0.041258086
0001d0 20 31 f7 3b 66 df 98 bd 01 29 cd 3d 18 26 52 3d
       0.007543698 -0.07464485 0.100175865 0.05130586
0001e0 60 64 5e bd a6 98 4b 3c 7b bd 47 bd 28 be cd bd
       -0.054294944 0.012426531 -0.048764687 -0.10046035
0001f0 61 80 7d 3d 63 0f 0e 3d b9 1f ff 3b 15 f1 5e bb
       0.06189001 0.034682643 0.007785764 -0.0034018208
000200 83 4f 86 3d 68 a2 99 3d c2 ab c6 bc 7e b4 92 3d
       0.065581344 0.0750168 -0.024251822 0.071633324
000210 4f 5c d6 3d 27 c7 1a bc 66 ca bb 3d 94 c8 15 3c
       0.10466825 -0.009446896 0.09169464 0.00914206
000220 59 c9 98 bd 16 0a 75 bd a1 11 96 3d 30 7e d9 bd
       -0.07460279 -0.05982407 0.07327581 -0.106197715
000230 31 20 d6 3d d9 5a 6b bd 12 a9 8d bd 28 d8 06 bd
       0.10455359 -0.057459686 -0.06917013 -0.032920986
000240 e2 f5 d7 bd 42 00 ba 3c 68 31 39 3d ce 62 d2 bc
       -0.10544945 0.022705201 0.045213133 -0.02568188
000250 6e 61 95 3d b3 b5 7b bd dc 41 84 3d 72 af a6 bd
       0.07293974 -0.06145258 0.06457874 -0.08138932
000260 76 f5 ec bc 68 5b 5f bc d7 76 da 3d 6e 05 b0 bd
       -0.028925639 -0.013632633 0.10667198 -0.08594786
000270 e9 3a 86 3c 64 78 10 3d bc 47 8d 3c 08 6d a9 3d
       0.016385512 0.035271063 0.01724612 0.08272749
000280 14 b4 b3 3d 20 5d db bc db 12 ac 3d c4 75 35 bc
       0.087745816 -0.026777804 0.08402034 -0.011075441
000290 60 66 42 bd 76 ef a8 bd f8 82 c8 bd 5a 0e 80 3c
       -0.047460914 -0.082487985 -0.09790605 0.015631843
0002a0 f2 66 8e 3c 2f 1b a4 bd 42 1d b6 bc 05 6b 90 3d
       0.017383073 -0.08012997 -0.022230748 0.07051662
0002b0 c6 c4 e6 3d 5c 80 b4 bd bc 84 a4 3d ef 74 46 3d
       0.11268 -0.08813545 0.080331296 0.04845136
0002c0 34 be ad bd 27 00 b6 3d 1e 8e c4 3d 8f 1b 82 3d
       -0.08483544 0.08886748 0.09597419 0.06352913
0002d0 ca 8b bd bd e5 e9 a1 bd 2c b7 14 3c f7 b1 7b bd
       -0.09255178 -0.0790594 0.009076875 -0.061449017
0002e0 b4 fb e7 bd 23 02 17 3d 2c ac 0e 3e 0a f2 39 3d
       -0.113273054 0.036867272 0.13932866 0.045396842
0002f0 14 dd 8b bd 75 44 34 3d 35 95 ef 3c c3 b6 13 3d
       -0.06829277 0.0440106 0.029245952 0.036062967
000300 f3 83 16 be 8a fa dc 3d a1 71 63 3c 85 23 a0 bd
       -0.14698772 0.10789974 0.013882072 -0.07819275
000310 e9 b1 06 3e 50 f5 5f bd e3 df 7d 3d 92 11 5c 3c
       0.13153805 -0.054677308 0.061981093 0.013431923
000320 cd 49 e1 bd be e9 b1 3d a5 f9 95 bd 01 18 90 bd
       -0.110004045 0.08687161 -0.073230065 -0.070358284
000330 f9 c2 7d bd 15 1d 90 3c 64 bb 5b 3d 2e 7d d2 bd
       -0.06195352 0.017591992 0.053645507 -0.102777824
000340 e6 84 16 3e a0 90 45 be 14 93 d9 bd d4 cc 7c 3d
       0.14699134 -0.19293451 -0.10623756 0.061718777
000350 ed d1 29 bd f0 7f 6a bb c5 5e 86 3d 40 ea d5 3c
       -0.041459966 -0.0035781823 0.065610446 0.026112676
000360 1f 02 dc 3d fe b3 6e bd 07 9b 90 ba af 67 7f 3d
       0.10742592 -0.058277123 -0.001103253 0.06235474
000370 1d 3b 53 bd 6d 91 39 3d 1c 79 7d bd d9 d4 42 be
       -0.051570047 0.045304704 -0.061883077 -0.19026507
000380 41 15 30 3d 83 4b 9d 3c 0d 5c 26 3c aa ff 89 bd
       0.04298902 0.019201046 0.010153783 -0.06738217
000390 88 31 d9 3d 24 ec ae 3d a8 d1 6b 3c 10 0a 2b 3e
       0.106051505 0.08541134 0.014393248 0.16703057
0003a0 58 c8 ad bd 20 bf 52 bd 68 42 62 3d 99 14 5d bd
       -0.08485478 -0.051451802 0.05523911 -0.05397472
0003b0 c1 c6 f5 bc 79 c7 a3 bd a2 7b 74 bc 07 20 ac 3d
       -0.030002 -0.07997031 -0.0149220545 0.08404546
0003c0 9d 1b 7c 3d 1f fb d2 3c e0 e6 a6 3d c0 86 da 3d
       0.06154977 0.02575451 0.08149505 0.10670233
0003d0 b6 7c 07 3e a9 3a cd 3d e3 55 bb 3c 99 05 2f 3d
       0.13231167 0.10020954 0.022868102 0.042729948
0003e0 2b b3 fe 3d d9 15 87 3a f0 a1 24 3e ba 3c d0 3d
       0.12436517 0.0010306194 0.16077399 0.10167833
0003f0 95 8f a8 bd 4d 8a 1a 3d 80 37 2d bc bc 13 9a 3d
       -0.08230511 0.03772955 -0.010572314 0.07523295

lstm1.bias_hh_l0 f4 [344]
000000 5d 36 85 3e 60 78 16 3e 1f 71 6b 3c e8 b2 cd 3b
       0.26018038 0.14694357 0.014370232 0.006277431
000010 04 af da bc 2f 29 e7 3d 17 3f 72 3d 05 7a 28 3e
       -0.026694782 0.11287152 0.0591422 0.16452797
000020 19 c3 9c 3e e9 b8 aa 3b c0 5d 60 bc 54 59 e4 3d
       0.30617598 0.0052100313 -0.013694227 0.111498505
000030 b3 1d 8f 3d ee ac 90 bc ad c0 2a 3e 83 07 00 3e
       0.069880866 -0.017660584 0.16675062 0.12502865
000040 64 c0 72 3d 05 47 2a 3e 65 4f 54 3e 8e 90 3d 3d
       0.05926551 0.16628654 0.20733412 0.046280436
000050 ed 16 26 3d d7 d5 50 3e eb e5 22 3e 6d 7c 97 3e
       0.040549207 0.20394073 0.15908019 0.29587117
000060 d8 c8 24 3e eb 2d 4d 3d 1c 26 0d bd 38 3b ee 3b
       0.16092241 0.05009262 -0.034460172 0.007270243
000070 23 b9 de 3d 2c f9 23 3d 70 a9 83 3d 73 8f 2d 3e
       0.10875156 0.04003255 0.06428802 0.16949253
000080 d8 40 72 3d f9 6b 21 3e 67 83 65 bd f5 09 6d 3d
       0.05914387 0.15763845 -0.05603352 0.057870824
000090 42 f0 32 3e 01 a3 44 bc 6e a8 07 3d 3c fb 46 3e
       0.17474464 -0.012001754 0.03311961 0.19431776
0000a0 c3 3e a8 3d 01 1a 3b 3e 8e c4 c5 3d 23 f9 2c 3e
       0.08215096 0.18271638 0.096566305 0.16891913
0000b0 0d 4f 0f 3e 8b a6 74 3c bf 6d 86 3d 0d 1e c3 3d
       0.13994999 0.014932285 0.06563901 0.09527216
0000c0 4f df d0 3d 35 36 02 3e 3e f0 05 3d 7d c7 86 3e
       0.10198843 0.12715991 0.032699816 0.26324072
0000d0 b3 ae 96 3e d3 ac 21 3e 2e 11 ab 3d 5b 67 bb 3d
       0.2943016 0.15788583 0.08352886 0.09150573
0000e0 67 41 1c 3d 9c 98 b6 3d 4d df fd 3d d6 f5 47 3e
       0.03814831 0.08915827 0.12396107 0.19527373
0000f0 61 53 db 3d a2 43 ec 3d 8a 98 41 3d d3 4f 88 3c
       0.10709263 0.115363374 0.047264613 0.016639626
000100 2f 5b dd 3d 79 36 ab bc b2 88 c5 3d e1 61 12 3e
       0.108084075 -0.020899998 0.09645213 0.1429515
000110 38 25 1a 3e f8 7b 32 3e ec 7e 1b 3d 63 58 84 3e
       0.1505326 0.17430103 0.03796284 0.25848684
000120 1e 5f d6 3d dd e9 57 3e 29 50 dc 3d 17 42 33 3d
       0.10467361 0.21085306 0.10757477 0.0437642
000130 08 c2 70 3e 72 37 20 3e b5 77 54 3d ac 0f fa 3d
       0.23511517 0.1564615 0.051871974 0.122100204
000140 66 08 22 3e c4 01 9a 3c 59 bc 97 3d 5e c7 7c 3d
       0.15823516 0.01879967 0.07408971 0.06171357
000150 32 3c fd bc 08 a6 83 3d 49 49 80 bd 52 cd dc bd
       -0.030912492 0.06428152 -0.06263978 -0.10781349
000160 09 ae b9 3c 57 34 88 3d b8 5c 8c 3d d0 7e 8c bc
       0.022665994 0.06650608 0.06853622 -0.017150313
000170 ba b3 88 3d 59 4a b3 bc 18 0d 64 3b 51 12 a6 bd
       0.06674905 -0.021886038 0.0034797844 -0.08108962
000180 8b 8c db bd 6c ae d6 3d 18 83 d3 bc 21 16 36 bd
       -0.10720166 0.10482487 -0.025819346 -0.044454698
000190 49 01 c0 3d 9d 03 84 3d 1a 67 d5 3c 26 9a 22 3d
       0.09375245 0.06446002 0.02605014 0.03969779
0001a0 f7 ac 22 3c df 78 a8 3d 34 e6 e7 bc 03 f1 c4 bd
       0.009928933 0.08226179 -0.028308012 -0.09616282
0001b0 b1 29 ca 3a d9 c7 c0 3d c4 7e 8f bd c5 71 0b bd
       0.0015423802 0.09413118 -0.070066005 -0.034044046
0001c0 b4 e8 97 bb 6f 59 c0 bc a6 87 46 3d 14 79 c6 3d
       -0.0046358947 -0.023480145 0.04846921 0.096910626
0001d0 39 90 79 3c 41 29 61 bc aa 6b 23 38 61 01 f2 bc
       0.015232139 -0.013742746 3.89625e-05 -0.029541673
0001e0 da 2e a6 3d 32 98 90 3d 9b 6e ac bd 81 06 a5 3d
       0.08114405 0.07060279 -0.08419534 0.08057881
0001f0 54 66 cd 3d cb 0f 66 3d 59 5d 29 3c 92 81 c6 bc
       0.10029283 0.056167405 0.010337197 -0.024231706
000200 f1 84 90 3c 74 32 88 bd 0f 73 d9 bd aa d8 01 3d
       0.017641516 -0.06650248 -0.10617649 0.031700768
000210 08 ee ea bc 29 03 a6 3d 8d bd 80 bc 27 69 78 3d
       -0.028677955 0.081060715 -0.015715385 0.060647156
000220 f4 aa a9 3d 2f ab 25 3d a0 db a3 bd 4f a9 c0 3b
       0.0828456 0.040446457 -0.080008745 0.005879558
000230 78 bb 94 3d f5 bd 36 bc 28 7b b5 bd 8d c3 be bc
       0.07262319 -0.011153688 -0.08861381 -0.023286605
000240 0b b3 1f bd 2a 08 13 3d 33 17 24 3d 3f 6b 16 bc
       -0.038989108 0.035896458 0.040061187 -0.009180843
000250 f6 fe af 3d b9 e1 a7 3d 4c cd b0 3b 36 9a a5 3d
       0.08593552 0.0819735 0.005395567 0.08086054
000260 6d cf 1d 3d 28 3c 02 3d 40 b0 e9 bc 15 ff da 3d
       0.038527895 0.03179565 -0.028526425 0.10693184
000270 a1 0b 8a 3d 93 30 e4 3c 50 7e b1 bd 32 7c c8 bd
       0.06740499 0.027855193 -0.0866667 -0.097893134
000280 92 a3 94 3d 4a eb c7 bd 02 fb d1 bd e8 3c ec bc
       0.07257761 -0.09761675 -0.10252954 -0.028837636
000290 cd 1e 0f bd 3e 88 93 bd dd 33 2b bd dd 9e 7e 3c
       -0.034941483 -0.072037205 -0.041797508 0.015540806
0002a0 96 b5 d2 3d ab 87 f0 bc 48 1d 6d bd 0e 3c cc bd
       0.10288541 -0.029361567 -0.057889253 -0.09972392
0002b0 f5 58 00 3e 2c d6 a9 bd 74 bb 01 3e b3 c7 04 bd
       0.12533934 -0.08292803 0.12669164 -0.03241701
0002c0 08 f2 05 be d1 95 37 3d 02 18 83 3d 2b e9 bf 3d
       -0.13080609 0.04482061 0.064010635 0.09370645
0002d0 51 d7 bd 3c bf 40 ca bd 55 85 b5 3d 1a c3 12 bd
       0.02317396 -0.098756306 0.08863322 -0.035830595
0002e0 42 73 c8 bd 04 72 21 3e c6 f1 54 3d 16 8d e7 3c
       -0.09787609 0.1576615 0.051988386 0.028265517
0002f0 84 9d 01 be dd f9 96 3d e2 53 0f bd f7 84 3c 3b
       -0.12657744 0.073718764 -0.034992106 0.0028765777
000300 52 26 88 bd 20 d0 31 3c b3 f3 e2 bc 6d 24 6b bd
       -0.06647934 0.0108528435 -0.027704095 -0.057407785
000310 cd b4 7a 3d d0 fc 0b bd 14 d1 9d 3d c7 37 0c bd
       0.06120758 -0.034176648 0.07705894 -0.03423288
000320 94 cc 19 bc 82 95 fa 3d 3a bf ac 3c ab 60 d3 bd
       -0.009387154 0.122355476 0.021087278 -0.10321172
000330 68 51 b7 bc fe 5e 07 3e 0e e5 2a bd 00 81 ce bd
       -0.022377685 0.1321983 -0.04172235 -0.100831985
000340 74 5c 60 bb c4 cb 16 be 28 12 84 3d d9 06 c5 3c
       -0.0034234794 -0.14726168 0.064487755 0.024051117
000350 18 1d e4 bd 03 05 0f 3e 29 83 09 3d b5 41 82 bd
       -0.11138362 0.13966756 0.03357235 -0.06360189
000360 6c bc 8f bc e8 a2 ba 3d e6 81 02 3e 68 be b3 3d
       -0.017545901 0.09113103 0.12744865 0.087765515
000370 c2 f2 b2 bd 0a 59 fc 3d 96 93 f7 bd 24 a0 33 bd
       -0.08737709 0.1232167 -0.12088697 -0.043853894
000380 0b ac 29 3d 77 ab fa 3c dc c0 21 bd 2a 4d 74 bd
       0.04142384 0.030599339 -0.039490566 -0.059643902
000390 ed 48 82 3c ff ec 40 bc 83 35 0e 3e a2 8b 54 3e
       0.015903914 -0.011775254 0.138876 0.2075639
0003a0 d9 6c 04 be 22 80 4d 3d 1e 01 8a 3d ac c1 bc bd
       -0.12932147 0.050171025 0.06738494 -0.092166275
0003b0 fc ef 0c be 55 7c d2 3d 12 b6 c9 bd 8f 9a c5 3d
       -0.13763422 0.10277621 -0.0984918 0.0964862
0003c0 6e 51 1a 3e cf aa 1b be ec f2 d9 3d 8c e5 f8 3d
       0.15070125 -0.15201877 0.10642037 0.121531576
0003d0 c8 95 0b 3e 67 93 4a 3d 1d 95 d5 bc 93 c6 66 3d
       0.13631356 0.04945698 -0.02607208 0.05634172
0003e0 d5 03 aa 3d 3b eb 5b bd 63 53 bb 3d a5 2c 03 bc
       0.08301512 -0.05369113 0.09146764 -0.00800625
0003f0 b9 44 a9 bd b0 01 80 bd 63 88 8c 3d 28 e1 ee 3d
       -0.08265061 -0.06250322 0.06861951 0.11664039

lstm2.weight_ih_l0 f4 [344, 86]
000000 c7 e4 ee 3d fa 20 9a bd 64 74 d2 3d f3 7a 17 3e
       0.116647296 -0.07525821 0.10276106 0.14792995
000010 6b 93 4b be ca 05 4f bd 8d 53 c0 3d b8 53 20 3e
       -0.19880454 -0.05054263 0.09390936 0.15656936
000020 de 53 dd 3d 12 4e bd 3d a0 56 be bd bb 1b c7 bd
       0.10807012 0.09243406 -0.09293866 -0.09722086
000030 72 a5 10 bd a7 de 27 3d 89 c2 97 bd bc da 09 be
       -0.03531403 0.040983822 -0.074101515 -0.13462347
000040 33 d5 0b be 6a f4 38 3e c9 5a d7 bd 2b 1e 03 bc
       -0.13655548 0.18061987 -0.10515363 -0.008002798
000050 e1 33 0b bd 18 53 0e 3e 23 5c 97 3c 1a 37 8a bd
       -0.033985022 0.13898885 0.018476551 -0.06748791
000060 d9 4c 48 3d 9f dc 3a 3d e0 2c 81 3d fd 63 df 3d
       0.048901413 0.045620557 0.06307387 0.10907743
000070 75 12 06 bc fb a2 a0 3d df 01 02 3e d9 ad d6 3d
       -0.008183111 0.07843586 0.12696026 0.104823776
000080 58 b5 08 be 74 ef 89 bd df 6f e1 3d e5 b7 0a be
       -0.13350427 -0.06735125 0.11007666 -0.13546713
000090 48 1d d1 3d 28 63 03 3d 02 50 b0 bd 5e 61 23 3e
       0.10210663 0.032076985 -0.0860901 0.15955111
0000a0 39 5e 2d bd 2f 0e 09 3c 0d 2d e7 bd 30 d8 c5 3d
       -0.042326186 0.008365198 -0.1128789 0.09660375
0000b0 e6 6a 0a 3c 50 78 de bc 07 d7 ce 3c e9 9d 91 bc
       0.008448338 -0.027156979 0.025249017 -0.017775493
0000c0 cb 54 34 be 89 c4 33 3e 60 ca da bd b8 ad 2e bd
       -0.17610471 0.17555441 -0.10683131 -0.04264614
0000d0 92 49 07 3e 23 e6 3a bd 9e bb 8e bd f6 32 19 3c
       0.13211659 -0.04562963 -0.06969379 0.009350529
0000e0 80 b3 a5 3c 4b c1 33 3d 12 4a 91 3d b1 9c fb 3d
       0.020227194 0.04388551 0.07094206 0.12285746
0000f0 df d8 d0 3b fa 15 d9 bd d7 8f 0e be a8 0a 0a be
       0.0063735093 -0.10599895 -0.13922058 -0.13480628
000100 f0 8e ae bd 5e 0d 9a 3d fc ff 65 3e f9 f9 35 3d
       -0.08523357 0.07522081 0.22460932 0.044427846
000110 e9 08 08 3e 5e c5 4b bd d0 c8 8d bd a1 64 a0 bd
       0.13284649 -0.04974877 -0.069230676 -0.078316934
000120 ab d0 2d 3e b8 d7 ec 3d 1f 91 c1 3c 73 33 66 bc
       0.16974132 0.115645826 0.02362877 -0.014050352
000130 6d da f0 bd 06 24 0e 3e 3f d1 29 bd df 53 3f 3b
       -0.117604114 0.1388093 -0.04145932 0.0029194278
000140 52 b8 68 3e 81 a4 6a bc f4 27 e6 3d 1f d2 5a bc
       0.22726563 -0.014321447 0.11238089 -0.013355761
000150 ee 2b 03 3d d5 91 f6 3d 93 f5 8d 3d af 0a 85 3d
       0.032024316 0.12039534 0.06931605 0.06496178
000160 c9 01 00 3d 80 e6 82 3d 35 2c 8c bc d1 78 39 3e
       0.031251702 0.06391621 -0.017110923 0.18112494
000170 bd fd 41 3d 10 e9 2a bc 11 96 cc 3b 2a c6 d9 bb
       0.047361124 -0.010431543 0.0062434752 -0.0066459375
000180 ac 86 e2 ba ed 31 c6 bb 9c 2a be 3d 0c 88 d4 3d
       -0.0017282567 -0.006048432 0.09285471 0.103775114
000190 58 33 bb 3d bd 2a 2c bc 61 ca 1e be dc 9f f5 3d
       0.091406524 -0.0105082365 -0.15506889 0.119933814
0001a0 bd a4 f5 3d 8d 06 d9 bc df f2 40 bd 15 8d 03 3c
       0.11994312 -0.026492381 -0.04710662 0.008029242
0001b0 56 4d 21 3e 23 23 65 be 85 81 5e bc 51 e0 62 bd
       0.15752158 -0.22376685 -0.013580685 -0.055389706
0001c0 89 e8 bc 3d 26 32 89 3e 52 70 a4 bd 0b 59 01 3e
       0.0922404 0.26796073 -0.08029236 0.12631623
0001d0 62 c6 70 3d e1 31 47 be 8b 97 8d be 9b 4b c8 3d
       0.058782943 -0.19452621 -0.2765468 0.097800456
0001e0 3f bb a0 bd 11 03 2f 3a 0a 96 92 3d a8 64 6b bc
       -0.07848214 0.0006676177 0.07157524 -0.01436726
0001f0 58 ee 88 bd d7 e1 6f 3d bd fb c6 bd d4 e7 23 be
       -0.066860855 0.058564987 -0.09715984 -0.16006404
000200 b7 ce 52 be cb 54 b6 bd 62 4c 94 bc 0f f5 37 3d
       -0.20586668 -0.08902892 -0.018102828 0.04491144
000210 02 40 de bb ce a8 c7 bd e4 78 45 be 7a a2 f8 bb
       -0.0067825327 -0.09748994 -0.19284397 -0.007587728
000220 14 14 68 3b a4 69 9b bc 74 a6 07 3e 8c e6 18 be
       0.0035412358 -0.018971272 0.1324709 -0.14931697
000230 0c f1 a7 bc 56 a7 95 bd a0 4a 44 bd a9 01 02 3e
       -0.020500682 -0.073073074 -0.04792273 0.12695946
000240 ff b0 f1 3d 2a 62 05 bd 05 c6 b7 3c 51 ae c4 3d
       0.118013375 -0.03256432 0.02243329 0.09603561
000250 41 6d c8 3d 2d d0 43 be 86 34 98 3b a5 bf 6f bd
       0.097864635 -0.19122382 0.004644933 -0.058532376
000260 0a a4 0d 3e 85 86 75 3d 2d 41 cc bd 28 81 56 3d
       0.13832107 0.05994274 -0.09973369 0.052369267
000270 c7 b7 13 bb c2 97 1f 3e 40 a6 25 3c cc 5f d4 3d
       -0.002253996 0.15585235 0.010110438 0.10369834
000280 16 df a5 bd c7 ee ed bd d5 7a db 3d 59 35 39 bc
       -0.08099191 -0.11617809 0.10716788 -0.011304223
000290 35 fc 01 bd 25 b6 19 bd ff df 93 3d 76 9a d6 3d
       -0.031734664 -0.037527222 0.07220458 0.1047868
0002a0 9b 22 00 3e d6 69 59 3d ff f5 8e bd 16 5a 9a 3e
       0.12513201 0.05307945 -0.06980514 0.30146855
0002b0 ed 51 3b bd 3f 40 90 3c 36 4f c8 bc 81 9b a0 bb
       -0.045732427 0.01760876 -0.024451833 -0.00490135
0002c0 93 70 0f be 83 21 77 3e 4a 1c bf 3d af 57 c6 bc
       -0.14007787 0.24133877 0.093315676 -0.024211733
0002d0 e1 5f 06 be 33 74 a3 3d b5 dd 15 bc fd 34 a1 3d
       -0.13122512 0.079811476 -0.009147097 0.07871435
0002e0 6b b6 ad 3d 97 5e 13 3e f8 b1 87 3d 6a 85 8e 3b
       0.08482059 0.14391552 0.06625742 0.0043494003
0002f0 b2 da 61 be 50 56 e7 3d f6 0a 0f 3e c1 ea 53 3e
       -0.22056082 0.1129576 0.13969025 0.2069502
000300 a4 35 b3 3c 27 7b 02 3f 2d 99 4a 3e 9c 31 02 bf
       0.021876164 0.50969166 0.19784994 -0.5085695
000310 96 9b 7b 3d ad 81 08 3d 09 fc 7d 3e 35 9a 89 3e
       0.061427675 0.033326793 0.24803175 0.26875463
000320 2d 21 db 3d 37 87 08 3e 00 df 26 3e ab cd d9 be
       0.10699687 0.1333283 0.16296005 -0.42539725
000330 d9 a0 b1 be 5a 0c 2b 3e c7 4c 16 3d ca d3 2e 3e
       -0.3469303 0.1670393 0.036694314 0.17072979
000340 19 cd a6 3e ed be 7a bd 60 bf 8d bd 94 c5 03 bd
       0.32578352 -0.061217237 -0.069212675 -0.032170847
000350 b2 eb e0 3c 2c ae dc 3d 92 c4 b6 3d 8e d6 91 3d
       0.027456138 0.10775408 0.089242116 0.07121001
000360 04 ab 67 bd d5 5a a1 3c bc 01 ba 3e 3d 2c 06 be
       -0.056559578 0.019696632 0.36329448 -0.13102813
000370 bf 69 81 be a4 81 68 be 4a ff 87 be 79 e3 8d 3d
       -0.2527599 -0.22705704 -0.26561958 0.069281526
000380 b5 90 d4 3d 56 f0 1b be 4b 1a 2c bd b5 14 78 be
       0.10379163 -0.152284 -0.042017262 -0.24226649
000390 dc 1e 00 3e bb a8 c5 3d ab 15 83 bd 67 90 37 3d
       0.12511772 0.096513234 -0.06400617 0.044815447
0003a0 87 7f 54 be 13 f5 a7 bb f4 61 a3 bd fe 1d ba 3d
       -0.20751773 -0.0051256507 -0.079776675 0.09087752
0003b0 6d 59 bc 3d 18 b2 9c 3e 32 0d 11 3e 7a 2a d0 3e
       0.09196744 0.30604625 0.1416519 0.40657407
0003c0 c2 19 5f bd 79 e6 1d 3e 6d 28 0a bd ba 7c d4 3d
       -0.054467924 0.1541995 -0.03372996 0.10375352
0003d0 ae da 26 3d 33 db a5 3d 0d a3 51 be 09 8a 25 be
       0.040735893 0.080984496 -0.20472355 -0.16165937
0003e0 aa a8 ab 3e b7 cb 0d 3e 41 a9 c8 3d dc c0 87 3d
       0.33527118 0.13847242 0.097979076 0.06628582
0003f0 59 ac 6f 3e f2 58 82 3d 38 07 1a 3e 51 55 93 3e
       0.23405589 0.06364621 0.15041816 0.2877603

lstm2.weight_hh_l0 f4 [344, 86]
000000 95 e2 d3 3c cd 36 93 3d 55 fa 9d 3c d2 83 7c bd
       0.025864879 0.07188187 0.019284407 -0.06164915
000010 32 8b d9 3d 29 5a a6 bd 3d 0c 02 3d 40 0d 04 bc
       0.106222525 -0.081226654 0.031749953 -0.0080598
000020 17 10 18 bd ff d8 51 bd 71 26 40 bd 54 d3 94 bd
       -0.03712472 -0.051232334 -0.04691166 -0.0726687
000030 ad 6b 21 bd ca 9e 8b bd 5b 84 6a bd c3 ef 8c bd
       -0.03940933 -0.06817396 -0.05725513 -0.068816684
000040 59 90 1f bc 59 a0 63 3d 72 b6 e4 3c 1c cf ab 3d
       -0.009739005 0.05557284 0.027919028 0.08389112
000050 6d 86 63 3d 41 e9 50 bd 3b 4d 23 3d fa 13 b1 3d
       0.05554812 -0.0510037 0.039868575 0.08646388
000060 92 c6 a3 bc e7 0b c2 3d 52 3c 9f 3d 17 6b 4b bc
       -0.019992147 0.094749264 0.07775177 -0.012415669
000070 33 69 18 bd e2 ca 85 bd c4 ed 18 bd b6 06 c8 bd
       -0.0372097 -0.065328375 -0.037336126 -0.09766905
000080 83 82 c9 bd 1f c2 d9 3c 84 3f 3f 3d a6 e1 cd bd
       -0.09839346 0.026581822 0.046691433 -0.10052805
000090 d7 dc bd 3d e6 ad 01 3d 5b aa 36 3d 32 a9 41 3c
       0.092706375 0.031659983 0.044596057 0.011820124
0000a0 eb 05 3a bd 0f 41 46 3c 50 f2 c7 3d 4b 0b af bd
       -0.0454158 0.012100472 0.09763014 -0.08547076
0000b0 f6 5f af 3c 25 32 68 bd f2 24 ad 3d e4 0e 2b bb
       0.021408062 -0.056688447 0.084543124 -0.0026101405
0000c0 6b 57 fa 3c 4a 09 4a 3d 12 00 a0 3d 4a c0 69 bb
       0.030559262 0.049325265 0.078125134 -0.0035667592
0000d0 ca d9 83 bd 40 76 15 3c fa 70 61 3d c6 6f 6a bd
       -0.06438024 0.009122431 0.055039383 -0.0572355
0000e0 f9 6e ad bd 6f 4c ad bd 9d 86 b0 3c 31 75 96 bc
       -0.08468432 -0.08461844 0.021548564 -0.018366428
0000f0 5f 3d 9f 3d 0d 1f b2 bd c0 ee 85 bc 99 59 0c 3d
       0.077753775 -0.08697329 -0.016349196 0.034265134
000100 c3 78 19 bc 77 56 f1 bc 62 2c 20 bc 49 9a 24 3d
       -0.009367171 -0.029460175 -0.009776207 0.0401862
000110 20 a5 b5 bd bc 96 a0 3d 7f fa d0 3d 90 1f 88 bd
       -0.08869386 0.0784125 0.10204028 -0.06646645
000120 80 ce f8 3c f7 c2 da 3d 63 24 8e ba c6 6e c2 bc
       0.030371904 0.10681718 -0.0010844584 -0.023734462
000130 ec 88 37 3d 45 1e ce bd 5f 1b 90 bd cd 1c 38 3d
       0.044808313 -0.10064367 -0.070364706 0.04494934
000140 70 39 75 bc 05 3e 1c bd ed 9b 02 bc 0e 18 20 bc
       -0.014967307 -0.038145084 -0.007971746 -0.00977136
000150 e3 14 59 3d ce e9 53 bd 22 3b cc 3d 74 94 c5 3d
       0.052998435 -0.051736645 0.09972216 0.09647456
000160 0b 96 59 bc 4c 40 1c bd ee eb 11 bd 4d e3 97 3d
       -0.013280402 -0.038147256 -0.03562539 0.07416401
000170 8b 04 ca 3d bb 94 a0 3d 86 4d 24 3d 38 27 39 3d
       0.09864148 0.07840868 0.040112995 0.045203418
000180 59 19 31 3d 92 d5 d1 bd b1 ac 79 bc 6e 03 d7 bd
       0.043237064 -0.102458134 -0.015238927 -0.10498701
000190 d7 a8 12 bc db d5 f4 3c c1 26 a7 bd b0 cf aa 3d
       -0.008951387 0.02988713 -0.081616886 0.083403945
0001a0 10 57 ba ba ba 8c 83 bd 85 b5 ab 3d 5d 57 29 bc
       -0.001421662 -0.06423326 0.083842315 -0.01033577
0001b0 df 55 66 3c 3b e9 d5 3d 0d f6 2f bd b8 c1 db bd
       0.014058559 0.10444876 -0.04295926 -0.10730308
0001c0 f7 e2 67 bc cf 4a fe 3c fc 63 bf bd 2b be bb bd
       -0.014153234 0.03104153 -0.093452424 -0.09167131
0001d0 01 b3 45 bd d1 89 00 3c 0c f4 ef 3c 0a e7 f7 bc
       -0.048266415 0.007845358 0.029291175 -0.030261535
0001e0 62 5a d4 ba 8e 51 26 bb d0 22 ab bc 83 be a9 3d
       -0.0016201253 -0.00253782 -0.020890623 0.0828829
0001f0 71 c5 b2 bc 8d 0b b2 bd ce 62 9c 3c c5 1f 76 3c
       -0.021822663 -0.086936094 0.019090082 0.015022223
000200 a6 00 d8 3a ad 95 21 3c 08 d2 c5 bd e7 c4 d7 bd
       0.0016479685 0.009862346 -0.09659201 -0.10535603
000210 00 b1 dc bd 26 a7 41 bc 5e 51 fc 3c 82 78 b4 3d
       -0.107759476 -0.011819636 0.030800518 0.088120475
000220 fe 0c c7 3d 36 11 d7 3d fe b6 97 bb 27 1b 96 3d
       0.09719275 0.105013296 -0.0046299687 0.07329398
000230 de ba 36 3d fb 55 38 3d 40 ad 1c 3d 0a 70 ce 3d
       0.044611804 0.045003872 0.03825116 0.100799635
000240 a6 af d6 bd 7f 9c da 3d 74 b3 c8 3d 0f bb f4 3b
       -0.10482721 0.106743805 0.09799853 0.007468588
000250 56 37 da 3d 23 8c 39 3d 84 0d d9 3d 0a 25 d8 3d
       0.10655086 0.04529966 0.10598281 0.1055394
000260 00 d0 92 3d c3 22 93 bd d7 7a ac bd 6d 29 2c bd
       0.07168579 -0.07184365 -0.08421867 -0.042031694
000270 40 8c 0a bc cf 8f 8a 3d 1e 3e 8a 3d 0b 0f 9b 3d
       -0.00845629 0.067657106 0.06750129 0.075712286
000280 90 78 13 3d dd a5 3f bc 2e 04 81 3d 12 d2 cc bd
       0.03600365 -0.01169726 0.06299625 -0.10001005
000290 1c 9b cc 3d 0c 60 26 bd 3c a5 00 3d 0e 63 a0 3c
       0.09990522 -0.04061894 0.03140758 0.019578483
0002a0 49 5f 94 3d 92 32 98 ba a9 a6 c4 3d ce 1e 0b 3d
       0.07244737 -0.0011611751 0.096021004 0.033964925
0002b0 63 24 df bc 51 20 41 3d c4 c7 b0 3d 46 f7 eb 3c
       -0.02723903 0.04714996 0.08631852 0.028804433
0002c0 c2 70 8e 3d 17 be d9 bd 2d 9f 4a bc 0f da 8e 3c
       0.069551006 -0.1063196 -0.012367052 0.017437963
0002d0 55 fe 97 3d db 35 d5 bd 73 1b a2 bd e3 43 21 3d
       0.07421557 -0.10410663 -0.07915392 0.039371382
0002e0 2e b3 9f bc 6b 3a f3 bc af 88 2c 3c cb a5 9e 3d
       -0.01949462 -0.029690942 0.010530635 0.07746466
0002f0 e3 b9 ab 3c b9 3d 37 bd 75 c4 1a 3c 87 61 dc 3d
       0.020962661 -0.044736598 0.009446253 0.10760789
000300 f2 cb 86 3c 75 21 85 3d 6f c0 c1 bd 6b e3 22 bd
       0.01645467 0.06500522 -0.09460532 -0.039767664
000310 2c c1 b0 bd cf 15 a2 bd d4 8c b0 3d 5d 2c 95 3d
       -0.086305946 -0.07914316 0.08620611 0.07283852
000320 29 85 76 3d 56 c3 8d 3b 70 91 b8 3c e4 59 a2 bd
       0.060185585 0.0043262644 0.022530288 -0.079273015
000330 16 7e 84 3d 8f 8f 51 3c 64 6c 2c 3d d5 4c c5 bd
       0.064693615 0.012790575 0.042095557 -0.09633795
000340 f9 8e ba 3c 45 52 c4 bc 20 4e 8f 3d ee 23 b6 bd
       0.022773253 -0.02396501 0.06997323 -0.08893572
000350 e6 75 90 3a d8 97 6d bd 0f 2e 4d 3d f5 0f 66 bd
       0.0011021465 -0.058006138 0.050092753 -0.05616756
000360 e3 c8 80 bd 26 b1 cd 3d d9 db 82 bd 04 f1 80 3c
       -0.06288316 0.10043554 -0.06389589 0.015739925
000370 c2 63 4b bd 8c 96 50 3d e4 71 e4 bc 79 09 90 3c
       -0.049655683 0.050924823 -0.027886339 0.017582642
000380 60 8e be bd 30 d7 49 bd af 2e b0 bd 79 64 db 3d
       -0.093044996 -0.049277484 -0.08602654 0.10712523
000390 88 35 b9 3b 19 d4 ea bc f0 c4 d0 3d 29 86 34 3c
       0.0056521334 -0.02866559 0.10193813 0.011018314
0003a0 d8 8f bf bd d2 14 c6 3d 0d e5 b5 bc c2 df 86 bc
       -0.09353608 0.0967194 -0.022203946 -0.016464118
0003b0 e4 1e 30 3d ea 9c 14 bd 60 dd 8f bd c5 4f 0c bd
       0.04299821 -0.036282457 -0.07024646 -0.03425576
0003c0 1c fb 74 3d 3f 75 dc 3d cb bc c3 3d 73 75 5c bd
       0.05980979 0.107645504 0.09557494 -0.053822946
0003d0 55 e8 59 bd 56 f2 a4 3d 85 53 89 3d 56 5e c7 bd
       -0.053200085 0.080540344 0.06705383 -0.0973479
0003e0 ed d5 50 3d fa af 93 bc dd 76 9d 3d 59 22 ac bd
       0.050985266 -0.018028248 0.07688687 -0.08404989
0003f0 ca fa b8 bd d9 1b b9 bd ba a7 9f bd 07 f2 23 3d
       -0.09032209 -0.09038515 -0.07795663 0.040025737

lstm2.bias_ih_l0 f4 [344]
000000 47 fe 21 3e dc 05 00 3e 0b 0e 80 3d 71 82 86 3d
       0.15819655 0.12502235 0.062526785 0.065678485
000010 ca eb 4e 3c 1a 99 98 bc 47 9b a7 3d 2e 2e 0b 3e
       0.012629459 -0.018627692 0.08183914 0.13591835
000020 0d 8d d0 3d 35 a2 df 3d 5f 86 8e 3d 15 f4 f9 3d
       0.10183153 0.109196104 0.06959223 0.12204758
000030 6a 0f 01 3e 40 5f 81 3d ba 48 42 bd 3c fa 01 3e
       0.12603536 0.063169956 -0.04743264 0.12693113
000040 8d 5f fc 3d b4 b6 ab 3d ae f0 d9 3d 4c ad 25 3d
       0.12322912 0.08384457 0.10641609 0.040448472
000050 cb 03 5f 3d 5e e8 b8 3d 5a 01 11 3e 1a d4 b6 ba
       0.054446977 0.090286955 0.14160672 -0.0013948709
000060 d7 33 2b bd 4c dd 96 3d b8 b6 e7 3d 55 28 bd 3d
       -0.041797485 0.07366428 0.11314148 0.09236208
000070 30 17 f4 bb 9b 26 9c 3d fd 23 2a bc 2d 46 1e 3e
       -0.007449053 0.07624551 -0.010384557 0.15456457
000080 b7 c1 0b 3d 0b 2e d1 3c 77 d8 ab bb 68 db 44 3d
       0.034120288 0.02553465 -0.0052443105 0.048060805
000090 f8 5e a4 3d 1f 9a 1f 3e 63 2a e4 3d 05 7c c9 3d
       0.08025926 0.15586136 0.11140897 0.09838108
0000a0 5a c9 1f bd 88 19 45 bd ea c8 95 3d d0 15 bd 3d
       -0.039010383 -0.04812005 0.07313712 0.09232676
0000b0 7a 08 b6 3c 63 61 ed 3c 64 44 1e 3d c6 29 13 3e
       0.022220839 0.028977102 0.03863944 0.14371404
0000c0 cb d3 87 3d a5 c7 5d bc d8 5f eb 3d b9 89 a7 3d
       0.06632193 -0.0135363685 0.1149289 0.081805654
0000d0 89 ec e8 3d 2d f2 5c 3d 10 0b f4 3d 1f 8d 8e 3e
       0.113732405 0.053941894 0.119161725 0.27842042
0000e0 69 83 11 3e e5 dd 4c bd b3 84 23 3e c6 74 96 3c
       0.14210285 -0.050016303 0.1596859 0.018366229
0000f0 86 34 3a bc 64 3a db 3d d7 45 18 3e 0c e4 39 3b
       -0.011365062 0.107044965 0.14870392 0.0028364686
000100 b1 e3 07 3e 3f df af 3d f6 5b 40 3d 3a 4a 85 3d
       0.13270451 0.08587503 0.0469627 0.06508298
000110 7f d6 9e 3d a2 3d 04 3e 62 90 bc 3c 9c 91 1f 3e
       0.07755756 0.12914136 0.023018066 0.1558289
000120 17 43 8b 3e bb ef 11 3e 04 e4 54 3d 1e 50 0d 3d
       0.27199623 0.14251606 0.051975265 0.034500234
000130 16 bf 68 bd 5f ea 17 3e 21 9e 0b 3c 7c 56 32 3c
       -0.05682286 0.14835499 0.008521588 0.010884877
000140 37 c1 2c 3e 2d 68 32 bc 98 bf 08 3d 50 1f 02 bd
       0.1687058 -0.010889095 0.033385843 -0.031768143
000150 58 54 a5 3c b8 86 d7 bc 7b 47 a2 bd c6 68 0f bd
       0.02018182 -0.026309356 -0.0792379 -0.03501203
000160 1f c8 c6 bd 84 fe 75 3d 73 c4 5f 3d 0c c5 71 bc
       -0.09706139 0.06005718 0.054630708 -0.014756452
000170 41 f2 9a bd cc ca 52 3d c5 a9 ba bb 17 82 1c bd
       -0.075657375 0.051462933 -0.0056965076 -0.03821
000180 02 92 93 3d 5e f8 b2 3d 1c 75 84 bd d8 5e 9a 3d
       0.07205583 0.087387785 -0.06467649 0.07537621
000190 93 39 5f 3d 88 51 d2 bd 5a 4d d9 bd 52 2a 8d 3c
       0.054498266 -0.10269457 -0.10610457 0.017232094
0001a0 0b d9 c3 3d d4 d1 97 bd c6 48 ba 3d 44 e3 85 3d
       0.09562882 -0.074130684 0.09095912 0.06537488
0001b0 bd 4a 2b 3c fe 8b bc bd d9 e5 c7 3c 36 7c 90 3d
       0.010454831 -0.09206389 0.024401592 0.07054941
0001c0 ef 4d ca bd af ee 88 3d 4a 0b 84 bd 6b 0f 05 bd
       -0.09878146 0.0668615 -0.06447466 -0.032485407
0001d0 6d d6 3d 3d 31 6a 19 bd b7 5d 8f 3d 34 9e 4b bc
       0.04634707 -0.037454788 0.070002966 -0.012427855
0001e0 f8 23 8e 3d 47 60 38 bd 60 bf f3 3b c2 91 41 bd
       0.06940454 -0.045013692 0.007438585 -0.047258146
0001f0 f6 e0 bb bd 68 2c 0e 3d 54 8b 77 3d 9c 67 0d bd
       -0.09173767 0.034710318 0.060435608 -0.034522638
000200 95 71 90 3d 86 eb 8d 3d 5b e9 8a bd 0e f2 a4 3d
       0.07052914 0.06929688 -0.0678279 0.08053981
000210 0e b2 08 bc 0a c4 c0 bd 52 38 d2 3c cb ad 29 bd
       -0.008343233 -0.094123915 0.025661621 -0.041425508
000220 07 c9 e8 3c dd 3d 08 bd e7 3b 93 bd 81 f9 34 3d
       0.02841617 -0.033262122 -0.0718916 0.044183258
000230 4b 15 4b 3d 05 ce b1 bd 8b 22 ac bd 14 0e 41 bc
       0.049580853 -0.08681873 -0.08405026 -0.011783142
000240 04 f4 7a bc 3e ed be bd 90 10 85 bc 1b 0f 88 bd
       -0.015316967 -0.09322594 -0.01624325 -0.06643506
000250 e2 f1 50 bd c1 ff f3 3b 39 41 8a 3c 14 49 b2 3d
       -0.051011927 0.0074462597 0.016876804 0.08705345
000260 e5 9d bd bb fc 13 d1 3d e7 c6 47 3d 7c 9a 14 3c
       -0.0057866448 0.1020889 0.048773672 0.009070035
000270 72 ef a7 3d 15 8c 00 bc 16 91 99 bd d3 8d 82 3c
       0.081999674 -0.007845898 -0.07498376 0.015936768
000280 1d 13 a9 bd aa da c4 bd 0b 3c c1 bc c9 6a 86 bc
       -0.08255599 -0.09612019 -0.023588201 -0.016408341
000290 18 8d 9f bd 61 5b bf 3c 6e a7 d0 bd dc 50 95 bd
       -0.07790583 0.023359003 -0.10188185 -0.07290813
0002a0 7e 58 9f bc 6e d4 02 3b aa 69 5a 3d 66 23 d2 bb
       -0.019451376 0.0019963044 0.053323425 -0.006412911
0002b0 12 54 4f bd 10 9c 87 3d ec cf 28 3d 63 b6 85 3d
       -0.050617285 0.066215634 0.041213915 0.06528928
0002c0 be 9a f8 bc 92 d7 01 bd da d5 bd bd 3e 04 1c bb
       -0.030347224 -0.031699724 -0.092693046 -0.002380624
0002d0 2c c9 05 3e a0 83 6c bd 9a f2 5a bd 98 54 22 3c
       0.13065022 -0.057742715 -0.05345402 0.009907864
0002e0 90 17 21 3d d0 2f 20 bc 12 42 95 bd 76 0a 88 3d
       0.03932911 -0.009777024 -0.072879925 0.0664262
0002f0 ed ac 7a 3d 43 91 aa 3c a0 48 a9 3d 40 b1 73 3d
       0.06120007 0.02082122 0.08265805 0.05949521
000300 0c 32 df 3d 26 4f 68 bd 83 b6 ae bc 37 56 03 be
       0.108982176 -0.056716107 -0.021327263 -0.12825857
000310 42 07 51 bd 1b 2a df bd d7 c6 3c bd 0b ee c1 3d
       -0.051032312 -0.10896703 -0.046088066 0.09469231
000320 d5 7a fd bd be bb b3 bd 75 f4 c1 bd dc 75 ba bd
       -0.12376944 -0.08776043 -0.094704546 -0.09104511
000330 e8 02 7c 3d b0 bd 9e 3d 57 bb 0e be ff 32 cb bd
       0.06152621 0.07751024 -0.13938652 -0.09921836
000340 9a 68 63 bd 4b aa 11 be 96 9a 50 ba e5 38 a4 3a
       -0.055519678 -0.14225118 -0.00079576054 0.0012529163
000350 15 03 b7 bd 8b 01 81 3d 68 c9 61 3d 38 24 0e 3e
       -0.08936135 0.062991224 0.055123717 0.13881004
000360 19 f8 be 3b 0b 83 94 bd 96 38 ce bb cb 5b da bc
       0.0058279154 -0.07251557 -0.0062933667 -0.026655098
000370 c4 71 a7 bd a4 15 2d bc a5 f3 e7 3d 58 df 8a bd
       -0.08175996 -0.010564242 0.113257684 -0.06780881
000380 49 2c f5 bd af 7e 07 3e d9 32 8d 3c 9e 99 01 be
       -0.11971337 0.1323192 0.01723616 -0.12656257
000390 1e 7b 06 3e 03 39 7c bd 1a 25 ed 3d 0b 2a 93 3d
       0.13132903 -0.061577808 0.11579342 0.071857534
0003a0 90 19 07 be d1 e9 f0 3d a3 62 f1 3d eb be e5 3c
       -0.13193345 0.11763347 0.117863916 0.028045138
0003b0 9f b7 c1 bb 70 8a a5 3d 86 dc 00 3c 7f b9 b6 3d
       -0.005911782 0.080830455 0.007865077 0.08922099
0003c0 47 aa 9b bc f1 5c dd bd d6 3c 42 bd 4c fc c4 bc
       -0.019002093 -0.10808743 -0.0474213 -0.024046086
0003d0 27 ae 6c bd d2 67 0b be de 46 81 3d 4d a9 c6 3d
       -0.057783272 -0.13613823 0.06312345 0.0970026
0003e0 c9 27 4e 3d e4 f8 3a bd 4f c4 68 bd 44 c8 c7 3c
       0.05033091 -0.045647517 -0.05682784 0.024387486
0003f0 44 fc c5 bd 37 30 39 bd 31 67 92 bd aa ab 6a 3d
       -0.096672565 -0.045211997 -0.071485884 0.057292618
