SECO/Treinamento/LSTM/LSTM_2_DENSO_1/conf_1/modelo_seed_46_loss_0.002808.pt (torch, 475413 bytes, 10 tensors)

lstm1.weight_ih_l0 f4 [344, 74]
0	0x3d6c30e5	0.057663817
1	0xbd9fb08b	-0.07797345
2	0x3aabe402	0.0013114216
3	0xbda8ae62	-0.08236386
4	0x3d1ef025	0.03880324
5	0x3d6a8ae5	0.057261366
6	0xbdedc4da	-0.11609812
7	0xbd4abf83	-0.049499046
8	0xbdf641dc	-0.120242804
9	0xbd6f5e93	-0.058439802
10	0x3dabcb50	0.08388388
11	0xbdf6e54b	-0.12055453
12	0x3db241c5	0.08703951
13	0xbd054e37	-0.032545295
14	0x3d8f075c	0.069838256
15	0x3d998f73	0.07498064
16	0x3c69bc0a	0.014266023
17	0x3d659e42	0.05605913
18	0xbcaf1415	-0.02137188
19	0x3e2c20b0	0.16809344
20	0x3caac0dc	0.020843916
21	0x3d7d25a0	0.06180346
22	0x3d65867e	0.056036465
23	0xbde1397b	-0.10997292
24	0xbdd916c6	-0.10600047
25	0xbd9acef0	-0.075590014
26	0x3d6835fa	0.0566921
27	0x3b1353b9	0.0022480323
28	0x3d8e16aa	0.069379166
29	0x3d913fb8	0.070922315
30	0x3d86fa43	0.065907024
31	0x3dd067d0	0.10176051
32	0x3d50b5f8	0.05095479
33	0x3ce8ef08	0.028434291
34	0xbc7035bd	-0.01466125
35	0x3d8c8c90	0.06862748
36	0xbdc1936d	-0.09451947
37	0xbdbc9278	-0.09207624
38	0x3da14831	0.078750975
39	0x3d7964a8	0.06088701
40	0xba09e4fc	-0.00052602566
41	0xbae38e19	-0.0017361074
42	0x3d8a4dac	0.06753096
43	0x3cf7eceb	0.030264338
44	0x3d158956	0.036507927
45	0x3db5b941	0.08873225
46	0xbd999641	-0.07499362
47	0xbe0a585c	-0.13510269
48	0xbdc7193e	-0.097216114
49	0xbdd4471f	-0.10365128
50	0xbc0ffff4	-0.008789051
51	0x3dbfe490	0.09369767
52	0xbd95f90f	-0.07322895
53	0xbd9f613d	-0.077822186
54	0x3d28e7c7	0.041236665
55	0x3d802b31	0.06258238
56	0x3cde57ed	0.027141536
57	0x3d9e8561	0.07740284
58	0xbb9ee606	-0.0048491983
59	0x3dbce052	0.09222473
60	0x3dd13419	0.10215015
61	0x3d4f24a6	0.05057206
62	0xbcc08901	-0.023502829
63	0x3d789017	0.06068429
64	0xbc57eea0	-0.013179451
65	0x3d46a6d2	0.048498936
66	0x3d4eaa71	0.050455514
67	0x3c81820f	0.015809087
68	0x3cfe643f	0.03105366
69	0x3de2ade9	0.11068327
70	0x3d7dd7a5	0.061973233
71	0x3d25ea90	0.0405069
72	0xbe786db7	-0.24260603
73	0x3e27848c	0.16359156
74	0xbd58385b	-0.05278812
75	0xbe0e4430	-0.13893199
76	0xbdddacb2	-0.10823955
77	0xbe03ff35	-0.12890323
78	0xbc3f5dea	-0.011680106
79	0x3d702d67	0.05863705
80	0x3d90ddfc	0.0707359
81	0x3daec986	0.08534531
82	0x3c7289f6	0.0148034
83	0x3c02184b	0.007940362
84	0x3dd6eec3	0.10494759
85	0xbd60b922	-0.054864056
86	0x3ce2169a	0.027598668
87	0x3d91cd17	0.07119196
88	0x3d16e098	0.036835283
89	0x3e042c8a	0.12907615
90	0x3cf5385d	0.029934103
91	0xbd21bff8	-0.039489716
92	0x3da33a96	0.07970159
93	0xbcabd0af	-0.020973532
94	0x3e4d8fb5	0.20074351
95	0x3dd3229a	0.10309334
96	0xbd0ae0a1	-0.03390563
97	0xbc22f5e5	-0.009946321
98	0xbd9c7749	-0.07639939
99	0xbe0b27e5	-0.13589437
100	0xbd09c592	-0.033635683
101	0xbc9498dd	-0.018139297
102	0xbd92ff96	-0.071776554
103	0xbdfe2a0c	-0.124103636
104	0xbd244907	-0.040108707
105	0x3d88bd3a	0.06676717
106	0x3bb8058d	0.005615896
107	0x3daa98f6	0.08329956
108	0x3e281ebd	0.16417976
109	0x3e417bde	0.18894908
110	0x3cd5fb79	0.026120888
111	0x3da2e2d3	0.079534195
112	0x3e3e5f01	0.18590929
113	0xbd2b53d1	-0.04182798
114	0x3d725625	0.059164185
115	0x3e456bb4	0.19279367
116	0x3e80d534	0.2516266
117	0x3d97a0fb	0.074037515
118	0x3e8744e1	0.26419738
119	0x3e4b8123	0.1987348
120	0x3e0f1ba3	0.13975386
121	0xbbb80f4a	-0.005617057
122	0x3c9e914c	0.019356392
123	0x3d19b0bd	0.037522066
124	0xbca5dab9	-0.020245897
125	0xbcb61d77	-0.022230847
126	0x3c144e8d	0.009051931
127	0x3c037048	0.008022375
128	0x3d63b3a3	0.055591237
129	0x3d9768ef	0.07393061
130	0x3ca02d1b	0.019552758
131	0x3d9a748e	0.07541762
132	0xbd26ee52	-0.040754624
133	0xbd142737	-0.03617021
134	0x3b8c1e23	0.0042760535
135	0x3d87e721	0.06635881
136	0xbb16725c	-0.0022956347
137	0x3d264206	0.04059031
138	0xbbdcbe1b	-0.0067365295
139	0x3d997515	0.07493035
140	0x3d969e4f	0.07354414
141	0xbdd3a0b7	-0.10333388
142	0xbd32a1fa	-0.043611504
143	0xbde7d05d	-0.11319039
144	0x3a89c2f8	0.0010510376
145	0xbaa50ae2	-0.0012591744
146	0xbe53b7a6	-0.20675525
147	0x3d918f57	0.07107418
148	0xbdb7483a	-0.08949323
149	0xbd9878a7	-0.074448876
150	0xbc1d21cf	-0.00959058
151	0xbe1a4e01	-0.15068819
152	0xbd26c33d	-0.040713537
153	0xbda0bd3c	-0.078485936
154	0x3c5bd32b	0.013417046
155	0x3de7a342	0.11310436
156	0x3e276853	0.1634839
157	0x3e0bf63b	0.13668148
158	0x3d438125	0.047730584
159	0x3d3f5bb4	0.046718314
160	0xbb244c52	-0.0025069905
161	0x3d0f172d	0.03493421
162	0x3d161904	0.03664495
163	0x3cbb35e2	0.022852842
164	0x3d6919b6	0.056909285
165	0x3dd43dc3	0.103633426
166	0x3e0e7ec2	0.13915542
167	0x3e13e293	0.144419
168	0x3e05b1d3	0.13056116
169	0x3d459f14	0.04824741
170	0x3db3927d	0.08768175
171	0xbe1e1b71	-0.15440156
172	0xbe0bdeb9	-0.1365918
173	0xbe3f1036	-0.18658528
174	0xbe1f3af2	-0.1554983
175	0xbdf9041d	-0.12158988
176	0xbd8ec3cd	-0.0697094
177	0xbd287135	-0.041123588
178	0xbbeecfea	-0.007287969
179	0x3c86a621	0.016436638
180	0x3d3a8aff	0.045542713
181	0x3d412021	0.04714978
182	0x3e0d7f9b	0.13818209
183	0x3e24e99d	0.16104741
184	0x3e803b73	0.25045356
185	0x3ddde5ed	0.108348705
186	0x3d737d1c	0.059445485
187	0x3de02d7b	0.10946175
188	0x3ddb0e19	0.10696048
189	0x3daf3cf1	0.085565455
190	0x3e5fd39a	0.21858063
191	0x3e082773	0.13296299
192	0x3e1671a0	0.14691782
193	0x3e1a5d03	0.15074544
194	0xbce847e1	-0.028354587
195	0x3d703972	0.058648534
196	0xbc0d2c80	-0.008616567
197	0xbcbff281	-0.023431065
198	0xbd08a168	-0.033357054
199	0xbdb85acd	-0.09001694
200	0xbdd93c5e	-0.10607217
201	0xbb141793	-0.002259706
202	0x3dac1ea0	0.08404279
203	0xbd9cc9f7	-0.07655709
204	0xbd8973ff	-0.067115776
205	0xbd8caf32	-0.06869353
206	0x3d93ba63	0.07213285
207	0x3dd89a11	0.10576261
208	0x3ce5f47a	0.028070677
209	0x3ddea6b7	0.10871642
210	0x3e283145	0.16425045
211	0x3c0e77ca	0.008695552
212	0x3df6728b	0.12033566
213	0x3d22e077	0.039764848
214	0x3d1f3772	0.038871236
215	0xbcaba84c	-0.020954274
216	0x3c7935c5	0.015210574
217	0x3cf4b533	0.029871559
218	0xbd649103	-0.055802356
219	0xbdb2ef20	-0.08737016
220	0xbeccf2c6	-0.4002897
221	0x3e9231ac	0.28553522
222	0xbc78be47	-0.015182084
223	0xbde1f673	-0.110333346
224	0xbd130e14	-0.035902098
225	0x3d94d9f7	0.07268136
226	0x3da22966	0.079180524
227	0xbdd56bd7	-0.104209594
228	0xbd88daaa	-0.06682332
229	0xbdcc4982	-0.09974958
230	0xbdbf937d	-0.09354303
231	0x3c2e284f	0.0106297275
232	0xbe037ecc	-0.12841338
233	0xbd9b4a99	-0.07582588
234	0xbe0b6e8f	-0.13616394
235	0xbe064608	-0.13112652
236	0xbd234033	-0.039856147
237	0x3d23fe7c	0.040037617
238	0xbd296ed2	-0.041365452
239	0x3adc38ab	0.0016801556
240	0xbe279396	-0.16364893
241	0x3e1cdecf	0.1531937
242	0x3db76efd	0.08956716
243	0xbc1d06f8	-0.009584181
244	0xbde54b05	-0.111959495
245	0xbdedc4d2	-0.11609806
246	0xbdc2052f	-0.09473645
247	0xbd9c72fe	-0.076391205
248	0x3d85c507	0.065317206
249	0xbdd796b3	-0.105267905
250	0x3d41ca81	0.047312263
251	0xbdac2a9b	-0.08406564
252	0xbc64eebe	-0.013972936
253	0xbcb4e6c7	-0.0220827
254	0x3d94d8eb	0.07267936
255	0x3ce5a9c1	0.028035047

lstm1.weight_hh_l0 f4 [344, 86]
0	0xbdc71a52	-0.09721817
1	0x3d2381fd	0.03991889
2	0xbdb33738	-0.087507665
3	0xbd284a52	-0.041086502
4	0xbd9d9fef	-0.076965205
5	0x3d056254	0.032564476
6	0xbd5cd8ed	-0.053917814
7	0x3c4ba223	0.012428793
8	0xbc9e2898	-0.019306466
9	0xbdd0499e	-0.10170291
10	0xbdd4642f	-0.10370671
11	0xbd1ba6e1	-0.038000945
12	0x3db3b5a2	0.08774878
13	0xbd249836	-0.040184222
14	0xbd7a374f	-0.061087903
15	0x3b7daf27	0.0038709135
16	0xbd90925d	-0.070591666
17	0x3d44a5ef	0.04800981
18	0x3d413ab9	0.047175143
19	0x3d08ab57	0.033366527
20	0x3dd80adf	0.105489485
21	0xbd0ce2f0	-0.034396112
22	0x3bbf035c	0.005829258
23	0x3d17232b	0.036898773
24	0xbd8acf0f	-0.067777745
25	0x3dadbc83	0.084832214
26	0x3c0bca31	0.008532093
27	0x3b9d2b89	0.0047964496
28	0xbdd9114c	-0.10599002
29	0x3d1c327f	0.038134094
30	0x3dbc25cb	0.09186896
31	0x3d1f50c1	0.038895372
32	0xbcc43af3	-0.02395389
33	0xbcc8c082	-0.024505857
34	0xbc42aea3	-0.011882457
35	0xbd9fd6df	-0.07804655
36	0x3db522ff	0.088445656
37	0xbce76d89	-0.028250473
38	0x3d444f24	0.047927037
39	0xbdce8af4	-0.10085097
40	0xbc208a85	-0.009798651
41	0x3dcf2472	0.10114373
42	0xbcf39f3e	-0.029739019
43	0x3d5dcec2	0.054152258
44	0xbcca1a62	-0.024670783
45	0xba131734	-0.00056110625
46	0xbdbab769	-0.09117014
47	0xbc045130	-0.008075997
48	0x3dc2c655	0.09510485
49	0x3d4661fd	0.048433293
50	0xbd98044c	-0.074226946
51	0xbd64c195	-0.055848677
52	0xbc94027f	-0.018067596
53	0x3d22515c	0.03962837
54	0x3cb04544	0.021517403
55	0x3dd3bef0	0.10339153
56	0xbdd39a86	-0.103322074
57	0xbd975c0b	-0.07390603
58	0xbdb02668	-0.086010754
59	0xbd18e8f5	-0.03733154
60	0x3d02feaf	0.031981166
61	0x3dd8c3ab	0.10584196
62	0x3d3a61f1	0.04550356
63	0x3da2050c	0.07911119
64	0xbd3b9cf6	-0.045803986
65	0x3dcebb8a	0.10094364
66	0x3d873a2a	0.06602891
67	0xbbeb4d54	-0.007180849
68	0xbbf6dea2	-0.007533864
69	0x3d51693d	0.051125754
70	0xbcfa7dea	-0.030577619
71	0x3d937a26	0.07201032
72	0x3d809b1e	0.06279586
73	0xbc8789eb	-0.016545257
74	0x3d938d52	0.07204689
75	0x38d032b9	9.927661e-05
76	0xbc0b8b7d	-0.008517143
77	0x3d445138	0.04792902
78	0xbd218764	-0.03943576
79	0x3db62be7	0.088950925
80	0x3dda3e58	0.106564224
81	0xbdd70ff5	-0.105010904
82	0x3d8e5666	0.06950073
83	0xbd6c6982	-0.057717808
84	0xbddaad04	-0.10677531
85	0xbd11ebcb	-0.03562526
86	0x3d5cdf16	0.05392369
87	0xbbd5e0a1	-0.006527022
88	0x3d94f764	0.072737485
89	0x3d3e8e3d	0.046522368
90	0x3c909187	0.017647518
91	0xbd64567a	-0.055746533
92	0x3c152cc3	0.00910491
93	0xbdc42033	-0.09576454
94	0x3d95a311	0.07306493
95	0x3cf8a4ef	0.030352084
96	0xbcda535f	-0.026651083
97	0xbc121293	-0.008915561
98	0xbcee9b1d	-0.029126698
99	0xbd0f5a49	-0.034998212
100	0x3dcb5d1e	0.0992987
101	0x3d0735b7	0.03301021
102	0xbdcb145f	-0.09915995
103	0x3dcba879	0.09944243
104	0xbda8e28e	-0.08246337
105	0x3d981568	0.07425958
106	0xbd3b510c	-0.04573159
107	0x3d29432c	0.041323826
108	0xbd323a64	-0.043512717
109	0x3cac36a6	0.021022152
110	0x3dce0b63	0.100607656
111	0xbd1ee233	-0.03878994
112	0xbd6a6642	-0.057226427
113	0x3d0a07e2	0.033698924
114	0xbc48acc6	-0.012248224
115	0xbc3e39c4	-0.011610452
116	0xbdad4428	-0.084602654
117	0xbd595c31	-0.053066436
118	0x3d54c278	0.051943272
119	0x3cdf8ec3	0.027289754
120	0x3b0b8123	0.0021286688
121	0xbd1707d5	-0.036872704
122	0xbd8841fb	-0.0665321
123	0xbd4ece7f	-0.0504899
124	0x3d49e3ed	0.049289633
125	0x3d5f8168	0.05456677
126	0xbdd67bac	-0.10472807
127	0xbd417455	-0.047230083
128	0x3c4c276b	0.01246057
129	0xbcadcdf6	-0.021216374
130	0xbdcff5d4	-0.1015431
131	0xbd7558b2	-0.05989904
132	0xbd6ba663	-0.057531726
133	0x3dda820e	0.10669337
134	0x3d554f42	0.05207754
135	0xbd33d608	-0.043905288
136	0x3d9f6bdb	0.07784244
137	0xbd9c6790	-0.076369405
138	0x3cc086d4	0.023501791
139	0xbcb492c0	-0.022042632
140	0x3aef890c	0.0018275096
141	0xbdd82d30	-0.10555494
142	0xbc80ee82	-0.01573873
143	0xbcf4c2be	-0.029878017
144	0x3d1e0cda	0.038586475
145	0x3d89e19e	0.06732486
146	0xbd30d738	-0.043174
147	0xbdc374ff	-0.095437996
148	0x3cbd9957	0.023144407
149	0x3dd6e4aa	0.10492833
150	0x3dcb9260	0.09940028
151	0x3d7bbeb7	0.061461177
152	0x3dbf08ea	0.09327872
153	0x3c59f259	0.013302409
154	0xbdb05846	-0.08610587
155	0x3d16c031	0.03680438
156	0x3d62cbdd	0.0553702
157	0x3d3477ea	0.04405967
158	0xbdcbc266	-0.09949188
159	0xbd97046a	-0.07373889
160	0x3bc23d5c	0.0059277248
161	0x3d062657	0.032751407
162	0xbd95a8c0	-0.07307577
163	0xbc855769	-0.016277032
164	0x3c6537d9	0.013990366
165	0xbda8ad93	-0.08236232
166	0xbc3be78e	-0.011468781
167	0xbc9c365a	-0.019068886
168	0xbd13dbf9	-0.036098454
169	0xbc92003e	-0.017822381
170	0x3dd024eb	0.101632915
171	0xbdd22cef	-0.10262477
172	0xbd77e3c0	-0.060519934
173	0xbd924e6d	-0.07143865
174	0x3d7dca9f	0.061960813
175	0x3d13cd44	0.03608443
176	0x3d012c48	0.03153637
177	0x3d6bf743	0.057608854
178	0x3cac8e88	0.021064058
179	0x3d9eb0e3	0.07748582
180	0xbdd54b26	-0.10414724
181	0x3da867b1	0.082229026
182	0xbc5143b3	-0.012772488
183	0xbd549bad	-0.051906276
184	0x3c9220ba	0.01783787
185	0xbd40f23f	-0.047106024
186	0x3d04b071	0.03239483
187	0x3d9ea18f	0.077456586
188	0xbc92c876	-0.017917853
189	0x3d6017ab	0.05471007
190	0x3d981e75	0.07427684
191	0x3b5e03da	0.0033876807
192	0x3d9a1cda	0.07525034
193	0x3d62879e	0.055305116
194	0x3dcd97e7	0.10038739
195	0xbd826e24	-0.06368664
196	0xbd274fad	-0.04084747
197	0xbbe37ef9	-0.0069426266
198	0xbb35e11d	-0.0027752586
199	0xbd49acf5	-0.04923721
200	0xbcb15a8f	-0.021649627
201	0xbdcb1233	-0.099155806
202	0xbdcf2b63	-0.10115697
203	0x3bcc5d3a	0.0062366994
204	0x3d9997c4	0.0749965
205	0x3d9c6ed6	0.07638328
206	0xbd42e3f6	-0.04758068
207	0xbd8c1fc4	-0.06841996
208	0x3dd30f07	0.103056006
209	0xbd1f044d	-0.03882246
210	0xbcbd9055	-0.023140112
211	0xbd503c93	-0.050839018
212	0x3dc60621	0.09669138
213	0xbcf088ef	-0.02936217
214	0xbd891b78	-0.066946924
215	0x3cd4fe51	0.026000174
216	0xbd9e6c4a	-0.07735498
217	0x3da0be3f	0.078487866
218	0x3d83080f	0.063980214
219	0xbdcd7a3b	-0.10033079
220	0x3ae23988	0.0017259577
221	0x3dd4149e	0.10355495
222	0xbce5dadd	-0.028058464
223	0xbdb270ac	-0.08712897
224	0x3dc6becb	0.097043596
225	0xbd16fc2c	-0.036861584
226	0x3d5ecff7	0.05439755
227	0x3dcd669b	0.10029336
228	0x3dbc1239	0.09183163
229	0x3dbd4da9	0.09243328
230	0xbd93e9b2	-0.07222308
231	0xbd9d0fcf	-0.07669031
232	0x3d1b7e97	0.037962522
233	0x3d984b02	0.074361816
234	0x3d9c3437	0.07627147
235	0xbd8fe769	-0.0702656
236	0xbdd7f766	-0.105452344
237	0xbd21ba5a	-0.03948436
238	0x3daf0a7d	0.08546922
239	0xbd093ebc	-0.033507094
240	0x3d1bcd64	0.038037673
241	0xbd82fd21	-0.06395937
242	0x3d1f68f7	0.03891846
243	0xbdd1d9c0	-0.10246611
244	0x3d9b8ab0	0.07594812
245	0x3dd62f12	0.10458197
246	0xbd14819e	-0.036256425
247	0x3b2b14ee	0.0026105004
248	0xbdd4407f	-0.10363864
249	0x3d12b39c	0.03581582
250	0xbcd2403f	-0.0256654
251	0xbcebc017	-0.028778119
252	0xbd70e610	-0.058813155
253	0xbda70c2e	-0.0815662
254	0xbc16a421	-0.009194405
255	0xbdbecd35	-0.09316484

lstm1.bias_ih_l0 f4 [344]
0	0xbd24a12c	-0.040192768
1	0x3db4a7c6	0.08821063
2	0x3dca4a1f	0.09877419
3	0x3de85760	0.113447905
4	0x3e29ac05	0.16569526
5	0x3d207a0e	0.0391789
6	0x3dd79951	0.1052729
7	0x3e012a66	0.1261383
8	0x3d77b7ad	0.0604779
9	0xbd148f30	-0.036269367
10	0x3d48b4dd	0.04900061
11	0xbaf2ce9a	-0.0018524707
12	0x3dbea008	0.09307867
13	0x3e0df6f9	0.13863744
14	0x3e3e26e7	0.18569528
15	0x3e42d02e	0.19024727
16	0x3d1f9aa9	0.038965855
17	0x3e082243	0.1329432
18	0x3e1b1cbd	0.15147682
19	0xbc569409	-0.013096818
20	0x3db458a1	0.08805967
21	0x3e869893	0.2628828
22	0x3e05da19	0.13071479
23	0x3e2785d0	0.16359639
24	0x3c9b1634	0.018931486
25	0x3d9b6ab8	0.07588714
26	0x3df9d9e4	0.121997625
27	0x3c99b506	0.018763077
28	0x3d9d2af5	0.07674209
29	0x3dd9a83e	0.10627793
30	0xbc016f27	-0.007900036
31	0xbcdcbd04	-0.026945598
32	0x3e1864bb	0.14882176
33	0x3e145a29	0.14487518
34	0x3d518c79	0.051159356
35	0x3d583d57	0.052792873
36	0x3c86b08d	0.016441608
37	0x3d27eb4b	0.040995877
38	0x3df1f6a2	0.118146196
39	0x3d6bee7d	0.057600487
40	0x3e9becdf	0.30454156
41	0x3bd446a0	0.0064781457
42	0x3de9ab43	0.11409619
43	0x3d8f0d9a	0.06985016
44	0x3da63358	0.08115262
45	0x3ee515b2	0.44743115
46	0x3e2d7577	0.1693934
47	0x3d4fa8ca	0.05069808
48	0x3d08f3b1	0.033435527
49	0x3dffc3c5	0.12488512
50	0x3e97df2b	0.2966245
51	0x3b59a6d1	0.0033211003
52	0x3d3b38eb	0.045708578
53	0x3e2dac02	0.16960147
54	0x3db51125	0.08841161
55	0x3e0cf7ba	0.13766375
56	0x3df612ba	0.120152906
57	0xbbaa2706	-0.0051926402
58	0x3df970ad	0.12179694
59	0xbaa721e3	-0.0012751188
60	0x3dc77dbc	0.09740779
61	0x3ca6ebc1	0.020376088
62	0x3d770f37	0.060317244
63	0x3dceea57	0.101032905
64	0x3bb49bc1	0.0055117314
65	0x3d950f34	0.072782904
66	0x3d2220a9	0.03958193
67	0xbcc5a89a	-0.024128247
68	0x3e305586	0.17220125
69	0x3e306831	0.17227246
70	0x3ca5b58e	0.020228174
71	0x3d831e27	0.064022355
72	0x3e1cb6cd	0.15304108
73	0xbd34f53e	-0.044179194
74	0x3e3a01b7	0.18164717
75	0x3d451420	0.048114896
76	0x3e6e5329	0.2327391
77	0x3d40d1da	0.04707513
78	0xbcbca0b5	-0.02302585
79	0x3c47a992	0.012186425
80	0xbd54232a	-0.051791348
81	0xbca1f48c	-0.01976993
82	0xbcc67fa4	-0.024230786
83	0xbd84870d	-0.064710714
84	0x3ddb2d05	0.10701946
85	0x3e10aacb	0.14127652
86	0xbd0230ba	-0.03178475
87	0x3d2ff6b9	0.042959902
88	0x3ca5da0d	0.020245576
89	0x3d985799	0.07438583
90	0x3cf39dd0	0.029738337
91	0xbd482743	-0.048865568
92	0x3dafedea	0.085903004
93	0xbdb1c4d2	-0.086801186
94	0xbd436196	-0.047700487
95	0x3b0f99b4	0.0021911683
96	0xbc3aa652	-0.011392193
97	0xbd83aef9	-0.06429858
98	0xbdb84c72	-0.08998956
99	0xbdbe1ca8	-0.092828095
100	0x3dd65fd5	0.10467497
101	0x3b1ee363	0.002424442
102	0x3c87cc81	0.016577007
103	0xbd8015e2	-0.06254174
104	0x3d8e2052	0.06939758
105	0x3a8f6ec9	0.0010943051
106	0x3db7be94	0.08971897
107	0xbd140f7d	-0.036147583
108	0xbc820dfd	-0.01587581
109	0x3d5b82e5	0.053591628
110	0x3c90fa35	0.017697433
111	0xbcb076d8	-0.021541044
112	0xbd5579e1	-0.052118186
113	0x3d3273de	0.04356753
114	0xbcddf461	-0.027094068
115	0x3d010259	0.03149638
116	0xbcd67c27	-0.026182247
117	0x3d8ffde8	0.07030851
118	0xbdbe6f10	-0.09298527
119	0xbdb3a84c	-0.087723345
120	0x3d6ce966	0.057839774
121	0xbdaecd41	-0.08535243
122	0xbd2c347a	-0.042042233
123	0x3d54adc4	0.05192353
124	0x3d93f21d	0.07223914
125	0xbd7e6136	-0.062104426
126	0xbd92ed3f	-0.07174157
127	0xbdb81f93	-0.08990397
128	0xbdcd9375	-0.10037891
129	0xbdc5d357	-0.096594505
130	0xbc7ae0ee	-0.0153124165
131	0x3d90f830	0.07078588
132	0x3d7e61e2	0.062105067
133	0xbd286d3b	-0.041119795
134	0x3cf13b21	0.02944714
135	0x3c8aa582	0.016924623
136	0xbd2887f2	-0.041145273
137	0xbd6270f2	-0.055283494
138	0x3d36afe2	0.04460133
139	0x3d2265e3	0.039647948
140	0x3d29b5de	0.041433208
141	0x3da2aa51	0.079426415
142	0x3d411b05	0.04714491
143	0xbd5acc02	-0.053417213
144	0x3d511be5	0.051051993
145	0x3d55a202	0.052156456
146	0xbdcf24b5	-0.10114423
147	0xbd8a23af	-0.06745087
148	0xbd1c52c7	-0.03816488
149	0xbd8d0fde	-0.06887792
150	0x3dd381a7	0.103274636
151	0xbd5f5409	-0.0545235
152	0x3c4eea28	0.012629069
153	0xbbf8502d	-0.007577917
154	0xbbd766c5	-0.0065735304
155	0x3db685d2	0.08912243
156	0xbd589b28	-0.052882344
157	0xbdb8eccc	-0.090295404
158	0xbb39f068	-0.0028372053
159	0x3da35acc	0.079763025
160	0xbda4f1f2	-0.0805396
161	0x3d83b52e	0.06431042
162	0xbdaf4a08	-0.08559042
163	0xbce6b0d4	-0.02816049
164	0x3ccbbc5e	0.024870094
165	0x3d6480bc	0.055786833
166	0xbd8b5955	-0.06804148
167	0xbcc9c524	-0.024630137
168	0xbd6ccea8	-0.05781427
169	0xbdb136fd	-0.08653066
170	0xbd0040f7	-0.031311955
171	0x3ca44d02	0.020056251
172	0xbd3bf533	-0.045888137
173	0xbd89167e	-0.06693743
174	0xbc0ac426	-0.008469617
175	0xbd237952	-0.039910622
176	0xbd83ae99	-0.06429786
177	0xbd387dd4	-0.045041874
178	0xbdef0cce	-0.11672364
179	0xbd62e79d	-0.055396665
180	0xbdf15637	-0.11784022
181	0xbc11375e	-0.008863298
182	0x3c2cac9a	0.010539198
183	0x3d95cbeb	0.07314285
184	0x3bf45411	0.0074563106
185	0xbe2c1c66	-0.16807708
186	0xbdba30e8	-0.090913594
187	0x3e29cd55	0.16582234
188	0x3d01ef87	0.03172257
189	0x3d74568a	0.059652843
190	0xbde27fb2	-0.11059512
191	0x3d543909	0.051812205
192	0xbce8f289	-0.028435962
193	0x3dd7570a	0.10514648
194	0xbdae8feb	-0.08523544
195	0x3dfa9f92	0.12237467
196	0xbe186a84	-0.14884382
197	0xbc4182fd	-0.011811015
198	0xbde01457	-0.109413795
199	0x3dbd0795	0.09229962
200	0xbe07ff26	-0.13280925
201	0x3d449c4e	0.048000626
202	0x3c200968	0.009767868
203	0xbd0db429	-0.034595642
204	0x3de30753	0.11085381
205	0x3de11508	0.109903395
206	0xbd6a203d	-0.05715965
207	0xbd800d3b	-0.062525235
208	0xbd07aaba	-0.033121802
209	0x3d004b91	0.031322066
210	0xbd376ad8	-0.04477963
211	0x3d529dd0	0.051420033
212	0x3d148b59	0.036265705
213	0xbcce8433	-0.025209522
214	0x3d402e05	0.046918888
215	0x3e041508	0.12898648
216	0xbdf609e9	-0.12013609
217	0x3d765807	0.060142543
218	0xbcdc9a17	-0.026928945
219	0x3d805504	0.062662154
220	0x3d090a98	0.03345737
221	0xbdb73a5d	-0.08946679
222	0xbe0a0eb7	-0.13482176
223	0x3d9f7c96	0.07787435
224	0xbae41880	-0.0017402321
225	0x3d8cf02b	0.06881746
226	0xbe0eda6d	-0.1395051
227	0xbdb1dbc5	-0.08684496
228	0xbda495ba	-0.080363706
229	0x3db63da9	0.088984795
230	0x3d2f41ad	0.042787243
231	0xbde246a2	-0.110486284
232	0xbdf9d8b2	-0.121995345
233	0x3dc4e03b	0.09613081
234	0xbe161b7c	-0.14658922
235	0xbd4018ed	-0.04689877
236	0xbd66f76e	-0.05638831
237	0x3d9ae1d6	0.07562606
238	0x3d4d946e	0.05019038
239	0xbe057db4	-0.13036233
240	0x3e2ddd48	0.16978943
241	0xbd59310c	-0.05302529
242	0xbb5ee4d3	-0.0034010902
243	0xbdc99e34	-0.09844628
244	0x3e1d22c7	0.15345298
245	0xbd7eb306	-0.06218245
246	0xbc99412d	-0.018707836
247	0xbddf0cd7	-0.10891121
248	0x3e0ee8d2	0.13956001
249	0x3d206e6c	0.039167807
250	0x3dfa6a0f	0.1222726
251	0xbd37c723	-0.044867646
252	0xbda3f2f0	-0.08005321
253	0x3ce43025	0.027854988
254	0x3d988599	0.07447357
255	0x3d96df80	0.07366848

lstm1.bias_hh_l0 f4 [344]
0	0xbc2a78dd	-0.010404793
1	0x3d09dbb9	0.03365681
2	0x3ceefb84	0.029172666
3	0xbd04bbed	-0.032405782
4	0x3e2f4089	0.17114462
5	0x3bf2495e	0.007394
6	0x3e1d49a0	0.15360117
7	0xbbeeefb1	-0.007291757
8	0x3d9336b8	0.07188171
9	0x3e086f7d	0.1332378
10	0x3d3bb85f	0.045830127
11	0x3df19743	0.11796429
12	0xbc83097c	-0.015995733
13	0x3d4a5d83	0.049405586
14	0x3cc60942	0.024174336
15	0x3e868770	0.26275206
16	0x3e0affb1	0.13574101
17	0xbc766baa	-0.015040318
18	0x3e048663	0.1294189
19	0x3ddc5e86	0.107602164
20	0x3e03dbce	0.12876818
21	0x3e19fc3c	0.15037626
22	0x3d8e7d04	0.069574386
23	0x3dad381f	0.0845797
24	0x3ded2e28	0.11581069
25	0x3d378e48	0.044813424
26	0x3de9c856	0.11415164
27	0x3e05af8c	0.13055247
28	0x3e0a6b09	0.13517393
29	0xbbbebab7	-0.005820598
30	0x3bbf0eef	0.0058306376
31	0x3d9efef9	0.07763476
32	0x3e29edd5	0.16594632
33	0xbce56036	-0.027999979
34	0x3dbf5aab	0.093434654
35	0x3e273842	0.16330054
36	0x3da131d1	0.0787083
37	0x3ceac1ee	0.028656926
38	0x3e03706d	0.12835856
39	0xbbc20962	-0.0059215287
40	0x3e961d34	0.29319155
41	0x3ca84d01	0.02054453
42	0x3d13c346	0.0360749
43	0x3e1fcc7a	0.15605345
44	0x3d109882	0.035301693
45	0x3e9d14e6	0.30680007
46	0x3d3d2025	0.046173234
47	0x3d7086b8	0.058722228
48	0xbccc4bee	-0.02493855
49	0x3d8e6624	0.069530755
50	0x3e917c59	0.28415182
51	0x3c1a4a79	0.00941717
52	0x3c09bbfb	0.008406634
53	0x3e05b7d4	0.13058406
54	0x3e14fb11	0.14548899
55	0xbd32512c	-0.043534443
56	0x3e1d45e4	0.15358692
57	0x3d72dc09	0.059291873
58	0x3d924579	0.07142157
59	0x3e14db8f	0.1453688
60	0x3de63a66	0.11241607
61	0xbc7db6d8	-0.015485488
62	0x3deb6203	0.114933036
63	0x3e4918fd	0.19638439
64	0x3e11ff3f	0.14257525
65	0x3d147015	0.036239702
66	0x3e12b5dc	0.14327186
67	0x3da1fec7	0.07909923
68	0x3e47d64a	0.19515339
69	0x3e01842d	0.12648077
70	0x3d65df5f	0.056121226
71	0x3e047428	0.12934935
72	0x3d1f9d0d	0.038968135
73	0xbd74479c	-0.059638605
74	0x3e3858ef	0.18002675
75	0x3da364bd	0.07978199
76	0x3dc5b1e9	0.09653074
77	0x3e16384c	0.14669913
78	0x3e0878ba	0.13327304
79	0x3d515e55	0.051115353
80	0x3dfce048	0.12347466
81	0xbcccfb6c	-0.025022231
82	0xbd19f4cc	-0.037586972
83	0x3e01581e	0.1263127
84	0x3e02ef7f	0.12786673
85	0x3d906717	0.07050913
86	0x3d3c93ed	0.04603951
87	0x3daea55b	0.08527633
88	0xbc8cf3eb	-0.017206153
89	0xbdc84904	-0.097795516
90	0x3dae33b8	0.08505958
91	0x3cb09d8e	0.021559503
92	0x3bfd05f6	0.007721658
93	0xbd7112aa	-0.05885569
94	0xbd34bee9	-0.04412738
95	0x3d09f99f	0.033685323
96	0xbcd32304	-0.025773533
97	0xb90143b9	-0.00012327627
98	0xbd5e913f	-0.054337736
99	0xbcff5ceb	-0.031172236
100	0xbdd861b2	-0.10565509
101	0xbb319cfc	-0.0027101627
102	0xbc01a3bf	-0.007912575
103	0xbcc96242	-0.024582986
104	0x3c1003eb	0.008789997
105	0x3ce05f6b	0.027389249
106	0xbdac4af6	-0.08412735
107	0xbc42f71a	-0.011899734
108	0x3a2a7e65	0.00065038196
109	0xbda1baf1	-0.07896984
110	0xbd791113	-0.0608073
111	0xbd11b083	-0.035568725
112	0x3d7a5161	0.061112765
113	0x3d09dd39	0.03365824
114	0x3db5f0e4	0.08883837
115	0xbdab0047	-0.08349662
116	0x3d60ad73	0.054852914
117	0xbcdee19c	-0.027207188
118	0xbbee38ef	-0.0072699706
119	0x3c921a03	0.017834669
120	0x3cbcf141	0.023064258
121	0x3dab5c6e	0.08367239
122	0x3da70ccf	0.0815674
123	0x3db7d902	0.08976938
124	0x3dadbc9d	0.08483241
125	0xbd9680b4	-0.07348767
126	0xbd9af1ca	-0.07565649
127	0x3da942b0	0.08264673
128	0xbdce314d	-0.10067997
129	0xbc66927a	-0.014073009
130	0xbd474129	-0.048646126
131	0xbd508e42	-0.050916918
132	0xbdc89408	-0.0979386
133	0x3dbbcc6c	0.0916985
134	0x3dab6517	0.08368891
135	0xbdb6412a	-0.08899148
136	0x3d92e36b	0.07172283
137	0x3cd7e992	0.026356492
138	0xbd9d1ba6	-0.07671289
139	0xbdc07689	-0.09397609
140	0xbd8d343a	-0.06894727
141	0x3d4f988c	0.05068259
142	0x3d9041b0	0.07043779
143	0xbdaaaae2	-0.083333746
144	0xbc4309dd	-0.011904207
145	0xbca72946	-0.020405423
146	0xbd0aa850	-0.03385192
147	0xbd8c6023	-0.06854274
148	0x3d69944e	0.0570262
149	0xbd410e22	-0.04713262
150	0xbd206f5c	-0.0391687
151	0x3d19126e	0.03737109
152	0xbcf64950	-0.030064255
153	0xbdb9ebf3	-0.09078207
154	0x3d0f210d	0.03494363
155	0x3cea6928	0.028614596
156	0x3d332aaf	0.043741878
157	0x3db3fc70	0.08788383
158	0xbda44e32	-0.08022727
159	0x3ce9dbc9	0.028547185
160	0xbdb8d56a	-0.090250805
161	0x3d5353d0	0.0515936
162	0xbd329c40	-0.043606043
163	0xbc56bd87	-0.01310671
164	0x3babc314	0.005241761
165	0x3d25e8a9	0.040505085
166	0x3d30b25a	0.04313884
167	0x3d55e9a9	0.05222479
168	0xbdcdf5d3	-0.10056653
169	0xbc63ea6d	-0.013910872
170	0x3c7142e5	0.014725422
171	0xbdcbae92	-0.09945406
172	0xbd36be6f	-0.044615205
173	0x3d1cba3c	0.038263544
174	0xbd29aa6c	-0.041422293
175	0x3d922063	0.071350835
176	0x3dae820a	0.08520897
177	0x3d02d0ea	0.031937517
178	0xbd7a59cb	-0.06112079
179	0x3c75688c	0.014978539
180	0xbe09d992	-0.13461903
181	0xbd9bd9de	-0.07609914
182	0x3e396ebf	0.18108653
183	0x3d8b6753	0.06806817
184	0xbd0ea843	-0.034828436
185	0xbdcf6d8f	-0.101283185
186	0xbdbb0736	-0.09132235
187	0x3d416304	0.04721357
188	0x3d0bb0d5	0.034104187
189	0x3dce9306	0.10086636
190	0x3c8c7884	0.01714731
191	0xbd28f927	-0.041253235
192	0xbdba69f8	-0.09102243
193	0x3c9a2aa5	0.018819163
194	0xbd3a9477	-0.045551743
195	0x3d874e54	0.06606737
196	0xbc0e50c1	-0.008686245
197	0x3d8a1342	0.067419544
198	0xbdcfa133	-0.10138168
199	0x3db0a43f	0.086250775
200	0xbda37c4c	-0.07982692
201	0x3dc60730	0.0966934
202	0xbd28c8f4	-0.04120727
203	0x3dbfcd90	0.0936538
204	0x3dcc5685	0.0997744
205	0x3d565d2a	0.052334942
206	0x3caf720c	0.021416686
207	0xbdbc03a0	-0.09180379
208	0x3d194eb0	0.037428558
209	0x3de4d600	0.1117363
210	0xbdf85910	-0.12126362
211	0xbdcc4a2b	-0.09975084
212	0x3cb77ccc	0.022398375
213	0x3c54dd1f	0.0129921725
214	0x3db46c74	0.08809748
215	0x3e0baeb5	0.13640864
216	0xbc004901	-0.0078299055
217	0xbd30420f	-0.04303175
218	0x3d3edc22	0.046596654
219	0x3db1c06d	0.086792804
220	0x3daeaa66	0.08528595
221	0x3d256391	0.040378157
222	0x3bb02de5	0.005376565
223	0x3de13962	0.10997273
224	0x3de0220b	0.10943993
225	0x3d8ab941	0.06773616
226	0xbcc59fbe	-0.024124023
227	0x3cbf0a7d	0.02332043
228	0x3d44bb1d	0.048030008
229	0x3d740e67	0.059584048
230	0x3c21931a	0.009861732
231	0xbda48412	-0.08033003
232	0x3d58bb58	0.05291304
233	0xbc9a77de	-0.018855985
234	0x3d4e3cc0	0.050350904
235	0x3ca9a477	0.020708306
236	0xbe0bd0ad	-0.13653822
237	0xbd717bf8	-0.058956116
238	0x3df8ace5	0.12142352
239	0x3d7b1616	0.06130036
240	0x3c94ad4b	0.018149039
241	0xbe035dad	-0.12828703
242	0xbdacabc3	-0.084311984
243	0x3d5ed4e7	0.05440226
244	0x3e159dc9	0.14610972
245	0xbd510aac	-0.051035568
246	0x3dae850e	0.08521472
247	0xbcd0ac10	-0.02547267
248	0xbc261bb0	-0.010138437
249	0xbe055096	-0.13019022
250	0xbcb6dff3	-0.022323584
251	0xbda1409c	-0.078736514
252	0xbdc83dc4	-0.09777406
253	0x3e0332c0	0.12812328
254	0xbc2dd13e	-0.010608969
255	0x3d85b432	0.0652851

lstm2.weight_ih_l0 f4 [344, 86]
0	0xbe07f00a	-0.13275161
1	0xbd98f676	-0.07468884
2	0xbe43e80e	-0.1913149
3	0x3cb91f9f	0.022598086
4	0xbc67a05f	-0.014137357
5	0xbd600633	-0.054693412
6	0x3e43de9b	0.19127886
7	0x3dbd294e	0.09236394
8	0xbdf989c4	-0.1218448
9	0x3c7902e5	0.015198444
10	0x3de10b98	0.109885395
11	0xbd5f730e	-0.054553084
12	0x3db238f9	0.08702273
13	0xbdc5a3de	-0.09650396
14	0xbd4b78c7	-0.04967573
15	0xbc151cc5	-0.0091010975
16	0x3d858071	0.06518639
17	0x3c9c14a6	0.019052815
18	0xbc9e2f7b	-0.01930975
19	0xbdbc9ddb	-0.09209796
20	0xbb5e5a65	-0.003392839
21	0x3e183c18	0.14866674
22	0x3d2bc55a	0.041936256
23	0x3e69744e	0.22798273
24	0xbe7fcb3f	-0.24979876
25	0xbe5a6155	-0.21326192
26	0xbdb6dc90	-0.08928788
27	0x3e8e999c	0.2785157
28	0xbdc6820a	-0.09692772
29	0x3d616aec	0.05503361
30	0xbe1a37c1	-0.15060331
31	0xbcba7675	-0.022761563
32	0x3ddae0fa	0.10687442
33	0x3c90fea9	0.017699556
34	0xbca32355	-0.019914309
35	0xbe5063d5	-0.20350583
36	0xbe3b838a	-0.18311897
37	0xbd164228	-0.036684185
38	0xbd49145a	-0.049091674
39	0x3d8fc9ef	0.07020938
40	0x3b060c7d	0.002045422
41	0xbe79a211	-0.2437823
42	0x3e04632e	0.12928459
43	0x3da8c07b	0.08239838
44	0xbdb4a9c8	-0.08821446
45	0x3e8ce7ae	0.27520508
46	0x3e0eafe0	0.13934278
47	0x3c5c1fdc	0.01343533
48	0x3e94da5f	0.29072854
49	0x3da5e960	0.081011534
50	0x3df8bb52	0.121451035
51	0x3dee554a	0.11637361
52	0x3e105d19	0.14098014
53	0xbdc391c5	-0.09549288
54	0x3cdff170	0.027336806
55	0x3da0a211	0.07843412
56	0xbb26d75b	-0.0025457952
57	0xbdcd2aac	-0.10017905
58	0xbe60b71d	-0.21944852
59	0xbd282b8b	-0.04105715
60	0x3d3759e8	0.044763476
61	0x3c99ec37	0.018789394
62	0xbd43a4a9	-0.047764454
63	0xbd0089f3	-0.03138156
64	0xbc110eef	-0.008853658
65	0xbe6ba53d	-0.23012252
66	0x3dd9635d	0.10614655
67	0xbe627e49	-0.22118486
68	0x3e175b0f	0.1478083
69	0xbd90291d	-0.07039092
70	0xbd7c5b9c	-0.061610803
71	0xbd097168	-0.03355542
72	0x3db2dafa	0.08733173
73	0xbe390293	-0.18067388
74	0xbd91335a	-0.07089873
75	0xbe24c7e8	-0.16091883
76	0x3e4a48f3	0.1975439
77	0xbde5ac8f	-0.112145536
78	0x3d5c6581	0.05380774
79	0x3e336564	0.17519146
80	0x3e8f1047	0.27942106
81	0x3e1689df	0.14701031
82	0x3d20c5b1	0.039251033
83	0x3d946589	0.07245929
84	0xbe081aee	-0.13291523
85	0xbcf9d92f	-0.030499069
86	0xbdbc568e	-0.091961965
87	0xbe14d1c2	-0.14533141
88	0xbd54f6d3	-0.051993202
89	0xbd6d91da	-0.058000423
90	0x3c095d7b	0.008384104
91	0x3da059e4	0.07829645
92	0x3d5d22c6	0.05398824
93	0xbd6dc1fa	-0.05804632
94	0xbdc0fa55	-0.09422747
95	0xbd87cde0	-0.066310644
96	0x3dc106b7	0.09425109
97	0x3d4489d7	0.047983017
98	0x3d9185b4	0.0710558
99	0xbd55382c	-0.052055523
100	0x3c827a89	0.01592757
101	0xbc7ef31d	-0.015560892
102	0x3d892896	0.06697194
103	0xbdce37d5	-0.10069243
104	0xbe0c3ab5	-0.1369427
105	0xbd5c2e46	-0.053755067
106	0x3dcf2c92	0.10115923
107	0x3d8820fd	0.06646917
108	0xbd870ff3	-0.06594839
109	0x3d146a8d	0.036234427
110	0xbe431afd	-0.19053264
111	0xbd6bd5bc	-0.05757688
112	0xbe38bc43	-0.18040566
113	0x3befa1d7	0.007312994
114	0xbde0a7a9	-0.10969479
115	0x3d96b47e	0.07358645
116	0x3d99b83e	0.075058445
117	0x3b7ffc35	0.003906024
118	0x3d1371fa	0.03599737
119	0xbd0e525c	-0.034746513
120	0x3df4493c	0.11928031
121	0xbd74abfa	-0.059734322
122	0xbbae88fd	-0.005326389
123	0xbd41d7ea	-0.047325052
124	0xbd9a72aa	-0.07541402
125	0x3d8710ed	0.06595025
126	0x3dc97ba6	0.09838037
127	0xbe1ec4d1	-0.15504767
128	0xbc2c803c	-0.01052862
129	0x3d4acc70	0.049511373
130	0xbd8466c0	-0.064649105
131	0x3e4a52ae	0.19758102
132	0xbdb5d3b8	-0.08878273
133	0xbdb521b7	-0.08844321
134	0x3e426218	0.18982732
135	0xbd02a137	-0.031892028
136	0x3e12b474	0.1432665
137	0xbbbae73a	-0.005703834
138	0x3d754d78	0.059888333
139	0x3d18d10d	0.03730874
140	0xbd5a20f8	-0.053254098
141	0x3c4893d7	0.012242279
142	0xbda4e5d5	-0.080516495
143	0xbe207fa3	-0.1567369
144	0xbde0a0e4	-0.109681875
145	0x3d096747	0.03354576
146	0xbd0d3db7	-0.034482684
147	0x3de314f5	0.110879816
148	0xbd961369	-0.07327921
149	0xbdebc18c	-0.115115255
150	0xbd32343a	-0.04350684
151	0xbd9df920	-0.077135324
152	0x3c7bc3d8	0.015366517
153	0xbdf9958f	-0.12186729
154	0x3d4af597	0.04955062
155	0xbda66360	-0.08124423
156	0x3d7fc8b6	0.062447272
157	0xbd4bc6c3	-0.0497501
158	0x3d92fa25	0.071766175
159	0xbddb7948	-0.10716492
160	0xbe096411	-0.13417079
161	0x3d5e70a9	0.05430666
162	0xbca6c4e8	-0.020357564
163	0xbdfd6cf9	-0.123743005
164	0xbbf12a29	-0.007359762
165	0xbd21a8a7	-0.03946748
166	0xbb640cd2	-0.003479768
167	0xba81e3fe	-0.0009909866
168	0xbceaad82	-0.028647188
169	0x3d5d99a0	0.054101586
170	0xbc481cc8	-0.012213893
171	0x3e0cc0ba	0.13745394
172	0x3d7b13c8	0.06129816
173	0xbd1ecd82	-0.038770206
174	0xbd0e8f4b	-0.034804624
175	0x3e2a1ee8	0.16613352
176	0x3b268f85	0.0025415134
177	0xbe149569	-0.1451012
178	0xbb6381f1	-0.0034714902
179	0xbdd3c807	-0.103408866
180	0xbd4b27c9	-0.04959849
181	0xbda8149c	-0.08207056
182	0x3da932cd	0.082616426
183	0x3defd59f	0.11710667
184	0xbe21a9a8	-0.15787375
185	0xbdb45a9b	-0.08806344
186	0xbd8adf5c	-0.06780884
187	0x3e112d4f	0.1417744
188	0xbd94d9e0	-0.07268119
189	0x3d10b21c	0.03532611
190	0x3da02ddc	0.07821247
191	0xbe0efb1f	-0.13962983
192	0xbdaed14b	-0.08536013
193	0xbd8a0801	-0.06739808
194	0xbbf5bad9	-0.0074990806
195	0x3dba52f0	0.0909785
196	0xbdef4d8b	-0.11684712
197	0x3e041821	0.1289983
198	0xbbda0ea5	-0.006654578
199	0x3dcf58e4	0.101243764
200	0xbdec3463	-0.115334295
201	0x3e0a998a	0.13535133
202	0x3cc6a436	0.024248224
203	0xbd158fef	-0.03651422
204	0xbca3f596	-0.020014565
205	0x3d22e00d	0.039764453
206	0xbc9cdf61	-0.019149484
207	0xbd1e3771	-0.03862709
208	0x3d6cf0ae	0.057846718
209	0x3de61eb3	0.11236324
210	0x3d97703e	0.073944554
211	0xbd86b63f	-0.065777294
212	0xbd5a4888	-0.053291827
213	0x3db9953f	0.090616696
214	0x3de286ec	0.110608906
215	0x3e0cb32a	0.1374022
216	0x3e01f31b	0.12690394
217	0xbcee65ee	-0.029101338
218	0x3e075518	0.13216054
219	0x3dbeeb67	0.09322243
220	0xbc93ff1f	-0.018065987
221	0x3d153b8a	0.036433734
222	0xbde428ab	-0.11140569
223	0x3e24fde7	0.16112481
224	0x3d8d9325	0.06912831
225	0x3df2d330	0.11856687
226	0x3c419a0f	0.011816516
227	0x3d975426	0.07389097
228	0xbe389af2	-0.18027857
229	0x3dc349e6	0.095355794
230	0xbd95e312	-0.07318701
231	0xbdd1def4	-0.10247603
232	0xbe1ac27f	-0.15113257
233	0x3e0b318b	0.13593118
234	0x3c76e561	0.015069337
235	0x3e077fe5	0.13232382
236	0xbbff4288	-0.0077899136
237	0xbbffbba3	-0.0078043505
238	0x3df249ac	0.11830458
239	0x3d8b79e8	0.06810361
240	0x3d15d408	0.036579162
241	0xbded2f1a	-0.115812495
242	0x3cb2f829	0.021846848
243	0xbd5db741	-0.054129843
244	0x3d9adbf0	0.07561481
245	0x3e0b8534	0.13625032
246	0x3d9279ae	0.07152115
247	0xbb54e4b9	-0.0032484962
248	0x3e0a247a	0.13490477
249	0x3d0e94c4	0.034809843
250	0x3e2a787d	0.16647525
251	0xbd2a2481	-0.04153872
252	0xbd509e94	-0.050932482
253	0x3c94741b	0.01812177
254	0x3e0b9b5b	0.13633482
255	0xbc1c1cc7	-0.009528345

lstm2.weight_hh_l0 f4 [344, 86]
0	0x3d00686e	0.031349592
1	0x3db6ecb0	0.08931863
2	0x3c707ca4	0.014678154
3	0x3d374ade	0.044749133
4	0xbd4d006f	-0.05004924
5	0x3dcafac3	0.0991111
6	0xbd78a824	-0.060707226
7	0xbd308926	-0.043099545
8	0x3dd5858c	0.10425863
9	0x3cf06d70	0.029349059
10	0xbdb8dac5	-0.09026102
11	0xbd77021c	-0.060304746
12	0xbda1669a	-0.07880898
13	0xbd814800	-0.06312561
14	0x3c15f2e7	0.009152151
15	0x3c79235e	0.015206186
16	0xb5bf82d1	-1.4268682e-06
17	0xbd0726dc	-0.032996044
18	0x3db6497d	0.089007355
19	0x3d80caf1	0.06288708
20	0xbcf882c0	-0.030335784
21	0x3c43a4ed	0.011941177
22	0xbd8d99fa	-0.06914134
23	0x3dbf50e1	0.09341598
24	0x3d7cda62	0.061731704
25	0x3cdb79c1	0.026791455
26	0x3b83a1a2	0.004017071
27	0x3dc66984	0.09688094
28	0xbd7881cb	-0.060670655
29	0x3ca235eb	0.0198011
30	0xbdc04b10	-0.09389317
31	0xbd6c998c	-0.05776362
32	0xbb3dbf37	-0.0028953084
33	0x3d30877d	0.04309796
34	0x3d849816	0.064743206
35	0x3da2a636	0.079418585
36	0x3c1789f9	0.009249204
37	0xbd7fef6c	-0.06248419
38	0x3c049b52	0.008093672
39	0x3beb392a	0.0071784453
40	0x3dd30a3e	0.10304688
41	0x3db890da	0.09012003
42	0x3cfb0714	0.030643024
43	0xbdd15aa9	-0.1022237
44	0xbd8c0f90	-0.06838906
45	0xbdd5a852	-0.10432495
46	0x3d27c946	0.040963434
47	0xbcb30fc4	-0.021858104
48	0xbd235f02	-0.03988553
49	0xbdbb4010	-0.09143078
50	0x3dbad5bd	0.091227986
51	0x3dd2e064	0.10296705
52	0x3cea5c91	0.028608592
53	0x3dd3c694	0.1034061
54	0x3d837b14	0.0641996
55	0xbcbefedc	-0.023314886
56	0x3c7b3c44	0.015334193
57	0xbdc71c94	-0.09722248
58	0xbd953cf5	-0.07287017
59	0xbdbaf8b8	-0.091294706
60	0x3d198419	0.037479494
61	0xbdc202b8	-0.09473175
62	0xbd5d4d47	-0.054028776
63	0x3d80a40c	0.062812895
64	0x3d074465	0.03302421
65	0xbcf42387	-0.029802097
66	0xbd9833f2	-0.07431783
67	0xbd412c46	-0.047161363
68	0xbdb6f7dd	-0.08933995
69	0xbcc00629	-0.023440437
70	0x3dc0af78	0.09408468
71	0x3d876458	0.06610936
72	0xbd7b69a6	-0.06138005
73	0x3d5d118d	0.053971816
74	0x3dbc3bd0	0.09191096
75	0xbd9bda22	-0.07609965
76	0xba2df986	-0.0006636608
77	0x3c8c1f1d	0.01710468
78	0x3da6cdc0	0.081447124
79	0x3bc5286d	0.006016782
80	0xbdb81436	-0.0898823
81	0xbd0c8f26	-0.034316204
82	0x3da4ceb1	0.08047236
83	0xbd0c98ca	-0.0343254
84	0xbd8ca26b	-0.06866916
85	0xbd9af172	-0.07565583
86	0x3d9f30c8	0.07772976
87	0xbd28c657	-0.041204777
88	0xbd46b3d5	-0.048511345
89	0xbdb794f2	-0.08963956
90	0x3db923d5	0.090400375
91	0x3c7c8a55	0.01541384
92	0xbd907772	-0.070540324
93	0x3d69c947	0.05707672
94	0xbc28dcf9	-0.01030659
95	0xbd4e772a	-0.050406612
96	0x3b3a3075	0.002841023
97	0x3d9bfdcb	0.076167665
98	0x3dc7daa4	0.09758499
99	0x3b93957a	0.004503903
100	0xbd7cd577	-0.061727013
101	0xbd963207	-0.07333761
102	0x3d67b244	0.05656649
103	0xbd22fa0d	-0.03978925
104	0x3d15459a	0.03644333
105	0x3c7c8fe2	0.015415164
106	0x3d9844c4	0.07434991
107	0xbc373951	-0.011183099
108	0xbd55ac0c	-0.05216603
109	0x3daa54ce	0.083169565
110	0x3d9b532d	0.07584224
111	0xbd9c72df	-0.076390974
112	0x3da3a356	0.07990138
113	0x3d0c1e58	0.034208626
114	0xbd5362b5	-0.051607806
115	0x3dd6c263	0.10486295
116	0x3d85a318	0.06525248
117	0xbcd05e12	-0.025435481
118	0x3d8ea9cb	0.06965979
119	0x3d82dce8	0.06389791
120	0xbc201f11	-0.009773032
121	0x3d866f5f	0.06564211
122	0x3cccccac	0.024999939
123	0xbcb6655f	-0.022265134
124	0xbd9f0c69	-0.07766039
125	0xbdd300d0	-0.10302889
126	0x3b3e207b	0.002901106
127	0xbd58e624	-0.052953854
128	0x3d73dffb	0.059539776
129	0x3d2849dd	0.041086067
130	0xbdc41319	-0.09573955
131	0x3db85336	0.09000246
132	0x3ce1533b	0.027505508
133	0xbd761bc0	-0.06008506
134	0x3db6829d	0.08911631
135	0xbd8cdd7c	-0.06878182
136	0x3d8eefcb	0.06979331
137	0x3adce2a5	0.0016852213
138	0x3c88056a	0.016604144
139	0xbce76a3f	-0.028248904
140	0xbd57c44d	-0.05267744
141	0xbba87c92	-0.005141803
142	0xbdaf742c	-0.0856708
143	0xbd85feeb	-0.06542762
144	0x3dac53a8	0.08414394
145	0x3da361e8	0.079776585
146	0xbd25c69d	-0.040472616
147	0x3d79647c	0.060886845
148	0xbd5593a7	-0.052142765
149	0xbda9a1a7	-0.08282786
150	0xbcfe8dbf	-0.03107345
151	0xbdae1d69	-0.08501703
152	0xbd7722ad	-0.060335804
153	0x3dc5b455	0.09653536
154	0x3d1904c3	0.037358057
155	0xbcbf7f87	-0.02337624
156	0x3d9a15c1	0.075236805
157	0xbdcc2e55	-0.09969775
158	0xbdac0ea1	-0.08401228
159	0xbdba5778	-0.090987146
160	0xbdd6c30f	-0.10486423
161	0xbd2b9860	-0.041893363
162	0x3be7d13a	0.0070745023
163	0x3d99c190	0.07507622
164	0x3dac5d6c	0.08416256
165	0xbd21aa42	-0.03946901
166	0x3d357e65	0.044309992
167	0x3cccefc6	0.025016677
168	0xbd7af9e8	-0.061273485
169	0xbd9800aa	-0.07422002
170	0x3da0a978	0.078448236
171	0x3d96c345	0.073614635
172	0x3d2006fa	0.039069153
173	0xbdbdbea9	-0.09264881
174	0x3d39a52a	0.04532353
175	0x3dcc86b2	0.099866286
176	0xbc47862d	-0.012177986
177	0xbd033941	-0.032037023
178	0xbd86b542	-0.06577541
179	0xbc717e0a	-0.014739523
180	0x3d1d55c4	0.03841187
181	0xbda56fa4	-0.080779344
182	0xbd870528	-0.0659278
183	0xbcf73ebd	-0.030181283
184	0xbdabac04	-0.08382419
185	0xbd97b58f	-0.074076764
186	0xbdaa446c	-0.08313832
187	0xbddcd0a8	-0.107819855
188	0xbd465ab6	-0.048426352
189	0x3d24c197	0.040223684
190	0xbdb640cf	-0.0889908
191	0xbdb26dcf	-0.087123506
192	0x3d4f2e40	0.050581217
193	0x3cff057e	0.031130549
194	0xbd9ec993	-0.07753291
195	0x3dbcc385	0.0921698
196	0xbdaa69a3	-0.0832093
197	0x3d727fd0	0.059203923
198	0xbd9ba48e	-0.07599746
199	0x3d5e5724	0.054282323
200	0xbd3b81de	-0.045778148
201	0x3d638f2c	0.05555646
202	0x3b79412f	0.0038033237
203	0xbcda834e	-0.02667394
204	0xbd928036	-0.071533605
205	0xbdbc405b	-0.09191962
206	0xbd742201	-0.05960274
207	0xbdac540d	-0.08414469
208	0x3d133a8f	0.035944518
209	0xbdd77bf0	-0.10521686
210	0xbd1447ce	-0.03620129
211	0xbc5cb9d4	-0.013472039
212	0x3be56377	0.0070003825
213	0xbd2fff8a	-0.04296831
214	0x3d9c7ffe	0.076416
215	0xbd59c322	-0.05316461
216	0xbdad8c98	-0.08474082
217	0x3c9418a8	0.018078163
218	0xbd8c206f	-0.06842124
219	0xbdb6606e	-0.08905111
220	0x3bde164b	0.00677756
221	0xbadeeeb6	-0.0017008397
222	0x3dd828ec	0.1055468
223	0xbdb9fc78	-0.09081358
224	0xbd6d6339	-0.057955954
225	0x3c96cd52	0.018408451
226	0x3c0be6fc	0.008538958
227	0x3d60b205	0.054857273
228	0x3da0d583	0.07853224
229	0x3d591bfa	0.053005196
230	0xbdbc9f0f	-0.092100255
231	0x3cbda9bb	0.023152223
232	0xbd0a8e3b	-0.033827048
233	0x3c47c75c	0.012193527
234	0x3da0dda2	0.07854773
235	0xbccde87d	-0.025135273
236	0x3d336036	0.043792926
237	0x3db4b1b1	0.088229544
238	0xbd8f14c9	-0.06986386
239	0x3d47681a	0.048683263
240	0x3c2e27f2	0.010629641
241	0xbc9e6adb	-0.019338062
242	0xbd8b860d	-0.068126775
243	0xbda61d42	-0.08111049
244	0xbda3040d	-0.07959757
245	0x3d3bbc4d	0.045833874
246	0x3d62c885	0.05536701
247	0xbdb4ec54	-0.088341385
248	0xbd0d1995	-0.034448225
249	0xbc079147	-0.008274383
250	0x3b2daf8d	0.0026502341
251	0x3d42d094	0.047562197
252	0x3d916bf5	0.07100669
253	0x3d03494b	0.03205232
254	0x3d905965	0.07048301
255	0xbcb8cd49	-0.022558825

lstm2.bias_ih_l0 f4 [344]
0	0x3e3f51de	0.18683574
1	0x3cc50821	0.024051728
2	0x3d7ae82c	0.061256573
3	0x3e0628c0	0.13101482
4	0x3e0785ef	0.13234685
5	0x3dc4b868	0.09605485
6	0x3da85173	0.0821866
7	0x3e270ba3	0.16313033
8	0x3de67431	0.112526305
9	0x3e0a1e25	0.13488062
10	0xbc30b7be	-0.010785995
11	0xbbc55da5	-0.006023126
12	0x3d715e23	0.058927666
13	0xbc29ab72	-0.010355817
14	0x3e834a55	0.25642648
15	0x3e106cca	0.14104
16	0x3e26df2e	0.16296074
17	0x3dae35d8	0.08506364
18	0x3e006d67	0.12541734
19	0xbb5d09f1	-0.003372785
20	0x3d01a741	0.031653646
21	0xbca164b0	-0.019701332
22	0xbca4cdb9	-0.020117627
23	0x3e54e556	0.2079061
24	0x3db7f9fe	0.08983229
25	0x3e202c6c	0.15641946
26	0x3dc5e46e	0.0966271
27	0x3d04c3dc	0.03241335
28	0x3ddeb6c2	0.10874702
29	0x3da3c372	0.079962626
30	0x3e0e299f	0.13883065
31	0xbd1af84c	-0.03783445
32	0x3ce54e65	0.027991483
33	0xbd5d4fe3	-0.054031264
34	0x3d01a228	0.031648785
35	0x3d1ca69d	0.038244832
36	0x3ba7cd49	0.0051209074
37	0x3e2366d8	0.159572
38	0x3e11b1aa	0.1422793
39	0x3da29e02	0.07940294
40	0x3c9090a5	0.017647097
41	0x3dffebfe	0.12496184
42	0x3de2c7ea	0.11073287
43	0x3e7e91b8	0.24860275
44	0x3e20f33c	0.15717787
45	0x3e059bab	0.13047664
46	0x3db7ab4d	0.0896822
47	0x3e2da382	0.16956905
48	0x3dec7bef	0.11547076
49	0x3e61c571	0.22047974
50	0x3e2a3ac2	0.16623977
51	0x3df32f01	0.118742
52	0x3e04e1ce	0.12976763
53	0x3c886578	0.016649947
54	0xbd36dd9e	-0.044644944
55	0x3dd649d7	0.104633026
56	0x3dd235c8	0.10264164
57	0x3dea7505	0.11448101
58	0x3d69b9e9	0.057062063
59	0xbcd746cb	-0.026278874
60	0x3e3117b2	0.17294195
61	0x3d2877a1	0.041129712
62	0x39de0a18	0.0004235066
63	0x3d95cc25	0.07314328
64	0x3da153be	0.07877301
65	0x3e19fced	0.1503789
66	0xbc4fc65d	-0.012681571
67	0x3d510fb5	0.05104037
68	0x3e322571	0.17397095
69	0x3e2a8a2d	0.16654272
70	0x3e1a01fd	0.15039821
71	0x3db462fb	0.088079415
72	0x3d2a3e48	0.041563302
73	0x3b93f859	0.0045156893
74	0x3d18efd2	0.037338085
75	0xbd1c8163	-0.03820933
76	0x3e29daf0	0.16587424
77	0x3dcbbc8b	0.09948071
78	0xbcc3e4da	-0.023912836
79	0x3e17876d	0.14797755
80	0x3db023df	0.08600592
81	0x3df5f599	0.12009735
82	0x3e252611	0.16127802
83	0x3dd391df	0.10330557
84	0x3d4d9224	0.0501882
85	0x3dbe183a	0.092819646
86	0x3d1ea7fc	0.03873442
87	0x3d0cedf3	0.034406614
88	0x3d0e8615	0.03479584
89	0xbdbcc3d4	-0.09217039
90	0x3d5b530b	0.053545993
91	0x3cb367ad	0.021900022
92	0xbda4446e	-0.080208644
93	0xbd81be4d	-0.06335125
94	0xbd45a65c	-0.048254356
95	0x3c4b700d	0.012416852
96	0x3d13e39a	0.03610573
97	0xbd7c9173	-0.06166215
98	0x3d8996ba	0.06718202
99	0xbd72ce5f	-0.059278842
100	0x3d970b5d	0.07375214
101	0xbdd96be5	-0.106162824
102	0x3db1add9	0.08675737
103	0x3dabc500	0.08387184
104	0x3d44e6cf	0.04807168
105	0xbd5a54aa	-0.0533034
106	0x3db7294f	0.08943426
107	0x3d375233	0.044756126
108	0xbdb78a20	-0.08961892
109	0xbd13fe82	-0.03613139
110	0x3d844b83	0.06459715
111	0x3d8f3197	0.069918804
112	0x3b5e99bd	0.0033966147
113	0x3c297a16	0.010344049
114	0x3bb43a84	0.0055001397
115	0xbd9aa1a9	-0.075503655
116	0xbd431d6f	-0.047635492
117	0x3aa97366	0.0012928068
118	0xbd196ae8	-0.03745547
119	0xbd31c534	-0.04340096
120	0x3d184448	0.037174493
121	0x3da90d34	0.082544714
122	0x3ca69982	0.02033687
123	0x3d95df5f	0.07317995
124	0x3dd2aa1a	0.102863505
125	0xbd9a6048	-0.075378954
126	0xbcde48e4	-0.027134366
127	0xbda7f519	-0.082010455
128	0x3d11e1cb	0.035615724
129	0x3c5175e5	0.012784456
130	0xbd94feed	-0.07275186
131	0xbd4bc105	-0.049744625
132	0x3bfec411	0.007774838
133	0xbcbfd213	-0.0234156
134	0x3ddb72af	0.107152335
135	0xbcbffba5	-0.023435423
136	0xbdc84958	-0.09779614
137	0x3d35584a	0.044273652
138	0x3d30bcc2	0.043148763
139	0xbda11493	-0.07865252
140	0xbdb1494e	-0.0865656
141	0xbbc8307f	-0.006109297
142	0xbdbe1e35	-0.09283105
143	0x3d6091d5	0.054826576
144	0xbd85c521	-0.0653174
145	0xbdc48276	-0.09595196
146	0xbd4afcc7	-0.049557474
147	0xbbd59976	-0.006518538
148	0x3dcae8d9	0.099076934
149	0x3d91f94b	0.07127627
150	0x3c62bc7f	0.013838886
151	0x3db5204c	0.08844051
152	0xbc923fba	-0.017852653
153	0xbd209fdf	-0.039214965
154	0x3dc4c23a	0.09607358
155	0x3d2aaf4c	0.041671082
156	0x3db14a81	0.086567886
157	0xbd550ebc	-0.052016005
158	0x3c734a45	0.01484925
159	0xbbea15e8	-0.0071437247
160	0x3c568d6f	0.013095244
161	0x3d42a5f1	0.047521535
162	0xbd67eded	-0.056623388
163	0x3da54019	0.08068866
164	0x3db20f87	0.08694368
165	0xbcd3377a	-0.02578329
166	0x3d3a7950	0.04552585
167	0xbd53695a	-0.051614143
168	0xbbedf8fd	-0.0072623477
169	0xbca69e40	-0.020339131
170	0x3dc139ce	0.094348535
171	0x3c2a548e	0.010396136
172	0xbdd616c6	-0.104535624
173	0x3ddb5440	0.10709429
174	0x3d1e33ff	0.038623806
175	0xbd440754	-0.04785855
176	0xbd089ea0	-0.0333544
177	0x3c1449ee	0.009050829
178	0x3d009335	0.031390388
179	0xbdbb1c79	-0.0913629
180	0x3de5cab4	0.11220303
181	0xbb727a55	-0.0036999185
182	0xbda22496	-0.079171345
183	0xbdc13b4a	-0.094351366
184	0xbd923a29	-0.071399994
185	0xbd9aef39	-0.07565159
186	0xbcee1a6f	-0.029065339
187	0xbdaab1df	-0.083347075
188	0xbd55b087	-0.052170303
189	0xbd64a1d8	-0.05581841
190	0x3d93e9e8	0.072223485
191	0xbd003975	-0.031304795
192	0xbd1e3d8d	-0.03863292
193	0xbad1a2ab	-0.0015993913
194	0xbd4c8fcd	-0.049941827
195	0xbd298203	-0.041383754
196	0x3c78f9ea	0.015196303
197	0x3cfb7713	0.030696427
198	0xbd864f14	-0.06558052
199	0xbdbaed9e	-0.09127353
200	0x3d5d5ce0	0.05404365
201	0xbd029c7e	-0.031887524
202	0xbd1410d9	-0.03614888
203	0xbdcc1fc4	-0.09966996
204	0x3d55cfe0	0.0522002
205	0x3cf32188	0.029679075
206	0x3dd32049	0.10308892
207	0x3df20f68	0.11819345
208	0x3d87ee46	0.06637244
209	0xbd5b4f1e	-0.05354225
210	0x3d813334	0.06308594
211	0xbcdcb194	-0.026940145
212	0x3d49b451	0.04924423
213	0xbdd0080e	-0.10157786
214	0x3c769b9b	0.015051748
215	0xbc596630	-0.013268992
216	0xbd8926d2	-0.066968575
217	0x3d62a2c6	0.055331014
218	0xbd725d63	-0.05917109
219	0x3d8ceda8	0.06881267
220	0xbdb7a2c7	-0.08966594
221	0x3c03abd5	0.008036573
222	0x3cd380b8	0.025818214
223	0x3d86394a	0.06553896
224	0x3de41c30	0.11138189
225	0xbc403d99	-0.011733436
226	0xbcc48bf1	-0.02399251
227	0x3c788663	0.015168759
228	0x3dcde4bb	0.100533925
229	0xbd42942c	-0.04750459
230	0x3dd382e0	0.10327697
231	0x3dd90592	0.105967656
232	0x3e26f6ad	0.16305037
233	0xbdaf2ee5	-0.08553866
234	0x3dd08871	0.10182274
235	0x3b99b37d	0.004690586
236	0xbc902109	-0.017593877
237	0xbd5390c5	-0.051651735
238	0x3e05ef1f	0.13079499
239	0x3d22d413	0.03975303
240	0x3d136fef	0.03599542
241	0xbd35a402	-0.044345863
242	0x3d19f80c	0.03759007
243	0xbdb5c198	-0.08874816
244	0xbdbaf5c4	-0.09128907
245	0xbd87ceb3	-0.066312216
246	0x3dea4f9f	0.11440968
247	0xbdb14313	-0.086553715
248	0xbd8c7972	-0.06859101
249	0xbb4424b7	-0.002992911
250	0xbd810f50	-0.06301749
251	0x3cf407c9	0.029788869
252	0xbdd4bc32	-0.10387458
253	0xbdf9308c	-0.12167463
254	0xbc12643b	-0.00893503
255	0x3dbcb2e3	0.092138074
