S/Treinamento/ESN/conf_2/modelo_seed_14_loss_0.012315.pt (torch, 37440 bytes, 5 tensors)

reservoir.weight_ih_l0 f4 [55, 74]
00000000: 5853 0e3e 5095 7dbf 184a 5c3f 5826 e73e
00000010: 8eb2 283f f25d 093f 3445 61bf 2c9a 35bf
00000020: 9095 d4be 40d1 6e3d 60f6 34bf 7a34 293f
00000030: 6088 91be dabe 0b3f c02c 1dbd ce17 12bf
00000040: 52fc 6dbf ec77 793f aca7 903e 005e e2bd
00000050: 9000 a7bd 0802 653f 68fe 6f3e d80d 91be
00000060: 143d 693f 0050 76be 00d6 f13b a838 073f
00000070: ec1d b1be b683 64bf f04c 083f d8bc 59be
00000080: a460 f03e c0c8 43be ce01 1d3f 8644 103f
00000090: 7836 743e 7815 7dbf ccb0 8bbe 5a59 283f
000000a0: f61a 323f c0a7 7d3e de81 1fbf 1404 d8be
000000b0: eca7 253f 005e a93e f864 1b3e 40c2 d03c
000000c0: 14ad e9be 3680 113f ea27 633f 6883 ea3e
000000d0: 806a 2cbc 1402 47bf 1cb0 1dbf 0262 383f
000000e0: e07b 403e 8ea2 5a3f 8079 d4bd f8d5 7b3e
000000f0: ecb0 14bf 6841 4c3e 4484 a6be 3c50 393f
00000100: da58 42bf 82cc 6b3f 7258 6c3f d476 c8be
00000110: cc9c f6be 5e8d 29bf 368d 55bf 1ad6 313f
00000120: 40a2 16be c42a 86be 528d 163f fc49 8a3e
00000130: 5414 fd3e 1a54 013f 180a 5f3e e841 143e
00000140: 6c9d 77bf 70f7 473e 72cb 7b3f 9c33 083f
00000150: 005c e23b dc79 1a3f 8840 12bf eee3 16bf
00000160: 9c22 403f f88c 79bf c8a2 c63e e032 40bf
00000170: 9487 d03e 984b 01bf fe7d 0fbf d4dd ebbe
00000180: 38f0 0abf c4bd f83e 188c 273e c2a6 7f3f
00000190: 1860 4e3f c888 69bf 5805 76be d093 193f
000001a0: 221b 543f 98aa 493e 48f4 1ebe 6034 643f
000001b0: 46cf 4a3f 80dc bf3e 32a3 37bf 5ee0 06bf
000001c0: ec1c 27bf c0cc edbd f079 403e 54b3 f23e
000001d0: 68cc 083f 7add 79bf 90e5 70bf d060 09be
000001e0: f24f 6c3f a097 3bbf 90ea 7c3f 26c4 22bf
000001f0: c094 e4bd 3a5b 7bbf acb8 183f 5414 1abf
00000200: 7027 1e3f d00b 83be 9ca3 26bf 146f dfbe
00000210: 0e32 02bf 68f7 78bf d65e 2f3f 6eae 6e3f
00000220: 428e 223f 2668 40bf a02b 2b3f 1034 efbd
00000230: f0f7 85be d4e2 8ebe 843a bdbe 8054 99bd
00000240: 0adf 5bbf 3053 61be 3cc9 d8be c899 5fbf
00000250: 401b 06bd 2056 823e c4c6 143f 0af5 3bbf
00000260: cabc 4c3f c812 3abf 8020 113c 9e79 3a3f
00000270: 78e7 efbe 002a 6abf b4cf 7a3f 609f 7f3f
00000280: 006c 823a ac36 9e3e aad5 34bf 0cc9 9c3e
00000290: 26c8 563f f6a5 543f da2b 46bf 94b4 d2be
000002a0: 647e 7ebf 98b6 df3e 286b b13e 6457 1fbf
000002b0: e85f d53e 601c d7be 24e9 3cbf fe21 3d3f
000002c0: c62e 2ebf acdd 41bf 78c9 d4be 88aa f23e
000002d0: c888 8dbe b83f 5abf 1c77 ee3e 389d 4b3e
000002e0: 50d6 da3d 0026 01bb 5820 a13e 2441 e43e
000002f0: 103f 1bbe 684b 7c3e 3055 833d 9067 483f
00000300: b8bc 633f b0f6 b2bd 5c22 54bf 8627 7ebf
00000310: 04b0 1c3f 5c30 a7be f86f 6e3f 7a66 7bbf
00000320: 4c89 a33e b81a 5dbf 70b3 983d 00bc c13c
00000330: b8e7 2cbf 2ca5 fbbe 4e73 283f 4830 223e
00000340: da23 47bf 3870 153f 888e 773f 404f eabc
00000350: c66f 063f dadc 7e3f 1ebe 2ebf 38dd 23be
00000360: e4b2 1d3f b877 783f e8c9 b93e b693 5bbf
00000370: 80e7 1c3e c818 f33e 5cab 753f c0e8 b7bc
00000380: 2886 9abe 7e26 673f 1024 7bbe 1c4c ca3e
00000390: 0010 2a3d 74f2 113f a849 013e 409b dfbe
000003a0: 0015 a63c f8e9 0ebf 3821 9d3e d66d 703f
000003b0: 6477 f73e 5e1a 05bf 120e 4fbf c045 3abf
000003c0: 60bd 1b3d ecba 703f 3c4e 1d3f 48dc d5be
000003d0: e854 39be 72e6 5cbf 7c2a 9c3e 10da acbd
000003e0: 48ab 94be ae0d 48bf d8fc 203f 6023 d23d
000003f0: c0ca 3b3d c811 ddbe b8b2 96be 4c80 3fbf
0.1389898 -0.9905596 0.8605056 0.4514644 0.6589745 0.53658974 -0.8799622 -0.7093837
-0.41520357 0.058305025 -0.7068844 0.660957 -0.28424358 0.5458809 -0.038372755 -0.57067573
-0.92963135 0.9744861 0.28252923 -0.11053085 -0.08154404 0.89456224 0.23436892 -0.28330874
0.9110882 -0.24053955 0.007380247 0.52820826 -0.3459314 -0.89263475 0.532424 -0.21263444
0.4694873 -0.19119549 0.6133088 0.5635456 0.23848903 -0.98860884 -0.27283323 0.6576134
0.6957239 0.24771023 -0.62307537 -0.4219061 0.64709353 0.3307953 0.15175235 0.02548325
-0.4563986 0.5683626 0.8873278 0.4580338 -0.010523438 -0.77737546 -0.61596847 0.7202455
0.18797255 0.8540429 -0.10374737 0.24593341 -0.5808246 0.19946826 -0.32522786 0.7238805
-0.75916827 0.9210893 0.92322457 -0.3915316 -0.48166502 -0.66231334 -0.83418596 0.6946732
-0.14710331 -0.26204503 0.5880939 0.2700957 0.49429572 0.50518954 0.21781194 0.14478266
-0.9672458 0.19527984 0.9835731 0.5320375 0.00690794 0.6034219 -0.57129717 -0.58941543
0.7505281 -0.97480726 0.38796067 -0.7507763 0.40728438 -0.5050597 -0.56051624 -0.4606768
-0.54272795 0.4858228 0.16362035 0.9986383 0.8061538 -0.91224337 -0.24025476 0.5999117
0.828539 0.19693983 -0.15522873 0.8914242 0.79222524 0.37472916 -0.7173339 -0.5268611
-0.65278506 -0.116113186 0.18796515 0.47402442 0.534369 -0.9760357 -0.94100285 -0.13415837
0.92309487 -0.73278236 0.98795414 -0.6358055 -0.11161184 -0.98186076 0.59656787 -0.6018727
0.61778927 -0.2559495 -0.650934 -0.43639433 -0.5085763 -0.9725251 0.68504083 0.9323491
0.6349832 -0.7515892 0.6686344 -0.11679852 -0.26165724 -0.2790743 -0.36958706 -0.0748682
-0.85887206 -0.2200439 -0.4234103 -0.87344027 -0.03274083 0.25456333 0.5811579 -0.73420775
0.7997557 -0.7268491 0.008857846 0.72841823 -0.46856284 -0.91470337 0.9797318 0.9985256
0.0009950399 0.30901086 -0.70638525 0.30622137 0.8389915 0.83065736 -0.7741066 -0.41153395
-0.99411607 0.43693995 0.34652066 -0.6224272 0.41674733 -0.42013836 -0.73793244 0.7387999
-0.6804012 -0.7572887 -0.41559958 0.4739573 -0.27643418 -0.8525348 0.46575248 0.19884193
0.10685408 -0.0019706488 0.3146999 0.44580948 -0.15160775 0.2463814 0.064127326 0.78283024
0.88959837 -0.08738458 -0.8286493 -0.9927906 0.6120608 -0.32654083 0.931396 -0.9820324
0.31940687 -0.86368895 0.074561 0.023649216 -0.67541075 -0.49149454 0.6580094 0.1583873
-0.7778908 0.5837436 0.9670186 -0.028602242 0.525143 0.9955574 -0.68258846 -0.16002357
0.6160109 0.97057676 0.36286855 -0.85772264 0.15322685 0.47479844 0.959646 -0.022449851
-0.30180478 0.9029311 -0.24525476 0.39511192 0.041519165 0.5701058 0.12625754 -0.43673134
0.020273685 -0.5582576 0.30689406 0.93917596 0.48333275 -0.5199336 -0.80880845 -0.7276268
0.0380224 0.9403522 0.614475 -0.41769624 -0.18098795 -0.8628913 0.30501163 -0.084400296
-0.29036927 -0.78145874 0.6288581 0.102606535 0.045847654 -0.4317763 -0.29433227 -0.7480514

reservoir.weight_hh_l0 f4 [55, 55]
00000000: 7b33 a53d 333b bb3d 124f 7c3d 20b5 23be
00000010: c47d fd3c 9d9d 8d3c 4e25 603d 7d50 11be
00000020: 7705 ecba 0b70 93bc d302 11bd 5afa 053e
00000030: ebeb 123e ea73 0cbe 2fa9 113e fc47 e7bd
00000040: 2dc6 b1bd 9d48 f43b 1202 243e c059 1d3e
00000050: e01d 92bd 71c6 9c3d aab6 423d e39f a73d
00000060: 27c3 1e3b 449c 103a eda7 0abd 01bb bd3d
00000070: 8b3c 133e 2e05 b8bd 0e7d cc3d 31cc 8c3c
00000080: f6f2 8dbd c019 243c b664 59bc 7547 f3bc
00000090: 1065 4abd 6179 153d 80bb 31bd 9936 243e
000000a0: 7d26 04be 5c1a 10bd acdf ea3c 4f47 773d
000000b0: 40a9 b4bd 399f 7b3d 1901 5339 9ca1 08be
000000c0: 23ce 22be 6b92 ec3d 04ba 0a3e 9be1 6cbb
000000d0: 1465 8fbd 06c9 5fbd 3369 0c3e 5656 c73d
000000e0: 4114 cb3d c501 91bc 7414 ff3c 9086 d2bd
000000f0: 2e53 0bbe b2bd fd3d 8d40 893d 4c4f 173e
00000100: d8cd 153e 7d05 e33c bd98 3a3d 0b7c ce3d
00000110: 809e eebd d405 1abe bc11 87bd 1d41 9bbd
00000120: e6cb 2a3e a506 133e b695 d73d d61c f0bd
00000130: 20ec 9b3c 1d18 96bd c3c0 29be ac85 0b3d
00000140: ca15 0a3c 8568 1cbe 81ad f03d 05fa a4bd
00000150: 9447 e83c 02fc bebc 71e5 543d a1bf 2b3e
00000160: 9dd5 033e 6088 823d fb13 47bd 3df7 e93d
00000170: e457 15bc d022 9abd 12a3 0b3e bb85 b33d
00000180: 3c50 b7bd 56ec cdbb 1b06 dabd 9318 40bd
00000190: 98cf e2bd 1b51 593d a4bb 113d f727 a8bd
000001a0: 5eae 16be 1862 0abe 6a13 a1bd c616 bf3d
000001b0: 66d2 d63b d161 0dbe 355a 223c b522 1e3e
000001c0: 184a 25be 4371 01be 1d11 ecbb c56c 2c3e
000001d0: 958f 57bd 27de 28bb 2328 003d 0985 b33d
000001e0: 6b7a 253e 3e52 b5bc d6e8 1bbd a3f3 76bd
000001f0: d20d 1b3e 42f9 d8bb 5baf b53d a9a0 a6bd
00000200: a3cb 22bd 0097 263e 49a3 bf3d 6e98 81bd
00000210: 5f41 60bc 69fd 1cbe cf8a dc3d ea91 9bbd
00000220: 01aa c6bc dfc8 d8bd fc1d 87bd ac44 923d
00000230: edbb 13be fa64 1b3e 0250 283b 4764 64bd
00000240: b74b 173e f051 023e ac45 c6bd 7188 b93d
00000250: 1c6e 91bd d42f f6bc 19c2 07be c7de 123e
00000260: 10cc a7bd 46d0 823d ac51 3dbd 9276 e6bd
00000270: 8b9e 213d 7523 f3bc c62e b43d b740 0d3e
00000280: dff0 0e3e aba9 13be 93c4 ca3d d32b c3bd
00000290: 6097 dabd 9cf6 17be c970 ca3d 3a67 50bd
000002a0: a46a 59bd 4699 9c3d 90c9 ddbc 162f 6a3d
000002b0: 0808 7abd e345 05bd cc78 1c3d f8dc b73d
000002c0: 70cf eebd 3359 ecbb 04df dcbd 96d5 6abc
000002d0: 52a3 cf3d d030 a538 5d07 2bbe ad4a f33d
000002e0: 58b6 8d3d 9aac a03c 8793 153d 6fba 2abe
000002f0: 1256 cc3d 8ffb 543a 1aed d0bc 848a 14be
00000300: 73ad a4bd b678 7f3d be68 cf3d d94e b0bd
00000310: 2b85 b83d 466b 0ebe a0d2 95ba 035b b0bd
00000320: 9216 863d b33d 27be 3a20 943d c324 1d3e
00000330: fe0a 263e 6d50 9c3d 8247 a73d 243d 5abc
00000340: 82e8 a3bd b85f c5bd da69 063e d829 c33d
00000350: 1233 ebbc 2c93 4ebd 4f8a edbd 2a3c 67bb
00000360: 04ad eebd 0076 a4bd 4c5a d7bb c987 bc3c
00000370: 19d5 2bbe 3759 9ebd 0249 333c a588 85bd
00000380: d9a1 23bd 7c32 e6bd 6b94 e73c a5b0 a23d
00000390: e04e 90bd 69d4 0abe cb63 fe3d 4584 11be
000003a0: 658b 283e 78c1 8c3d e956 b8bd 84fa 033c
000003b0: 47af 1dbd c7bb 01be d73d 1bbd ef6a c1bd
000003c0: 70b9 5d3b 3d50 0ebe 7fc5 b03d 6640 753d
000003d0: c9de e43d 5e25 25be caef 993d 16cc c8bd
000003e0: 5e1a 863c a29a 16be 7589 043e 7fca 26be
000003f0: 42b3 2fbd 7eb6 91bd e2ec d13d c261 55bd
0.0806646 0.09142151 0.061598845 -0.15987062 0.030943759 0.01728707 0.054723077 -0.1419086
-0.0018007 -0.017997762 -0.035403084 0.13083783 0.14347808 -0.13716093 0.14224695 -0.11293027
-0.08680377 0.0074549452 0.16016415 0.15366268 -0.071346045 0.07655037 0.047537483 0.08184793
0.0024225207 0.00055164495 -0.033851553 0.09264184 0.14378564 -0.08985363 0.0998479 0.01718721
-0.06931107 0.010015905 -0.01326864 -0.02969716 -0.049412787 0.03649271 -0.043391705 0.16036452
-0.12905307 -0.03518139 0.028671108 0.06037074 -0.088213444 0.061431143 0.00020122937 -0.13342899
-0.15898947 0.115513645 0.13547522 -0.0036145214 -0.07001701 -0.05463507 0.13712005 0.09733264
0.099159725 -0.01770104 0.031137682 -0.10279572 -0.1360595 0.12389697 0.06701765 0.14776343
0.14629304 0.027712578 0.04555582 0.10082253 -0.11651325 -0.15041286 -0.065951794 -0.07580779
0.16679344 0.14358003 0.10526602 -0.1172425 0.019033492 -0.07328818 -0.16577439 0.034063026
0.0084280465 -0.15274246 0.11751843 -0.080555 0.028354444 -0.023313526 0.051976625 0.1677232
0.12874456 0.06373668 -0.04860304 0.1142411 -0.009115193 -0.07526171 0.13636425 0.087657414
-0.0895085 -0.006284277 -0.10645696 -0.046898436 -0.110747516 0.053055864 0.03557934 -0.08210748
-0.14714953 -0.13513982 -0.07865031 0.093305156 0.006555843 -0.13806845 0.009909202 0.15442927
-0.16141546 -0.12640862 -0.0072041885 0.16838367 -0.052627165 -0.0025767179 0.031288277 0.08765609
0.1615998 -0.022133943 -0.038063847 -0.060290944 0.15141991 -0.0066215107 0.08871337 -0.08136112
-0.039744984 0.1626854 0.09357316 -0.06327902 -0.013687461 -0.15331043 0.10768663 -0.0759619
-0.024250986 -0.10585188 -0.06597516 0.07142004 -0.14427157 0.15175238 0.0025682454 -0.055759694
0.14774977 0.12726569 -0.096812576 0.09059227 -0.0710108 -0.030052103 -0.13257636 0.14342795
-0.08193219 0.06387381 -0.046220466 -0.11253084 0.03945784 -0.029679993 0.08797984 0.13794218
0.13959073 -0.14420192 0.09900775 -0.09529843 -0.10673404 -0.14840168 0.09884793 -0.050879695
-0.053080216 0.07646422 -0.027073652 0.05717381 -0.061042815 -0.032537352 0.03820114 0.08977693
-0.11660659 -0.007212782 -0.10784724 -0.014333149 0.10138573 7.876905e-05 -0.16702028 0.11879478
0.06919545 0.019613553 0.036517646 -0.16672681 0.09977354 0.00081246434 -0.025503684 -0.14505965
-0.08040895 0.06237098 0.101274 -0.08608789 0.09009775 -0.13908109 -0.0011430569 -0.08611109
0.06547274 -0.1633213 0.07232709 0.15346055 0.1621513 0.076325275 0.08167936 -0.013320241
-0.08003332 -0.096373975 0.13126317 0.095294654 -0.028710876 -0.050433323 -0.11598646 -0.0035283663
-0.11654094 -0.08030319 -0.0065720435 0.023013966 -0.16780509 -0.0773186 0.010942699 -0.065202035
-0.03994927 -0.11240098 0.028269013 0.079438485 -0.07046294 -0.1355759 0.12421378 -0.14210613
0.16459425 0.06872839 -0.09000952 0.008055333 -0.038497236 -0.12669288 -0.037900772 -0.09444224
0.0033832453 -0.13897796 0.086314194 0.05987587 0.111753054 -0.16127536 0.07516439 -0.09804551
0.016369995 -0.14707425 0.1294306 -0.16288184 -0.042895563 -0.07114886 0.1025026 -0.052095182

reservoir.bias_ih_l0 f4 [55]
00000000: d2c9 35bf 9023 c93d aee8 73bf e87f 4cbe
00000010: e0b8 223d 0051 36bc a8eb e0be 9440 e6be
00000020: ac73 5f3f 1ad9 56bf 6881 7cbf 38e7 4fbf
00000030: 001e 6cbe c8e7 843e d01d 7d3f a860 d03e
00000040: 5856 2e3f 8462 593f 0038 413c 80f6 62be
00000050: fe51 023f 1af3 2f3f f832 353f a01d 453e
00000060: 608a 833e 3419 8cbe ac3c dcbe 988f 39bf
00000070: a02a ee3d 98f9 663e 060a 5a3f 48bd 7e3f
00000080: 10d6 66be 18cb 463f 8427 f73e 843b ed3e
00000090: 74ca 5ebf 6acd 75bf 1ccc 693f 004e 753d
000000a0: 887a 743e 189e 453e 944f 5cbf bc8b 9b3e
000000b0: 0a41 1dbf 0a20 013f 3acb 5e3f 08a5 023f
000000c0: 1a91 00bf 4064 0e3d 46b2 2f3f 2a98 04bf
000000d0: b83f ebbe c037 943e 3682 2ebf
-0.7101108 0.09821236 -0.95276916 -0.19970667 0.03972709 -0.01112771 -0.4392979 -0.44971144
0.87285876 -0.8392502 -0.9863496 -0.81212187 -0.23058319 0.25958085 0.98873615 0.40698743
0.681005 0.8491595 0.011793137 -0.22164345 0.5090636 0.6873032 0.707809 0.19249582
0.2569151 -0.27362978 -0.4301504 -0.7248473 0.11629224 0.2255615 0.85171545 0.9950757
-0.22542596 0.77653646 0.48272336 0.4633447 -0.8702767 -0.9601656 0.9132707 0.05988884
0.23874867 0.19298589 -0.86058927 0.30380046 -0.61427367 0.5043951 0.8702885 0.5103307
-0.5022141 0.034763575 0.686314 -0.51794684 -0.4594705 0.28948784 -0.68167436

readout.bias f4 [24]
00000000: dce7 f2bc 2ed4 1cbe 8266 85be ace8 abbe
00000010: 4c3b b7be 6f63 b8be ffe8 c5be c0c7 64be
00000020: 7b88 dabd a176 383c a372 083d 7fae 983c
00000030: 64c2 bcbc 60b0 03be fcdb 16be e0c5 30be
00000040: 0008 65be 0030 51be 00d8 40be 00b0 f9bd
00000050: 00c4 88be 0060 71be 00c8 9ebe 00b8 bdbe
-0.029651575 -0.15315315 -0.2605477 -0.33575952 -0.35787427 -0.36013362 -0.38654324 -0.22341824
-0.10670563 0.011258752 0.03331245 0.018637894 -0.023041911 -0.1286025 -0.14732355 -0.17262983
-0.22366333 -0.20428467 -0.18832397 -0.121917725 -0.26712036 -0.23571777 -0.31011963 -0.37054443

h_final f4 [1, 1, 55]
00000000: 7a03 6dbe 22cc 53bf 9edb 893e 9218 1bbf
00000010: d6da fd3e 38e6 ff3e 93e5 78be 3654 70bf
00000020: 7078 19bf a804 40bf 7d9a b8be d253 43bf
00000030: 0084 a83b ace2 00bf d2f0 423f 96fb 4c3f
00000040: 5af3 2b3f ec98 51bd 7261 a3be a96d 2a3e
00000050: 2aa1 1a3f d72d 12bf ffde 713f 2c30 1c3d
00000060: 95f4 d3bd 8048 3dbd 5ba4 8e3e 4685 c3be
00000070: 5040 193c a282 233f a7bf 3e3f edd0 1f3f
00000080: 71be 1b3f 26fa 6e3f 1c3b aabe 4c2a 3ebf
00000090: 33b7 8e3e 301f f3be c271 8b3e 5796 debe
000000a0: 881d 373f ee21 723e 50eb 20bf 94e6 263f
000000b0: 4213 213f 3222 053f 5025 5b3f 0695 d43e
000000c0: 04bf ebbe 8046 223f 45e9 e5be 80e8 b3bb
000000d0: b54d 6dbf e8f6 153e 4262 59bf
-0.23145857 -0.82733357 0.26925367 -0.60584366 0.4958102 0.4998033 -0.24306326 -0.93878496
-0.599494 -0.75007105 -0.36055365 -0.76299775 0.0051426888 -0.50345874 0.7614871 0.8007139
0.671682 -0.05117123 -0.31910282 0.16643395 0.60402167 -0.57101196 0.9448089 0.038131878
-0.10349385 -0.04621172 0.27859768 -0.38187617 0.009353712 0.63871205 0.7451119 0.6242817
0.60837466 0.93350446 -0.33248222 -0.7428329 0.27874145 -0.47484732 0.27235228 -0.43474075
0.71529436 0.23645756 -0.6285906 0.65195584 0.6292001 0.520053 0.8560381 0.41519946
-0.4604417 0.63388824 -0.44904533 -0.0054903626 -0.92696697 0.14644969 -0.84915555
