NE/Treinamento/MLP/2_camada/conf_1/modelo_seed_34_loss_0.004559.pt (torch, 49745 bytes, 6 tensors)

features.0.weight f4 [106, 53]
00000000: c15a 283e 627b 98bd b585 353d d213 29bd
00000010: ec9d 0b3d 7462 37be e079 0ebe c7e3 14bd
00000020: 3a47 b5bd 74bb ec3d fe8d 153e e9b1 253e
00000030: 571e 6cbd a712 0b3e 7daf dd3d 4a4a a53c
00000040: 98ad 9b3c 5a43 26be 63aa a1bd 2dc9 e1bd
00000050: 1d67 a3bc d4cf ad3c 731b 49be a67b c0bd
00000060: ff47 453d 59f6 19be 75b6 743d ea75 edbd
00000070: 1b58 373d b1d7 973d e2e7 e03c 33e0 83bd
00000080: 625f 0fbd de38 fdbc 9516 4c3c c7f4 d1bc
00000090: a7a6 27bd 20eb cdbd 6606 83bd 2223 09bb
000000a0: 52ad f43d b89a 96bd f9aa 573e 9cac 7abd
000000b0: ff73 f73c ef62 ad3d 02e7 9b3d 7b7f 59bd
000000c0: 8e51 2f3e cb9a d6bc 70f5 693d 70e0 acbd
000000d0: 9daa 263e 4945 94bd 3330 bdbd 2b5f c23d
000000e0: 4ac5 8b3d 6ad1 0e3e 5c5e f5bc ac48 05bc
000000f0: 25ed 113e b4a0 3d3b cad9 043e 0701 b43c
00000100: d5ff 8e3d a1b8 84bd bf1f 5f3d ed44 88bd
00000110: 0d9a 1dbe 30a5 34bd 0652 123e fdb1 2abd
00000120: 4db7 c8bd 8829 643e dd7c f1bc 7d03 3fbe
00000130: 424b afbd 59a6 e5bd 493d c3bd 26ac e03b
00000140: 7ed6 79bd fda3 f53c eb90 993d dae6 d7bd
00000150: 5aa2 febc b180 073e 7167 1f3d 8309 ea3d
00000160: 872c 2bbd 7cbd a9bd 30b4 2d3e b1ef 7b3d
00000170: 1a26 bb3d 320b 6b3d 63c6 2e3d e83e 0cbc
00000180: c5de 08be f0e6 163e 05c4 3cbd 9e1a 813d
00000190: 617e 1dbd d212 d13d df09 683e 2192 98bd
000001a0: 1b1e f63d 8363 493d bb4a d2bd d624 da3c
000001b0: 2731 033d dc4a 30be 8af0 1bbc 64b1 80bd
000001c0: cda1 ed3d d98a a8bb bbfa e03d 90dd e3bd
000001d0: 3663 36be 61a1 08be 4406 943d 6156 5e3d
000001e0: 7b5e 0dbd 27bb ddbd 83c9 e63d e285 9f3c
000001f0: 1593 a5ba 7b54 b33c a001 c43d 8dec 5ebb
00000200: 9297 b43d 73c6 e03d 0a9a ebbc 260b 173e
00000210: 9b4b 123e 43b9 973d 4593 91bb 0a7e e63d
00000220: 5440 0f3e 6b3d 1d3d 8a30 cd3d 8f40 e6bd
00000230: a6ad 84be 2ac2 41bd f093 78bd 5206 39bd
00000240: 2e94 093d e375 acbd 1060 ac3c 5834 b93d
00000250: b6d7 8dbd 1dde a93c 6b46 233e a65d 183e
00000260: 4270 223d 3982 b43d 117d 71bd 152c 1b3e
00000270: 47be 22bd e5c6 dc3d 29b5 b4bc 71e2 ee3d
00000280: 8507 da3c 1c79 ea3d 0a6d 77bd b650 02be
00000290: f678 83bd 9b46 f33d f917 a23d 4b1b edbd
000002a0: 5b62 fbbc c76f 72bd d31d 0b3e d5f9 9f3d
000002b0: 5b1c 0ebe 88f9 3abd fc68 d53c ccb2 ef3c
000002c0: 23cc ea3c ab77 d73c 7415 d1bd ec77 25bd
000002d0: 1b29 e23c 1537 bd3d 04d9 11bc 6420 973d
000002e0: 4086 923d b279 9abd f71a 573d b143 4ebd
000002f0: a0f0 fbbd 3083 1a3e d5db abbd 8fd6 b6bd
00000300: 1e20 ccbd 21f3 f53c 7b23 d6bd de2f a0bc
00000310: 87eb 183c 507a 9c3c eef6 25be 4857 483c
00000320: ed6f 47be e7a3 4abd 1dca ed3d a5ac 883d
00000330: ab8a 37bc d3f1 d239 29c2 a0be ecc8 b3bd
00000340: c1a1 10be cf4a 303d b40d d03d 3856 cdbd
00000350: 534c 793d 5deb fb3d 1ef1 c63d 31f3 37bd
00000360: baeb 673b adbb c7bc 53f8 5fbd f063 723d
00000370: 6177 d7bd a294 163d efd8 f73d 0352 f7bd
00000380: ebaf 16bc eb1c c83c 1a2e b03d 8f31 123d
00000390: 7937 e6bd f8a8 c3bd 23ec 65bd 62d5 ddbd
000003a0: 5448 863d 827a 903d 97c1 0b3e b00e 163d
000003b0: 1cfc de3d 1a04 c0bb c910 94bd fdca 0ebd
000003c0: f7c3 e53b e3eb 013e e3b1 6bbc 7b83 13bd
000003d0: b9f9 f3bd 247c 623d 567e ee3c 0e7e c5bd
000003e0: 8a82 013e 32e4 11bd 88a7 e0bd 75e0 9abd
000003f0: 972e 1a3e 1265 59bd cd2c a1bd 693b 67bd
0.1644087 -0.074454084 0.044316966 -0.041278668 0.034086153 -0.1790865 -0.13913679 -0.036350038
-0.08851476 0.11559191 0.14604947 0.16181149 -0.05764612 0.13581334 0.10824487 0.020177025
0.019003674 -0.1623663 -0.07893827 -0.11024699 -0.01994663 0.021217264 -0.19639377 -0.09398584
0.048164364 -0.1503538 0.059744317 -0.11594756 0.04476176 0.07414187 0.02745432 -0.06439247
-0.035003074 -0.030910905 0.012456556 -0.025629414 -0.040930416 -0.10054612 -0.06397705 -0.0020925482
0.11947121 -0.07353729 0.21061315 -0.06119977 0.030206678 0.08466136 0.076124206 -0.05310009
0.17120954 -0.026196858 0.057118833 -0.084412456 0.16276021 -0.072397776 -0.09237709 0.09490808
0.06824739 0.13947073 -0.02995222 -0.008135002 0.1425062 0.0028934898 0.12973705 0.021973146
0.0698239 -0.06480528 0.054473635 -0.066537715 -0.15390797 -0.044102848 0.14289102 -0.04167365
-0.09800587 0.22281468 -0.029478485 -0.18653674 -0.08559276 -0.11213369 -0.095331736 0.006856459
-0.06099557 0.029985422 0.07498344 -0.10542078 -0.031083275 0.13232686 0.03891701 0.114275955
-0.04179051 -0.082880944 0.16963267 0.061507884 0.09138127 0.057383724 0.042669665 -0.00855992
-0.1336623 0.14736533 -0.046085376 0.06303905 -0.038450602 0.10208668 0.22660016 -0.07449747
0.12017461 0.049167167 -0.1026816 0.026628893 0.032029297 -0.17216057 -0.009517798 -0.062838346
0.11603127 -0.005143505 0.10985323 -0.11126244 -0.17811283 -0.13342811 0.072277576 0.054281596
-0.03451393 -0.10826712 0.11268904 0.01947302 -0.0012632335 0.02189087 0.095706224 -0.0034015507
0.08817972 0.10975351 -0.028759975 0.14750347 0.14286654 0.07408383 -0.0044426047 0.11254509
0.13989383 0.03838865 0.10019024 -0.11242782 -0.25913733 -0.04730431 -0.06068796 -0.045172043
0.03358858 -0.084209226 0.0210419 0.09043187 -0.06925909 0.020735795 0.15944831 0.14879474
0.03965784 0.088139005 -0.058957163 0.15153535 -0.039732244 0.107801236 -0.02205904 0.11664284
0.026614914 0.11448881 -0.060406722 -0.12726101 -0.06419556 0.11878701 0.07914729 -0.11577471
-0.030686548 -0.05918863 0.13585596 0.078113236 -0.13878004 -0.045648128 0.026051037 0.029260062
0.028661793 0.02630218 -0.1020917 -0.04039757 0.027607491 0.09239022 -0.008901838 0.07379225
0.071545124 -0.07542743 0.05251595 -0.050357524 -0.12301755 0.15089107 -0.08391539 -0.089276426
-0.09967063 0.03002316 -0.10455986 -0.019554075 0.009333498 0.019101292 -0.16207477 0.012227841
-0.1947629 -0.049472716 0.11610816 0.06673554 -0.011202495 0.00040234494 -0.31398132 -0.08778557
-0.14124204 0.043040093 0.10158864 -0.100262105 0.060863804 0.12300751 0.09713958 -0.04490966
0.0035388307 -0.024381483 -0.05468018 0.05917734 -0.105208166 0.03676284 0.12101924 -0.12076189
-0.009197216 0.024427852 0.08602543 0.035691794 -0.11241049 -0.095537126 -0.0561334 -0.10831715
0.06556764 0.070546165 0.13648067 0.0366351 0.1088793 -0.005859864 -0.07229764 -0.034861553
0.007011886 0.1268764 -0.014385673 -0.03601406 -0.11912865 0.05529417 0.029112976 -0.09643184
0.12647453 -0.035618015 -0.10969454 -0.07562343 0.15056835 -0.053074904 -0.07869873 -0.056453142

features.0.bias f4 [106]
00000000: d4fe 20be b004 21be 6e3d 203e 747d 4abd
00000010: 612a f0bc 03c5 933d 44bf 03bc dcce d4bd
00000020: 8c14 913d 0190 04bd 6c95 013d 4869 0fbd
00000030: 70f4 1a3e 6f91 cabd b5bc d23d d00a c43d
00000040: 0858 9c3d 0827 44bc 70e2 0bbd 8fcd d6bc
00000050: 4b49 dfba 8afc 423d 8f89 52be dc21 373d
00000060: fcc5 0cbe c63a 45bd f411 b4bd 22c9 333e
00000070: 1185 e4bd 79b7 c53d 6973 15bd b1dc 2a3d
00000080: 1b54 03be 0e97 8b3b b40c f7bd 5c50 0f3e
00000090: 91a0 403e 45cb 163d 5f66 123d e69c 42be
000000a0: bb1d 963d 3c71 84bc 7898 793d eeaa 4a3c
000000b0: 3243 963d 73c3 44be 30c4 0fbe b712 9bbc
000000c0: 88bf c53d df0c 4dbd 4a0e 69bb c7fb 2abe
000000d0: 1c4e 36be 8771 c0bd 14c4 68bd 8a26 3dbe
000000e0: 704a aebd 55d0 0d3e 2528 693e e20f 0abe
000000f0: 7be0 a4bd 0804 433e b052 32be 15f0 8c3d
00000100: 7007 01bd e86b ab3d 5433 05be 3086 50be
00000110: 9744 2d3e 6484 2c3e a8cd e73d 0847 87ba
00000120: 1def 44bd 0242 73be f4f8 833d 6a96 1a3e
00000130: 1410 78be b776 263d da2d 86bd fd26 a63c
00000140: e589 243e c42f dcbd 76d6 153e 74da ed3d
00000150: b60b f1bd f8c1 e1bd a8dd cabd fb59 003e
00000160: b7f6 76bd 6ece b63d ce2b 4f3c 57f9 e83d
00000170: 95a5 dcbd ba39 6ebd e8a6 3fbd 1e56 1d3d
00000180: bdbb 22be 248f a83d 3dae 9a3d 8c63 5a3e
00000190: bbd4 35be 9f1d 26bd e050 38bd d5a3 203e
000001a0: 31fe 50be 9f3a 7b3d
-0.15722209 -0.15724444 0.15648434 -0.049436048 -0.029317083 0.072153114 -0.008041207 -0.10391018
0.07083997 -0.032363895 0.03163664 -0.035012513 0.15132308 -0.098910205 0.10289899 0.09572375
0.07633978 -0.011972196 -0.034151495 -0.026221065 -0.0017035393 0.04760412 -0.20560287 0.044710025
-0.137474 -0.048151754 -0.08792487 0.17557195 -0.11158193 0.09654135 -0.036487017 0.041714374
-0.12825052 0.0042599505 -0.1206297 0.13995498 0.18811251 0.036814947 0.03574216 -0.19005165
0.073298894 -0.016167276 0.06093642 0.012369854 0.07337035 -0.19215183 -0.14039683 -0.018929822
0.09655672 -0.050061103 -0.0035561495 -0.16697608 -0.17803234 -0.093966536 -0.05682762 -0.18471733
-0.085102916 0.13849004 0.2276922 -0.13482621 -0.08050629 0.19044507 -0.17414355 0.068817295
-0.031501234 0.08370191 -0.13007861 -0.20363688 0.16920696 0.16847378 0.11318523 -0.0010320852
-0.0480796 -0.23755649 0.064439684 0.15096441 -0.24224883 0.04064056 -0.06551714 0.020282263
0.16068228 -0.10751298 0.14632592 0.11613932 -0.11769812 -0.11023325 -0.09905559 0.12534325
-0.06029388 0.08926092 0.012644721 0.11375683 -0.1077377 -0.05816052 -0.046790034 0.038412206
-0.15891929 0.08230427 0.075527646 0.21327037 -0.17756931 -0.040555593 -0.044999003 0.15687497
-0.20409466 0.061335202

features.2.weight f4 [44, 106]
00000000: f7c2 28bd af6d ab3d 3e58 e5bd f073 f8bd
00000010: 7b77 f03b 2ad5 b9bd 310f 90bd eeff 093d
00000020: 9cbf b8bc 2b73 ebbb 134e b9bd e180 163d
00000030: 0a1a 07be 7628 0d3d 1178 ecbc 7dbd c3bd
00000040: a73f ad3c e5b0 8fbd 293d b73d 4e06 ae3d
00000050: 2780 dfbc f69c 493d fee4 bc3d 5002 a2bd
00000060: bff1 9abd d7c2 013e 6d83 a1bb b32d 943c
00000070: a516 5fbd 3f4b 873d bdc8 8bbd 7fa5 15bd
00000080: b71d cbbd 99f2 ec3d 39b2 a53d 6760 a4bd
00000090: 8920 bfbc 9157 1bbb 9cea 84bc 38f9 9d3d
000000a0: 5b27 a8bd 4fdd 4d3c 227a 273d e971 bcbd
000000b0: 77f8 873d f153 96bd 535a 5e3d 88a3 ddbc
000000c0: 0cd5 123e ef04 1fbd 5d93 b1bc 5b59 8b3c
000000d0: 9f1a aebd 522f 613d 6522 46bd 4d5b 20be
000000e0: 8ce4 d63d 3b8d 25bd e381 2dbd 46fd 733c
000000f0: b82c e93c 88a1 bd3c 1dcf d1bc 81d5 4dbc
00000100: 9071 c3bb 6aa9 8abd de58 f83b 0c97 25bc
00000110: 276a 053d 0c83 48bd af1f ae3b 9a3f 1bbd
00000120: 145d 8e3d 8c35 813d c091 a2bd 7645 49bc
00000130: 611c a6bc 176d 763c 277f a33d 12e0 0f3e
00000140: ce7c d73c 4e56 7fbd bead 8b3d deff 44bd
00000150: 3f5b 8dbb e0f4 3c3d 46f4 1fbd 68c0 9dbd
00000160: 1dd8 6bbd 745c 343d 1263 26bc 25c8 c3bd
00000170: b7d4 123d 363f 7b3d 475f ecbb cfe5 33bd
00000180: 46e0 013d 195d 9c3d e0ee 65bd ffa3 543d
00000190: b870 78bd 0da9 e93d 3b23 dd3c 22b9 b83b
000001a0: 7868 b6bc 3c1e 783d c8f5 bbbc e3f3 61bc
000001b0: 97ae efbb 0c09 a83c 4653 b23c 72f2 07bd
000001c0: 696f f43d c7c9 e0bc ebb8 05bc 7d4f 0abc
000001d0: 2570 c33d ce81 8abb b15e 6d3c 692d 20bc
000001e0: ef89 9bbd c9cc aabd c5af 603d 3cb6 bfb9
000001f0: 05ca 4bbd 9f58 e5bd a1e5 bebd 51d5 25be
00000200: e8bc 5d3d 0ec3 6c3d aac8 ddbd af2c c23d
00000210: 7fcd f63c 6b17 c3bc a9f4 0c3e 0bb7 b93d
00000220: e2d8 0e3e b338 6439 c984 3d3d dd79 d53d
00000230: d344 e3bd d9d8 323e 7e10 29bd 83ef 4fbd
00000240: cd4e 043d 7340 553b 24db 323d 29e1 0dbd
00000250: 111e 9a3d 1109 913d 19b7 2bbd 023b b1bc
00000260: 5bd9 fa3c 2996 383d 01ff 413d 878c e9ba
00000270: e3cd 7e3d d19b a5bd 8c2f 61be 2ca3 1c3e
00000280: 0dda 6abd 9cd8 d23b f849 88bd a96a ed3c
00000290: 2e06 ad3c 6188 acbd 6033 623c 4a47 29bc
000002a0: a5b0 783d 58f4 28bc 2e6a 00be 0f29 c43d
000002b0: c004 11bc e09a 69bd acee f53d e6cf 623d
000002c0: db38 13bd 34b4 163e fe41 88bd 426e 48bd
000002d0: 3485 64bc 603b 6abd 0dd1 323c ac58 5dbd
000002e0: 087d eebd 34ba ba3d 3a64 ff3b 126c ba3c
000002f0: 2244 3cbd 5cd4 8c3d 35cf ccbd 10a1 1e3d
00000300: 7650 143d e910 0bbd 3755 97bc 5195 a53d
00000310: 48e7 363b b4f7 133c a2f1 dabd 464e 19bd
00000320: 98f0 babd 94ba 5abd b585 e2bc 5a81 d73c
00000330: eec6 90b9 1f6c 13bd ba70 4cbd 0982 f93c
00000340: f2d2 9d3c 4cf0 f13d 1a13 663d 4a0d e2bd
00000350: a8f0 fabd 550e c2bc 1f69 ff3c e2e6 57bb
00000360: 8396 c03c 8e21 4c3d 6000 a9bc fb41 9c3d
00000370: c6f3 833d d1e0 9bbd c2ed 733d e44f 14be
00000380: 8bfe 31bd e002 903d 416c 533d 21ab a5bb
00000390: 9ed1 103e 28b1 333c 3143 c4bc 9814 66bd
000003a0: 1467 23bd 9444 d0bd 638c 62bd e03d b5bd
000003b0: 0fec 51bd b588 bf3c 0412 54bd 72bb 13bc
000003c0: 9d6c 43be a46f 0abe 1008 8b3d ce0f 62bc
000003d0: efe0 d0bc 7166 f0bc 9d04 813d b9bf c439
000003e0: 1335 653d 7e05 8dbd 17ef a53a 8324 b4bd
000003f0: 5a5c f7ba ae2e 95bd 0984 c5bd 6943 12be
-0.041201558 0.0837053 -0.111984715 -0.12131488 0.007338462 -0.09073861 -0.070341475 0.03369134
-0.022552304 -0.00718536 -0.090480946 0.036744002 -0.13193527 0.034462415 -0.028865846 -0.095576264
0.021148516 -0.07016162 0.08947212 0.08497296 -0.027282787 0.049221955 0.09223364 -0.07910597
-0.07565641 0.12671982 -0.0049289973 0.018088197 -0.054464955 0.06606149 -0.06825397 -0.036534782
-0.09917777 0.11569709 0.08090634 -0.080262 -0.023330944 -0.0023703317 -0.016225152 0.0771355
-0.082106315 0.012564971 0.04088796 -0.09201414 0.06639188 -0.07340229 0.05428536 -0.027055517
0.14339083 -0.038823064 -0.021676714 0.017010381 -0.08501171 0.05497677 -0.048372645 -0.15659828
0.104928106 -0.04041789 -0.042360198 0.014891928 0.028463706 0.023148313 -0.025611455 -0.01256311
-0.0059644654 -0.067705944 0.007578953 -0.010106813 0.032571938 -0.0489531 0.0053138356 -0.037902452
0.06951347 0.063090414 -0.07937956 -0.012284627 -0.020277204 0.0150406575 0.07983237 0.1405032
0.026304629 -0.062338166 0.06820248 -0.048095576 -0.004313856 0.04613197 -0.039051317 -0.07702714
-0.05757915 0.044033483 -0.010155456 -0.09559659 0.035847392 0.06133958 -0.0072135064 -0.043920334
0.031708024 0.076349445 -0.056136012 0.05191421 -0.060654372 0.11409197 0.026994338 0.005637304
-0.022266611 0.06057571 -0.022944346 -0.013791057 -0.007314514 0.020512126 0.021768223 -0.0331902
0.11935312 -0.027439965 -0.008161764 -0.008441803 0.09542874 -0.0042268997 0.014487908 -0.009776452
-0.07594668 -0.08339841 0.054855127 -0.00036566134 -0.049753208 -0.11198544 -0.09321142 -0.16194655
0.054135233 0.057803206 -0.10829289 0.09481179 0.030127285 -0.023814877 0.13765205 0.09068116
0.13949922 0.00021764897 0.046269212 0.10423634 -0.110971116 0.17465533 -0.041275494 -0.050765526
0.032301713 0.0032539635 0.04366602 -0.034638558 0.07525266 0.070818074 -0.041922662 -0.021634582
0.030621221 0.04506508 0.04736233 -0.001781837 0.062208068 -0.0808636 -0.21990794 0.1529662
-0.057336856 0.0064345133 -0.066547334 0.028981524 0.02112111 -0.0842445 0.013806194 -0.010331938
0.060715336 -0.010312162 -0.12540504 0.09578144 -0.00885123 -0.057032466 0.12008414 0.05537405
-0.035942893 0.1471718 -0.06653212 -0.048933275 -0.013947774 -0.05718553 0.010914099 -0.054039642
-0.116449416 0.09117547 0.0077939304 0.02275661 -0.045963414 0.06876442 -0.10000459 0.03872782
0.036209546 -0.033951674 -0.01847325 0.080851205 0.002790885 0.009031225 -0.10690619 -0.037428163
-0.09127921 -0.05340059 -0.027651647 0.026306797 -0.00027614034 -0.035991784 -0.049912192 0.030457513
0.019265626 0.11813411 0.05617056 -0.11037691 -0.12252933 -0.023688475 0.031178055 -0.0032944013
0.02350927 0.049836688 -0.020630062 0.07629772 0.064429805 -0.0761124 0.059552915 -0.14483601
-0.04345564 0.07031798 0.05161691 -0.0050558005 0.14142463 0.01096753 -0.02395782 -0.056171983
-0.039893225 -0.1016933 -0.055309664 -0.08849692 -0.051250514 0.023380617 -0.051774994 -0.009016858
-0.19084401 -0.1351915 0.06788647 -0.013797713 -0.025497882 -0.029345723 0.06299708 0.00037526878
0.05595882 -0.06885813 0.0012659755 -0.087960266 -0.0018872127 -0.07284294 -0.09644324 -0.14283527

features.2.bias f4 [44]
00000000: 8cd0 02be e1ce ea3d 5d22 9fbd 530a 2ebd
00000010: ccd4 14bd f83c 60bd c44f 08be 3edd c53d
00000020: 48a8 1fbe b3c7 a33d 3b94 41bd 6fa6 9f3d
00000030: dfa6 80bd 04b6 97bc 6111 86bd f2a1 91bd
00000040: 85a6 8d3d a853 b93d 5df4 463e 8ba8 653d
00000050: 504c c6bd bd1c 6cbd 9aaa e2bc 194e 89bc
00000060: 47e5 1bbd 51d8 ce3b 8e4a c0bc 112e dfbc
00000070: 9cff 94bd c082 98bc c0be 71bd 5355 d43d
00000080: 36e6 233e c5d5 603c 8728 86bd 3277 44bd
00000090: 54c9 13bd a917 5f3d 5045 253d 20c9 c2bc
000000a0: 521d 2c3c 2f79 133d 20bc 63bd 7191 bd3c
-0.12774867 0.1146524 -0.07770226 -0.042490315 -0.03633575 -0.054745644 -0.13311678 0.09661339
-0.15591538 0.07997074 -0.047260504 0.077954166 -0.06281828 -0.018519409 -0.065462835 -0.07110967
0.06916527 0.09049159 0.19429155 0.05606894 -0.09682524 -0.057644594 -0.02766924 -0.016760873
-0.038060453 0.006312408 -0.02347305 -0.027243646 -0.07275316 -0.018617034 -0.059019804 0.10367837
0.16005787 0.013722842 -0.06550699 -0.047965236 -0.036080673 0.054465923 0.040349305 -0.023777544
0.010505037 0.03600424 -0.05559933 0.02314064

features.4.weight f4 [24, 44]
00000000: 0067 213e d168 603d 5932 04bd 0815 38bb
00000010: b1e7 05bc 7190 c6bd 5a38 fabc 4e79 b63c
00000020: 595f 09be 53e9 89bd 5cdc 8abd 5e3a 11be
00000030: c90f d53d c79f b1bd bb13 fd3d 5d9f b63c
00000040: 1653 07be e693 133c 81c5 06bd 937e d93d
00000050: 25bf 3d3e 40d4 cd3d 9c8c 74bc 8eff 6e3c
00000060: 3279 2abc a684 b9bb 3bec 0bbd 7b4b 36bc
00000070: 15d8 17be 26a6 a6bd 89bc 323e afee 8f3d
00000080: aae9 173e 7ec8 99bc a929 61bd 19a0 1f3e
00000090: 6e14 f53b 112e 1fbe 1ce1 173e e389 153d
000000a0: aa06 4e3d 27a2 f7bd 55f6 47bd 3113 163e
000000b0: 6dfe 89ba 5890 ef3b 8941 813c a0a0 b53d
000000c0: 1a9c 833d 10b8 eb3c 6a62 c73c 7977 d23c
000000d0: aeb6 a2bd 37ec 88bd b4eb 503b edd8 17bd
000000e0: d4ca 063e 8611 ad3d 114b bc3c 7714 22bd
000000f0: 2da7 df3d 790a 69bd 1d8d 03bd 55e3 82bc
00000100: 97d6 76bd 9384 423d 4ecd e0bc dcb3 f93c
00000110: 8c57 debd 68a5 05be 6149 173d 4ea9 38be
00000120: 28ef 33be 1d5a b33c e0fd 043e 04fb d8bd
00000130: a460 363e 0bda c1bd c7fd 29bd 93c2 0e3e
00000140: 0680 d6bd 9954 84bd e034 063e 33ee 3f3d
00000150: 8a52 35bd 1cf4 4fbd 7d8b 3e3e aa42 473d
00000160: 90d2 8a3d 7de4 3bbc 5e50 ed3d 98a1 fbbd
00000170: 6b98 173d a17a 4a3d 6eb9 b8bd 72eb 62bd
00000180: 1d00 873b 98fa acbd 9e7e 29b9 f3bc 57bd
00000190: 9be9 003c fee8 15be b361 78bc 92aa 473d
000001a0: 35d5 d6bd d629 26bd 703a d8bc ed13 01be
000001b0: c0e0 d53d 649a 7d3c 631f d43d 2145 aa3d
000001c0: 94f1 ec3b 8ef7 ed3c 1990 583d df2e 49bc
000001d0: 86ef 82bd 24a5 343e 24bd 94bd 0f1e d5bd
000001e0: 5fe7 48bb 7cdf fb3d f411 063c 3272 81ba
000001f0: 6c90 e0bd d39a b1bd 72fb 393e 5f65 b9bd
00000200: 31fc 3d3d 3cb6 51bb 56d7 b23d 2dce c63d
00000210: 10b9 22bc 6d1b 32be c032 d23d 680e 8f3b
00000220: 3c8d 443c a097 a9bd befa c83d 8bfd 36bd
00000230: 6f1e fa3c 69b0 7ebd f6b4 0abd a009 523d
00000240: e46f 0a3e c639 293b a838 463c bb27 da3d
00000250: 9196 f5bd 7535 843c 822a 81bc bbf8 99bd
00000260: 34fc 063e 0a86 90bd 1bc2 b03d a36c 203d
00000270: beef b6bd b0d8 39bc 77fd 98bd ac90 8abd
00000280: 989f 593d e91c 7cbd 5a29 59bd 710f 4abc
00000290: fb48 8d3d 59a6 873c c380 a83d b3cc 6ebd
000002a0: d874 21be 61c6 853b 5773 e73d 6a88 c13d
000002b0: 5f99 a1bd 5fa4 0dbe 8c5f 82bc f97a b73d
000002c0: 0e5c 303e ec6c cfbd bf0e 8e3d 3679 d23d
000002d0: 4bd3 d13c 213a d33d f7df 843d 4f6b e1bd
000002e0: 88c0 283d 5473 90bd 54f1 e43d 4515 9f3d
000002f0: 4405 803d 439c 26bd 5884 0c3e ecea cd3d
00000300: 4f19 25be 29cf fc3c 350d 89bc 65bb cdb9
00000310: c0bf d53d 4e4c 4b3d 44c7 173d e6e7 f6bc
00000320: dc71 5f3d cf7a 743d 1b4e 95bd e675 d43d
00000330: 61bf 12bd ab38 943d c5c3 bc3d 7440 b4bd
00000340: 682e 773c f3df 873d 3815 5b3e 8966 cbbd
00000350: 65cc 443d 37c1 ddbd 3889 063e 8a3b b83b
00000360: dbfa 46bc b028 78bd c289 bf3c 8ca7 063e
00000370: 2a25 813c 5820 56bd a41e 0c3e b38a 253c
00000380: 40e7 84bd 1fb2 d93c f2f4 b53d 7952 b8bd
00000390: 4965 143e feb3 86bd e205 24bd 25b4 e5bd
000003a0: 7ffa 103d 1bd3 97bd a4c6 663d b854 abbd
000003b0: b7b2 673d 58ed 89bd 05b5 313b bd45 39be
000003c0: 2446 293c 3334 08bc a22c eb3d 56da b03d
000003d0: 5b65 23bd da63 ae3c 3b55 e4bd b4d4 0e3d
000003e0: a44a 813d 61bc d23d be1a f73c 6d4a 3d3d
000003f0: 424e b6bd e524 00be 4789 43bd a717 27bc
0.15761948 0.05478746 -0.032274578 -0.0028088707 -0.008172915 -0.09695519 -0.030544449 0.02227464
-0.13415278 -0.06733956 -0.067803115 -0.14182422 0.104034014 -0.08673053 0.12357279 0.022292787
-0.13215289 0.00900743 -0.0329032 0.10619845 0.18529947 0.10050249 -0.014926102 0.014587296
-0.010404872 -0.005661565 -0.034160834 -0.011126394 -0.14828523 -0.08137159 0.17454733 0.07027947
0.1483523 -0.01877236 -0.05497137 0.15588416 0.007479242 -0.15544917 0.14831966 0.036508452
0.050299324 -0.12091475 -0.048818905 0.14655758 -0.0010528095 0.0073109083 0.01577832 0.088685274
0.064262584 0.028774291 0.02433892 0.025691735 -0.07945 -0.066856794 0.0031878771 -0.03707211
0.1316331 0.08450608 0.022985013 -0.039570298 0.10920558 -0.056894753 -0.032116998 -0.015977541
-0.060263243 0.047489714 -0.027441647 0.030481271 -0.10856542 -0.13051379 0.036935214 -0.18033335
-0.175717 0.021893555 0.1298747 -0.105947524 0.17810303 -0.094654165 -0.041501787 0.13941412
-0.10473637 -0.06461448 0.13106108 0.046858024 -0.04426817 -0.05076991 0.18607898 0.04864756
0.06778443 -0.01146805 0.115875944 -0.12286681 0.03701059 0.049433354 -0.09019743 -0.05540032
0.0041198866 -0.084462345 -0.00016164265 -0.05267043 0.007868196 -0.1463966 -0.015160012 0.048746653
-0.10489885 -0.04056724 -0.026395053 -0.12605257 0.10443258 0.015478704 0.10357549 0.083139665
0.007230947 0.029048707 0.052871797 -0.012279241 -0.06393342 0.17641121 -0.07262638 -0.10406124
-0.0030655486 0.12298486 0.008182991 -0.0009875952 -0.10965046 -0.086721085 0.18162325 -0.09052538
0.046383087 -0.003199949 0.08732478 0.09707294 -0.009931818 -0.17393275 0.10263586 0.004365731
0.0119965635 -0.08280873 0.0981345 -0.04467539 0.03053209 -0.062179957 -0.033863984 0.05127871
0.13519245 0.002582179 0.012098469 0.10652109 -0.11991609 0.016138772 -0.01576734 -0.07518145
0.13182145 -0.07056816 0.08630773 0.039166104 -0.08932446 -0.011343166 -0.074702196 -0.06765875
0.053130716 -0.06155101 -0.05301795 -0.012332783 0.068986855 0.016558813 0.08227684 -0.058300685
-0.15767229 0.0040824865 0.11301296 0.09449847 -0.07890581 -0.13832234 -0.0159147 0.08959002
0.17222616 -0.10128197 0.06936406 0.102770254 0.025613448 0.103138216 0.064880304 -0.110067956
0.041199237 -0.07053247 0.11178842 0.07767729 0.06251004 -0.040676367 0.1372236 0.100545734
-0.16122936 0.0308605 -0.01672993 -0.00039240267 0.10436964 0.049633317 0.03705527 -0.030139875
0.054551944 0.059687432 -0.07290288 0.1037405 -0.035827044 0.07237371 0.092170276 -0.08801356
0.015086748 0.06634512 0.21394813 -0.099316664 0.04804649 -0.108278684 0.13138282 0.005622332
-0.01214477 -0.060585678 0.023381118 0.13149852 0.015764792 -0.05227694 0.13683563 0.010103869
-0.0648942 0.026574193 0.0888461 -0.090001054 0.14491762 -0.065772995 -0.040044673 -0.112160005
0.03539514 -0.07413312 0.056341782 -0.08365768 0.05656692 -0.06734723 0.0027115953 -0.1809301
0.010331664 -0.0083132265 0.114831224 0.08635394 -0.039891582 0.021287847 -0.11149069 0.03487082
0.06313065 0.10289837 0.030164119 0.046213556 -0.08901645 -0.12514074 -0.04773834 -0.01019851

features.4.bias f4 [24]
00000000: b54a ff3c 6487 60bd cba6 87bd 3feb d93b
00000010: 4c94 3c3c ccdc bb3c 89e4 b7bd a4dd 34be
00000020: 4976 4abd c71a 0ebe a74c d3bc 8c47 54bd
00000030: b5bf 6d3d ccd0 87bd 37bd 06bd acb5 23bd
00000040: 05d1 d9bd df39 e93c 4ead 1d3d 2780 c1bb
00000050: 68b4 9dbd cc9a 4ebd 40bb 893d d495 d0bd
0.031163553 -0.05481662 -0.0662361 0.006650358 0.011509966 0.022932433 -0.089791365 -0.17662674
-0.04942921 -0.13877402 -0.025793387 -0.051826045 0.058044154 -0.06631622 -0.032895293 -0.039968178
-0.106355704 0.028469978 0.038495354 -0.0059051695 -0.077004254 -0.050440595 0.06725168 -0.101848274
