NE/Treinamento/MLP/2_camada/conf_1/modelo_seed_06_loss_0.004716.pt (torch, 49745 bytes, 6 tensors)

features.0.weight f4 [106, 53]
0	0xbcc12cf0	-0.023580998
1	0x3c9f5d4c	0.019453667
2	0x3e1c894b	0.15286748
3	0x3d3c24b4	0.04593344
4	0xbd889018	-0.06668109
5	0xbc01c00c	-0.007919323
6	0x3d51446b	0.05109064
7	0x3d4fe880	0.05075884
8	0x3bdc893b	0.0067302263
9	0xbdccfdb4	-0.100093275
10	0xbd4354c2	-0.047688253
11	0xbd1fe9b0	-0.03904122
12	0x3c01841a	0.007905031
13	0x3d1bd9b6	0.038049422
14	0xbdf467db	-0.11933871
15	0x3da2094c	0.079119295
16	0x3dbe9428	0.09305602
17	0x3c5690cc	0.013096046
18	0x3c8f6d9f	0.017508326
19	0xbd424c4f	-0.047436055
20	0xbe334241	-0.17505743
21	0xbda92038	-0.08258098
22	0xbc9a3ce0	-0.018827856
23	0x3dcd3b71	0.10021103
24	0x3d86be89	0.065793104
25	0xbc185c25	-0.009299313
26	0xbd56b939	-0.052422736
27	0x3df533fe	0.11972807
28	0xbd624f10	-0.05525118
29	0x3be5d501	0.0070139174
30	0x3c9824d8	0.018572256
31	0xbe0d4d1f	-0.1379895
32	0x3de3bb35	0.11119691
33	0xbd8ec499	-0.06971092
34	0x3de5c65e	0.11219476
35	0x3d977a9f	0.07396435
36	0xbd319848	-0.043358117
37	0xbd9eeaae	-0.07759605
38	0x3dae1f7b	0.08502098
39	0xbd81cc55	-0.06337801
40	0x3de2eaca	0.11079939
41	0xbd78067b	-0.060553055
42	0x3e248371	0.16065766
43	0x3dba07fb	0.090835534
44	0xbdeefc70	-0.116692424
45	0xbdd8a052	-0.10577454
46	0xbd942913	-0.07234397
47	0xbcd03b45	-0.025418887
48	0x3d6e5177	0.05818316
49	0xbe3077f0	-0.17233253
50	0xbd12de38	-0.035856456
51	0xbc0fd6a6	-0.0087792035
52	0x3d50bab4	0.050959304
53	0x3d40c247	0.047060277
54	0xbdf7e4b7	-0.12104171
55	0xbdae03cd	-0.08496819
56	0xbd93a144	-0.07208493
57	0x3da79daa	0.08184369
58	0x3cc491bc	0.023995273
59	0xbd3bf7fe	-0.0458908
60	0x3da3d2b3	0.07999172
61	0x3e4a9750	0.19784284
62	0x3dbead21	0.093103655
63	0x3c04ef27	0.008113659
64	0xbcda4db0	-0.026648372
65	0x3d335dea	0.043790735
66	0x3d48b0e3	0.048996817
67	0xbcce670e	-0.025195625
68	0xbd4642ce	-0.048403554
69	0xbd83ad59	-0.06429548
70	0x3d9abb5e	0.07555269
71	0xbce7e446	-0.028307091
72	0x3eb87268	0.36024785
73	0x3ceb24f6	0.028704148
74	0xbe7e8b83	-0.24857907
75	0xbb6311ec	-0.0034648133
76	0xbb9e5dd5	-0.004832963
77	0xbe362d40	-0.17790699
78	0xbe1c2654	-0.15248996
79	0x3d8e1835	0.06938211
80	0xbde65d90	-0.112483144
81	0xbcd2ad8d	-0.025717521
82	0xbceced93	-0.028921878
83	0xbdcd5262	-0.10025479
84	0x3e1b22ff	0.15150069
85	0x3e5e65f3	0.21718578
86	0x3cd7a724	0.026324816
87	0x3b57f4f8	0.003295241
88	0x39015568	0.00012334215
89	0x3c8b3f8d	0.016998077
90	0x3d7cfa5a	0.06176219
91	0x3d9eef47	0.07760482
92	0x3d1447a5	0.036201138
93	0xbdc6abb8	-0.097007215
94	0xbe1fad9d	-0.15593572
95	0x3cd39e30	0.025832266
96	0x3ecb7395	0.3973662
97	0xbc8a5885	-0.016887913
98	0xbde2a923	-0.110674165
99	0x3d6955a3	0.056966435
100	0xbdf35477	-0.11881345
101	0xbc813c33	-0.015775776
102	0x3e09cc29	0.13456787
103	0x3d2ad468	0.041706473
104	0x3dfb4fd3	0.12271085
105	0xbafbe32d	-0.0019217484
106	0xbc59baaf	-0.013289138
107	0x3db6532b	0.08902582
108	0x3d17e76a	0.037085928
109	0xbdc7dac9	-0.09758527
110	0xbde9cd93	-0.11416163
111	0x3d99c0cf	0.075074784
112	0xbd00cf8f	-0.031447943
113	0xbd3baa05	-0.04581644
114	0x3dafbf00	0.08581352
115	0xbc83f9bb	-0.016110292
116	0xbdaea071	-0.085266955
117	0xbd3332eb	-0.04374973
118	0xbba58de6	-0.005052316
119	0xbca83d49	-0.020537036
120	0x3d361b28	0.044459492
121	0xbd835022	-0.064117685
122	0x3db9150f	0.0903722
123	0x3cb0ae73	0.021567559
124	0xbcc1228b	-0.023576042
125	0x3d00a3ca	0.0314062
126	0x3cf2467f	0.02957463
127	0x3e09a491	0.13441683
128	0xbda4ad7c	-0.08040902
129	0xbdf63761	-0.120222814
130	0x3db1e121	0.08685518
131	0xbd34c234	-0.04413052
132	0xbc23055a	-0.009950006
133	0xbd8e9b9e	-0.069632754
134	0x3df0ad61	0.117518194
135	0x3ce358fe	0.027752396
136	0xbd383e83	-0.04498149
137	0xbd841096	-0.06448476
138	0x3e1a4a00	0.15067291
139	0x3de4812e	0.111574516
140	0x3d265a48	0.040613443
141	0x3dab5b94	0.083670765
142	0x3db8fc2c	0.09032473
143	0xbbe2cdba	-0.006921497
144	0xbd8bff94	-0.06835857
145	0x3cd41d50	0.025892884
146	0x3c290cce	0.010317994
147	0x3e2f8093	0.17138891
148	0x3d60892f	0.05481833
149	0xbe54758a	-0.20747963
150	0xbdb8520b	-0.090000235
151	0xbe69e4fb	-0.22841255
152	0x3df414c1	0.11918021
153	0xbdb8447e	-0.08997439
154	0xbcd98b28	-0.026555613
155	0x3e066a7d	0.1312656
156	0x3d3f3b61	0.046687488
157	0xbc941293	-0.018075263
158	0x3e0579fe	0.13034818
159	0x3cdb32ae	0.026757564
160	0xbc3cfd26	-0.011534965
161	0xbe0720e6	-0.13196144
162	0x3c8144a6	0.015779804
163	0xbc929d63	-0.017897313
164	0xbd500068	-0.050781637
165	0xbd6ebf43	-0.05828787
166	0x3d66fb14	0.05639179
167	0xbdef1ee0	-0.11675811
168	0xbd8ba638	-0.06818813
169	0x3cc2c42a	0.023775179
170	0xbbf285b8	-0.0074011944
171	0xbd9f8508	-0.077890456
172	0x3dcad463	0.09903791
173	0x3de78d2d	0.11306224
174	0xbd1fc722	-0.039008267
175	0xbd8ea5cd	-0.06965218
176	0xbcc70022	-0.024292056
177	0x3c9297a8	0.017894581
178	0xbd110c8c	-0.035412356
179	0xbe67cf97	-0.22637783
180	0x3dd36712	0.103223935
181	0xbcc22f51	-0.023704203
182	0x3e32e60f	0.17470573
183	0x3c62af9c	0.013835814
184	0xbd833fca	-0.06408651
185	0x3d363208	0.044481307
186	0xbba19e63	-0.0049322112
187	0xbd28c624	-0.041204587
188	0xbd2769df	-0.04087245
189	0x3dd21e6d	0.102597095
190	0x3ce25023	0.027626103
191	0xbca4f110	-0.020134479
192	0x3e2a9d87	0.16661654
193	0x3dd2c76e	0.102919444
194	0x3e3abdc2	0.1823645
195	0xbc83a53f	-0.016070006
196	0x3db36b6a	0.08760722
197	0xbb78740c	-0.0037910966
198	0xbd75aaee	-0.059977464
199	0xbd4ebc29	-0.050472412
200	0xbe61f2b6	-0.22065243
201	0xbb6b2e8f	-0.0035885905
202	0x3b9e1ad5	0.004824976
203	0x3be9c016	0.007133494
204	0xbe168704	-0.14699942
205	0xbd72d0aa	-0.05928103
206	0xbe60ab64	-0.2194038
207	0x3e0da758	0.13833368
208	0xbe3c4851	-0.18386962
209	0xbd883dc3	-0.06652405
210	0xbd637dd1	-0.05553991
211	0x3da258ca	0.079270914
212	0x3e1a4f32	0.15069273
213	0xbc8803af	-0.016603319
214	0x3cf6ca4a	0.030125756
215	0xbd920b5b	-0.07131072
216	0x3d781017	0.06056222
217	0x3d2cd100	0.042191505
218	0x3df02cd1	0.11727298
219	0x3d84ca89	0.06483943
220	0x3cb1d85d	0.021709615
221	0x3bc59733	0.0060299872
222	0xbdcdeabf	-0.1005454
223	0xbcb39e48	-0.02192606
224	0xbdc583ae	-0.096442565
225	0xbbf3dae6	-0.007441866
226	0xbdd42e45	-0.10360388
227	0xbccb7a09	-0.024838464
228	0xbe017653	-0.12642793
229	0x3d42815d	0.04748665
230	0xbd8f1d48	-0.06988007
231	0xbdbf773d	-0.09348915
232	0x3d967939	0.0734734
233	0x3d2090da	0.03920064
234	0xbd376e83	-0.044783127
235	0x3d084d14	0.033276632
236	0x3dc0376e	0.093855724
237	0xbdc724e2	-0.09723832
238	0x3df04b69	0.11733133
239	0x3de5208e	0.1118785
240	0xbdae58c6	-0.08513026
241	0x3d5ff7b1	0.054679576
242	0x3e555879	0.20834531
243	0xbd82942b	-0.06375917
244	0xbe1802f3	-0.14844875
245	0xbd19255d	-0.037389148
246	0xbd9728fd	-0.07380865
247	0x3c905cb7	0.017622335
248	0xbd920312	-0.07129492
249	0xbdf0ecd4	-0.117639214
250	0xbe358432	-0.1772621
251	0x3d8bf774	0.06834307
252	0xbde45890	-0.111497045
253	0xbc864216	-0.016388934
254	0xbb940262	-0.0045168856
255	0xbd8d09d4	-0.0688664

features.0.bias f4 [106]
0	0x3d6b0711	0.057379786
1	0x3e3dc0f4	0.18530637
2	0x3cb72850	0.02235809
3	0x3c859075	0.016304234
4	0xbdddf30d	-0.10837374
5	0xbd6f2f79	-0.058394883
6	0xbd2a26d0	-0.04154092
7	0x3d43a43e	0.047764055
8	0x3d1dffc2	0.038573988
9	0xbd9aee3b	-0.0756497
10	0xbe104d0f	-0.14091896
11	0xbe04c521	-0.12965824
12	0x3b0809a9	0.002075771
13	0xbd6e8675	-0.058233697
14	0x3cc72cbf	0.024313329
15	0x3dfde2cd	0.123967744
16	0x3d86ec62	0.06588055
17	0xbb5f518d	-0.0034075708
18	0xbe05d717	-0.13070332
19	0x3d9bcfcf	0.07607996
20	0xbdf70f3b	-0.12063452
21	0xbdcd8baa	-0.100364044
22	0x3d8684fd	0.06568334
23	0x3cadd031	0.021217437
24	0xbdd43425	-0.10361508
25	0x3d4ee205	0.050508518
26	0xbd1c3bf7	-0.038143124
27	0xbd5a7775	-0.05333658
28	0xbc7d9246	-0.015476769
29	0xbcafa7b3	-0.02144227
30	0x3dcf0061	0.10107494
31	0xbdd76748	-0.10517746
32	0xbddfec93	-0.10933795
33	0xbd833f0a	-0.06408508
34	0xbda3b5d0	-0.07993662
35	0xbc23ece5	-0.0100052105
36	0x3e8f0394	0.27932417
37	0xbcda8f67	-0.026679708
38	0xbb8d84dd	-0.004318817
39	0x3e5480c0	0.20752239
40	0x3b9e6dc6	0.0048348634
41	0xbd350f37	-0.044203963
42	0x3d1bf129	0.038071785
43	0xbc24ac7b	-0.010050888
44	0xbe186372	-0.14881685
45	0x3e06ad8f	0.13152145
46	0xbd576a0a	-0.05259136
47	0x3d719252	0.058977433
48	0xbcfaeef3	-0.030631518
49	0xbe24d86b	-0.16098182
50	0x3c202c17	0.009776137
51	0x3d763b85	0.060115356
52	0x3db3301d	0.08749411
53	0x3e07fe26	0.13280544
54	0xbdabc075	-0.08386318
55	0xbe014bea	-0.12626615
56	0x3e594e16	0.21221194
57	0xbd444fd4	-0.047927693
58	0x3d13f60f	0.03612333
59	0xbaab007e	-0.0013046411
60	0xbba8a4ed	-0.005146614
61	0xbe21be53	-0.15795259
62	0x3d3c9ca6	0.04604783
63	0x3d8ccef9	0.068754144
64	0x3d58aa39	0.052896712
65	0x3ccc96fe	0.024974342
66	0xbdb0f269	-0.08639986
67	0xbdb00fb8	-0.08596748
68	0xbd6f88fb	-0.058480244
69	0x3c5944a2	0.013260992
70	0x3d57421a	0.052553274
71	0xbd3bdc80	-0.045864582
72	0x3d03abb3	0.032146167
73	0xbdde5a1e	-0.10857032
74	0xbdbab728	-0.091169655
75	0x3d11cb75	0.035594422
76	0x3e165597	0.14681087
77	0xbe2a14b8	-0.16609466
78	0xbdb3bf1d	-0.08776686
79	0xbcbc4038	-0.02297984
80	0xbdd3462f	-0.10316121
81	0x3d9b918c	0.0759612
82	0x3ded5585	0.11588577
83	0xbdaa37c4	-0.08311418
84	0xbdb18f95	-0.08669964
85	0x3e102eea	0.14080396
86	0xbd14ebb7	-0.036357608
87	0x3d5ccea8	0.05390802
88	0xbe158477	-0.14601313
89	0x3e083598	0.13301694
90	0x3e07163f	0.1319208
91	0x3e963ea9	0.2934468
92	0xbe514053	-0.20434694
93	0x3e904015	0.2817389
94	0xbe2fd3dc	-0.17170662
95	0x3dbdcadb	0.09267207
96	0x3de14f56	0.1100146
97	0xbe016953	-0.12637834
98	0x3dab690f	0.08369648
99	0x3c806694	0.015673913
100	0xbd94863a	-0.07252164
101	0xbc9dcac9	-0.019261735
102	0xbe3c8286	-0.18409166
103	0x3dad8d09	0.08474166
104	0x3dc3e037	0.0956425
105	0x3e1402df	0.1445422

features.2.weight f4 [44, 106]
0	0xbb946fbc	-0.0045299213
1	0xbe71283f	-0.23550509
2	0xbdd2eb67	-0.10298806
3	0x3e0935d9	0.13399448
4	0x3e592a2f	0.21207498
5	0x3d5c62e4	0.053805247
6	0xbdd8cfed	-0.10586534
7	0xbdf12ef3	-0.11776533
8	0x3c8e202f	0.01734933
9	0xbd5ffc0e	-0.054683737
10	0xbd410d06	-0.04713156
11	0x3e03489e	0.1282067
12	0xbdd7d62c	-0.10538897
13	0x3daf83db	0.08570071
14	0x3dc1f5cc	0.0947071
15	0xbdf5e957	-0.12007397
16	0x3d5172d9	0.051134918
17	0x3db3c8de	0.08778547
18	0x3d90d148	0.07071167
19	0xbddaa97d	-0.106768586
20	0x3e0f727a	0.14008513
21	0xbcf5aaf5	-0.029988745
22	0xbc718798	-0.014741801
23	0x3d3d5008	0.046218902
24	0x3d508cb2	0.050915428
25	0xbd54663a	-0.051855303
26	0x3e74b239	0.23896112
27	0xbdad8dc2	-0.08474304
28	0x3d864f8f	0.06558143
29	0xbdabc461	-0.08387066
30	0xbda56e10	-0.080776334
31	0xbd71d879	-0.059044335
32	0xbd0a88ae	-0.033821754
33	0x3bce25fe	0.00629115
34	0x3c88a220	0.01667887
35	0x3d91d17f	0.07120036
36	0xbd0ff8e4	-0.03514947
37	0xbdf06ab6	-0.117391035
38	0x3e34b227	0.17646085
39	0xbd6b5f0e	-0.057463698
40	0x3e0c27a2	0.13686994
41	0x3c96b9f3	0.018399214
42	0xbcd21e8c	-0.025649332
43	0x3dec3f75	0.11535541
44	0x3e14a166	0.14514694
45	0xbd5085c0	-0.050908804
46	0xbe01178a	-0.12606636
47	0xbc553b73	-0.013014662
48	0x3b8df1ea	0.004331817
49	0x3e0376ab	0.12838237
50	0xbd30949e	-0.043110482
51	0xbd74a650	-0.05972892
52	0xbe21694c	-0.15762824
53	0xbe0d27c0	-0.13784695
54	0xbd148c9e	-0.036266916
55	0xbd0298f1	-0.031884138
56	0xbdabc5a7	-0.083873086
57	0x3d884afd	0.06654928
58	0xbc5f333b	-0.013623054
59	0x3c5cbfe2	0.013473483
60	0x3cb9850c	0.02264645
61	0x3d9016c6	0.07035594
62	0x3db60a60	0.088886976
63	0x3a254119	0.0006303951
64	0xbd45b060	-0.048263907
65	0x3d8abca9	0.06774265
66	0x3cfd0583	0.030886417
67	0xbd49ee09	-0.049299274
68	0xbdcf2850	-0.10115111
69	0x3d31b1f2	0.043382592
70	0xbcd125dd	-0.02553075
71	0xbabb8904	-0.0014307802
72	0xbe01acf1	-0.12663628
73	0xbd8de059	-0.069275565
74	0xbc700c41	-0.014651359
75	0xbd3b07c7	-0.045661714
76	0xbdf96808	-0.121780455
77	0xbd8d94b8	-0.069131315
78	0xbd637335	-0.05552979
79	0x3dbaaf17	0.09115427
80	0x3d836c33	0.06417122
81	0x3e36a56e	0.17836544
82	0xbe27ef4d	-0.1639988
83	0x3d929321	0.07156969
84	0x3df14498	0.11780661
85	0xbbc33497	-0.005957197
86	0xbc064d66	-0.008197164
87	0xbd8e5c11	-0.06951154
88	0xbd3dd791	-0.04634816
89	0x3dac5241	0.08414126
90	0x3ca6378f	0.020290164
91	0xbde0ca19	-0.10976047
92	0xbd936a9d	-0.07198069
93	0xbe32f921	-0.17477848
94	0xbd7b785f	-0.06139409
95	0xbdad3c17	-0.08458727
96	0xbd8e6e67	-0.06954651
97	0xbdd67746	-0.10471968
98	0xbde22db5	-0.11043874
99	0xbde1d68d	-0.110272504
100	0xbc89d3b3	-0.016824579
101	0xbdd4ed24	-0.103967935
102	0x3d5ad872	0.053429075
103	0xbcfff777	-0.03124593
104	0xbe24183c	-0.1602487
105	0xbe0e6f02	-0.13909534
106	0x3bfaea74	0.0076573435
107	0xbdc0b7d4	-0.094100624
108	0x3ddc1341	0.1074586
109	0x3daf99c7	0.085742526
110	0xbd84121d	-0.06448767
111	0x3d6d0786	0.057868503
112	0xbdb5d3b6	-0.08878271
113	0xbdfaadec	-0.12240204
114	0xbe011b1b	-0.12607996
115	0x3d80c58f	0.06287681
116	0x3c3cf6fd	0.011533496
117	0x3dd429d8	0.103595436
118	0xbc7431da	-0.014904464
119	0xbbc792a4	-0.006090479
120	0xbdad6161	-0.08465839
121	0xbcc83ae3	-0.024442142
122	0xbd541a01	-0.05178261
123	0xbd646f95	-0.055770475
124	0x3cd82018	0.026382491
125	0xbd62afc0	-0.05534339
126	0xbdd876d8	-0.10569543
127	0x3d8fbee5	0.07018832
128	0xbc05333d	-0.008129892
129	0x3c98d6e7	0.01865716
130	0x3d6a97be	0.05727362
131	0xbd3a283e	-0.045448534
132	0x3dc9bc98	0.098504245
133	0x3d3345b3	0.043767642
134	0xbd63d1ba	-0.055619933
135	0x3d3570d3	0.04429705
136	0x3db5d2f8	0.0887813
137	0x3e257a47	0.16159926
138	0x3ddf4cc5	0.109033145
139	0xbdb4cd0d	-0.08828173
140	0x3d35cf99	0.044387434
141	0x3d802585	0.06257156
142	0xbd6e0972	-0.058114477
143	0xbc9ab53c	-0.018885247
144	0x3cc27120	0.023735583
145	0xbd903b10	-0.07042515
146	0x3d99cfd0	0.0751034
147	0x3d82bfd4	0.063842446
148	0xbda8dd7c	-0.0824537
149	0x3d70e467	0.05881157
150	0x3c6448ff	0.013933419
151	0x3c4292ed	0.01187585
152	0x3d5c1fa3	0.05374111
153	0xbcba868a	-0.022769231
154	0x3d0332db	0.03203092
155	0xbcd34cc8	-0.025793448
156	0x3e129ac1	0.14316846
157	0xbcae91e7	-0.021309806
158	0xbd02b41c	-0.031910047
159	0x3de76f7b	0.1130056
160	0xbc3ce256	-0.011528572
161	0x3d092636	0.033483706
162	0x3d56cfe0	0.05244434
163	0xbbf524c7	-0.007481191
164	0x3d3cfbb8	0.046138495
165	0xbcca96c5	-0.024730096
166	0xbd411aef	-0.047144827
167	0x3daa14dc	0.0830476
168	0x3d3094e8	0.043110758
169	0x3cdba174	0.026810385
170	0xbca6b6ff	-0.020350931
171	0xbcb70681	-0.022341968
172	0xbe050749	-0.1299106
173	0x3df56792	0.11982645
174	0xbd8dfc8a	-0.06932934
175	0xbca3048d	-0.01989963
176	0x3d8a0028	0.06738311
177	0x3ce1a2db	0.027543476
178	0xbc3ed1d1	-0.011646704
179	0x3d958f0f	0.07302677
180	0xbc962e6e	-0.018332686
181	0xbd62c1db	-0.055360656
182	0x3da04276	0.078251764
183	0x3da14a86	0.07875542
184	0x3dd26496	0.102730915
185	0x3db76239	0.08954281
186	0x3d943914	0.07237449
187	0xbe0e6db1	-0.13909031
188	0xbddd08f0	-0.1079272
189	0x3b8013d5	0.003908614
190	0x3d236399	0.039889906
191	0xbd297e45	-0.041380186
192	0xbcaaadec	-0.020834886
193	0x3c562ce8	0.01307223
194	0x3e48a725	0.1959501
195	0xbe24afd2	-0.16082695
196	0xbc5fdada	-0.013663018
197	0x3d0f0be1	0.034923438
198	0xbd4f3c56	-0.05059465
199	0xbdaf707b	-0.08566376
200	0x3cfd05fe	0.030886646
201	0xbd0be966	-0.034158133
202	0x3b8682a8	0.004104931
203	0x3d4d378a	0.050101794
204	0x3b01cca6	0.0019805818
205	0x3d9d115f	0.07669329
206	0x3ddb730d	0.107153036
207	0xbbf5d24f	-0.0075018774
208	0xbbb75c1d	-0.0055956976
209	0xbd6e8c28	-0.058239132
210	0x3d7156a0	0.058920503
211	0xbced9c99	-0.029005336
212	0xbd051c35	-0.032497603
213	0xbc71abc1	-0.014750422
214	0x3d3823a2	0.044955857
215	0xbdc907e1	-0.09815956
216	0x3cf6cfff	0.030128477
217	0xbc79ed69	-0.015254357
218	0xbc42471a	-0.011857772
219	0x3d1c92b8	0.03822586
220	0x3d30fdef	0.04321092
221	0xbda223dc	-0.07916996
222	0x3cd10a58	0.025517628
223	0x3d6931aa	0.05693213
224	0xbd1484cc	-0.036259457
225	0xbc053141	-0.008129419
226	0x3d973096	0.07382314
227	0xbb999b9b	-0.004687739
228	0xbdeff3c7	-0.11716419
229	0xbca55f03	-0.020186907
230	0xbdfdab48	-0.12386185
231	0xbd977f23	-0.07397296
232	0x3da1f281	0.07907582
233	0x3d61bd9d	0.05511247
234	0xbd1cf348	-0.03831795
235	0xbd172dde	-0.036908977
236	0xbd0028cd	-0.03128891
237	0x3dae27f0	0.08503711
238	0xbb95e086	-0.0045738844
239	0x3d935d4f	0.071955316
240	0x3ddd0c44	0.10793355
241	0x3cbca21e	0.023026522
242	0xbdbad0f4	-0.09121886
243	0xbdd81aab	-0.105519615
244	0xbcc30047	-0.023803843
245	0xbcda95ee	-0.02668282
246	0x3bcaf710	0.006194003
247	0x3d9a72c6	0.075414225
248	0x3cdc6074	0.026901461
249	0xbb1c7439	-0.0023872985
250	0xbca3dae3	-0.020001834
251	0xbab0221b	-0.0013437899
252	0x3d1114ca	0.035420217
253	0x3d8deba0	0.069297075
254	0x3dc83879	0.09776396
255	0x3ce89760	0.028392494

features.2.bias f4 [44]
0	0xbd299dc7	-0.041410234
1	0xbd90a34e	-0.07062398
2	0x3dae98ac	0.085252136
3	0xbcaf61ba	-0.021408904
4	0xbca626f1	-0.02028224
5	0x3b3e34e3	0.0029023222
6	0x3cbb3c54	0.022855915
7	0xbd229abf	-0.03969836
8	0xbe1a93fd	-0.15095516
9	0x3c1346f9	0.008989089
10	0xbe1cef7f	-0.15325736
11	0xbd453353	-0.04814465
12	0xbd4c1696	-0.049826227
13	0xbcd6e7bc	-0.026233546
14	0x3d07b4e3	0.03313149
15	0x3d941571	0.07230652
16	0xbc180ea4	-0.009280834
17	0xbb26c8ab	-0.0025449197
18	0x3de40dd4	0.1113545
19	0x3c573dd6	0.013137301
20	0x3cc36a23	0.02385432
21	0x3ca7b790	0.020473272
22	0xbd825a05	-0.06364826
23	0x3df3107b	0.11868378
24	0xbd1fe3ed	-0.039035726
25	0xbdb51ee7	-0.08843785
26	0x3cb7d3de	0.022439893
27	0x3b8aff0a	0.004241829
28	0x3d1d9e23	0.03848089
29	0x3d582306	0.052767776
30	0xbdc9c3bd	-0.09851787
31	0xbc592fe5	-0.013256048
32	0xbbba0026	-0.005676287
33	0xbc30bb91	-0.010786907
34	0xbd0f2266	-0.034944914
35	0x3e2b8fbc	0.16754049
36	0x3d7833f8	0.060596436
37	0xbd81620c	-0.06317529
38	0x3df72b43	0.120687984
39	0x3d9abd81	0.07555676
40	0x3df5a407	0.11994176
41	0xbd914bf0	-0.07094562
42	0x3d89f7eb	0.0673674
43	0xbe95e15c	-0.29273498

features.4.weight f4 [24, 44]
0	0x3dbd4d70	0.09243286
1	0xbd26c7bf	-0.040717836
2	0x3dcb58ac	0.09929022
3	0xbd8fc1dc	-0.070193976
4	0x3dbf7958	0.09349316
5	0xbdc7682b	-0.09736665
6	0xbd49b16f	-0.04924148
7	0xbda053a2	-0.07828452
8	0xbd1c6443	-0.038181555
9	0xbda8a3a2	-0.082343355
10	0xbca0f60e	-0.019648578
11	0x3bc1eed7	0.0059183645
12	0x3d4bf429	0.049793396
13	0x3cbfc906	0.023411285
14	0x3d719c1d	0.05898677
15	0xbdee1325	-0.11624745
16	0xbc012782	-0.007882955
17	0xbd246361	-0.040133838
18	0xbe39831a	-0.18116418
19	0xbb92bb7d	-0.0044779168
20	0x3dd9a108	0.106264174
21	0xbda54dd9	-0.08071489
22	0x3d9fcaa8	0.078023255
23	0x3d46a60d	0.048498202
24	0xbd8ca74f	-0.06867849
25	0xbd2a7fe8	-0.041625887
26	0x3dd458f5	0.1036853
27	0x3d0cde62	0.03439177
28	0x3d5db18f	0.05412441
29	0xbe0db4e4	-0.13838536
30	0x3ce705db	0.028201034
31	0xbd4f1355	-0.050555546
32	0xbd016fc7	-0.03160074
33	0x3e046de0	0.12932539
34	0xbbb378d7	-0.0054770517
35	0xbd99b6b5	-0.07505552
36	0xbe5c31f7	-0.21503435
37	0xbdf14992	-0.117816105
38	0xbd64c24f	-0.05584937
39	0x3a9fb23b	0.0012183854
40	0x3d715666	0.058920287
41	0xbc8c4778	-0.017123923
42	0x3dc94f27	0.0982955
43	0xbd18fab5	-0.037348468
44	0x3d0e4c2b	0.03474061
45	0xbdf5ba0f	-0.119983785
46	0x3bf03cd5	0.0073314705
47	0x3e17d680	0.14827919
48	0xbd991b63	-0.07475927
49	0x3d8de070	0.06927574
50	0xbc81041f	-0.015749035
51	0xbe1fa93c	-0.15591902
52	0x3c868d98	0.016424939
53	0xbbff510f	-0.0077916454
54	0x3cf9398d	0.03042295
55	0x3e29466c	0.1653077
56	0x3de6d4b8	0.11271042
57	0xbd2b5b04	-0.041834846
58	0xbc01bcb4	-0.0079185255
59	0xbda82fc6	-0.08212237
60	0xbce93bef	-0.028470961
61	0xbd57aa08	-0.05265239
62	0x3c224b34	0.009905625
63	0x3db4a621	0.08820749
64	0xbd9158db	-0.07097026
65	0x3d040251	0.03222877
66	0x3dd109ff	0.10206985
67	0x3e02f96a	0.12790456
68	0xbc7571e2	-0.014980765
69	0xbdb9b550	-0.09067786
70	0xbdce1a5c	-0.100636214
71	0xbd188cd7	-0.03724369
72	0xbda5536a	-0.080725506
73	0x3d67a3de	0.05655276
74	0xbd89957b	-0.06717964
75	0x3e0ee778	0.13955486
76	0xbdf1eaed	-0.11812387
77	0xbd3d69f4	-0.046243623
78	0x3d5306dd	0.051520217
79	0xbd81ccf3	-0.06337919
80	0xbe3766ae	-0.17910263
81	0x3daf684f	0.08564817
82	0x3dfacf7f	0.12246608
83	0x3d9c6188	0.0763579
84	0xbde48a45	-0.11159185
85	0x3d2cd707	0.042197254
86	0xbd763bdb	-0.060115676
87	0xbd09c216	-0.03363236
88	0xbdbde04b	-0.09271296
89	0xbc23f56d	-0.010007245
90	0x3de2ac8f	0.11068069
91	0x3d2775fc	0.040884003
92	0xbd410909	-0.047127757
93	0x3d731af9	0.059351895
94	0xbc9e70f3	-0.019340968
95	0xbe2aee82	-0.16692546
96	0xbcf3b845	-0.029750952
97	0x3b2e02a6	0.0026551872
98	0x3e06d1a8	0.13165915
99	0x3e2677cb	0.16256635
100	0xbd48f4b6	-0.0490615
101	0x3bfdde41	0.007747442
102	0x3e2ff711	0.17184092
103	0xbc91292d	-0.01771983
104	0xbdb60ade	-0.088887915
105	0x3dc4692f	0.09590375
106	0x3dae5a40	0.085133076
107	0x3cecada2	0.028891388
108	0xbd9c4aa8	-0.07631427
109	0x3d2642a3	0.040590893
110	0xbc2032aa	-0.009777704
111	0x3e0bdb6f	0.13657926
112	0xbd271c34	-0.04079838
113	0xbd9f8af3	-0.07790174
114	0x3bbbc31a	0.005730045
115	0xbdd9986b	-0.106247745
116	0x3e27e09e	0.16394278
117	0x3d899f15	0.067197956
118	0xbd75ac8b	-0.059979003
119	0x3cd28f13	0.025702989
120	0x3d727916	0.059197508
121	0x3dd9875f	0.10621523
122	0xbd854acb	-0.06508406
123	0xbdbf4b68	-0.093405545
124	0x3c0666e2	0.00820324
125	0x3e002c79	0.12516965
126	0xbe0368f7	-0.1283301
127	0x3e3bde45	0.18346508
128	0xbdbbe532	-0.09174575
129	0x3dec2493	0.115304135
130	0x3de9292e	0.113848075
131	0xbd0316ed	-0.032004286
132	0x3ca556c9	0.020182984
133	0xbd727f2a	-0.059203304
134	0x3e0edc86	0.1395131
135	0xbd355d97	-0.044278707
136	0x3e06b00f	0.13153099
137	0x3d714307	0.058901813
138	0x3bf68513	0.007523188
139	0x3d943360	0.072363615
140	0x3c68d529	0.014210978
141	0x3d76c93e	0.060250513
142	0x3dc56f2c	0.09640345
143	0x3d811c39	0.06304211
144	0xbd8a2a32	-0.06746329
145	0x3d88ae66	0.06673889
146	0x3df6b805	0.12046818
147	0xbcacf213	-0.021111524
148	0xbd47a1c8	-0.04873827
149	0xbe1ac37e	-0.15113637
150	0xbc974207	-0.018464101
151	0xbdc218a7	-0.09477358
152	0x3dcd20db	0.10016032
153	0x3d417ae1	0.047236327
154	0xbd3565f5	-0.044286687
155	0x3c4952af	0.01228778
156	0xbbe9e0a1	-0.0071373736
157	0xbe199724	-0.14999062
158	0x3d3a18b1	0.045433704
159	0x3cd05d3e	0.025435086
160	0xbda82a72	-0.08211221
161	0xbd56a390	-0.05240208
162	0x3c7c7134	0.015407849
163	0xbdbf22c0	-0.093328
164	0x3d1f20de	0.038849704
165	0x3c566dd6	0.01308771
166	0x3d041403	0.032245647
167	0xbd0eb4eb	-0.034840506
168	0xbe016af8	-0.12638462
169	0xbe1b38a8	-0.15158331
170	0xbd6788d5	-0.056526978
171	0x3e1dc8c6	0.1540862
172	0xbddb4369	-0.10706217
173	0x3cad85ea	0.02118202
174	0x3c3853d1	0.011250452
175	0xbcc76071	-0.024337979
176	0xbd13b8f3	-0.036065053
177	0xbdf87727	-0.121321015
178	0xbc252035	-0.01007848
179	0xbcac9c0c	-0.021070503
180	0x3dbb8bbd	0.09157512
181	0xbce54cc1	-0.0279907
182	0xbc9eda27	-0.019391133
183	0x3ce5abe2	0.028036062
184	0x3d20ae19	0.039228532
185	0xbca8d687	-0.020610107
186	0x3e00fb9f	0.12595986
187	0x3c95e7bb	0.018298974
188	0x3d8d2b6c	0.06893048
189	0xbcd14a5d	-0.025548154
190	0xbdd81e3a	-0.1055264
191	0xbd34a6ae	-0.04410427
192	0x3dbbb780	0.09165859
193	0xbd97ba0e	-0.07408534
194	0xbde251ac	-0.11050734
195	0xbd7f0570	-0.062261045
196	0x3d8f1db4	0.06988087
197	0xbc7434a1	-0.014905126
198	0xbde2d774	-0.11076251
199	0xbcc21cda	-0.023695398
200	0x3d4831c6	0.048875593
201	0xbe5c226c	-0.21497506
202	0x3db7494a	0.08949526
203	0xbe1e868f	-0.15481018
204	0xbd28ee86	-0.0412431
205	0xbe37cc00	-0.17948914
206	0xbdc53ca6	-0.096307084
207	0xbbfbf1b6	-0.0076887263
208	0x3d79ed49	0.06101731
209	0x3cff9008	0.03119661
210	0x3dc4a2a4	0.09601334
211	0xbd844e92	-0.064602986
212	0xbdb6a70c	-0.089185804
213	0x3e13ae8d	0.14422055
214	0xbd9f9c42	-0.07793476
215	0x3d70d2ae	0.05879467
216	0x3d495b9f	0.049159642
217	0xbc0c6500	-0.008569002
218	0x39d77b2a	0.0004109976
219	0xbd12ec68	-0.035869986
220	0x3da58fc5	0.080840625
221	0x3da39484	0.079873115
222	0x3d962c80	0.073327065
223	0x3da0975a	0.07841368
224	0xbde802dd	-0.11328671
225	0x3d5d89ab	0.05408637
226	0xbc45c711	-0.012071387
227	0xbd980b41	-0.074240215
228	0x3ddf6a5b	0.109089576
229	0xbcbb8051	-0.022888334
230	0x3de5ee71	0.1122712
231	0x3e18cb75	0.14921363
232	0xbdb997ea	-0.090621784
233	0x3e082943	0.1329699
234	0x3d930f9c	0.071807116
235	0xbddcfdd5	-0.10790602
236	0xbd8e35b4	-0.06943837
237	0xbd4456a9	-0.047934208
238	0xbd9ca37d	-0.076483704
239	0xbc6e51a1	-0.014545829
240	0x3b3fe73f	0.002928212
241	0x3d01bf90	0.03167683
242	0xbd3996d7	-0.045309868
243	0x3d970e80	0.073758125
244	0xbe0c6abd	-0.13712592
245	0x3caec2db	0.021333149
246	0xbd58a598	-0.052892298
247	0xbdefc795	-0.11707989
248	0x3ced17f3	0.028942084
249	0xbd751848	-0.05983761
250	0x3dddfdd2	0.10839428
251	0xbd8c25df	-0.06843161
252	0xbe1641d3	-0.14673547
253	0xbcd8e707	-0.02647735
254	0xbbf98983	-0.0076152696
255	0xbcfa4ca6	-0.030554127

features.4.bias f4 [24]
0	0x3d9bb38e	0.07602607
1	0xbda3f40f	-0.08005535
2	0xbe05b639	-0.13057794
3	0xbe1f8d61	-0.15581276
4	0xbd7c5ecd	-0.061613847
5	0xbd804a89	-0.062642165
6	0xbe1c73c2	-0.15278533
7	0xbddd80e3	-0.10815599
8	0xbe258fb0	-0.16168094
9	0xbc585df7	-0.013205997
10	0xbdb0703a	-0.086151555
11	0x3d47970d	0.048728038
12	0xbd4a9037	-0.04945394
13	0xbe0b079b	-0.1357712
14	0xbd2355d5	-0.039876778
15	0xbdbb6d40	-0.09151697
16	0xbd5b5a12	-0.053552695
17	0x3c121798	0.008916758
18	0x3b609885	0.0034270596
19	0xbdd82316	-0.10553567
20	0xbd879dd2	-0.06621899
21	0xbc365ade	-0.011130063
22	0xbc0de534	-0.008660603
23	0xbd144736	-0.036200725
