N/Treinamento/CONV/CONV_2_DENSO_1/conf_2/modelo_seed_34_loss_0.002577.pt (torch, 353681 bytes, 6 tensors)

conv1d_1.weight f4 [120, 76, 3]
000000 e7 b4 49 3d dc 16 29 bc 24 37 df 3c 70 6a 7b bc
       0.049244788 -0.0103203915 0.027247973 -0.015345201
000010 90 ba c6 3d f6 66 84 bd 58 10 82 bd 70 7d a6 3d
       0.09703553 -0.06464951 -0.063507736 0.08129394
000020 24 4d f3 3b 3a 8a 85 3d 5f 59 45 3d 2b b8 3c 3d
       0.0074249674 0.06520505 0.048180934 0.046074074
000030 94 1b 21 bd ac 5d 6b 3d b1 67 1d 3d 38 36 98 3b
       -0.03933294 0.05746238 0.038428966 0.0046451353
000040 a5 9e bb 3c 42 ff 08 bd 0b 6a 25 bd 82 47 dc bc
       0.022902796 -0.033446558 -0.040384334 -0.026889566
000050 27 97 0b bc 67 c5 79 bc d8 84 c0 bd 16 67 e0 bc
       -0.008519924 -0.015244818 -0.09400338 -0.027392905
000060 1e 77 fd 3b 81 3b a5 bd f7 23 60 3d 9e 0b 10 bd
       0.007735147 -0.0806799 0.0547218 -0.03516733
000070 17 26 0e 3c 9e 96 86 3d 40 95 3c 3c 9c db 9a bd
       0.0086760735 0.06571697 0.011510193 -0.075614184
000080 e9 0e dd 3b 67 fa 25 bd 84 29 e2 bd 18 58 49 bd
       0.006746162 -0.040522005 -0.11043075 -0.04915628
000090 4d d2 b7 bc aa 92 8d bd f9 d0 49 bc a5 62 43 bc
       -0.022439146 -0.069127396 -0.012317889 -0.011925374
0000a0 3c b8 f8 3c a5 72 be bb 8a a5 7e 3d 4e 0f 17 bc
       0.030361287 -0.0058120065 0.06216959 -0.0092199575
0000b0 3f c1 e7 ba 40 5f 34 bc 10 52 0a 3d 65 b6 e0 bc
       -0.0017681493 -0.0110090375 0.033769667 -0.027430722
0000c0 dc 35 6b 3d 0f 9f fe bc b4 84 1a 3d f6 e5 ae 3a
       0.05742441 -0.031081704 0.03772421 0.001334368
0000d0 f7 bd 06 3c 15 cb 34 bd 9b 34 30 bd fb a8 3e 3c
       0.008224002 -0.044138987 -0.04301892 0.011636968
0000e0 a7 ea da 3c 28 f7 54 3d c5 3b a0 bd 5e 44 4f bb
       0.02672322 0.05199352 -0.078239 -0.0031626443
0000f0 b0 48 f0 3c 26 5c a8 bd 66 69 1c 3d 32 ed a0 3b
       0.029331535 -0.08220701 0.038186453 0.0049110884
000100 47 be 80 bd 5f f1 5d bd 23 64 a3 bb bc 3a e4 bd
       -0.062862925 -0.054185268 -0.0049863025 -0.11144015
000110 03 c8 84 bd 26 97 8f bc 07 92 41 3d 88 13 fa bc
       -0.06483462 -0.017528128 0.047258403 -0.030526891
000120 c3 ca 34 bd b3 ad 1f 3e 54 ee 20 bd de d8 65 bd
       -0.04413868 0.15593605 -0.039289787 -0.056115024
000130 47 ce d8 3d 67 12 03 bd 1f 52 35 bd 4d d0 ef 3d
       0.10586219 -0.03199997 -0.04426777 0.11709652
000140 16 64 e5 bc ba 8e 1a 3c c1 33 e3 3d 75 61 2e bd
       -0.028001826 0.009433443 0.11093856 -0.04257341
000150 3c 7f 57 bd 85 ad a4 3d 09 75 b9 3c 39 16 68 3d
       -0.052611575 0.08040909 0.022638815 0.05666182
000160 66 b7 87 3c 3a 95 52 bd 00 70 81 3d 7f 09 26 3d
       0.016566943 -0.051411845 0.063201904 0.0405364
000170 f6 36 29 3d f6 80 75 3c 46 21 08 bd f4 70 42 bc
       0.04131218 0.01498436 -0.033234857 -0.01186775
000180 8e 10 f6 bc 54 ce f7 3c ad 9a 58 bd 9f f8 cd 3c
       -0.03003719 0.030249752 -0.052881885 0.025142966
000190 71 1a b1 bd 3b 54 4e 3d 54 dd 04 3d 5b ab d7 bd
       -0.086476214 0.050373297 0.032437637 -0.1053073
0001a0 4b db 6b 3d 08 1d 6c bb 5b fe e0 bd a1 7a 38 3d
       0.05758218 -0.0036028046 -0.109860145 0.045038823
0001b0 25 b3 0a 3d db e8 f1 bd cf ff 1c 3c 88 55 95 bc
       0.03386225 -0.11811992 0.009582474 -0.018229261
0001c0 65 1c 4d 3c 64 ab 6a bc 85 71 fd 3c 1f 25 7b bd
       0.012518977 -0.014323089 0.03093792 -0.0613147
0001d0 09 f4 44 bd c7 a7 65 bd 4c 36 35 3c b7 92 4d 3b
       -0.048084293 -0.056068208 0.011060309 0.0031367966
0001e0 7d 7e c9 bc 2a 81 76 bd 08 37 30 3d 1e 92 08 bd
       -0.024596447 -0.060181774 0.043021232 -0.033342473
0001f0 cf eb 48 3d d5 62 be 3c df 87 8c 3c 7c 08 1e 3d
       0.04905301 0.023240486 0.017154632 0.03858231
000200 fe cc 16 3d cd 21 84 3d 65 5e 83 3d 61 fe 7b 3d
       0.03681659 0.064517595 0.06414489 0.06152189
000210 32 7b 79 3d de b6 d6 3d 8f 81 32 3b 87 c3 80 3d
       0.060908504 0.10484098 0.0027237867 0.06287294
000220 11 a8 f3 3d 75 af 2e 3c 1d ef 51 3d 3e 71 4c 3d
       0.118972905 0.010661949 0.051253427 0.049912684
000230 7c 3d 65 bd d0 c4 20 3d 93 60 92 3d e0 ba 73 bd
       -0.05596684 0.039250195 0.07147326 -0.05950439
000240 0e f2 68 3c 6d 21 bd 3d a6 24 db 3c 4c 29 80 3c
       0.014217867 0.09234891 0.026750874 0.015644692
000250 1d 1e e8 3c 36 16 6e 3b d4 2b b2 3c 2c 85 f1 3d
       0.028334672 0.0036329157 0.021749415 0.11792979
000260 ee e6 a5 3b b6 72 be bc ec 7d b0 3d e5 fe 59 3d
       0.0050629294 -0.023248058 0.08617768 0.053221602
000270 fa 80 01 bd ea 70 4e 3c 6a 5f 35 3d 46 d7 e1 3c
       -0.031617142 0.012600163 0.044280447 0.02756847
000280 86 b0 45 ba 48 d1 51 3d 51 13 a8 bc be 41 3a 3a
       -0.00075412577 0.051224977 -0.020517023 0.0007105133
000290 e3 41 9a bc 9c 83 5b 3d 68 dc 5c 3d 05 03 1d bd
       -0.018830245 0.05359231 0.053921133 -0.038332958
0002a0 22 ca 7e bc 62 0f 6e 3c 0b e1 7f 3d 91 34 1e 3d
       -0.015551122 0.014530035 0.062470477 0.03862435
0002b0 26 80 c8 bd 3e 26 d6 bc c2 0f 29 bd 90 2e 8f bc
       -0.097900674 -0.026141282 -0.041274793 -0.017478257
0002c0 57 25 bf 3c 3c d0 75 bc f8 04 95 bd ec 8f fa ba
       0.023333235 -0.01500326 -0.07276338 -0.0019116378
0002d0 1f 80 1f bc e9 92 ea bd 6c 5a cf bc ad 75 0c bc
       -0.009735136 -0.11453802 -0.025311671 -0.008572978
0002e0 fd 59 f2 3c 9a 0b 31 bd 3d 09 b5 3c bd 6d 95 bd
       0.029583925 -0.043223955 0.022099132 -0.072963215
0002f0 ef 41 80 bd 0d f1 86 3d c2 f3 a1 bd 39 92 b8 bc
       -0.06262576 0.065889455 -0.07907821 -0.022530662
000300 f9 9e 62 bd b5 99 d8 3c 40 b8 6f bd 51 4d 66 3b
       -0.05532739 0.02644048 -0.058525324 0.00351413
000310 38 90 09 bd 98 d3 f4 3c 7a 88 81 bd c8 41 b2 3d
       -0.033584803 0.029886052 -0.06324859 0.08703953
000320 eb a9 d9 bc 4b 65 43 bd f8 4b c7 bd dd 84 d9 bb
       -0.026570281 -0.047704022 -0.09731287 -0.006638153
000330 fc 31 76 bd 3f f9 95 bd 67 e3 28 bd af 81 07 bd
       -0.060106263 -0.073229305 -0.041232493 -0.03308266
000340 1e 60 ea 3d 1b 8b 26 bb 69 0a 15 3d 34 cc ae bd
       0.11444114 -0.0025412503 0.03638688 -0.085350424
000350 9a 5a 63 3d 8e 02 82 3d 7a 5e be 3c bb b6 ba bc
       0.055506326 0.063481435 0.02323841 -0.02279221
000360 2c 35 8c 3b b5 93 10 bd 2d 77 24 bd 89 78 39 3d
       0.0042787995 -0.035297114 -0.040152717 0.045280967
000370 54 da 32 bd 11 9a 0d 3d b4 a4 40 3d 5a 76 32 bd
       -0.043665245 0.034570757 0.047032073 -0.0435699
000380 bd f0 be 3b fb ca a7 3c b8 64 96 bc 34 2e cc 3c
       0.005827038 0.02048253 -0.018358573 0.024924375
000390 e8 45 37 bd 30 02 49 ba 1e 60 05 bd 36 38 63 bd
       -0.044744402 -0.00076678675 -0.032562368 -0.05547353
0003a0 5b 4d 8e 3d dd 5b dd 3c d0 61 59 3d ae bc d3 bc
       0.06948348 0.027021343 0.053071797 -0.025846805
0003b0 74 66 12 3d 02 2e 17 bc 59 19 97 bd 3a d5 c9 bc
       0.03574224 -0.009227278 -0.073778816 -0.024637807
0003c0 33 50 02 3a 47 90 75 3c bb 72 fc bc 8b 3e 2c bc
       0.0004971057 0.014988012 -0.030816427 -0.010512958
0003d0 5d 75 90 bd 18 05 48 3c bd 66 8d bb 1a 90 93 bd
       -0.07053635 0.012208246 -0.004315226 -0.072052196
0003e0 ea 49 80 3d b6 22 9b bb 95 ba 7a bd 67 e4 2a bd
       0.06264098 -0.0047343625 -0.061213095 -0.041721728
0003f0 97 67 87 3d d3 3f 7d bc b6 cb 3e bd dc c8 2b 3b
       0.06611555 -0.015457111 -0.046580993 0.002621225

conv1d_1.bias f4 [120]
000000 46 1f 1d 3e aa 5c ab 3d c8 b4 76 3d 6c 2c ff bd
       0.15343961 0.08367284 0.060231 -0.12459645
000010 bd f0 11 3e ad ae ab bd 8c 5e 82 3e 03 68 28 bc
       0.1425199 -0.08382926 0.2546276 -0.010278705
000020 aa a8 5f 3d fe af c6 bd d7 cb a9 bd d6 f1 ba bc
       0.05460421 -0.097015366 -0.082908325 -0.022820394
000030 92 48 a7 3e b0 0a af bc 97 54 cc ba fd df 3b 3e
       0.32672554 -0.0213674 -0.0015589175 0.18347163
000040 80 d0 9b be ec bc 05 be 8c bb c3 3d bb 02 13 be
       -0.3043251 -0.13060349 0.09557256 -0.1435651
000050 fd 8d 1d be 7a 35 55 3d b8 81 94 3e 19 e4 cb be
       -0.15386195 0.052052952 0.29005218 -0.39822462
000060 af 24 5d be 63 26 03 3e d4 bd 27 3d 9c 4a 82 be
       -0.21596025 0.12807612 0.04095252 -0.25447547
000070 8c 1e 1f 3e b0 58 46 be 1c b7 16 be da 93 0a 3e
       0.15538996 -0.19369769 -0.14718288 0.13532963
000080 2c c1 99 bd f1 b2 83 be 1c 57 4e 3e ca 61 8d be
       -0.07507548 -0.2572246 0.20150417 -0.2761367
000090 81 9a 90 3e 96 8b d7 3e 41 82 20 bd ba 88 43 3e
       0.28242877 0.42098683 -0.03918672 0.19095126
0000a0 0c 5e 99 be 6e e8 81 bd 94 d8 bb 3d 81 ea 21 3e
       -0.29954565 -0.063431606 0.091721684 0.15812112
0000b0 b8 7a 3e 3e 75 d9 5f 3d c4 f6 de 3e 08 14 80 be
       0.18601501 0.054650743 0.43547642 -0.25015283
0000c0 61 62 90 3e e3 c3 8b be ea d6 53 3e ee 69 cf 3d
       0.28200057 -0.27297887 0.20687452 0.10127626
0000d0 e6 6f 46 bd b3 b3 2b 3b 73 4c 56 3e cf f9 71 be
       -0.04844656 0.0026199638 0.209276 -0.2363045
0000e0 76 f5 ff bd 6a 83 b1 3a 07 e0 38 be b1 d6 5c 3e
       -0.1249799 0.0013543193 -0.1805421 0.21566273
0000f0 03 09 d5 3d 4f 9b b9 be 33 42 96 3e c0 ba 0f 3e
       0.104021095 -0.36251304 0.2934738 0.14036083
000100 e6 47 8c bd d4 8a 5a be ab 6a b7 3d da f4 24 3e
       -0.06849651 -0.21342021 0.08955892 0.16109028
000110 f2 7a 66 3e 69 0f 5e 3e 57 1c dd bd 81 65 a7 be
       0.22507837 0.21685566 -0.10796421 -0.3269463
000120 6d c7 83 be 51 0a a9 3e 22 7d ab be 44 29 a2 3c
       -0.25738087 0.33015683 -0.33493906 0.019795068
000130 35 4f 66 3e 9e 4c 10 3c ed d5 68 3e f0 88 64 3d
       0.22491153 0.008807329 0.22737856 0.055794656
000140 4e fc ca bd 25 b2 8d 3e 13 a1 31 be d9 1b 60 be
       -0.099114046 0.27674976 -0.17346601 -0.21885623
000150 4d 10 e4 bd dd ea a6 be ba dd 19 bd 39 fd 14 be
       -0.111359216 -0.3260106 -0.03756497 -0.14549722
000160 52 57 70 bd 02 f3 fc bd 96 ab 10 3e 19 69 4b be
       -0.058677025 -0.123510376 0.14127955 -0.1986431
000170 b7 f3 38 bd e7 b7 37 be ff a9 56 3e 73 16 91 3d
       -0.0451543 -0.17941247 0.20963286 0.0708436
000180 7c 0a 1b bb 78 25 a0 3d 1f e6 5f bc 67 44 b4 3d
       -0.0023657372 0.078196466 -0.013665705 0.08802109
000190 1a 69 52 3e 18 41 82 be 6d ea 6f be 9b 58 36 be
       0.20547906 -0.25440288 -0.2342927 -0.17807238
0001a0 5a 5c df bd 62 32 d6 3e 56 d4 36 be 44 98 27 3d
       -0.109062865 0.41835314 -0.17854437 0.040916696
0001b0 6d 47 3b bd 40 17 e1 bd e7 4b d0 be ed 39 89 3e
       -0.045722414 -0.10990763 -0.4068291 0.26802006
0001c0 76 f1 3f bd 52 f9 43 be 5a 49 94 be ae 93 0d 3e
       -0.046861134 -0.19138077 -0.28962213 0.13825867
0001d0 cb f6 02 be 9c a0 a6 3d 07 be 98 3e 5a d6 f6 3d
       -0.12789457 0.081361026 0.2983248 0.12052603

conv1d_2.weight f4 [96, 120, 5]
000000 76 c6 fd bc 5e 3e 72 3c f4 4a 1e bc 7a 03 a6 3c
       -0.030978423 0.014785377 -0.009661425 0.02026533
000010 9a b6 10 3d 18 1a 19 3d 60 49 c9 bc 7c 50 12 bc
       0.035330392 0.0373784 -0.02457112 -0.008930322
000020 2d 0a b1 3c 30 87 ce bc 54 4f 9d bb a4 4a ec bc
       0.021611298 -0.025210947 -0.0048007164 -0.028844185
000030 13 8c 41 3c ee b5 10 3d ee 3e 5c 3c e9 33 e7 3c
       0.011813181 0.03532975 0.013442738 0.028222995
000040 01 9d 1a bd c5 2c be 3c 08 47 1b 3d ba e7 ab bc
       -0.037747387 0.023214707 0.037909538 -0.02098452
000050 95 b3 c0 3b d7 46 00 bd 51 0e b6 bd 7a b2 14 3d
       0.005880783 -0.03131756 -0.088894494 0.03630302
000060 81 72 3e 3c c6 f2 a7 3c 1b 40 13 bd e1 c4 49 3d
       0.01162398 0.020501506 -0.035949808 0.049260024
000070 41 29 e6 3c 6f 75 09 bc 42 a0 b1 3c 44 61 c7 bc
       0.028095843 -0.008389815 0.021682862 -0.024338372
000080 6e 22 13 bd 87 f8 15 3c 3d 14 1f bc ef 88 0c bd
       -0.035921507 0.009153492 -0.009709415 -0.034310278
000090 a9 47 f9 3b a8 0e 25 3e 46 13 c4 3b 3a 2b 98 3c
       0.0076074195 0.16118872 0.005983743 0.0185753
0000a0 4d de cb 3c 82 87 07 3d 98 37 08 3e 7e 0b f3 3b
       0.024886275 0.033088215 0.13302457 0.0074171415
0000b0 95 99 30 3c 0c b5 11 3d 40 fa 40 bc f0 77 c7 3c
       0.010778804 0.03557305 -0.011778414 0.024349183
0000c0 1b 8f 05 3d 08 3b e1 b9 77 db 1c bd 74 c2 7a bc
       0.03260718 -0.00042959326 -0.038295235 -0.01530515
0000d0 8c 7f 47 bd 3a 78 1f 3d 69 d0 1b bd ef 06 e7 3b
       -0.048705623 0.038933016 -0.038040552 0.007050387
0000e0 93 c5 0e bb ee 87 7e 3d 89 b7 e0 bc 1d aa 95 3c
       -0.0021785244 0.06214135 -0.027431266 0.018269593
0000f0 3a d7 1a bd 91 49 21 bd c8 5c 5c 3d 09 81 31 3c
       -0.037802912 -0.0393768 0.05379942 0.010833987
000100 90 90 f5 bb 20 e4 26 3d c5 b0 1c 3d bb b3 1c be
       -0.00749404 0.0407449 0.038254518 -0.15302937
000110 5c df 0f 3d 9e 04 11 3d d4 02 22 bd 64 20 e0 3c
       0.03512512 0.035404794 -0.03955348 0.027359195
000120 ed a8 99 bd b8 5c 01 bd 04 cb d2 3c 5e 6b 7b bc
       -0.07502923 -0.031582564 0.025731571 -0.015345423
000130 a5 43 fc 3c 1f 85 25 3e 8f da 94 bc bb dc f0 bc
       0.030793974 0.16164063 -0.018170623 -0.029402127
000140 d2 9a 6c bc ae d8 01 3c 77 ac 1c bd ca 2f db 3c
       -0.014441209 0.007925196 -0.038250413 0.026756186
000150 40 d5 26 bd 62 34 ce bb 2b 47 0d bd 03 01 1a be
       -0.040730715 -0.0062928656 -0.0344917 -0.15039448
000160 3e 8f a7 bc 3c de 56 bb 6a 83 0b bd 6c 17 88 ba
       -0.020454045 -0.003278627 -0.034060873 -0.0010382957
000170 b0 cf 36 bc d7 83 dc 3b 34 7f 82 bb 62 03 a6 3c
       -0.011157915 0.0067295837 -0.003982449 0.020265285
000180 ce 94 00 bd da 3b 86 bd 89 b8 8c bc 1f 5b 73 3c
       -0.03139191 -0.065543845 -0.017177837 0.014853268
000190 ab af cb bc a0 57 69 3b 41 a5 08 3d 36 c4 99 bc
       -0.024864038 0.0035605207 0.033360723 -0.018770318
0001a0 e4 44 91 bc 46 bf 00 bb d4 6c 91 bc 0f ab 0c 3d
       -0.017733045 -0.0019645258 -0.017752089 0.03434282
0001b0 c9 c9 c6 ba 45 7a 54 3b 13 55 1e bd c0 fa b2 3c
       -0.0015166338 0.003242151 -0.03865535 0.021848083
0001c0 3f 81 43 bd 13 18 3e 3c dc fc ea bb 1f ca b8 bc
       -0.04773068 0.011602419 -0.0071712565 -0.022557316
0001d0 df 8c bc 3b 58 ed 12 bc 55 5e bc bb 29 21 c7 bc
       0.005754098 -0.00896772 -0.00574855 -0.024307804
0001e0 ac 9a 08 bc c4 48 f2 bc ee fd d2 bd 0b 0f 28 bc
       -0.008337658 -0.029575713 -0.103023395 -0.010257493
0001f0 2a 8e 79 3c ab bb cf bc e2 f8 ae 3b dd 1b db ba
       0.015231648 -0.025358042 0.0053397277 -0.0016716678
000200 fa bc 4f bc 8c f3 0c bd b8 c1 37 bb d4 4f 45 3b
       -0.012679333 -0.034411952 -0.002803905 0.0030107396
000210 88 50 1b be ec a5 1a bd 11 0d d5 bc 60 d8 63 bc
       -0.15167439 -0.03775589 -0.026007207 -0.013906568
000220 1b 5b 3c 3b 08 d0 f6 bd ef 6a 4d bc 9b a3 84 bb
       0.0028740827 -0.120513976 -0.012537702 -0.0040478236
000230 c6 65 11 3d ac 84 67 3c 38 2d 8a bd 1a f6 ef bc
       0.03549745 0.0141307525 -0.06746906 -0.029292155
000240 d3 38 09 3d 5d 9f c4 bc 88 14 3d 3c ff ae 2e bd
       0.033501457 -0.024001772 0.01154054 -0.042647358
000250 92 eb f0 bc 36 5a dd 3c 11 a0 85 bc 3b 6b aa bc
       -0.029409204 0.027020555 -0.016311677 -0.020803085
000260 30 cf d7 bc 21 76 0d bd b2 e8 df bc db 27 29 bc
       -0.026343912 -0.034536485 -0.027332637 -0.010324444
000270 54 b5 3c bc 76 61 48 be 4e 9e bc 3b 58 ec 21 3d
       -0.011517841 -0.19568428 0.005756176 0.039532036
000280 00 f2 93 bc 08 c3 d5 bb 04 65 01 be 01 8f 0b bd
       -0.01805973 -0.0065234937 -0.1263619 -0.034071926
000290 de 97 88 bc 76 15 34 bc 5e 49 95 3c 46 6d 27 bd
       -0.016673978 -0.010991445 0.01822346 -0.040875696
0002a0 81 f6 e8 bc e4 42 12 bd b0 fe 93 3c 62 8f e9 bc
       -0.028437855 -0.035708323 0.01806578 -0.028510753
0002b0 47 a5 87 3c 51 d8 49 bc 6b 93 1b bc 78 e3 a9 3b
       0.016558303 -0.01231964 -0.009495596 0.005184587
0002c0 c2 ce 17 3d 30 df fb 3c 51 78 b3 3c e2 eb 69 3c
       0.037062414 0.030746073 0.021907957 0.01427743
0002d0 5e 34 84 bc fa 75 a0 bc 9b e9 b9 3d 27 20 18 bd
       -0.016138252 -0.019587506 0.0907776 -0.037140038
0002e0 be 97 1e 3c 38 86 53 bc 79 d6 cc 3c 2d 46 fc 3d
       0.009679733 -0.012910418 0.025004612 0.123180725
0002f0 92 c4 10 bd 8d a8 ca bc 28 f9 51 bc bc 04 fb 3c
       -0.035343714 -0.024738574 -0.012815751 0.030641906
000300 f6 95 4f be 64 32 13 3d 98 79 0a bd ed c3 18 3d
       -0.2027205 0.035936728 -0.033807367 0.037296224
000310 00 d2 bd bb 37 38 bb ba c1 7a c0 3b 67 96 aa bb
       -0.005792856 -0.0014283721 0.0058740084 -0.0052059176
000320 84 d3 d1 bc 1d af 0c bc 56 50 51 bc 60 06 87 3c
       -0.025613554 -0.008586672 -0.012775501 0.016482532
000330 5c a3 02 3d fb c5 9f 3c 39 49 df bc 72 73 8c bc
       0.031894073 0.019503584 -0.027256595 -0.017144892
000340 5a 8c 11 3d bd 58 c9 3b cf 4c 11 bd 71 c9 8a bc
       0.03553424 0.0061446116 -0.03547364 -0.016941758
000350 f8 47 4c 3d 52 9a 21 3d 29 6b e4 bc e8 d2 db 3a
       0.049873322 0.039453812 -0.02788313 0.0016771229
000360 8d 55 22 bd 16 36 6a bd c6 0c 26 bd 98 d6 08 3d
       -0.03963237 -0.057180487 -0.040539525 0.033407778
000370 85 c0 de 3c 45 23 0a bd 77 35 a3 bd 9e 56 c6 3c
       0.02719141 -0.033725042 -0.07969182 0.024211224
000380 98 03 26 bd 36 b9 80 bc 3b b8 92 3c df e3 05 3e
       -0.04053077 -0.015713315 0.017910114 0.13075207
000390 d4 34 f4 3c ea 19 c3 ba 7c 1a b1 3c 82 77 4d bc
       0.029810347 -0.0014885042 0.021619074 -0.0125407
0003a0 0d 3b de 3d 00 d1 ac 3c 8f e4 16 3c e1 4d 16 3d
       0.10851107 0.021095753 0.009209766 0.036695365
0003b0 f5 f3 6a bb 73 41 ce bc 15 f6 5d bc ca e3 01 bd
       -0.0035850976 -0.025177693 -0.01354744 -0.031711377
0003c0 6e 04 b1 bc 04 a2 e3 bc 10 53 f3 3d fd a4 1f 3d
       -0.021608558 -0.027787216 0.11881077 0.038975704
0003d0 62 85 b5 3c 95 ae e3 bc fe ce 29 bc f8 73 d2 3b
       0.022158328 -0.027793208 -0.010364292 0.006422516
0003e0 a0 fa 0e 3c ca a3 ea bc d4 26 90 3c 1d 2d 93 3c
       0.008726746 -0.028642554 0.01759664 0.017965848
0003f0 60 db 2b 3c 74 53 c1 38 f4 2d 03 3c 60 72 af bc
       0.010489315 9.2185015e-05 0.008006562 -0.021416843

conv1d_2.bias f4 [96]
000000 64 8e 2c 3d 96 18 15 3d 36 b0 97 3d aa d8 60 3c
       0.04212798 0.0364004 0.074066564 0.013723532
000010 7f d2 ad 3d bb 2c 79 3c 89 77 0c 3d a6 53 2c 3c
       0.084874146 0.0152084185 0.034293685 0.01051799
000020 d1 f0 5b bc 77 0b 1d bd 78 c2 9b 3d 3a 77 1f 3d
       -0.013424114 -0.03834101 0.07605451 0.038932063
000030 27 74 85 3e 6e 12 82 3c 4b c6 65 bd 58 32 e1 3c
       0.2606518 0.015877929 -0.05609731 0.027489826
000040 87 84 11 be 4d ad 89 3c 9f 64 b2 3c 56 dd 0c 3d
       -0.14210711 0.016806269 0.021776496 0.03439077
000050 a8 27 b6 3e 8f 43 4e bd 65 ab 0f 3d 7f ad 33 bd
       0.3557713 -0.050357398 0.035075564 -0.04386663
000060 60 1a b8 bd 66 c9 a2 bc 63 a7 8e 3b f5 00 25 bd
       -0.08989406 -0.019871425 0.00435345 -0.040284116
000070 4b 22 92 3d 03 da e3 bc 5b 5d 25 bd 5f 67 0a 3d
       0.07135447 -0.027813917 -0.040372234 0.03378999
000080 2e 8e d5 3d e5 cc 3e 3d d7 3b 65 bd 6f d9 9f bb
       0.10427509 0.04658212 -0.05596527 -0.004878215
000090 c3 ba 0a 3d a3 74 a3 bc 55 ff af bb 97 24 ae bd
       0.033869516 -0.019953078 -0.005371014 -0.08503073
0000a0 ab 76 f8 bd 21 03 2a 3c 23 c5 b4 bd 25 e9 02 3e
       -0.12132009 0.010376723 -0.08826663 0.1278425
0000b0 90 e3 f6 3c a6 12 e9 b9 ce 17 17 3d 84 e4 58 bd
       0.030137807 -0.00044455117 0.036887936 -0.052952304
0000c0 0e 62 9b 3d da 1b 2b bd c1 06 89 bd 85 51 08 3d
       0.07587062 -0.04177461 -0.06690741 0.033280868
0000d0 df c6 79 bc 50 49 d4 ba 5d 54 48 3d 16 d1 e7 3c
       -0.0152451685 -0.0016196165 0.04890858 0.028297942
0000e0 12 fe 42 3d 28 13 33 b8 92 90 e1 bd a6 88 20 be
       0.04760558 -4.2694766e-05 -0.11013903 -0.15677127
0000f0 5b 93 42 3d f4 73 2d 3d 5c 43 29 bd 74 3d a0 bd
       0.04750381 0.04234691 -0.041324005 -0.07824221
000100 e0 83 4b 3c 11 83 d4 3c 5a f6 5b bc 09 78 82 3c
       0.012421578 0.025941404 -0.013425434 0.015926378
000110 06 ca aa bd 67 72 e0 3c b9 3d 95 3d 0b de 1b bd
       -0.08339314 0.027398301 0.07287163 -0.038053554
000120 c8 15 14 bd 01 c3 af bb 6a 07 a2 3d 79 8b 10 3d
       -0.036153585 -0.0053638224 0.0791157 0.03528926
000130 57 11 d2 3c fb 11 88 3c 84 2b e2 b9 0e 66 c8 3c
       0.025643034 0.016610136 -0.000431385 0.024462726
000140 c5 a7 63 bc fc 82 dc 3c 98 ec 24 3d b6 41 ef 3a
       -0.01389498 0.026917927 0.040264696 0.0018253836
000150 f0 1b de bc de 1b e5 bb 48 c9 4e ba 08 41 70 3c
       -0.027112931 -0.0069918474 -0.00078882696 0.014663942
000160 db 70 66 3d 5b eb 0b 3d 9d d3 87 3d 65 89 8d bd
       0.05625997 0.03416 0.06632159 -0.069109716
000170 c6 3d 4d 3d e1 f7 69 3d fd f7 ed bc f5 b9 86 3d
       0.05010774 0.05712116 -0.029048914 0.06578437

features.0.weight f4 [24, 96]
000000 b8 67 c5 bd 37 b1 81 3c 08 89 79 3a 0d 54 0c bc
       -0.096389234 0.015831573 0.00095190154 -0.008564961
000010 89 8d b2 3d 15 25 21 bc b2 6e c2 bb 94 fa 93 ba
       0.08718402 -0.009835501 -0.005933606 -0.0011289888
000020 16 e6 85 3d 86 77 ba bb 0b e3 2a bc 57 54 a5 bb
       0.06538026 -0.005690518 -0.010430108 -0.0050454545
000030 a9 f4 c1 3d cf c3 5c 3b db b4 3a 3c 2e a3 e5 bb
       0.09470493 0.0033686047 0.011395658 -0.007007978
000040 fb 9f 03 be b6 25 00 3a f6 1a 9d bc a7 47 44 3c
       -0.12853996 0.0004888432 -0.019177895 0.011979974
000050 30 77 54 3b b8 ab 6d bb a8 c7 e8 39 68 d9 45 b9
       0.0032419674 -0.0036265682 0.00044399244 -0.00018868374
000060 24 38 bf 3b 01 6f 6c bc 8f f7 8a 3d 95 1b 02 bc
       0.00583555 -0.014430762 0.06785499 -0.007941146
000070 6d 0c db bc 33 a7 0b 3a 55 0d d5 bc 62 52 91 3c
       -0.026739324 0.0005327344 -0.026007334 0.017739478
000080 6c 3a a2 3d 35 14 20 3c 1b 05 19 3c 34 fc 1e bd
       0.07921299 0.009770443 0.009339596 -0.03881474
000090 e5 a4 2f 3b d9 78 3a 3a 88 b1 3c bb 3c a5 05 bc
       0.0026801166 0.00071133446 -0.002879234 -0.008157071
0000a0 72 8a 1a 3c 92 13 43 3a 19 61 c9 ba 82 1e 71 bc
       0.009432422 0.0007441576 -0.001536402 -0.014716746
0000b0 26 ca 73 3b 75 87 31 bb 5a 47 2d bb cc 1f 0a bc
       0.0037199347 -0.0027088795 -0.0026440234 -0.0084304325
0000c0 f9 a2 f1 bc 6d 93 28 bc ca 31 86 bb 70 53 08 3d
       -0.029496657 -0.010289055 -0.004095291 0.033282697
0000d0 1d 47 d6 3b 3c bf f2 ba b9 01 ad ba f4 c1 cd 3c
       0.006539239 -0.0018520127 -0.0013199366 0.025116898
0000e0 d6 6f c7 bc 1f c7 92 bd 89 02 b4 3c 34 eb c1 3b
       -0.02434532 -0.071668856 0.021973865 0.005917931
0000f0 89 5c 92 3b 34 4d 17 3c 86 bc 47 bd 21 4c 38 3c
       0.0044665975 0.009234715 -0.048763774 0.011248619
000100 56 49 9f 3d 0a e8 e7 3c 83 e3 7b 3d 13 e5 99 3b
       0.077776596 0.028308887 0.06149627 0.004696497
000110 8a 55 05 3d 91 c5 0c be 87 7f 56 bb e0 f1 b5 3c
       0.03255228 -0.1374724 -0.003272982 0.022210062
000120 a2 d4 86 bb 34 ff 16 b9 e4 00 d3 3c 6c 3b 26 bc
       -0.0041147033 -0.00014400185 0.02575726 -0.010146003
000130 0b b5 c0 bb 74 b9 ba bc 8b d7 2e 3d d4 50 86 3d
       -0.005880957 -0.022793509 0.042686027 0.065583855
000140 81 ed d2 bc 4f bd 24 3d 10 82 1b 3a 52 ad 3e 3d
       -0.025748016 0.0402196 0.00059321616 0.04655201
000150 05 4a 07 bc 35 e9 a4 bb 9d 6d c5 bd d5 6f 39 3c
       -0.008257394 -0.0050326833 -0.09640048 0.011318167
000160 f7 6f 08 bb f4 80 ab bd 5a 26 a4 3c 66 9d a4 bc
       -0.002081869 -0.08374205 0.020037819 -0.020094585
000170 17 ee 04 be b0 2b db 38 1f d5 e9 bc 80 c2 2b bd
       -0.12981449 0.00010450871 -0.028544007 -0.041933537
000180 87 78 a2 bd d5 16 d7 bc e0 23 96 ba 2e f7 88 3a
       -0.07933145 -0.026256004 -0.0011454783 0.0010449642
000190 f4 99 c9 3b 80 30 04 bc 06 ca b4 bb ee 5a f3 3b
       0.006152386 -0.008068204 -0.005517247 0.007426611
0001a0 99 09 92 bc a8 43 d9 bc 1e b5 57 3c f0 a5 42 3a
       -0.017826842 -0.026521519 0.01316574 0.00074252393
0001b0 f5 af 82 3d 78 0d 36 b9 32 94 87 3c 16 c5 33 bc
       0.063812174 -0.0001736189 0.016550157 -0.010972282
0001c0 77 54 92 bd 42 18 c4 3c a6 bf d1 ba 77 5a 75 bc
       -0.07145017 0.023937348 -0.001600255 -0.014975182
0001d0 8b 85 cf ba 19 b0 fb bb e6 f5 9a bb 81 bc 01 3b
       -0.0015832646 -0.0076809046 -0.0047290204 0.0019796195
0001e0 e9 09 39 bd 18 22 8b bd 6c 68 23 3d 5f 76 8e bb
       -0.045175467 -0.06793612 0.039894506 -0.004347607
0001f0 b9 cb d4 bd df 19 23 3c 76 d4 0b 3d 24 66 5c bd
       -0.103904195 0.009954899 0.034138165 -0.053808346
000200 c4 fd 9e 3d 45 6f bc b9 f0 16 b7 bc 48 43 35 3c
       0.07763246 -0.00035941057 -0.022349805 0.011063404
000210 4b 34 b2 bb 2a 59 04 bc 69 14 0c bb 84 74 55 3c
       -0.0054383627 -0.008077899 -0.002137447 0.013028268
000220 56 e6 22 bc a6 e3 bf bb fd 05 90 bc ff 75 53 bd
       -0.009942612 -0.005855995 -0.01758098 -0.0516262
000230 65 09 3e 3c dd 58 16 3c e5 88 d8 bb 0e 2f 98 bb
       0.0115989195 0.00917646 -0.006608116 -0.004644281
000240 3b e7 25 3d 48 ae b2 ba b0 4d 54 3c 00 ef 2a 3c
       0.04050372 -0.0013632262 0.012957975 0.010432959
000250 e5 eb ab 3b ca bf 3a 3b 7b 49 d9 bb 74 ef 14 bd
       0.0052466267 0.0028495663 -0.006631074 -0.036361173
000260 de 70 99 bb 0c d4 88 3b 65 d8 9b 3c 08 df ac bd
       -0.0046826443 0.0041756686 0.019024083 -0.08440977
000270 9a e7 e7 bc 80 33 73 bb 58 bf 98 bd 53 7b 26 bd
       -0.028308678 -0.0037109554 -0.07458371 -0.040644955
000280 57 1b c7 3c 68 2e e4 bb 50 e3 b2 3c 3d 35 ca bb
       0.024305029 -0.00696354 0.021836907 -0.0061708973
000290 45 0d 65 3c cc 8f 4a bd f4 47 d3 3b 36 45 4c bc
       0.0139802145 -0.04945354 0.0064477865 -0.012467673
0002a0 77 62 81 bb 2c 4c 0b 3c 14 ff 7d 3c 5a bd cb 3b
       -0.0039485055 0.0085020475 0.01550271 0.006217641
0002b0 5c a5 05 3c 7f 58 b2 3c 7a 18 93 3d 65 6a 6c bd
       0.0081571005 0.021770714 0.07182403 -0.057718653
0002c0 af 5a 8c bd 83 55 84 bc fe 2e c5 bb 76 4d ba bc
       -0.06853234 -0.016154056 -0.006017565 -0.022742014
0002d0 55 6a 35 3b 07 20 ca bb 05 f3 60 bd 19 22 9a ba
       0.0027681787 -0.0061683687 -0.05491926 -0.001175943
0002e0 a0 71 b9 bb 6f 00 3c bd ef 50 ec 3c c2 0d 76 bc
       -0.005659297 -0.04589885 0.028847186 -0.015017929
0002f0 a1 1f 9f bd 06 87 d8 3a 0e da 0e 3d b4 bc 7f 3d
       -0.077697046 0.0016519732 0.034875922 0.06243582
000300 99 23 db bd b4 57 a4 3c 7a 41 c3 ba 37 4b 31 bc
       -0.10700149 0.020061351 -0.0014896833 -0.010821155
000310 c3 76 e2 bc 77 6d b8 3b 44 2d 37 3c d8 14 e5 ba
       -0.02764452 0.0056282836 0.011180226 -0.0017477525
000320 9b cb 10 3e 0f e1 96 bc 50 1b 80 3c c0 93 a5 bb
       0.1414017 -0.018417863 0.015638024 -0.0050530136
000330 3e 79 83 3d 52 e3 90 3c 37 8d c8 bc e4 62 44 3c
       0.064196095 0.01768652 -0.024481399 0.011986468
000340 cd bc 54 bd ca cf 28 bd a2 99 a1 bb 2e 20 c1 3c
       -0.051937867 -0.041213788 -0.0049316445 0.023574915
000350 b1 9e cf 3a cc 66 b9 3a 52 9f 83 bc 25 5f 40 bb
       0.001584014 0.0014145016 -0.01606718 -0.0029353586
000360 12 4b da bc 36 1c 8d 3d a2 d2 20 bd 7b b7 78 bb
       -0.026647124 0.068901464 -0.039263375 -0.003795116
000370 c8 46 5b bd 24 8f 29 bc 75 8e 1b 3d 16 f1 bd bd
       -0.0535343 -0.010349069 0.037977654 -0.09274499
000380 72 3b 10 3d 3b b3 98 3c 35 bd 71 3c 13 5d ae 3d
       0.03521294 0.018640151 0.014754583 0.08513846
000390 70 bd 9d 3b 12 58 ee bb be cf f2 bb 1d ef 9b bc
       0.0048138425 -0.0072736824 -0.0074100187 -0.019034917
0003a0 e6 f6 f2 bb 0d c9 2e bb 7c ec 98 3c b8 dc 9d 3c
       -0.0074146865 -0.0026670129 0.018667452 0.019270286
0003b0 30 75 9c 3a a9 a4 7d bc f5 cb 1d 3d 82 ff 3d bc
       0.001193678 -0.015481153 0.038524587 -0.011596562
0003c0 29 af a0 3d 1b b7 22 bc a4 b8 ff bb 19 05 89 bc
       0.07845909 -0.009931351 -0.0078039933 -0.016726064
0003d0 cf 2e e6 bb 27 7d 08 bc b3 21 df 3c 59 04 b4 3b
       -0.007024623 -0.00833062 0.027237749 0.0054936823
0003e0 59 27 20 3b 88 7f 57 3d 90 9e aa 3c 18 ca aa bd
       0.0024437516 0.052611858 0.020827562 -0.083393276
0003f0 e9 88 f7 3c 8a 92 7d 3b a6 69 92 bd 1f a4 26 bc
       0.030216651 0.003869208 -0.07149057 -0.010170965

features.0.bias f4 [24]
000000 ea ba fb 3b ce 4c 9d bc 09 3f a1 bd b1 31 4d bd
       0.007682194 -0.019201662 -0.07873351 -0.050096218
000010 57 38 14 bd e3 cf 0a be 5f d8 75 bd 13 5c 15 be
       -0.036186542 -0.13555865 -0.0600208 -0.14585905
000020 25 cf 4f be 2b e1 21 be 61 9f 32 be c9 36 68 bd
       -0.20293863 -0.15808551 -0.1744361 -0.056692872
000030 c2 7a 03 be f3 54 9a bd b6 bf 2b be 7a b5 c4 bd
       -0.12839797 -0.07535734 -0.1677235 -0.096049264
000040 18 13 4b bd e7 28 b2 bd c6 a9 0e be a7 a3 f1 bd
       -0.049578756 -0.08699208 -0.13931951 -0.11798792
000050 70 12 f3 bc ca b5 b6 bd 1f b4 0a be b2 d8 ea bc
       -0.029671878 -0.08921392 -0.13545273 -0.028667782
