N/Treinamento/CONV/CONV_2_DENSO_1/conf_2/modelo_seed_07_loss_0.002677.pt (torch, 353681 bytes, 6 tensors)

conv1d_1.weight f4 [120, 76, 3]
0.0046256036 -0.015495425 0.021088103 0.020780625 -0.03631707 -0.009925859 -0.038797405 -0.016078793
-0.01783931 0.04652663 0.0047291103 0.006746533 -0.028233863 -0.08577306 -0.007272984 -0.018638032
-0.007694393 -0.05655065 0.062242374 -0.08300161 0.050713375 -0.011500554 0.018526716 0.025808185
0.002772253 0.0357891 0.050293047 0.01703204 0.111937396 -0.051230185 0.047145788 0.115420714
0.016775278 0.009148898 0.11043172 0.060824722 -0.014736486 -0.010897395 -0.016662342 -0.040364046
0.057672467 -0.032731853 -0.03534508 0.12012971 0.060602404 0.007617001 0.053135436 -0.008548851
0.03137319 0.00035718383 -0.05412333 0.05290235 0.13126443 -0.0039355163 -0.05232913 0.033961736
-0.030809913 -0.00012731989 0.10721559 0.029316843 -0.0077660633 0.055639293 0.018022668 -0.05190998
-0.063513 0.0025930088 -0.037789516 -0.0796371 0.02224404 0.03811529 -0.050966058 -0.025761139
0.036260605 -0.082481906 -0.015544924 0.062476225 -0.06289753 0.004666412 0.022325981 -0.08302671
0.05666215 -0.05401552 -0.06135999 -0.011448424 -0.02725046 -0.053411614 0.04104416 0.036338147
-0.032094818 0.057695806 -0.046759352 -0.057445914 0.029922266 -0.0035596753 -0.08639606 -0.045839448
-0.0403167 0.060804717 0.029991748 0.051233508 -0.003912285 -0.064568676 -0.043429494 0.059542112
-0.013080237 -0.04173428 0.10745739 -0.021357128 -0.038303982 0.08354764 -0.017843952 0.042220373
0.054986164 0.0016338741 0.0139028 -0.03840272 -0.035434924 -0.031126061 -0.04964649 0.011743573
0.013230942 -0.096937686 0.04317262 -0.036848288 -0.09124677 -0.018910741 -0.057446785 -0.09936104
0.027052132 0.026207631 0.06344905 -0.020651653 -0.061911665 0.16330573 0.057265505 0.021657716
0.0017721419 0.034931876 0.054960523 -0.03494978 -0.010856186 0.022922263 -0.10668686 -0.021888662
-0.061482526 -0.20099483 0.0035864625 -0.0035526252 -0.06529336 0.0022665497 -0.017052276 -0.09568463
-0.06089063 0.027510593 -0.020559378 -0.0010048458 -0.059193447 -0.01965378 0.05394003 -0.043832306
-0.08585917 0.0055699036 -0.03776853 -0.093882464 0.02899254 -0.054344207 -0.008608829 -0.03516522
0.04980504 0.08083506 0.030712364 -0.044846617 0.11828789 0.0059007998 -0.03673158 -0.07349125
-0.046892136 -0.003056972 0.030481394 -0.029771736 0.055979557 0.044311512 -0.011588715 0.020687772
-0.014276341 -0.015392127 -0.043449674 0.026371855 0.039755393 0.022676283 0.063964546 0.066163376
0.062359657 -0.13079688 0.015101045 -0.005670452 -0.027619477 -0.012843906 0.018484468 -0.06854568
0.030269472 0.06362608 0.040670566 -0.0526784 -0.055052333 -0.004417309 -0.0010017826 0.007386259
0.0043597 0.049883913 -0.012014855 0.111310676 -0.03519711 0.06513668 0.116270885 -0.009184685
0.043534577 0.14161873 0.011357721 -0.019550318 0.0073661627 0.004734828 -0.038693175 -0.02694094
0.014461927 -0.039226722 -0.038474217 -0.021982595 -0.055098075 -0.07831857 -0.052560985 0.015326869
0.010496891 0.06020846 0.0649354 -0.005184141 0.03239146 -0.011294032 0.032735243 -0.025319684
-0.017996354 -0.034454633 -0.044395246 -0.051041152 -0.027206004 0.053524982 -0.03299171 -0.07071324
-0.015131528 0.060010538 0.030843537 -0.0041862247 -0.018931624 0.08229015 -0.06363755 0.037526906
00000000: 6092 973b 86e0 7dbc f5c0 ac3c 213c aa3c
00000010: 35c1 14bd 12a0 22bc 07ea 1ebd acb7 83bc
00000020: bf23 92bc b592 3e3d a7f6 9a3b 0512 dd3b
00000030: b44a e7bc c9a9 afbd 3652 eebb c9ae 98bc
00000040: 3f21 fcbb a8a1 67bd dcf1 7e3d c0fc a9bd
00000050: d4b8 4f3d d26c 3cbc 57c5 973c b06b d33c
00000060: b0ae 353b 9797 123d 1500 4e3d c786 8b3c
00000070: 6f3f e53d bed6 51bd f11b 413d b261 ec3d
00000080: 4f6c 893c 42e5 153c 072a e23d 5823 793d
00000090: 4d71 71bc fd8a 32bc 777f 88bc c554 25bd
000000a0: f739 6c3d d611 06bd 01c6 10bd 9106 f63d
000000b0: 3a3a 783d 0998 f93b 8ba4 593d 7b10 0cbc
000000c0: 2d81 003d 6744 bb39 6db0 5dbd 22b0 583d
000000d0: 2f6a 063e 81f5 80bb 1257 56bd 761b 0b3d
000000e0: 1265 fcbc 2c81 05b9 d993 db3d e029 f03c
000000f0: 767a febb 07e6 633d 46a4 933c 8f9f 54bd
00000100: 1b13 82bd 78ef 293b 2ec9 1abd c718 a3bd
00000110: 2239 b63c c71e 1c3d c9c1 50bd 0609 d3bc
00000120: 0086 143d 46ec a8bd 23b0 7ebc 12e7 7f3d
00000130: 6cd0 80bd b3e8 983b fae4 b63c e809 aabd
00000140: 9216 683d 613f 5dbd 9d54 7bbd 2c92 3bbc
00000150: 5b3c dfbc 23c6 5abd ec1d 283d 4fd7 143d
00000160: db75 03bd 7052 6c3d bc86 3fbd 684c 6bbd
00000170: 8a1f f53c 7149 69bb 6bf0 b0bd 25c2 3bbd
00000180: 2023 25bd 5e0e 793d 41b1 f53c 3ada 513d
00000190: a032 80bb 953c 84bd 20e3 31bd 6ee2 733d
000001a0: 7e4e 56bc 90f1 2abd 9f12 dc3d 25f5 aebc
000001b0: a3e4 1cbd 061b ab3d 7b2d 92bc 45ef 2c3d
000001c0: 2c39 613d b827 d63a 92c8 633c 2c4c 1dbd
000001d0: 3624 11bd 15fc febc 1e5a 4bbd 1d68 403c
000001e0: 98c6 583c 4487 c6bd c6d5 303d 3bee 16bd
000001f0: 96df babd b3ea 9abc 524d 6bbd cd7d cbbd
00000200: 6f9c dd3c 63b1 d63c 93f1 813d a82d a9bc
00000210: 1697 7dbd 9e39 273e 3c8f 6a3d 866b b13c
00000220: 3747 e83a ba14 0f3d 491e 613d 8027 0fbd
00000230: 25de 31bc 78c7 bb3c a47e dabd da4f b3bc
00000240: 1ad5 7bbd 97d1 4dbe db0a 6b3b 29d3 68bb
00000250: 86b8 85bd 658a 143b 37b1 8bbc 4ef6 c3bd
00000260: 7468 79bd e55d e13c 246c a8bc 08b5 83ba
00000270: d474 72bd f700 a1bc 39f0 5c3d 8189 33bd
00000280: efd6 afbd bd83 b63b 2db3 1abd 7345 c0bd
00000290: c381 ed3c 0898 5ebd 0c0c 0dbc 6809 10bd
000002a0: 5f00 4c3d da8c a53d 7f98 fb3c 16b1 37bd
000002b0: ec40 f23d 7f5b c13b da73 16bd 9582 96bd
000002c0: f811 40bd 7b57 48bb 1eb4 f93c dbe3 f3bc
000002d0: d24a 653d fd7f 353d 98de 3dbc 6779 a93c
000002e0: 50e7 69bc 432f 7cbc 49f8 31bd ca09 d83c
000002f0: 8dd6 223d 9dc3 b93c d8ff 823d aa80 873d
00000300: d76c 7f3d 9eef 05be 606a 773c 33cf b9bb
00000310: 3e42 e2bc 3f6f 52bc bd6c 973c ad61 8cbd
00000320: aff7 f73c 644e 823d 2e96 263d 4ec5 57bd
00000330: 8e7e 61bd 13bf 90bb 3f4e 83ba 6e08 f23b
00000340: d0db 8e3b 1353 4c3d f4d9 44bc daf6 e33d
00000350: d82a 10bd 6166 853d 6e1f ee3d 5c7b 16bc
00000360: 5051 323d 8004 113e bc15 3a3c fd27 a0bc
00000370: da5f f13b 9e26 9b3b bc7c 1ebd 3fb3 dcbc
00000380: b8f1 6c3c 33ac 20bd 2497 1dbd d814 b4bc
00000390: 85ae 61bd 7d65 a0bd 304a 57bd 8c1d 7b3c
000003a0: 27fb 2b3c 259d 763d dafc 843d badf a9bb
000003b0: e8ac 043d 9b0a 39bc 6415 063d 3a6b cfbc
000003c0: 176d 93bc 4d20 0dbd cad7 35bd 8710 51bd
000003d0: 20df debc 033d 5b3d 5122 07bd 1ad2 90bd
000003e0: 3aea 77bc 9ccd 753d 96ab fc3c 992c 89bb
000003f0: 7e16 9bbc bd87 a83d 6754 82bd d0b5 193d

conv1d_1.bias f4 [120]
0.0026285043 -0.04613467 -0.041455947 0.16164401 0.18831576 0.18098964 -0.110820666 0.19242999
-0.05796424 0.06569798 0.19359474 0.06960624 -0.025249742 -0.007617384 0.13470119 0.15737256
0.15614177 -0.09639951 -0.187634 -0.025484106 -0.018851448 0.1312594 0.11688483 -0.053724222
0.18826467 -0.03928957 -0.30935937 -0.15217209 0.09253024 0.045205902 -0.41870734 -0.29931644
0.18699642 -0.15629704 -0.21939713 0.3161775 0.020527128 -0.19041999 -0.15049283 0.20353045
0.10586668 0.16440961 -0.27153006 -0.27437964 0.0486549 -0.066154115 -0.023612536 0.12052541
0.28909466 -0.2747404 0.17603989 0.06949922 0.3445502 -0.27648553 0.20697396 -0.14259233
-0.057401065 0.027669178 0.2638362 0.049570873 0.1515052 0.19519195 -0.23681752 0.33868784
-0.21956863 0.09406327 -0.24045528 0.11408454 0.032517795 0.34027433 0.1555622 -0.02724062
-0.21829575 -0.17702533 0.37284335 -0.12799321 -0.27092788 0.29526797 0.006998863 -0.21851753
-0.1984124 0.11919972 0.049357716 -0.19002432 0.036912292 0.22011243 -0.09737879 0.26233098
0.13125233 0.18947369 -0.11106145 -0.20820802 0.11126174 0.20964138 -0.20622829 -0.1403702
0.23476118 0.11135738 0.18129502 0.2425492 -0.21193498 0.21310602 0.12980984 0.037763774
-0.12265392 -0.2401085 -0.27251405 -0.19389057 0.167901 -0.26705337 -0.26669633 0.0006040795
-0.034405585 0.1342237 -0.25221327 -0.065732226 0.14076349 0.2694874 -0.12160493 0.024688005
00000000: fc42 2c3b b5f7 3cbd b6cd 29bd 0286 253e
00000010: d9d5 403e 5955 393e f2f5 e2bd 5e0c 453e
00000020: e96b 6dbd aa8c 863d b33d 463e b78d 8e3d
00000030: 8cd8 cebc 409b f9bb 1cef 093e 4626 213e
00000040: a1e3 1f3e 1b6d c5bd 2123 40be 0bc4 d0bc
00000050: 5a6e 9abc dd68 063e 5061 ef3d ee0d 5cbd
00000060: 74c8 403e 1aee 20bd 5a64 9ebe 00d3 1bbe
00000070: 7f80 bd3d d329 393d cf60 d6be 0140 99be
00000080: fd7b 3f3e 550c 20be a4a9 60be 04e2 a13e
00000090: 8228 a83c 75fd 42be cb1a 1abe 496a 503e
000000a0: a1d0 d83d fe5a 283e fd05 8bbe 7d7b 8cbe
000000b0: 5c4a 473d cf7b 87bd 146f c1bc 07d6 f63d
000000c0: 3704 943e c6aa 8cbe cd43 343e 9b55 8e3d
000000d0: e268 b03e 838f 8dbe fbf0 533e b903 12be
000000e0: 611d 6bbd 79aa e23c 8a15 873e d40a 4b3d
000000f0: 2e24 1b3e 66e0 473e 4b80 72be 7e68 ad3e
00000100: 99d6 60be 3ea4 c03d e939 76be 28a5 e93d
00000110: 6131 053d 7038 ae3e b34b 1f3e b927 dfbc
00000120: ec88 5fbe 2146 35be 53e5 be3e a710 03be
00000130: 0fb7 8abe 5d2d 973e b856 e53b 0fc3 5fbe
00000140: 9f2c 4bbe fc1e f43d 512b 4a3d bc95 42be
00000150: 5831 173d 2765 613e 886e c7bd 3f50 863e
00000160: 0367 063e 6405 423e 2f74 e3bd 7c34 55be
00000170: 32dd e33d 3bac 563e 822d 53be 35bd 0fbe
00000180: 3c65 703e 570f e43d 67a5 393e d15e 783e
00000190: 7c05 59be 7738 5a3e dfec 043e 30ae 1a3d
000001a0: fa31 fbbd 01df 75be f686 8bbe 408b 46be
000001b0: 3dee 2b3e 38bb 88be 6c8c 88be 175b 1e3a
000001c0: dfec 0cbd f071 093e 1922 81be 9e9e 86bd
000001d0: 4e24 103e 41fa 893e 010c f9bd 803e ca3c

conv1d_2.weight f4 [96, 120, 5]
0.025919996 -0.023936499 0.027923504 -0.040180314 0.027365634 -0.006757801 0.03177285 -0.017150633
-0.034350388 -0.01708044 0.03050538 0.010855902 0.012616978 0.034392968 0.040349163 -0.03737381
-0.007788675 -0.024568697 -0.034720525 -0.020196076 -0.02934473 -0.010940057 -0.013088605 0.024780395
0.00984397 -0.008079781 0.008176643 0.02962568 -0.025187368 0.029152354 0.02317911 0.024788367
0.038370192 -0.030175189 -0.019766508 -0.0361896 -0.030645434 0.004096365 -0.0063761496 -0.029433748
0.0069050333 0.008259328 0.037731066 -0.010486894 -0.015834467 0.034509458 0.0015512457 -0.037289694
-0.033496957 -0.016914416 0.00993577 0.00017950333 0.049655374 -0.014403098 -0.0063337944 0.010662164
-0.0058461903 0.0088792285 -0.027243396 -0.023987794 0.024749232 -0.00083578256 -0.0050834706 0.01426628
-0.0018654398 0.005782023 -0.011582428 -0.016802603 0.01534952 0.0031641184 0.012543644 0.021806043
-0.0002686279 -0.0184424 0.017834324 -0.026278628 -0.007123159 -0.045410722 -0.013796678 0.022573847
-0.001452734 0.0057692383 -0.04112324 0.009472986 -0.02768371 -0.011646702 -0.004608954 -0.020613592
0.0051718946 0.0006247917 -0.027244974 -0.0063964874 -0.0010474948 0.009015643 -0.02787361 -0.024873164
0.013495848 0.04460603 0.024871139 -0.009418411 0.0029669781 -0.0022786031 -0.007905284 -0.025559627
-0.03624888 0.014502252 -0.03152157 0.009587862 0.03718685 0.027009893 0.0033752017 0.03172535
-0.029073419 0.03972909 -0.0034567725 -0.016008165 -0.02955813 0.05313151 -0.018234806 0.02939128
0.027420735 0.0012254203 -0.02919976 -0.021935683 -0.015392454 -0.008926402 -0.022305688 -0.031775158
-0.025798464 -0.021825213 0.006210969 -0.015243285 -0.017751789 -0.031170186 0.011307892 -0.029690782
-0.011222228 -0.02574433 0.02565805 -0.014578927 -0.022883696 0.024252348 -0.016100656 0.034564596
-0.019561362 0.018208243 -0.014711394 0.040885005 -0.027681522 0.009060932 0.019294485 -0.010919102
-0.031383656 0.0113955755 -0.0300158 0.0016483947 -0.008553121 -0.040125314 0.0018535651 -0.013772136
0.023150187 0.0006111893 0.018498423 0.0398274 0.018628445 -0.019076254 0.025731713 -0.0040580966
-0.011901074 -0.032204904 0.017506927 0.035969168 0.021534016 -0.029831683 0.032581385 -0.027337179
-0.02160225 -0.035225365 -0.023748202 0.0018128697 0.0033548493 -0.024194902 0.0024526464 -0.021665849
-0.024180701 -0.015306786 -0.028128197 -0.03686285 0.0065709148 0.0017820782 -0.031218117 0.03738015
-0.0064003943 -0.032431226 -0.011148692 -0.03991686 -0.008215241 -0.043697618 -0.0178157 0.032550115
0.01319676 0.024769586 -0.037521027 0.0071463194 -0.01093503 -0.020624716 0.025351258 -0.007726024
-0.0074442294 0.0031550615 -0.00051523256 -0.022902466 -0.060134668 -0.03398229 -0.017607853 0.004892989
-0.01900695 0.05346629 -0.018397339 0.03966142 -0.029619226 -0.023989128 0.012887507 -0.0017083233
-0.0047646784 -0.02016964 0.03233631 -0.0048581753 0.01694093 0.020467121 -0.0037209613 -0.01872661
-0.005489863 -0.026140029 0.02718872 -0.038242176 0.007467536 0.001390792 -0.034745928 -0.011364686
0.006770581 -0.034566846 -0.009892773 0.024534134 0.03746089 0.010792008 -0.0012560609 0.012408869
-0.01255677 0.0147515 -0.03626096 -0.0026840332 -0.019653749 -0.03581658 -0.0004968267 0.014978322
00000000: 2c56 d43c 7a16 c4bc d5bf e43c 1d94 24bd
00000010: e52d e03c 8b70 ddbb 3f24 023d 7c7f 8cbc
00000020: feb2 0cbd 47ec 8bbc 6be6 f93c f4dc 313c
00000030: 71b7 4e3c a4df 0c3d 2a45 253d 4815 19bd
00000040: 2438 ffbb 4b44 c9bc 1c37 0ebd 3e72 a5bc
00000050: 5c64 f0bc ed3d 33bc 9771 56bc 4100 cb3c
00000060: 9a48 213c 0f61 04bc 54f7 053c 8eb1 f23c
00000070: bd55 cebc ebd0 ee3c 1ee2 bd3c f910 cb3c
00000080: 102a 1d3d f531 f7bc 5fed a1bc 8c3b 14bd
00000090: 220c fbbc cd3a 863b 05ef d0bb 0b1f f1bc
000000a0: 9e43 e23b 2252 073c e48b 1a3d 39d1 2bbc
000000b0: 49b7 81bc ca59 0d3d 2b53 cb3a 14bd 18bd
000000c0: 1b34 09bd 1a90 8abc a4c9 223c 0f39 3c39
000000d0: 6f63 4b3d f9fa 6bbc b88b cfbb 5bb0 2e3c
000000e0: 6691 bfbb 2f7a 113c 8b2d dfbc 0d82 c4bc
000000f0: e7be ca3c 6b18 5bba 3e93 a6bb 1ebd 693c
00000100: c681 f4ba 2077 bd3b 39c4 3dbc 9da5 89bc
00000110: 8e7c 7b3c 195d 4f3b db83 4d3c 96a2 b23c
00000120: a0d6 8cb9 8414 97bc 4a19 923c 4746 d7bc
00000130: 6369 e9bb 9800 3abd 760b 62bc caec b83c
00000140: aa69 beba e10b bd3b d870 28bd 9534 1b3c
00000150: f3c8 e2bc cfd1 3ebc b506 97bb d6dd a8bc
00000160: ff78 a93b 10c9 233a da30 dfbc a099 d1bb
00000170: 184c 89ba 59b6 133c 3257 e4bc cec2 cbbc
00000180: b01d 5d3c d0b4 363d 8fbe cb3c ae4f 1abc
00000190: a271 423b 9e54 15bb 2a85 01bc 6c62 d1bc
000001a0: b579 14bd db9a 6d3c c31c 01bd 6816 1d3c
000001b0: 3d51 183d da43 dd3c 7d32 5d3b 71f2 013d
000001c0: 612b eebc f8ba 223d 058b 62bb 8e23 83bc
000001d0: e423 f2bc 6da0 593d 2961 95bc fbc5 f03c
000001e0: 73a1 e03c 489e a03a 5634 efbc 76b2 b3bc
000001f0: a230 7cbc 0b40 12bc 6bba b6bc ab26 02bd
00000200: 4d57 d3bc caca b2bc 6285 cb3b f9be 79bc
00000210: 336c 91bc 9e58 ffbc bd44 393c 153a f3bc
00000220: 70dd 37bc c6e5 d2bc d530 d23c 74dc 6ebc
00000230: 9776 bbbc dcac c63c 86e5 83bc 9b93 0d3d
00000240: 263f a0bc 7429 953c 0f08 71bc 0977 273d
00000250: 5cc4 e2bc 4e74 143c 780f 9e3c 08e6 32bc
00000260: 268c 00bd 82b4 3a3c b2e3 f5bc f30e d83a
00000270: 6422 0cbc 715a 24bd 53f3 f23a 86a4 61bc
00000280: 76a5 bd3c 3838 203a 018a 973c 0e22 233d
00000290: ae9a 983c ce45 9cbc 50cb d23c c8f9 84bb
000002a0: b9fc 42bc 4ae9 03bd b06a 8f3c 6854 133d
000002b0: 1b68 b03c 9361 f4bc 0f74 053d 38f2 dfbc
000002c0: 34f7 b0bc 7948 10bd 978b c2bc d09d ed3a
000002d0: 08dd 5b3b 6334 c6bc 94bc 203b 947c b1bc
000002e0: 9b16 c6bc 50c9 7abc 1b6d e6bc 80fd 16bd
000002f0: d450 d73b 9f94 e93a 23bd ffbc ee1b 193d
00000300: 66ba d1bb 9bd6 04bd 01a9 36bc dd7f 23bd
00000310: 3899 06bc 46fc 32bd 3bf2 91bc 4553 053d
00000320: 3937 583c 96e9 ca3c a6af 19bd ac2b ea3b
00000330: d728 33bc 2af5 a8bc 71ad cf3c 962a fdbb
00000340: b9ee f3bb 26c5 4e3b ac10 07ba f49d bbbc
00000350: c54f 76bd 0431 0bbd 583e 90bc 5e55 a03b
00000360: 77b4 9bbc 78ff 5a3d 04b6 96bc 0374 223d
00000370: 05a4 f2bc d984 c4bc 1f26 533c d1e9 dfba
00000380: 0521 9cbb cd3a a5bc 1473 043d 5431 9fbb
00000390: b5c7 8a3c aaaa a73c 5fdb 73bb 8c68 99bc
000003a0: 4fe4 b3bb 9d23 d6bc e1ba de3c d4a3 1cbd
000003b0: 3bb2 f43b 3c4b b63a bf51 0ebd f332 3abc
000003c0: c0db dd3b f795 0dbd 4c15 22bc cffb c83c
000003d0: 9770 193d f6d0 303c 69a2 a4ba 924e 4b3c
000003e0: e9ba 4dbc 47b0 713c 5f86 14bd 9be6 2fbb
000003f0: e600 a1bc 68b4 12bd 7a3d 02ba a367 753c

conv1d_2.bias f4 [96]
0.012913917 -0.062306195 0.045776457 -0.1412936 0.0064638136 0.09211328 -0.039336644 -0.018208714
-0.0053651533 0.03003192 -0.021775883 -0.055258542 0.005158801 0.074595116 0.0020642239 0.021990122
0.05742459 0.02967407 -0.038878277 -0.06000543 -0.01617346 0.041773133 0.025247216 0.004970645
0.01834491 0.023885574 0.032003917 -0.037733402 0.043440394 -0.06369124 -0.0074919784 0.19563502
-0.1286054 0.020446815 -0.015456716 -0.017522374 0.074580446 -0.0026589525 -0.055264313 0.025799375
0.03881031 0.010504596 -0.025537318 -0.07870712 0.03178036 0.0073658903 -0.029463561 0.035737574
0.08241395 -0.005054269 0.08947924 -0.045810025 -0.043909892 -0.024056144 -0.030798402 0.03884559
-0.0005260695 0.025240256 -0.045886215 0.18251385 0.0086952755 0.0054339557 -0.09065229 0.03345153
-0.09072675 0.035436716 -0.027838878 -0.014555437 -0.031994626 0.28116176 0.11555646 0.010324828
0.020051328 -0.0048960987 -0.0009724436 -0.005958021 0.03516599 -0.03433802 0.012949307 0.10604391
0.043541823 0.017334055 0.013413249 -0.033066757 -0.0056186207 -0.077446826 0.006654671 0.048901368
0.0058822627 -0.021800496 0.060013335 0.021777289 -0.022119727 0.040528808 -0.059081975 -0.060606092
00000000: e594 533c c834 7fbd 1880 3b3d 45af 10be
00000010: 66ce d33b e3a5 bc3d 761f 21bd 712a 95bc
00000020: 2bce afbb 8005 f63c 5663 b2bc c856 62bd
00000030: 290b a93b 53c5 983d ee47 073b a124 b43c
00000040: 0c36 6b3d 0917 f33c d43e 1fbd 41c8 75bd
00000050: 347e 84bc 4e1a 2b3d 40d3 ce3c cbe0 a23b
00000060: 1148 963c aeab c33c 8a16 033d 578e 1abd
00000070: 8eee 313d 8e70 82bd 457f f5bb 8c54 483e
00000080: 22b1 03be 1480 a73c 2a3e 7dbc 158b 8fbc
00000090: a2bd 983d d241 2ebb d55c 62bd 3659 d33c
000000a0: 8ff7 1e3d 781b 2c3c a333 d1bc 3331 a1bd
000000b0: 1f2c 023d 915d f13b 915d f1bc 9061 123d
000000c0: a5c8 a83d 489e a5bb e440 b73d 4ba3 3bbd
000000d0: dcda 33bd 6411 c5bc ee4c fcbc 8e1c 1f3d
000000e0: ede7 09ba a7c4 ce3c 2ff3 3bbd e9e4 3a3e
000000f0: a176 0e3c 530f b23b e8a7 b9bd 7904 093d
00000100: f2ce b9bd 1726 113d 5c0e e4bc ed79 6ebc
00000110: cc0c 03bd 6ff4 8f3e dea8 ec3d 7829 293c
00000120: af42 a43c 746f a0bb 96eb 7eba 813b c3bb
00000130: 370a 103d 06a6 0cbd 5529 543c 8d2d d93d
00000140: e958 323d 2600 8e3c 3ec3 5b3c 0271 07bd
00000150: 681c b8bb 719c 9ebd 6d0f da3b cd4c 483d
00000160: ffbf c03b f496 b2bc 8bd0 753d 4966 b23c
00000170: 6e34 b5bc 8901 263d f1ff 71bd 183e 78bd

features.0.weight f4 [24, 96]
-0.008450248 0.0029967318 -0.028247647 -0.100738116 -0.027848 0.015185086 -0.0051352116 -0.0017350581
-0.036899175 -0.00327131 -0.0021867072 0.096519195 -0.0059464863 0.002400032 -0.0015875858 -0.0022199848
0.0018857527 -0.00030518929 0.0021455148 0.04594359 -0.0032028176 0.033227757 -0.0067832265 0.070547365
0.014533898 -0.00291197 -0.011732986 -0.0030761487 -0.05836435 0.015697131 -0.0060524447 0.0944745
-0.003436388 0.008883309 0.0007781001 0.01590614 0.06970199 -0.0016264901 0.022086235 -0.08605161
-0.0014830101 -0.0011427614 0.004604527 0.0057666786 -0.06463965 0.004779154 0.07583466 0.020528115
-0.0006120004 -0.07310808 -0.05162885 0.038916275 -0.0003203667 0.06738912 -0.023769056 -0.03852371
-0.0024602145 -0.0025034712 0.001354665 -0.025696998 -0.004131643 0.0021869892 -0.00285609 0.024397442
-0.07810546 0.0077144695 0.11467279 0.0112040965 -0.017569102 0.009087131 0.015508433 0.013168326
0.010619393 -0.007429727 0.012632976 0.0022934817 -0.006039281 0.0012833553 0.0009771191 -0.0032287757
0.0029310454 0.018887345 0.08988666 0.014848376 0.020545596 0.025597747 -0.005859896 -0.004078754
0.008237667 0.06914002 -0.068324044 -0.047432568 0.004245879 -0.018765569 0.04483456 -0.012993322
-0.004242857 -0.00018560814 0.049574025 -0.095490314 0.02455826 0.027445888 -0.00047108048 -0.0049694693
-0.080038935 -0.004212236 0.012424659 0.12049871 -0.002067271 -0.012074926 0.013959678 -0.0037907208
-0.0016312791 -0.0039204713 -0.003252336 -0.014186915 -0.008831244 0.059034757 0.011771973 0.045560375
-0.036542416 0.010705738 -0.0058996542 -0.018330397 -0.13120762 -0.005309776 -0.00089099206 0.08104186
0.02681674 0.029696552 -0.0010523538 0.019370446 0.09350607 -0.014326944 -0.012116264 -0.086387485
0.0067286664 0.007312931 0.0038423995 -0.019735184 -0.023810469 -0.008339011 -0.014015731 -0.018212993
-0.0007005331 -0.023711288 -0.06558648 0.03356838 -0.002733795 -0.0004502054 -0.027633237 0.03472508
0.024823433 -0.010493263 -0.0024986677 0.09552488 0.006667765 0.0025021143 0.01143135 0.05065484
-0.11408303 -0.0030909316 0.040442355 -0.012052627 -0.0075893765 0.011109194 -0.015063353 -0.01048706
-0.008289902 0.06646304 -0.028071173 0.0032937403 0.013009286 0.0019383312 0.02756455 -0.009152688
0.012933296 0.04096907 0.008485324 -0.07847184 -0.017221412 0.052420966 0.0042951494 0.005594848
0.022107843 -0.065328576 -0.087537766 -0.041361455 0.024718331 -0.013509305 0.009038793 -0.005772766
0.010770348 -0.044351753 0.04535838 -0.08242591 0.020677624 -0.023285355 0.0053403038 0.0009928126
-0.040865537 -0.0023407652 -0.014354844 0.08158151 0.014027725 0.014647827 -0.011858018 -0.008114944
-0.010867631 -0.0027708134 0.0056491983 -0.030025762 0.0097338 0.019897114 -0.008389942 0.08928742
0.024773657 -0.0024943524 0.018850168 0.02757712 -0.15192108 -0.037442908 -0.073645376 0.09760572
-0.013215621 -0.019990588 0.0018869897 -0.03500964 0.0051931813 0.020935128 -0.03315203 -0.10995558
0.00030445252 -0.007789773 -0.0033043225 0.024445636 0.057151273 0.017873943 -0.034313727 0.034844495
0.0005312526 -0.054178946 0.08731089 0.0013697033 -0.0058944616 0.05560051 0.056230485 -0.009842216
0.00221176 0.0046437457 0.015226205 -0.010951926 0.015866045 0.0048070597 -0.01580543 0.08977279
00000000: e972 0abc d164 443b 9c67 e7bc c94f cebd
00000010: 7d21 e4bc deca 783c 4745 a8bb e46a e3ba
00000020: 9723 17bd 7963 56bb dc4e 0fbb dbab c53d
00000030: beda c2bb db49 1d3b 8a16 d0ba 2a7d 11bb
00000040: 5c2b f73a d001 a0b9 c49b 0c3b 592f 3c3d
00000050: 5de6 51bb d419 083d d445 debb 237b 903d
00000060: 961f 6e3c c0d6 3ebb b63b 40bc 3699 49bb
00000070: 750f 6fbd 4597 803c 9653 c6bb d97b c13d
00000080: 0635 61bb 4c8b 113c 6af9 4b3a 984d 823c
00000090: ebbf 8e3d f42f d5ba 31ee b43c d43b b0bd
000000a0: 9061 c2ba b6c8 95ba 92e1 963b 68f6 bc3b
000000b0: cb61 84bd 739a 9c3b 344f 9b3d 942a a83c
000000c0: a76e 20ba b0b9 95bd c678 53bd ac66 1f3d
000000d0: e4f6 a7b9 4f03 8a3d 53b7 c2bc 0acb 1dbd
000000e0: 8d3b 21bb 4711 24bb 048f b13a 8382 d2bc
000000f0: bc62 87bb 9753 0f3b 3d2d 3bbb 25dd c73c
00000100: c1f5 9fbd a9c9 fc3b 91d9 ea3d 6391 373c
00000110: 14ed 8fbc 31e2 143c 1517 7e3c f6bf 573c
00000120: f6fc 2d3c 1175 f3bb 8bfa 4e3c 3d4e 163b
00000130: 29e5 c5bb 4236 a83a ad12 803a de99 53bb
00000140: c816 403b a2b9 9a3c 7f16 b83d 9a46 733c
00000150: 3d4f a83c 5eb2 d13c 5f04 c0bb 12a7 85bb
00000160: 48f7 063c 4899 8d3d 7aed 8bbd a748 42bd
00000170: 0421 8b3b 40ba 99bc 72a4 373d f1e1 54bc
00000180: aa07 8bbb ce9f 42b9 220e 4b3d 6d90 c3bd
00000190: 672e c93c 33d6 e03c 5afb f6b9 eed6 a2bb
000001a0: 74eb a3bd cc06 8abb cc90 4b3c 07c8 f63d
000001b0: 0d7b 07bb e9d5 45bc 22b7 643c be6d 78bb
000001c0: a5d0 d5ba 4c77 80bb 2525 55bb 3c70 68bc
000001d0: ecb0 10bc 6ece 713d 3cdf 403c 849d 3a3d
000001e0: 80ad 15bd 1f67 2f3c e351 c1bb a129 96bc
000001f0: 4a5b 06be a1fd adbb 7791 69ba 46f9 a53d
00000200: c8ae db3c 2f46 f33c 22ef 89ba c5ae 9e3c
00000210: 1c80 bf3d 8fbb 6abc 4b83 46bc eceb b0bd
00000220: 257c dc3b 50a1 ef3b c4d0 7b3b aeab a1bc
00000230: 2c0e c3bc 59a0 08bc 3da2 65bc 6a33 95bc
00000240: fba3 37ba 2d3e c2bc 3452 86bd ff7e 093d
00000250: 7829 33bb 8c09 ecb9 195f e2bc e33b 0e3d
00000260: 835a cb3c efeb 2bbc b0c0 23bb 8ca2 c33d
00000270: 447d da3b 83fa 233b 8f4a 3b3c 737b 4f3d
00000280: 5da4 e9bd 3a91 4abb e2a6 253d 6278 45bc
00000290: 4eb0 f8bb 5603 363c 48cc 76bc ebd1 2bbc
000002a0: 5ed2 07bc c61d 883d 84f5 e5bc cbdb 573b
000002b0: e624 553c 9a0f fe3a 0dcf e13c 28f5 15bc
000002c0: 2de6 533c 2fcf 273d 0706 0b3c d8b5 a0bd
000002d0: eb13 8dbc 5eb7 563d 53be 8c3b fd54 b73b
000002e0: 821b b53c fdca 85bd 0047 b3bd a16a 29bd
000002f0: 197e ca3c 2256 5dbc 7217 143c 7929 bdbb
00000300: 1d76 303c 2faa 35bd b5c9 393d eace a8bd
00000310: 1f64 a93c eec0 bebc b7fd ae3b 4321 823a
00000320: 9f62 27bd 8667 19bb 9430 6bbc 3514 a73d
00000330: 8bd4 653c 70fd 6f3c 2248 42bc 8bf4 04bc
00000340: 260e 32bc 8996 35bb e91c b93b 96f8 f5bc
00000350: 847a 1f3c 46ff a23c f875 09bc 53dc b63d
00000360: 20f2 ca3c 4a78 23bb ab6b 9a3c 6ae9 e13c
00000370: 3391 1bbe bc5d 19bd 63d3 96bd 82e5 c73d
00000380: 5586 58bc 4dc3 a3bc de54 f73a 4566 0fbd
00000390: 902b aa3b 2580 ab3c 6cca 07bd 6430 e1bd
000003a0: ed9e 9f39 5a41 ffbb 558d 58bb 3742 c83c
000003b0: 7417 6a3d 606c 923c 8d8c 0cbd 1ab9 0e3d
000003c0: c243 0b3a beea 5dbd 0dd0 b23d 9e87 b33a
000003d0: 5426 c1bb 5cbd 633d f051 663d 3f41 21bc
000003e0: 2df3 103b 902a 983b 5577 793c b56f 33bc
000003f0: 82f9 813c 8a84 9d3b 647a 81bc ccda b73d

features.0.bias f4 [24]
0.06506613 -0.019483434 -0.0023865101 -0.023845859 -0.105135374 -0.13141434 -0.09046126 -0.14483525
-0.098079026 -0.12253399 -0.11272381 -0.1426399 -0.11070803 -0.16133758 -0.16290598 -0.07530471
-0.12893037 -0.02829132 -0.026914787 -0.11062308 -0.13354097 -0.05483939 -0.009375489 -0.079412565
00000000: 6441 853d b99b 9fbc ff66 1cbb 6458 c3bc
00000010: 3751 d7bd 7b91 06be c143 b9bd b14f 14be
00000020: a8dd c8bd 1af3 fabd bedb e6bd 3210 12be
00000030: e4ba e2bd ae35 25be d3d0 26be 5b39 9abd
00000040: 5306 04be 33c3 e7bc 667c dcbc 5a8e e2bd
00000050: f7be 08be 459f 60bd a79b 19bc 0ea3 a2bd
