N/Treinamento/LSTM/LSTM_2_DENSO_2/conf_1/modelo_seed_32_loss_0.002982.pt (torch, 654009 bytes, 12 tensors)

lstm1.weight_ih_l0 f4 [416, 52]
0.07400839 -0.024007613 0.019865215 0.08906358 -0.040710874 0.041859593 0.042545162 -0.0890372
0.013812302 -0.03970078 0.07624284 -0.013293381 0.0697388 0.049814325 0.064040765 -0.059903767
0.10600687 -0.060004193 0.060580667 0.03662787 -0.0019232302 0.11044387 0.0035447292 -0.024410635
0.07159757 0.019399349 -0.038158976 -0.027180275 -0.014975476 0.06673632 -0.04631432 0.058786876
0.08798602 -0.025318842 0.05263065 -0.010151505 0.05200419 -0.018379517 -0.05408144 0.08583545
-0.058023743 0.012834525 0.030659107 -0.11582194 -0.13642819 0.020554336 -0.13154493 -0.12912044
-0.05792889 -0.06634599 0.14411907 -0.039229453 -0.019134054 -0.07133547 0.034050576 -0.07085249
-0.045047335 -0.061340347 0.00810201 -0.03129728 0.08522025 -0.012392897 0.0584267 -0.093730964
-0.008825453 -0.053860933 0.067101516 0.02574415 -0.022614151 -0.10292188 -0.11944197 -0.07521473
0.0052750474 -0.054663744 -0.031858765 -0.07648203 0.07920326 0.09841186 -0.043752562 0.006992064
0.009063934 0.022463957 -0.08437976 -0.077182956 -0.012878128 -0.066863 0.005730838 -0.058721565
-0.09466325 -0.012399866 -0.03290175 0.06094513 0.08050478 -0.08815725 -0.078090936 -0.0893355
-0.17022315 -0.14382078 0.027328769 -0.037542872 -0.19696319 0.12755853 -0.2216872 -0.014851455
-0.03687871 -0.017396616 0.09984525 0.038135692 0.03795571 -0.019891163 0.07372382 0.10681936
0.057326227 0.1114172 -0.059519358 -0.05656483 -0.035859667 0.005979771 0.06480769 0.068997614
0.09566307 -0.007376946 -0.0058836523 0.00768672 0.038437445 -0.039691456 0.08158927 -0.009512185
0.0021103737 0.070518285 0.04642019 0.033729028 -0.041758858 -0.07455677 0.03582563 0.09019086
0.055538643 0.011621661 0.083103105 -0.040065672 -0.045371756 -0.041910473 -0.04437518 0.0148383435
-0.06807723 0.08174079 -0.11860482 -0.09803027 0.015423618 -0.015674833 -0.044490222 -0.11554069
-0.35747656 0.5804097 0.026925324 -0.19240148 -0.07798131 -0.11304279 0.0043638637 0.009986972
-0.045388423 -0.08170513 0.0020003393 -0.07345098 -0.030655326 -0.044779953 -0.0011613852 -0.11828612
-0.14472562 -0.039497145 -0.10362884 -0.09983242 0.042306237 -0.04326131 0.024938578 -0.023562696
0.021373345 -0.011880997 0.0678637 -0.058839634 -0.07632402 -0.018187255 -0.0312566 0.044671442
-0.019590061 -0.0040680086 -0.08464893 -0.12255301 -0.008660679 -0.08700479 0.03262191 0.022602627
-0.15116243 -0.09613039 -0.09611792 0.075470425 -0.08820811 0.036012575 0.0039149444 -0.1060758
-0.1280752 -0.011484937 -0.090412386 -0.11009561 -0.13764131 -0.16250849 0.040720996 0.042081363
0.029509699 0.023085296 -0.029811759 0.044391613 0.08993732 -0.0017297096 -0.054386433 0.01876729
-0.087715134 0.062101517 0.016339386 -0.0037175564 -0.087307796 0.06879969 -0.10534726 0.0019672432
-0.01103738 -0.030421749 0.05980855 0.10320206 0.099345334 0.14576665 0.0031119678 -0.055703208
-0.06622654 -0.08692786 -0.07979086 -0.08568228 -0.1741119 -0.11864759 0.046024874 0.011139839
0.023261275 -0.057337 0.023175282 -0.02797749 -0.03232926 -0.07353869 -0.13711582 -0.06552812
-0.1602161 -0.11264319 -0.024854587 -0.06684012 -0.05120243 -0.02071525 0.0046373615 -0.102758035
00000000: b691 973d 9dab c4bc 60bc a23c f766 b63d
00000010: 72c0 26bd f774 2b3d d643 2e3d 2359 b6bd
00000020: fe4c 623c 499d 22bd 3525 9c3d 7bcc 59bc
00000030: 37d3 8e3d 1b0a 4c3d ce27 833d a75d 75bd
00000040: 211a d93d f5c6 75bd 6f23 783d 1b07 163d
00000050: e614 fcba 6530 e23d b04e 683b d0f8 c7bc
00000060: bfa1 923d 62eb 9e3c 964c 1cbd 2ba9 debc
00000070: b35b 75bc 0dad 883d 16b4 3dbd 82ca 703d
00000080: 0432 b43d 7669 cfbc 3d93 573d 7f52 26bc
00000090: 5802 553d a490 96bc 8084 5dbd 7fca af3d
000000a0: 4eaa 6dbd e647 523c cf28 fb3c 0e34 edbd
000000b0: d5b3 0bbe 9161 a83c b7b3 06be 2638 04be
000000c0: d846 6dbd 68e0 87bd f393 133e 10af 20bd
000000d0: 05bf 9cbc 5518 92bd 9e78 0b3d 1c1b 91bd
000000e0: 8e83 38bd 0440 7bbd 4bbe 043c 9431 00bd
000000f0: f487 ae3d 940b 4bbc d650 6f3d 05f6 bfbd
00000100: a298 10bc 489d 5cbd 856c 893d 65e5 d23c
00000110: 5041 b9bc b5c8 d2bd fe9d f4bd 2e0a 9abd
00000120: 4eda ac3b 17e7 5fbd 567e 02bd 9ca2 9cbd
00000130: 5235 a23d 288c c93d e335 33bd af1d e53b
00000140: e580 143c 5506 b83c 4ccf acbd 1912 9ebd
00000150: c9fe 52bc 78ef 88bd c1c9 bb3b 0686 70bd
00000160: cede c1bd cf28 4bbc fcc3 06bd 9aa1 793d
00000170: b1df a43d ca8b b4bd 24ee 9fbd 88f5 b6bd
00000180: fa4e 2ebe c145 13be 95e0 df3c 8ec6 19bd
00000190: b8b0 49be b49e 023e f801 63be 8453 73bc
000001a0: 210e 17bd 5983 8ebc ab7b cc3d 2c34 1c3d
000001b0: 7277 1b3d cbf2 a2bc 84fc 963d 1cc4 da3d
000001c0: e8ce 6a3d b32e e43d 92ca 73bd 86b0 67bd
000001d0: 96e1 12bd f4f1 c33b e5b9 843d 9f4e 8d3d
000001e0: 00eb c33d 4fba f1bb a7cb c0bb e2e0 fb3b
000001f0: 9570 1d3d 8293 22bd 4618 a73d ffd8 1bbc
00000200: 324e 0a3b e46b 903d 1923 3e3d 7327 0a3d
00000210: 560b 2bbd 38b1 98bd e5bd 123d fcb5 b83d
00000220: 7d7c 633d c768 3e3c f631 aa3d e71b 24bd
00000230: bcd7 39bd 51aa 2bbd c0c2 35bd 861c 733c
00000240: 136c 8bbd b767 a73d 15e7 f2bd 18c4 c8bd
00000250: 58b3 7c3c 8268 80bc 613b 36bd 99a0 ecbd
00000260: 2b07 b7be bb95 143f 7f92 dc3c e504 45be
00000270: aab4 9fbd fa82 e7bd befe 8e3b 66a0 233c
00000280: 36e9 39bd 0555 a7bd 2018 033b 786d 96bd
00000290: e120 fbbc 2f6b 37bd 9f39 98ba fe3f f2bd
000002a0: f432 14be c2c7 21bd 5b3b d4bd f174 ccbd
000002b0: 4e49 2d3d c532 31bd fd4b cc3c 8e06 c1bc
000002c0: 2717 af3c 83a8 42bc 20fc 8a3d d401 71bd
000002d0: c54f 9cbd 70fd 94bc ec06 00bd 67f9 363d
000002e0: 567b a0bc ee4c 85bb 6b5c adbd 13fd fabd
000002f0: 85e5 0dbc 912f b2bd 8d9e 053d 2529 b93c
00000300: 53ca 1abe 03e0 c4bd 79d9 c4bd 3d90 9a3d
00000310: 74a6 b4bd ec81 133d ef48 803b 453e d9bd
00000320: 2526 03be 512b 3cbc 212a b9bd cf79 e1bd
00000330: d8f1 0cbe a068 26be 0fcb 263d 825d 2c3d
00000340: 53be f13c 601d bd3c ca37 f4bc fbd3 353d
00000350: 0f31 b83d 6cb7 e2ba 4fc4 5ebd dcbd 993c
00000360: fea3 b3bd 295e 7e3d 2dda 853c 3fa2 73bb
00000370: 6ece b2bd dae6 8c3d 4ec0 d7bd ddec 003b
00000380: 21d6 34bc 0837 f9bc cff9 743d 9a5b d33d
00000390: 9175 cb3d da43 153e 28f2 4b3b 0c29 64bd
000003a0: c8a1 87bd 3c07 b2bd 6469 a3bd 317a afbd
000003b0: 644a 32be 82fd f2bd 9484 3c3d df83 363c
000003c0: 6e8e be3c 34da 6abd 17da bd3c 0d31 e5bc
000003d0: b06b 04bd 749b 96bd 1768 0cbe 9b33 86bd
000003e0: b00f 24be 79b1 e6bd d99b cbbc 79e3 88bd
000003f0: a4b9 51bd 07b3 a9bc 02f5 973b ce72 d2bd

lstm1.weight_hh_l0 f4 [416, 104]
-0.07159296 -0.033983637 -0.053064015 -0.053379923 0.004501063 -0.07148642 0.078569494 -0.016048282
-0.022244183 -0.08791962 0.031008897 0.0953391 -0.060809575 -0.049833804 0.00058352476 -0.003883475
-0.0054713674 -0.090411834 -0.0062368736 -0.032529037 -0.030937335 0.05636972 -0.034228247 0.08724547
0.052444603 -0.01951116 0.052238286 0.041201837 0.07483223 0.04888564 0.07482449 -0.01841026
-0.07547681 -0.07652078 0.0659395 -0.06637933 0.046380278 -0.026863262 -0.0051229056 -0.05044998
0.091251366 -0.018700637 -0.024822194 0.08532588 0.037325725 -0.07942415 -0.06326571 -0.026083134
0.06382073 -0.0885553 0.033634786 0.08201317 0.07201824 -0.06409451 -0.07247979 -0.048337463
0.028503232 -0.09259743 -0.05495732 0.07575047 0.0696091 -0.06341059 0.026686788 0.011538721
-0.07549848 0.001861963 -0.06999179 0.002555497 -0.066189274 0.007889806 0.008766431 0.01924367
0.050152797 0.03585474 -0.014650308 -0.013338975 0.0019405978 -0.055929936 -0.07235665 -0.034309607
-0.06383008 0.08035514 -0.016703019 -0.048429925 -0.0913062 -0.03558435 0.008068491 0.014629138
0.038624234 0.028414894 -0.09664864 0.022062903 0.092784576 0.00073596666 0.060599606 0.07210254
-0.055322707 -0.022162182 0.08597649 0.09704084 0.00083698676 -0.09358572 0.0040004044 -0.04219171
-0.03823929 -0.09467246 -0.010170917 0.006844198 0.07477093 -0.04483047 -0.06242054 -0.07363261
0.027782556 0.07932291 -0.03424132 -0.064297676 -0.078989096 0.021984046 0.001226502 0.07525434
-0.030836033 0.024161695 0.019760542 0.042871963 -0.0809823 0.0075409464 -0.012255084 -0.09735507
-0.054642368 0.05541158 -0.022780145 -0.07839036 -0.008603656 -0.012668843 -0.0044993446 0.034377895
0.0039748163 -0.05838521 -0.025414392 -0.052639537 0.023605114 0.07769936 0.069149725 0.09406262
0.054566212 -0.080768004 -0.05261326 0.045607187 0.09074972 0.04614159 -0.09318134 -0.010558375
0.046116192 -0.056801032 0.094586514 -0.0795983 -0.09377823 0.06882718 -0.0026325304 0.01861922
0.0626584 -0.05775171 0.0042926283 0.05499795 -0.0653086 -0.034512185 0.09730376 0.054486595
-0.00598769 -0.047925223 0.022341218 0.06882768 -0.047302015 0.029473046 -0.07468728 0.07646269
0.05653801 -0.021582386 -0.08303466 -0.07537477 -0.03515018 0.071043074 -0.022836627 0.026577305
0.083785325 -0.027666887 0.0958003 -0.08406529 -0.06622852 0.03179292 -0.019671187 0.06680478
-0.047110796 -0.06689831 -0.07238029 0.088431105 -0.048428394 0.054914266 0.0364745 0.056111567
-0.0039037094 0.08419252 -0.006873854 -0.009078644 0.051414788 0.09486526 -0.065723844 -0.051939376
0.095694385 -0.06811628 0.062106177 0.055366483 0.08755488 0.09433747 0.023966867 0.06249194
-0.050384913 -0.07791401 0.0024882944 -0.052764673 -0.033362985 -0.09479216 0.077518165 0.03441418
0.064610004 0.08460526 0.084132366 -0.065173715 0.050396886 -0.032278616 -0.076115094 0.04402592
0.03868912 -0.02661373 0.0137947 -0.045113612 0.07829456 0.05242313 0.08349151 0.045819093
-0.021502173 0.08838321 0.038228385 -0.015075207 0.033043325 0.070607506 -0.059875645 0.02689839
0.07472726 -0.085553095 -0.09479974 -0.011999682 -0.06275961 -0.021967905 -0.05371776 0.0015413219
00000000: 549f 92bd 6d32 0bbd a759 59bd e8a4 5abd
00000010: a77d 933b 7967 92bd 0be9 a03d b077 83bc
00000020: 6f39 b6bc 340f b4bd 5f06 fe3c 2541 c33d
00000030: 7613 79bd 881e 4cbd aff7 183a e681 7ebb
00000040: 2849 b3bb d729 b9bd b05e ccbb 2b3d 05bd
00000050: 4b70 fdbc efe3 663d eb32 0cbd c1ad b23d
00000060: 27d0 563d ded5 9fbc d0f7 553d 42c3 283d
00000070: a441 993d 4f3c 483d 953d 993d 1dd1 96bc
00000080: 9693 9abd edb6 9cbd 4a0b 873d e3f1 87bd
00000090: 3ff9 3d3d 5810 dcbc 0cde a7bb a3a4 4ebd
000000a0: ffe1 ba3d 1432 99bc ea57 cbbc 56bf ae3d
000000b0: dce2 183d 21a9 a2bd 7491 81bd 4cac d5bc
000000c0: 71b4 823d 7b5c b5bd a1c4 093d 85f6 a73d
000000d0: 4d7e 933d fc43 83bd 4970 94bd 81fd 45bd
000000e0: 9c7f e93c b9a3 bdbd ed1a 61bd 1023 9b3d
000000f0: 378f 8e3d 69dd 81bd 409e da3c e70c 3d3c
00000100: f29e 9abd 1c0d f43a db57 8fbd 207a 273b
00000110: 3e8e 87bd 3f44 013c 14a1 0f3c e7a4 9d3c
00000120: 056d 4d3d 6bdc 123d d807 70bc b78b 5abc
00000130: a85b fe3a ca16 65bd b92f 94bd 3b88 0cbd
00000140: 58b9 82bd 3c91 a43d c5d4 88bc 755e 46bd
00000150: bffe babd e5c0 11bd b431 043c 0daf 6f3c
00000160: 7234 1e3d 5ac6 e83c b9ef c5bd 43bd b43c
00000170: d705 be3d e3ed 403a 4b37 783d 7faa 933d
00000180: 109a 62bd 778d b5bc 7114 b03d 59bd c63d
00000190: 3b69 5b3a dfa9 bfbd d315 833b 37d1 2cbd
000001a0: cda0 1cbd a2e3 c1bd eba3 26bc 4b45 e03b
000001b0: 8021 993d 28a0 37bd aeac 7fbd b2cc 96bd
000001c0: 3e98 e33c 0d74 a23d a040 0cbd 80ae 83bd
000001d0: 09c5 a1bd e317 b43c 94c2 a03a f31e 9a3d
000001e0: d99b fcbc bfee c53c dce0 a13c 839a 2f3d
000001f0: 0cda a5bd 0b1a f73b 8cc9 48bc 1862 c7bd
00000200: add0 5fbd 41f7 623d 6d9d babc 208b a0bd
00000210: 59f6 0cbc fb90 4fbc 3d6f 93bb d6cf 0c3d
00000220: 2d3f 823b 5425 6fbd d831 d0bc 8e9c 57bd
00000230: 835f c13c d820 9f3d 5f9e 8d3d e7a3 c03d
00000240: d280 5f3d b269 a5bd 0081 57bd 9ace 3a3d
00000250: fdda b93d f7fe 3c3d dcd5 bebd 09fd 2cbc
00000260: 55e4 3c3d 33a8 68bd 93b6 c13d 6f04 a3bd
00000270: cd0e c0bd 44f5 8c3d 8886 2cbb 5687 983c
00000280: 0c53 803d 0f8d 6cbd 2da9 8c3b 8845 613d
00000290: 84c0 85bd a65c 0dbd 3247 c73d 562d 5f3d
000002a0: 6234 c4bb 3d4d 44bd ee04 b73c 87f5 8c3d
000002b0: c2bf 41bd 7571 f13c a5f5 98bd 7998 9c3d
000002c0: 6694 673d 8bcd b0bc 130e aabd 165e 9abd
000002d0: a3f9 0fbd 087f 913d e113 bbbc a6b8 d93c
000002e0: a497 ab3d aba5 e2bc f332 c43d 6c2a acbd
000002f0: d1a2 87bd 4b39 023d 7825 a1bc f2d0 883d
00000300: 40f7 40bd fb01 89bd 1e3c 94bd 5e1b b53d
00000310: da5c 46bd c8ed 603d 4966 153d 3ed5 653d
00000320: 60d5 7fbb 216d ac3d 113e e1bb 98be 14bc
00000330: 5098 523d b848 c23d 399a 86bd 62be 54bd
00000340: 6bfb c33d 8c80 8bbd 0c63 7e3d f7c7 623d
00000350: f94f b33d 0134 c13d 2a56 c43c 8cf7 7f3d
00000360: 6960 4ebd 6191 9fbd a712 233b c51f 58bd
00000370: a0a7 08bd 6422 c2bd d8c1 9e3d e2f5 0c3d
00000380: 4052 843d 8645 ad3d 974d ac3d cc79 85bd
00000390: f76c 4e3d 9536 04bd 3be2 9bbd 8654 343d
000003a0: 7c78 1e3d 0905 dabc 2a03 623c 0dc9 38bd
000003b0: e658 a03d a3b9 563d 99fd aa3d cdac 3b3d
000003c0: 5325 b0bc 4202 b53d 5e95 1c3d 00fe 76bc
000003d0: 7058 073d ab9a 903d 2a40 75bd 035a dc3c
000003e0: 9b0a 993d 7636 afbd 5e26 c2bd 509a 44bc
000003f0: 1c88 80bd 09f6 b3bc 2707 5cbd 2e06 ca3a

lstm1.bias_ih_l0 f4 [416]
-0.058076657 -0.15748441 -0.14286947 0.02718042 -0.0049595255 -0.1557515 -0.23052293 -0.10246528
-0.048734993 0.0093213 -0.060142167 -0.09095963 -0.11897594 -0.006950216 -0.012192318 0.0011006666
-0.04025688 0.037514217 -0.08858891 0.036728185 0.13545622 -0.11575753 -0.0016257435 -0.13801853
-0.06747198 -0.1361729 -0.0028149686 0.059683062 0.18497838 -0.2086131 -0.040994342 -0.20317645
-0.10064161 -0.33380255 -0.05348396 -0.28167972 -0.11587444 -0.08932313 -0.1401069 -0.0142300455
-0.044345256 -0.013345981 -0.03743051 -0.02732999 -0.04443146 -0.114887156 -0.010772578 -0.14838289
0.06174326 -0.15654579 -0.08653588 0.029532451 -0.0155777 0.05986635 -0.11943846 -0.13386768
-0.011422815 0.022492845 0.044437848 -0.11018935 -0.1500082 -0.10827081 0.1020752 -0.04071045
0.061024737 -0.1794706 -0.05342846 -0.047379047 0.07494766 0.11387966 -0.14505835 -0.027280683
0.07398647 0.05258949 -0.07050037 -0.1993928 -0.11883975 0.13340063 -0.1733149 0.06705987
0.12721024 -0.09242841 -0.049034704 0.027077502 -0.024780812 -0.09597806 -0.029237356 -0.110925116
-0.15764219 0.0460115 -0.0068560443 -0.070809215 -0.020988656 -0.19327253 -0.15559976 -0.2339009
0.027465746 0.054366525 -0.06311122 -0.068491116 -0.0066624167 0.027156735 -0.04321525 -0.15095885
-0.017648589 0.030931383 0.066714816 0.06003121 -0.0103351185 -0.088435166 -0.042755503 0.0056044515
0.0845472 0.06629542 -0.05339396 0.07719254 -0.09003245 0.056758426 0.0454628 -0.002599309
-0.024730947 -0.0152102895 0.09400187 0.037395336 -0.08927079 -0.0908272 -0.0058069243 -0.04336754
0.07845 -0.05201199 -0.03125261 -0.0093266945 -0.04607889 0.069319636 -0.042809416 0.09558477
0.091475025 -0.011898978 -0.015200178 0.05691689 0.045909602 -0.078977406 0.08955896 0.06459646
-0.088613346 0.074695475 -0.05186476 0.09024027 -0.013169233 0.02203348 -0.087578915 0.09588829
-0.036760226 -0.06123722 -0.060016774 -0.0195268 0.055962175 -0.077312574 -0.08644133 0.0337276
-0.014730076 0.024879286 0.021556659 -0.09209693 0.059821256 -0.052487165 0.008196981 -0.07467748
0.0197323 0.055779636 -0.01646162 0.013116876 -0.062232457 0.090812795 -0.0027156656 -0.028027378
0.056335807 -0.064286 -0.05980759 0.0842 0.065674216 0.0068614045 -0.020604962 -0.09733687
0.07499036 -0.07914416 0.06803081 -0.08700866 -0.065973155 0.083695404 -0.008251056 0.02789697
-0.09123609 0.041158013 -0.0248158 -0.0060431445 0.058934975 -0.011272564 0.053985413 0.017596956
0.083116025 0.09467087 -0.08911339 0.07485978 0.05223051 0.06840103 0.06599581 0.046789747
0.034301747 -0.17578632 -0.017722694 0.08028322 -0.034569036 0.17346539 -0.01951505 0.18020464
0.052155707 0.15420285 0.09169584 0.11445826 -0.11556676 -0.08562703 0.07763093 -0.08443205
0.13011833 -0.17710853 -0.06241319 -0.07662584 0.0502323 -0.18965147 0.020082485 -0.0033109714
0.059932817 -0.070286065 -0.0048621343 0.09744885 -0.14300422 0.12443057 0.05391311 -0.15546538
0.12850028 0.039351173 -0.021590183 -0.1423036 0.000943656 -0.12814948 0.03500347 0.00037529448
-0.07425901 0.18728301 0.15758476 -0.05623442 0.13480122 -0.01598073 -0.08305315 0.043246
00000000: cae1 6dbd 9843 21be 604c 12be 79a9 de3c
00000010: 8483 a2bb 527d 1fbe 340e 6cbe 51d9 d1bd
00000020: 589e 47bd 5eb8 183c a257 76bd 0b49 babd
00000030: a8a9 f3bd a3be e3bb 4ac2 47bc 3e44 903a
00000040: 66e4 24bd 82a8 193d 1a6e b5bd 4b70 163d
00000050: 09b5 0a3e 4912 edbd e616 d5ba bb54 0dbe
00000060: c02e 8abd e970 0bbe 567b 38bb 3a76 743d
00000070: f96a 3d3e ac9e 55be afe9 27bd 7d0d 50be
00000080: 301d cebd 2be8 aabe ff11 5bbd 5338 90be
00000090: 944f edbd 0cef b6bd 2f78 0fbe 2325 69bc
000000a0: 5fa3 35bd 1aa9 5abc bc50 19bd 25e3 dfbc
000000b0: c3fd 35bd f549 ebbd 787f 30bc aff1 17be
000000c0: 80e6 7c3d 8a4d 20be b939 b1bd 0aee f13c
000000d0: 9c39 7fbc 6b36 753d 279c f4bd 9c14 09be
000000e0: c226 3bbc ea42 b83c 7604 363d f4aa e1bd
000000f0: c09b 19be 16bd ddbd cd0c d13d 00c0 26bd
00000100: 13f5 793d 24c7 37be cdd7 5abd 8810 42bd
00000110: 297e 993d bd39 e93d 2d8a 14be bd7b dfbc
00000120: 3886 973d 1468 573d 7f62 90bd a02d 4cbe
00000130: 4162 f3bd 2d9a 083e 7679 31be af56 893d
00000140: 6743 023e 1b4b bdbd 9dd8 48bd a3d1 dd3c
00000150: 2101 cbbc 2590 c4bd 2e83 efbc b52c e3bd
00000160: f46c 21be 8e76 3c3d aba8 e0bb 6c04 91bd
00000170: 67f0 abbc 3ce9 45be 8b55 1fbe b883 6fbe
00000180: d8ff e03c 6faf 5e3d 7540 81bd 1245 8cbd
00000190: 6750 dabb cd77 de3c 7902 31bd f594 1abe
000001a0: c693 90bc d063 fd3c c7a1 883d 49e3 753d
000001b0: a154 29bc 7f1d b5bd 6520 2fbd 8ca5 b73b
000001c0: 1527 ad3d e5c5 873d a0b3 5abd 1f17 9e3d
000001d0: ef62 b8bd 867b 683d 3337 3a3d 2b59 2abb
000001e0: 8e98 cabc 9434 79bc 0d84 c03d da2b 193d
000001f0: 9bd3 b6bd 9c03 babd 0348 bebb 29a2 31bd
00000200: 65aa a03d 860a 55bd bd02 00bd fece 18bc
00000210: 38bd 3cbd 74f7 8d3d ed58 2fbd f3c1 c33d
00000220: 4257 bb3d eef3 42bc 2b0a 79bc af21 693d
00000230: b50b 3c3d e8be a1bd b06a b73d 264b 843d
00000240: ea7a b5bd f1f9 983d 2570 54bd e4cf b83d
00000250: c4c3 57bc 8f7f b43c 935c b3bd 1461 c43d
00000260: e491 16bd e1d3 7abd 26d4 75bd abf6 9fbc
00000270: 9838 653d 0e56 9ebd 2708 b1bd f425 0a3d
00000280: 6b56 71bc a5cf cb3c 9797 b03c 519d bcbd
00000290: 2207 753d c8fc 56bd a14c 063c 82f0 98bd
000002a0: a2a5 a13c 3079 643d 85da 86bc 2ae8 563c
000002b0: 76e7 7ebd 0ffc b93d 4ff9 31bb ac99 e5bc
000002c0: 60c0 663d 61a8 83bd cef8 74bd 0d71 ac3d
000002d0: 3480 863d a2d5 e03b bdcb a8bc 8e58 c7bd
000002e0: 8c94 993d 5516 a2bd bd53 8b3d 9931 b2bd
000002f0: ef1c 87bd 7f68 ab3d 702f 07bc 3088 e43c
00000300: fdd9 babd 4e95 283d 814a cbbc 9205 c6bb
00000310: cd65 713d 8fb0 38bc cf1f 5d3d 7e27 903c
00000320: bc38 aa3d cde2 c13d 1581 b6bd 1650 993d
00000330: a9ef 553d d715 8c3d d028 873d 9ba6 3f3d
00000340: fd7f 0c3d 5401 34be 2f2f 91bc 876b a43d
00000350: 4398 0dbd e9a0 313e 07de 9fbc 9187 383e
00000360: 39a1 553d 5ae7 1d3e 07cb bb3d 1869 ea3d
00000370: 44ae ecbd 395d afbd f7fc 9e3d b6ea acbd
00000380: bd3d 053e f05b 35be f9a4 7fbd 02ee 9cbd
00000390: 62c0 4d3d ff33 42be 0684 a43c e2fc 58bb
000003a0: 1d7c 753d 24f2 8fbd 8a52 9fbb 4393 c73d
000003b0: b36f 12be 74d5 fe3d fed3 5c3d 5132 1fbe
000003c0: 9495 033e b22e 213d e5dd b0bc 09b8 11be
000003d0: af5f 773a 9e39 03be cc5f 0f3d 2cc3 c439
000003e0: 1c15 98bd 1ec7 3f3e e65d 213e 1056 66bd
000003f0: 5509 0a3e 05ea 82bc c517 aabd b822 313d

lstm1.bias_hh_l0 f4 [416]
-0.06336243 -0.10432611 -0.05518086 -0.05666389 0.057611804 -0.1506038 -0.050646342 -0.04871851
-0.18207371 -0.048572227 -0.1830366 0.08035732 0.01756983 -0.0033879243 -0.11025703 -0.09726674
-0.040357724 -0.108638644 -0.106518194 -0.008167741 -0.033109397 -0.18026942 -0.03144179 -0.14705215
-0.11151935 -0.07267633 -0.09108179 0.09107602 0.07653948 -0.16177735 -0.09944146 -0.13910832
0.025136372 -0.22669087 -0.21396033 -0.18116044 -0.2124351 -0.04222946 -0.06918006 -0.033737957
-0.11327133 -0.15996492 -0.047878444 -0.040310945 -0.009658567 -0.06453818 -0.019363556 -0.04921636
-0.046258017 -0.1188913 -0.18632734 -0.023241207 -0.15970506 -0.03833906 0.001675991 -0.09872356
0.004849672 0.11065787 -0.0023852927 -0.10062225 -0.21776602 -0.08718626 -0.0279611 -0.06219016
-0.07101022 -0.12775113 -0.13669507 0.001798876 0.18493834 0.18153244 -0.10831659 -0.07711236
0.13412169 -0.051458262 -0.16465043 -0.05354911 -0.07061292 0.059584107 -0.1553772 -0.0075112674
0.20604123 -0.11954156 -0.051862057 -0.1474243 0.033030137 -0.100685395 -0.040175267 -0.08699649
-0.093031965 0.017328758 -0.081063725 -0.04362308 -0.02923247 -0.19868833 -0.2748569 -0.1522918
-0.09703424 0.015551697 -0.07538339 -0.062110614 -0.021963445 0.11619943 -0.07420091 -0.019363154
0.0022304605 0.044394523 -0.09018607 0.035912905 0.059283365 -0.058051884 -0.07152603 0.06507476
0.0524773 -0.07636724 0.012504362 -0.07941695 -0.06114195 0.013425348 -0.0017583712 0.030221906
-0.034163967 0.031077713 -0.006221315 -0.095372654 -0.09048399 -0.075468 0.020993344 0.050480697
0.014243398 -0.048231475 0.0006983735 0.019772489 -0.04130793 0.010545645 -0.0139822215 -0.022676237
0.010704107 0.094680965 0.051007833 0.009410145 -0.08719396 0.037727855 -0.08079042 0.053298973
-0.050378848 0.026615296 0.030844485 0.06354786 0.09686527 0.03523471 0.07831265 -0.019366702
-0.038240355 -0.076751366 0.0015577689 -0.096660376 0.009796773 -0.0738194 0.054926433 -0.06817745
-0.045846995 -0.062248413 -0.06395374 0.096181236 0.08626495 -0.014208037 -0.07897203 -0.071531236
0.02192616 -0.02154498 0.05483037 0.07730894 -0.0683223 -0.0030711063 0.020114053 -0.05623275
-0.023977926 -0.041470226 0.026561875 0.017669091 0.047824834 0.011817993 -0.026469247 0.084130645
-0.0394893 -0.08742953 0.041640542 -0.07632712 -0.017866911 -0.09474622 0.01966013 0.034936007
-0.09460714 -0.014044958 -0.081302516 0.056551475 -0.020527918 -0.070042565 -0.082134336 -0.0638459
0.06534844 -0.09025443 0.05901542 -0.06481008 0.015168079 0.06773619 -0.0953735 0.017368615
0.019975904 -0.121883206 -0.14302954 0.03741641 -0.14893146 0.072620764 -0.11782882 0.11609732
0.032769654 0.16592976 0.037955757 -0.0051492425 -0.11886588 -0.14824848 -0.0025562544 -0.06227063
0.06360181 -0.1560969 -0.1765852 -0.16269448 0.06939338 -0.030245284 0.19301587 0.07812877
0.08907423 -0.12513308 -0.14596428 0.16569318 -0.11288046 0.14894623 0.013086969 -0.14589043
0.04493735 0.014047288 -0.19521992 0.029448047 0.060844485 -0.09457956 0.14882556 0.097771615
-0.083002865 0.059188303 0.0178295 -0.034901276 0.05363651 -0.1343168 -0.117204465 -0.0010502385
00000000: 29c4 81bd eda8 d5bd 5305 62bd 6518 68bd
00000010: 5bfa 6b3d e237 1abe 8a72 4fbd 0f8d 47bd
00000020: 8871 3abe acf3 46bd f26d 3bbe 6192 a43d
00000030: 9bee 8f3c f007 5ebb 70ce e1bd c933 c7bd
00000040: 244e 25bd f07d debd 3626 dabd fdd1 05bc
00000050: b89d 07bd 8c98 38be 1bc9 00bd d794 16be
00000060: 4264 e4bd 54d7 94bd 1789 babd 1086 ba3d
00000070: bbc0 9c3d f6a8 25be f7a7 cbbd 6972 0ebe
00000080: cbea cd3c a721 68be 6b18 5bbe 1f82 39be
00000090: 9688 59be ccf8 2cbd 46ae 8dbd d030 0abd
000000a0: cdfa e7bd d8cd 23be 301c 44bd 171d 25bd
000000b0: f73e 1ebc 982c 84bd 52a0 9ebc 1897 49bd
000000c0: 0c79 3dbd 487d f3bd 98cc 3ebe 5864 bebc
000000d0: b989 23be 6b09 1dbd edac db3a 942f cabd
000000e0: ffe9 9e3b 98a0 e23d 9252 1cbb 0a13 cebd
000000f0: 0efe 5ebe b68e b2bd ad0e e5bc 1cbb 7ebd
00000100: ce6d 91bd 31d1 02be cbf9 0bbe 43c8 eb3a
00000110: 7a60 3d3e a4e3 393e 17d5 ddbd 16ed 9dbd
00000120: 3257 093e e6c5 52bd 1f9a 28be 5056 5bbd
00000130: 829d 90bd 770e 743d 331b 1fbe 1421 f6bb
00000140: 79fc 523e 35d2 f4bd 4f6d 54bd 65f6 16be
00000150: 9c4a 073d 2534 cebd d28e 24bd 372b b2bd
00000160: 8b87 bebd 0af5 8d3c bd04 a6bd 1dae 32bd
00000170: ef78 efbc f474 4bbe 0bba 8cbe 62f2 1bbe
00000180: e3b9 c6bd 8ccc 7e3c 9b62 9abd b367 7ebd
00000190: afec b3bc f7f9 ed3d a6f6 97bd 7a9f 9ebc
000001a0: eb2c 123b 08d7 353d 79b3 b8bd 6919 133d
000001b0: 1dd3 723d d0c7 6dbd 3d7c 92bd ea45 853d
000001c0: 70f2 563d 6d66 9cbd 18df 4c3c 5ba5 a2bd
000001d0: fb6f 7abd fef5 5b3c 2679 e6ba ee93 f73c
000001e0: 84ef 0bbd b096 fe3c 2cdc cbbb bd52 c3bd
000001f0: ac4f b9bd f78e 9abd 3cfa ab3c d9c4 4e3d
00000200: 245d 693c 5e8e 45bd 0d13 373a eaf9 a13c
00000210: 8132 29bd a4c7 2c3c b015 65bc 84c3 b9bc
00000220: 4760 2f3c 18e8 c13d 97ed 503d 022d 1a3c
00000230: bf92 b2bd 8688 1a3d 7375 a5bd 0650 5a3d
00000240: 0d5a 4ebd 5208 da3c 93ad fc3c 6125 823d
00000250: 4c61 c63d 4552 103d 6262 a03d eba6 9ebc
00000260: eba1 1cbd d22f 9dbd 0d2e cc3a e0f5 c5bd
00000270: a582 203c a02e 97bd 8afa 603d 9ea0 8bbd
00000280: 0fca 3bbd 31f8 7ebd 2efa 82bd abfa c43d
00000290: aeab b03d d4c8 68bc 16bc a1bd f87e 92bd
000002a0: 7e9e b33c 197f b0bc cf95 603d 2654 9e3d
000002b0: 90ec 8bbd 9d44 49bb 3ac6 a43c 5054 66bd
000002c0: 5b6d c4bc afdc 29bd 4a98 d93c c5be 903c
000002d0: f9e3 433d 41a0 413c 09d6 d8bc b04c ac3d
000002e0: 88bf 21bd 410e b3bd 468f 2a3d 6551 9cbd
000002f0: a15d 92bc 4e0a c2bd 480e a13c 0f19 0f3d
00000300: 63c1 c1bd d31c 66bc ef81 a6bd 85a2 673d
00000310: 2a2a a8bc 7a72 8fbd 0c36 a8bd a4c1 82bd
00000320: 67d5 853d 51d7 b8bd 27ba 713d 26bb 84bd
00000330: 8983 783c 46b9 8a3d 2e53 c3bd a048 8e3c
00000340: 82a4 a33c e79d f9bd 5676 12be f341 193d
00000350: 7d81 18be 32ba 943d 3d50 f1bd 6fc4 ed3d
00000360: 7939 063d 7ee9 293e 7f77 1b3d faba a8bb
00000370: f46f f3bd 73ce 17be d586 27bb 7d0f 7fbd
00000380: aa41 823d ded7 1fbe c0d2 34be 6299 26be
00000390: 1e1e 8e3d f5c4 f7bc f4a5 453e fa01 a03d
000003a0: 8d6c b63d e322 00be a977 15be 79ab 293e
000003b0: df2d e7bd 5c85 183e ba6a 563c 4d64 15be
000003c0: 3a10 383d 9926 663c bbe7 47be 083d f13c
000003d0: 1138 793d eeb2 c1bd ba65 183e 7c3c c83d
000003e0: 68fd a9bd 6f6f 723d 2c0f 923c a4f4 0ebd
000003f0: f5b1 5b3d 588a 09be e508 f0bd 28a8 89ba

lstm2.weight_ih_l0 f4 [416, 104]
0.10382289 0.10783015 0.21305346 0.22240297 0.11329979 0.21872585 -0.22704475 0.51348907
0.094104655 -0.1430911 -0.09015956 -0.42189455 -0.1552059 0.19045769 0.28200024 0.083310805
-0.037000544 -0.016369035 -0.08840003 0.27049848 -0.25752458 0.15722373 0.15012935 -0.33799058
0.028500522 -0.08726727 -0.10279008 -0.17163728 -0.27685514 -0.06668556 0.448383 0.25546157
0.36614075 -0.018967165 -0.11630129 -0.11904634 0.022501102 -0.2221432 0.14449975 -0.040695548
-0.13896543 0.08320519 0.1268904 -0.07359145 0.21978636 0.33097434 -0.30984452 -0.18576518
-0.042096492 -0.04139183 -0.20742212 0.06396032 0.11816004 -0.21708187 -0.0084528 -0.12985662
-0.039639123 -0.24915387 0.09839114 0.056742925 0.062069632 -0.07961542 -0.203294 -0.12724963
-0.011487958 0.16108394 0.14402623 0.14469351 0.31023103 -0.33183828 0.1721249 -0.03247501
0.14950171 0.16290882 0.2078915 -0.25283295 0.039325505 -0.33337379 0.100075945 -0.23044622
-0.22161557 0.03017218 -0.13773963 0.36656442 0.20791537 -0.19603218 0.055115942 0.22623242
0.03448736 0.016694572 0.14730431 -0.12805294 -0.18588363 -0.18444714 -0.055142608 0.25406012
0.52417874 0.29722366 0.0031091024 -0.008662177 -0.045876727 -0.32550353 -0.2040973 -0.3588314
0.14594916 -0.24436785 0.1293558 0.27499515 0.14018898 0.21355657 -0.09544944 0.09244037
0.29986265 0.11574875 0.115162306 -0.17652982 -0.35587788 0.25566515 0.27699557 -0.45611852
0.11118136 -0.27915323 -0.20771146 0.136565 -0.1486046 0.06391675 0.3052625 -0.11605558
0.22198026 -0.08183294 -0.19298431 -0.08491442 -0.2307064 -0.1933436 0.2620683 -0.23959713
0.046261474 -0.37270904 0.0900344 -0.15058963 0.022402206 -0.11148383 0.25161242 0.006274824
-0.33681867 0.24099353 0.35524228 -0.06785239 0.16579705 -0.05282592 -0.3476335 0.078697495
0.4136537 0.13102804 -0.17207263 0.16506961 0.021445515 -0.18117394 0.2922227 -0.20830391
0.1680317 -0.30528155 0.2015181 -0.09471063 0.040712595 0.25459203 -0.007357549 -0.14468509
-0.31513894 -0.09401135 0.031672034 0.15875912 0.0762253 -0.21849927 -0.021323245 -0.019983906
-0.020775152 -0.4097743 -0.11870107 0.11480199 -0.105293624 -0.26979136 0.13349928 -0.14215925
-0.11673337 0.19519903 0.46864903 -0.28388926 0.20122845 -0.34393105 0.07619392 -0.38668013
0.14574963 -0.0608861 0.22665894 0.16353954 0.07446011 -0.1852091 0.13665317 0.028855557
0.21806838 0.21797578 -0.22337319 -0.1108163 -0.26767746 0.11503706 -0.21028306 -0.25739107
-0.045560498 0.06386569 -0.051676538 -0.07686655 0.0432312 -0.014162363 -0.0775425 -0.10285352
-0.08653102 -0.14430289 -0.0052951975 -0.030201722 0.008861911 0.048777938 0.057328995 -0.09644067
-0.06451495 0.015181398 0.04591704 0.09034209 0.045506302 -0.07524764 -0.06949981 0.09170901
0.04989672 0.040519062 0.054105487 0.028383376 -0.015041372 0.0064307447 -0.039135505 0.07145635
-0.044597 0.07176749 0.054185428 0.033310503 -0.081462435 -0.024655582 -0.07316625 -0.11756202
-0.036957126 0.06896067 -0.045530338 0.05119762 0.026286405 -0.105741404 0.08788123 0.08262056
00000000: 18a1 d43d 0ed6 dc3d b02a 5a3e 9bbd 633e
00000010: b809 e83d abf9 5f3e 6b7e 68be 0574 033f
00000020: f1b9 c03d 7986 12be 93a5 b8bd 9002 d8be
00000030: 4cee 1ebe 5707 433e 5662 903e db9e aa3d
00000040: e28d 17bd 5b18 86bc 130b b5bd c77e 8a3e
00000050: 43da 83be 42ff 203e 82bb 193e 1a0d adbe
00000060: ed79 e93c 2fb9 b2bd 9b83 d2bd afc1 2fbe
00000070: f5bf 8dbe 7092 88bd 7592 e53e dccb 823e
00000080: cd76 bb3e 0761 9bbc 5f2f eebd 91ce f3bd
00000090: 3b54 b83c 8279 63be bef7 133e 60b0 26bd
000000a0: f44c 0ebe 7c67 aa3d 8fef 013e 1db7 96bd
000000b0: ad0f 613e 7875 a93e f1a3 9ebe 3a39 3ebe
000000c0: 5f6d 2cbd 7b8a 29bd 7766 54be a1fd 823d
000000d0: e4fd f13d b64a 5ebe 9d7d 0abc 22f9 04be
000000e0: a25c 22bd 3122 7fbe 4b81 c93d 456b 683d
000000f0: ba3c 7e3d 690d a3bd 4d2c 50be ba4d 02be
00000100: fd37 3cbc 30f3 243e 9d7b 133e 892a 143e
00000110: 9ad6 9e3e b5e6 a9be 8341 303e 8404 05bd
00000120: fa16 193e 92d1 263e 82e1 543e 5273 81be
00000130: c813 213d f8af aabe 9ef4 cc3d 18fa 6bbe
00000140: 31ef 62be a62b f73c 9e0b 0dbe 55ae bb3e
00000150: c4e7 543e a9bc 48be 41c1 613d 79a9 673e
00000160: 9e42 0d3d 0ec3 883c f1d6 163e 4f20 03be
00000170: 4758 3ebe b6df 3cbe 37dd 61bd 2b14 823e
00000180: 9430 063f b32d 983e 15c2 4b3b ceeb 0dbc
00000190: 3ce9 3bbd 66a8 a6be e2fe 50be c0b8 b7be
000001a0: b273 153e 913b 7abe d975 043e 2acc 8c3e
000001b0: b38d 0f3e 93ae 5a3e ff7a c3bd 6051 bd3d
000001c0: 9987 993e ae0d ed3d 37da eb3d 3cc4 34be
000001d0: a035 b6be 8be6 823e 5dd2 8d3e 5e88 e9be
000001e0: 0eb3 e33d 2ced 8ebe 50b2 54be b2d7 0b3e
000001f0: ce2b 18be c9e6 823d 5e4b 9c3e 8cae edbd
00000200: cb4e 633e 0798 a7bd ae9d 45be 9de7 adbd
00000210: 4c3e 6cbe ddfb 45be d12d 863e f358 75be
00000220: ac7c 3d3d b8d3 bebe f563 b83d 2b34 1abe
00000230: d584 b73c a251 e4bd 58d3 803e 0a9d cd3b
00000240: 7f73 acbe 02c7 763e 51e2 b53e 32f6 8abd
00000250: b4c6 293e fe5f 58bd 05fd b1be 272c a13d
00000260: 6bca d33e 372c 063e cf33 30be 0208 293e
00000270: 81ae af3c a985 39be 379e 953e 9f4d 55be
00000280: 8110 2c3e dd4d 9cbe c35a 4e3e a6f7 c1bd
00000290: 40c2 263d e359 823e 9817 f1bb 5428 14be
000002a0: e459 a1be 0689 c0bd 89ba 013d c091 223e
000002b0: 031c 9c3d 46be 5fbe 16ae aebc 4ab5 a3bc
000002c0: a730 aabc f0cd d1be 8c19 f3bd 4e1d eb3d
000002d0: 2fa4 d7bd 1822 8abe 09b4 083e 3292 11be
000002e0: e811 efbd 41e2 473e c4f2 ef3e ef59 91be
000002f0: d50e 4e3e bb17 b0be 8f0b 9c3d f0fa c5be
00000300: 643f 153e b463 79bd 4819 683e e976 273e
00000310: 8b7e 983d 74a7 3dbe cfee 0b3e 7d62 ec3c
00000320: 514d 5f3e 0b35 5f3e f1bb 64be a8f3 e2bd
00000330: 050d 89be 8d98 eb3d 7154 57be c3c8 83be
00000340: a59d 3abd 04cc 823d c7aa 53bd 366c 9dbd
00000350: 3313 313d 4109 68bc 9ace 9ebd dea4 d2bd
00000360: 2d37 b1bd 23c4 13be 5683 adbb 9a69 f7bc
00000370: 8c31 113c 60cb 473d cfd1 6a3d b082 c5bd
00000380: 6a20 84bd 66bb 783c 8213 3c3d 4605 b93d
00000390: d164 3a3d 6f1b 9abd eb55 8ebd efd1 bb3d
000003a0: 8160 4c3d 51f7 253d b79d 5d3d 4184 e83c
000003b0: 1670 76bc ffb8 d23b 8d4c 20bd b557 923d
000003c0: 58ab 36bd d5fa 923d 8af1 5d3d 9870 083d
000003d0: c7d5 a6bd 81fa c9bc 30d8 95bd 5bc4 f0bd
000003e0: 5b60 17bd 403b 8d3d 057e 3abd 98b4 513d
000003f0: 9656 d73c f38e d8bd 13fb b33d f834 a93d

lstm2.weight_hh_l0 f4 [416, 104]
-0.08279735 0.09068304 0.061414186 -0.08757197 -0.09315546 0.041509267 -0.028640337 -0.033584148
0.045690265 -0.088251136 0.049032517 0.0035715192 -0.092945024 -0.059879538 -0.07080487 0.079814054
0.07474768 -0.09001998 -0.04440052 0.019255733 -0.056802377 -0.028064445 -0.031230517 -0.078222096
0.06279679 0.0027087221 -0.08457701 0.029686728 -0.09730473 0.028576782 -0.026384464 0.048672307
-0.010106684 0.03784164 0.095696054 0.0650539 -0.012046755 0.051016692 -0.0881288 0.04466932
-0.058168124 0.016107114 0.0571018 0.010810154 0.008113203 -0.037216276 0.037450872 -0.060356222
-0.045657568 0.035341047 -0.08213609 -0.011539106 0.038430236 0.008950014 0.06109246 -0.0073240492
-0.03157884 -0.035782076 -0.066084884 0.015827585 0.07164411 -0.034237847 -0.06612796 0.0627984
0.03768443 0.011503746 0.048456706 -0.008564894 0.08529969 0.07862324 -0.051578008 0.08590977
-0.07775005 -0.015915174 0.015274371 -0.083692014 0.010652966 0.00641654 0.09629603 -0.033915322
0.03655018 0.059714273 -0.039016437 -0.051588167 0.08252951 -0.08199383 0.07924702 -0.059201214
0.0064617665 -0.021633329 -0.052636907 -0.062549114 -0.09686619 0.0017533448 0.08005845 0.08664841
0.043648317 0.056004424 0.0061143916 0.00033851428 -0.01633133 -0.08806296 0.048298642 -0.09298426
0.0029649194 0.09804485 -0.0010910799 0.04578732 0.036816325 0.079872936 0.07217292 -0.06628355
-0.09395226 -0.017750777 -0.011266135 0.04892142 0.09790892 0.0098712 -0.055954825 0.09653913
0.0797836 -0.0047186264 -0.09406231 -0.07479363 -0.025735583 -0.065119594 -0.04615957 0.050615277
-0.038728982 -0.0071492568 0.07877453 0.06461127 0.015894027 0.00021472319 -0.02414008 -0.042425137
0.055859778 0.053495087 -0.040108163 -0.08842607 -0.002088025 0.09470907 -0.013444227 -0.050591268
0.0076123453 0.049720336 -0.012110287 0.045530856 -0.008011306 0.012279947 0.06654136 -0.06767667
-0.07544633 0.019189933 0.06413067 0.061239347 0.0927846 -0.051764827 -0.042636633 -0.048032742
-0.07685186 -0.080416046 0.047101904 -0.019851532 -0.0036244723 0.08897043 0.04201888 -0.026962776
-0.054071084 -0.013627271 -0.01310203 0.051026452 0.03742303 0.02864583 -0.031197365 -0.056746386
0.08270589 0.087597966 -0.0865366 -0.01564149 0.070409544 -0.0022663472 -0.059205294 -0.07998897
0.036800448 -0.09098237 0.09145826 0.027507817 -0.049726296 0.06092641 -0.080867894 0.039848737
0.03218932 0.08213652 0.065385014 -0.010957078 0.049678195 -0.028499994 0.074380934 0.027928673
0.055504758 0.02723833 -0.056587502 0.036865935 0.047270007 -0.050896246 -0.017834416 -0.009118049
-0.011055737 -0.07696195 -0.05912226 0.06890475 -0.028278 0.06447193 -0.06611966 -0.0072751055
-0.013361968 -0.07440995 0.016069544 0.08422797 0.024059154 0.052739844 -0.07720819 -0.012323982
0.04689542 0.06453293 0.018117007 0.016043862 0.03706899 0.06861299 0.06822 0.019802319
0.04366044 -0.03589674 0.08532921 0.05993427 -0.03663322 -0.004784508 -0.057012554 0.07597051
-0.08381232 0.042947583 0.019420812 -0.08774017 0.0013923751 -0.003314597 -0.0005128271 0.09604905
0.08500172 -0.03710774 -0.042310182 -0.05801568 0.050899226 0.07358259 0.005267691 -0.0910777
00000000: a891 a9bd 08b8 b93d 718d 7b3d ef58 b3bd
00000010: 4ac8 bebd 9f05 2a3d 249f eabc 888f 09bd
00000020: b725 3b3d 03bd b4bd 52d6 483d 2610 6a3b
00000030: f659 bebd 3f44 75bd 2502 91bd 8d75 a33d
00000040: 5015 993d 655c b8bd 52dd 35bd 33be 9d3c
00000050: 9ca9 68bd 68e7 e5bc 24d7 ffbc e832 a0bd
00000060: 9a9b 803d d184 313b b636 adbd 9531 f33c
00000070: b447 c7bd db19 ea3c 3b24 d8bc 9d5c 473d
00000080: 8196 25bc d6ff 1a3d 4bfc c33d fb3a 853d
00000090: c15f 45bc e1f6 503d df7c b4bd 2df7 363d
000000a0: b341 6ebd 11f3 833c 94e3 693d 121d 313c
000000b0: 3ded 043c 1870 18bd 1666 193d 1638 77bd
000000c0: 6e03 3bbd c6c1 103d f736 a8bd 850e 3dbc
000000d0: 0669 1d3d 14a3 123c 163c 7a3d 94fe efbb
000000e0: d058 01bd 3a90 12bd 8357 87bd daa8 813c
000000f0: 26ba 923d fc3c 0cbd 196e 87bd 739c 803d
00000100: fd5a 1a3d 357a 3c3c 8a7a 463d c553 0cbc
00000110: 9bb1 ae3d 3905 a13d 7643 53bd 76f1 af3d
00000120: 6b3b 9fbd 8a60 82bc 5b41 7a3c b866 abbd
00000130: c789 2e3c d741 d23b da36 c53d cbea 0abd
00000140: a4b5 153d f496 743d b3cf 1fbd 1d4e 53bd
00000150: 3b05 a93d 62ec a7bd 434c a23d f97c 72bd
00000160: 3abd d33b 6138 b1bc cc99 57bd c019 80bd
00000170: c861 c6bd 7dd0 e53a aff5 a33d b974 b13d
00000180: 94c8 323d e564 653d 3c5b c83b 9e7a b139
00000190: 48c9 85bc 5a5a b4bd ccd4 453d 886e bebd
000001a0: 184f 423b bdcb c83d 9102 8fba 7c8b 3b3d
000001b0: b7cc 163d 6c94 a33d 65cf 933d abbf 87bd
000001c0: 0b6a c0bd 146a 91bc 9895 38bc d461 483d
000001d0: 7984 c83d d0ba 213c e330 65bd 4fb6 c53d
000001e0: 9665 a33d b59e 9abb bea3 c0bd 672d 99bd
000001f0: 6ed3 d2bc 6c5d 85bd d111 3dbd f751 4f3d
00000200: 48a2 1ebd 5044 eabb 8a54 a13d ea52 843d
00000210: 3134 823c 5127 6139 6bc1 c5bc fbc5 2dbd
00000220: 39cd 643d aa1d 5b3d 7548 24bd ba18 b5bd
00000230: 3fd7 08bb d4f6 c13d 2d45 5cbc ca38 4fbd
00000240: fb70 f93b 8da7 4b3d 3a6a 46bc 907e 3a3d
00000250: da41 03bc d531 493c d646 883d 119a 8abd
00000260: 9b83 9abd 3534 9d3c f156 833d 1cd6 7a3d
00000270: da05 be3d 5b07 54bd c0a3 2ebd fbbd 44bd
00000280: 8264 9dbd 2bb1 a4bd eded 403d ae9f a2bc
00000290: 8e88 6dbb 2136 b63d fd1b 2c3d 0ae1 dcbc
000002a0: a479 5dbd eb44 5fbc e6a9 56bc 1d01 513d
000002b0: e448 193d a9aa ea3c 9e91 ffbc e66e 68bd
000002c0: b561 a93d 9066 b33d 1a3a b1bd 9522 80bc
000002d0: e132 903d ff86 14bb 4081 72bd 42d1 a3bd
000002e0: 11bc 163d f754 babd 784e bb3d 1358 e13c
000002f0: cdad 4bbd f98d 793d 119e a5bd 6e38 233d
00000300: f3d8 033d 3137 a83d 94e8 853d 5185 33bc
00000310: 5d7b 4b3d d278 e9bc 0855 983d acca e43c
00000320: f558 633d eb22 df3c 4cc8 67bd bc00 173d
00000330: 329e 413d 9578 50bd 7b19 92bc df63 15bc
00000340: 1f23 35bc 3a9e 9dbd 2f2a 72bd ef1d 8d3d
00000350: 44a7 e7bc dc09 843d bf69 87bd 0264 eebb
00000360: 28ec 5abc 3e64 98bd 47a4 833c b77f ac3d
00000370: b417 c53c bc05 583d 541f 9ebd 87ea 49bc
00000380: 6915 403d d729 843d 1e6a 943c 6b6e 833c
00000390: a7d5 173d f884 8c3d edb6 8b3d 7938 a23c
000003a0: 4ad5 323d 7608 13bd 15c1 ae3d a37d 753d
000003b0: b70c 16bd 5dc7 9cbb ff85 69bd 6d96 9b3d
000003c0: cba5 abbd cee9 2f3d 6518 9f3c 1eb1 b3bd
000003d0: 5b80 b63a b639 59bb 3e6f 06ba 5db5 c43d
000003e0: 6215 ae3d 49fe 17bd 714d 2dbd daa1 6dbd
000003f0: b57b 503d 78b2 963d 989c ac3b f286 babd

lstm2.bias_ih_l0 f4 [416]
-0.06419517 0.013280116 0.040023748 -0.06384712 0.015987296 -0.048538424 -0.15867124 -0.16017795
0.0116754295 -0.03301274 -0.020102492 -0.1047647 -0.20544504 -0.12588784 -0.23717585 -0.1024499
-0.14140579 -0.16295363 -0.05077931 -0.19299217 -0.06994024 -0.29570717 -0.14193788 0.017304182
-0.27262104 -0.41525182 -0.10564127 -0.0768868 0.04101119 -0.039959162 -0.03365076 -0.0055155596
0.049752552 -0.098879136 -0.0996531 0.047828395 0.057993535 -0.14791466 -0.04381491 -0.1326128
-0.031967573 0.076562345 -0.22707224 -0.08091205 -0.21413298 0.061724026 -0.068210475 -0.18405008
-0.48100165 -0.12558907 0.04394631 -0.18960965 -0.13764034 0.13877733 -0.23345132 0.012918029
0.00152646 -0.16831896 -0.035835493 -0.1021311 0.00091956125 -0.13145606 -0.07857605 -0.18143046
-0.07625941 -0.07139396 0.019472394 -0.27109715 -0.18253863 -0.048305187 -0.15549901 -0.28634414
0.0561988 -0.11976883 -0.04219005 0.020997366 -0.34497112 0.018483276 -0.08081296 0.07260034
-0.098813266 -0.05229328 -0.1976281 -0.057388887 -0.064992875 -0.06762412 -0.110338874 -0.3117696
-0.17486277 0.089821056 -0.18951431 -0.26173323 -0.10047193 -0.17803073 -0.22338326 -0.050108172
-0.14795272 -0.21967466 -0.07705071 -0.0044255187 -0.42190537 -0.0119364485 -0.3009488 -0.038226474
-0.0046398747 -0.09745388 -0.007584525 -0.051210213 0.035722416 0.005947408 -0.07986876 0.04478217
0.09127205 0.006451503 0.020222018 -0.011091811 -0.0016036382 -0.0052092555 0.06125599 -0.062573716
-0.050110575 0.09255612 0.07561795 0.046743456 0.08280203 -0.004434854 -0.023424115 -0.0003830744
-0.050605226 -0.00708832 -0.08796679 0.062140286 0.07663596 -0.09402118 0.082176656 0.018198669
0.048674293 0.069326855 0.04591047 -0.08833525 0.06444881 -0.068584554 -0.08426317 -0.020862106
-0.09718213 0.0742945 -0.06422587 -0.05672649 0.05468188 0.047099996 0.055663545 -0.08582261
-0.03178427 -0.07488504 -0.09120688 -0.054564178 -0.090448424 -0.00077426125 -0.055686 -0.07898686
0.036049813 -0.062000643 -0.060661726 0.013130821 0.072874025 0.0389058 0.09597195 0.009463835
0.02128004 -0.06420635 -0.052161347 0.09204049 -0.09696013 0.012869504 0.05963046 -0.027270371
0.03209406 -0.09126652 0.056138337 0.066923425 0.095087714 -0.05012132 0.08564561 0.06807659
-0.07961843 -0.068090126 0.046413746 0.09136589 -0.072456375 -0.07160218 -0.0693361 -0.023793163
0.0936482 0.01183091 0.00014041347 -0.07937997 0.088970445 -0.026164329 -0.08771072 0.05430043
-0.015517126 0.094641104 0.014758821 -0.054421835 0.016215932 0.040834986 0.07344291 0.046730377
0.022055 -0.008321861 -0.037512865 0.05012226 0.07529104 -0.03151536 0.025036277 -0.06830228
0.035866357 0.04282049 -0.028597899 0.00844818 -0.012147759 -0.105396576 -0.04182788 -0.0026138045
0.021554366 0.12578054 -0.02750099 -0.04594561 -0.073233806 -0.06716081 -0.13078327 0.0673898
0.010020752 -0.05601367 0.03637927 -0.021268107 0.034537323 -0.04077641 0.028539328 0.07763211
0.033167485 0.06427254 -0.008766805 -0.08965548 -0.08174028 -0.018442538 0.06714427 -0.03867943
-0.07854217 0.069973126 0.030809538 -0.008984429 -0.07124012 0.07697138 0.0709839 -0.090771504
00000000: c278 83bd d894 593c f1ef 233d 47c2 82bd
00000010: caf7 823c 3ad0 46bd b77a 22be b005 24be
00000020: 4d4a 3f3c 5e38 07bd fbad a4bc e08e d6bd
00000030: 2f60 52be bee8 00be 3ade 72be 41d1 d1bd
00000040: aecc 10be 51dd 26be f7fd 4fbd bd9f 45be
00000050: d43c 8fbd ee66 97be 2a58 11be 80c1 8d3c
00000060: fc94 8bbe e39b d4be 735a d8bd d476 9dbd
00000070: 59fb 273d 38ac 23bd 61d5 09bd debb b4bb
00000080: 55c9 4b3d 2581 cabd ed16 ccbd b5e7 433d
00000090: a18a 6d3d f176 17be 4377 33bd a6cb 07be
000000a0: 6ef0 02bd b8cc 9c3d a085 68be 38b5 a5bd
000000b0: ad45 5bbe 55d2 7c3d efb1 8bbd a077 3cbe
000000c0: d945 f6be 6c9a 00be 0c01 343d 0829 42be
000000d0: 97f1 0cbe a51b 0e3e dd0d 6fbe 24a6 533c
000000e0: 8013 c83a ce5b 2cbe 3dc8 12bd 1c2a d1bd
000000f0: b60e 713a 6b9c 06be 7bec a0bd e8c8 39be
00000100: e52d 9cbd ff36 92bd 9284 9f3c 3fcd 8abe
00000110: 68eb 3abe a9db 45bd 223b 1fbe b39b 92be
00000120: b730 663d 5c49 f5bd 79cf 2cbd ab02 ac3c
00000130: 0ea0 b0be 3d6a 973c 4481 a5bd 7daf 943d
00000140: 9c5e cabd 7a31 56bd 055f 4abe 9c10 6bbd
00000150: fc1a 85bd 847e 8abd 59f9 e1bd 44a0 9fbe
00000160: 3a0f 33be 1af4 b73d 0a10 42be e601 86be
00000170: 3ac4 cdbd b04d 36be 95be 64be 3a3e 4dbd
00000180: eb80 17be 65f2 60be c3cc 9dbd f103 91bb
00000190: fb03 d8be 1891 43bc f615 9abe 5d93 1cbd
000001a0: 170a 98bb e695 c7bd 9b87 f8bb cdc1 51bd
000001b0: ab51 123d 79e2 c23b 3c92 a3bd 826d 373d
000001c0: d7ec ba3d 2167 d33b a5a8 a53c 6dba 35bc
000001d0: 2b31 d2ba 67b2 aabb 90e7 7a3d a626 80bd
000001e0: bf40 4dbd 108e bd3d 95dd 9a3d 1176 3f3d
000001f0: 1c94 a93d 4052 91bb eee3 bfbc 60d7 c8b9
00000200: 6d47 4fbd 2345 e8bb ef27 b4bd d086 7e3d
00000210: 50f3 9c3d 2d8e c0bd 3c4c a83d 6015 953c
00000220: b25e 473d 3dfb 8d3d 9e0c 3c3d 1de9 b4bd
00000230: bdfd 833d 0f76 8cbd 2b92 acbd 02e7 aabc
00000240: 6d07 c7bd b727 983d da88 83bd 095a 68bd
00000250: 1bfa 5f3d edeb 403d 75ff 633d c4c3 afbd
00000260: 3930 02bd 545d 99bd acca babd b07e 5fbd
00000270: 063d b9bd cbf7 4aba 0117 64bd ddc3 a1bd
00000280: f8a8 133d 63f4 7dbd 6e78 78bd a822 573c
00000290: fa3e 953d b05b 1f3d f18c c43d 330e 1b3c
000002a0: 7a53 ae3c 9e7e 83bd 23a7 55bd b97f bc3d
000002b0: 0893 c6bd 9dda 523c 123f 743d 1d66 dfbc
000002c0: 1075 033d f1e9 babd 50f1 653d 260f 893d
000002d0: 59bd c23d 034c 4dbd f766 af3d bd6b 8b3d
000002e0: fd0e a3bd d672 8bbd 571c 3e3d 0a1e bb3d
000002f0: 0264 94bd 2aa4 92bd 1600 8ebd e1e9 c2bc
00000300: a1ca bf3d 6fd6 413c f43b 1339 f791 a2bd
00000310: 2336 b63d 9356 d6bc aea1 b3bd 216a 5e3d
00000320: 8b3b 7ebc 32d3 c13d fbce 713c 6ee9 5ebd
00000330: 46d7 843c 9642 273d 3d69 963d 5a68 3f3d
00000340: b0ac b43c 6a58 08bc 17a7 19bd 004d 4d3d
00000350: 3032 9a3d 4016 01bd e118 cd3c 11e2 8bbd
00000360: 9ae8 123d 8a64 2f3d 2446 eabc 3c6a 0a3c
00000370: 6507 47bc 29da d7bd b653 2bbd 5d4c 2bbb
00000380: c892 b03c 9dcc 003e c249 e1bc 7731 3cbd
00000390: 9bfb 95bd 9b8b 89bd 0dec 05be aa03 8a3d
000003a0: 152e 243c 976e 65bd 6e02 153d 743a aebc
000003b0: 0277 0d3d 2a05 27bd 4fcb e93c 95fd 9e3d
000003c0: a1da 073d 52a1 833d a5a2 0fbc 4b9d b7bd
000003d0: 7367 a7bd ce14 97bc ef82 893d 526e 1ebd
000003e0: b8da a0bd 124e 8f3d 4964 fc3c 6d33 13bc
000003f0: 57e6 91bd 2ca3 9d3d 0260 913d 69e6 b9bd
