N/Treinamento/CONV/CONV_2_DENSO_2/conf_2/modelo_seed_43_loss_0.002930.pt (torch, 442035 bytes, 8 tensors)

conv1d_1.weight f4 [152, 76, 5]
0	0xbb9ac155	-0.004722754
1	0xbcff17ee	-0.03113934
2	0x3c85bdac	0.016325794
3	0xbc81489d	-0.015781695
4	0xbd13e349	-0.036105428
5	0xbd2e0e47	-0.042494085
6	0x3c18df54	0.009330589
7	0xbd556143	-0.05209471
8	0x3cd019f0	0.025402993
9	0x3c52a6ef	0.012857183
10	0x3d3891c2	0.04506088
11	0xbd19e5f7	-0.037572827
12	0x3c13a846	0.0090122875
13	0x3b617884	0.0034404108
14	0x3b7c52ac	0.0038501425
15	0x3cacfef8	0.021117672
16	0xbbf39c8e	-0.0074344343
17	0xbce0ec1b	-0.027456334
18	0x3d0eb2e5	0.034838576
19	0xbd1072c1	-0.035265688
20	0xbd251184	-0.040299907
21	0x3cbe1123	0.02320153
22	0xbca9ea18	-0.020741507
23	0x3d239367	0.039935496
24	0xbd1abac1	-0.03777576
25	0x3d0dcfb3	0.034621906
26	0x3bd24308	0.006416682
27	0xbc982069	-0.018570142
28	0x3d18262c	0.03714578
29	0xbcb97d82	-0.022642855
30	0x3c0c3aad	0.008558911
31	0xbc8feec8	-0.017569914
32	0xbc769747	-0.015050716
33	0x3cabf044	0.020988591
34	0x3d30cb57	0.04316267
35	0xbcdfc766	-0.02731676
36	0x3c533716	0.0128915515
37	0xbd3fa0b6	-0.046784125
38	0x3d199b5a	0.03750167
39	0xbd0ae8d8	-0.033913463
40	0xbc90355e	-0.017603572
41	0x3d19f32b	0.03758542
42	0xbc151895	-0.009100099
43	0xbc62b5f4	-0.013837326
44	0x3c8386d0	0.016055495
45	0x3c9ab6eb	0.01888605
46	0xbc7de458	-0.015496336
47	0xbd39b5d6	-0.045339428
48	0xbd222770	-0.03958839
49	0x3cfd37dd	0.030910427
50	0xbba9bc63	-0.005179928
51	0x3cdb9046	0.026802193
52	0xbd59353f	-0.053029295
53	0x3d396f74	0.045272306
54	0x3c8427b3	0.016132211
55	0xbb4ac594	-0.003094052
56	0xbcb16e13	-0.021658933
57	0xbd029170	-0.03187698
58	0xbd1311dc	-0.035905704
59	0xbd320bd6	-0.04346832
60	0xbc9d07f9	-0.01916884
61	0x3cfc9dd6	0.03083698
62	0xbd47669f	-0.04868185
63	0x3d1d4912	0.038399763
64	0x3cd45d49	0.025923388
65	0xbd1710a6	-0.03688111
66	0x3d2cff4f	0.04223567
67	0x3bd2b2cb	0.006430005
68	0xbc060abe	-0.008181272
69	0x3bb49e61	0.0055120443
70	0x3c45ca57	0.012072167
71	0x3d071d99	0.03298721
72	0x3db41809	0.08793647
73	0x3c65b79e	0.0140208285
74	0xbb684b73	-0.0035445362
75	0x3ba7596b	0.005107095
76	0x3c58980d	0.0132198455
77	0x3d045b93	0.032313894
78	0xbc9c3729	-0.019069271
79	0xbd4c329c	-0.049852952
80	0x3d48fffb	0.049072247
81	0xbcb469b9	-0.022023069
82	0x3cb15b6a	0.021650035
83	0xbd33b8db	-0.043877464
84	0xbbbafadd	-0.0057061748
85	0x3d298d78	0.04139468
86	0xbd3199a5	-0.043359417
87	0x3d3c9788	0.04604295
88	0x3d45295d	0.04813515
89	0xbd475073	-0.048660707
90	0x3b90b727	0.0044163647
91	0x3c89f63d	0.016841048
92	0x3bf0b01e	0.0073452136
93	0x3ac128ab	0.0014736851
94	0x3d43124a	0.047624864
95	0x3d3f1c1e	0.046657674
96	0x3b3a874a	0.0028461986
97	0xbc1f61c3	-0.009727898
98	0xbc747b6c	-0.014922004
99	0xbca58440	-0.020204663
100	0xbc815294	-0.015786447
101	0x3d0d9231	0.034563247
102	0xbc952620	-0.018206656
103	0x3d0e0d52	0.034680672
104	0x3b482de0	0.0030544922
105	0x3c86cd86	0.016455423
106	0xbcb7b980	-0.02242732
107	0xbd0bff27	-0.03417888
108	0xbd245865	-0.040123362
109	0x3ca638dd	0.020290786
110	0xbd006c94	-0.03135355
111	0x3d4b8be3	0.049693953
112	0x3b9a9047	0.004716906
113	0x3cd59394	0.026071347
114	0xbc1c00a4	-0.009521637
115	0x3c4c3602	0.012464048
116	0xbd3e3b1f	-0.0464431
117	0xbd0c5ffa	-0.034271218
118	0xbcd31c37	-0.02577029
119	0x3d4bb872	0.049736448
120	0x3cd7f6b4	0.026362754
121	0x3ce67c7d	0.028135533
122	0x3d8df15b	0.069308005
123	0x3cca3539	0.024683582
124	0x3cafc90d	0.021458173
125	0xbc900ec1	-0.01758516
126	0xbc92ec7e	-0.017935034
127	0x3d4b677e	0.049659245
128	0x3d3339c7	0.043756273
129	0xbd0e709e	-0.03477537
130	0x3ca9b000	0.020713806
131	0xbc33b706	-0.010968929
132	0x3d8b9791	0.068160184
133	0xbbc55d2d	-0.0060230703
134	0xbc1265fd	-0.008935449
135	0xbb8c666f	-0.004284672
136	0xbbeeb3e2	-0.0072846273
137	0x3d766613	0.06015594
138	0xbc9fc838	-0.019504651
139	0x3cab843b	0.020937076
140	0x3bb7ae6f	0.005605511
141	0x3d2a298c	0.04154353
142	0x3d36f9b3	0.044671725
143	0xbd088ae9	-0.0333356
144	0xbbedc452	-0.007256069
145	0xbaf115ba	-0.0018393316
146	0xbc6f77b1	-0.014615939
147	0x3d265b50	0.040614426
148	0x3d4c90a7	0.04994264
149	0xbd2e0a94	-0.042490557
150	0xbca64996	-0.02029876
151	0x3d486aed	0.048930097
152	0xbc868392	-0.01642016
153	0xbc7143aa	-0.014725605
154	0x3d1529a6	0.036416672
155	0xbbc5d699	-0.006037545
156	0xbc9a45d1	-0.01883212
157	0xbda6ead0	-0.08150256
158	0x3d0d63e0	0.034519076
159	0xbc4aafb3	-0.0123709915
160	0xbd06e692	-0.032934733
161	0xbd12659a	-0.035741426
162	0xbd7321c1	-0.059358362
163	0x3c805d2a	0.015669424
164	0x3c8c26b5	0.0171083
165	0x3c187451	0.009305076
166	0xbd03771a	-0.032096006
167	0xbd049927	-0.03237262
168	0xbcf0ab48	-0.029378548
169	0xbd0a4896	-0.03376063
170	0x3c2f2b8a	0.010691533
171	0x3c9aab98	0.01888065
172	0xbcc6788d	-0.024227405
173	0xbd3ff738	-0.046866626
174	0x3d0817ee	0.033225946
175	0x3cb2d31a	0.021829177
176	0xbca6fc6d	-0.020384038
177	0xbd3dc254	-0.046327904
178	0xbaadfabf	-0.0013273581
179	0xbcb5e031	-0.02220163
180	0x3cdff40e	0.027338054
181	0x3c146c2f	0.009058996
182	0xbd7346db	-0.059393745
183	0xbd2eac35	-0.0426447
184	0xbca33b7b	-0.019925823
185	0xbd27bd13	-0.0409518
186	0xbc1f75ef	-0.009732707
187	0xbd47165b	-0.048605304
188	0xbcb36db7	-0.021902902
189	0x3bde8172	0.0067903334
190	0xbcbae17c	-0.022812597
191	0x3ceecdf5	0.029150942
192	0x3cafb428	0.02144821
193	0xbc5db29b	-0.013531352
194	0xbcaef288	-0.021355882
195	0xbd4354db	-0.047688346
196	0xbaa0b659	-0.0012261375
197	0xbcc56106	-0.024094116
198	0x3d372b1d	0.04471885
199	0x3cd30bca	0.025762457
200	0xbb8c6175	-0.0042840787
201	0xbbaa9268	-0.0052054413
202	0x3b7d8adf	0.003868751
203	0x3d42363b	0.047415
204	0xbbbb2a93	-0.0057118624
205	0x3c175e3a	0.009238774
206	0x3ce880d0	0.028381735
207	0x3c2584a7	0.010102428
208	0x3b1500bf	0.002273604
209	0x3d23a42f	0.0399515
210	0xbd0b9e3d	-0.034086455
211	0x3c779b40	0.015112698
212	0xbdad1d81	-0.08452893
213	0x3d04bdd3	0.032407593
214	0x3d21e209	0.039522205
215	0xbbfd06bb	-0.0077217496
216	0xbd28b9f7	-0.041192975
217	0xbd57afc9	-0.052657876
218	0x3c9115da	0.017710615
219	0xbd17e438	-0.03708288
220	0xbc4a5957	-0.012350402
221	0xbc87b94b	-0.016567847
222	0xbd99ca78	-0.07509321
223	0x3d0512c7	0.03248861
224	0xbd100376	-0.03515955
225	0x3c917386	0.017755281
226	0xbcf04de7	-0.029334022
227	0xbd051905	-0.032494564
228	0x3d2e44c5	0.042546052
229	0xbd2e264e	-0.042517
230	0xbd18e64c	-0.037329003
231	0x3cfeefd4	0.031120218
232	0xbcc617e5	-0.024181316
233	0xbd16b803	-0.03679658
234	0x3ca97f58	0.020690605
235	0xbd0e1e92	-0.034697123
236	0xbd309c31	-0.043117706
237	0xbdef6a27	-0.11690169
238	0x3d0ca1fc	0.034334168
239	0x3b9491fe	0.004534005
240	0x3d40d3a2	0.04707683
241	0x3caf8c85	0.02142931
242	0xbc7b1502	-0.015324833
243	0x3d336dac	0.043805763
244	0x3cafae49	0.02144541
245	0x3c8a769d	0.016902262
246	0xbd42263d	-0.047399748
247	0xbd76c571	-0.06024689
248	0x3d1c0175	0.038087327
249	0x3d3fe130	0.046845615
250	0x3c5926c3	0.01325387
251	0x3cc571d6	0.024102133
252	0xbd34a5b3	-0.044103336
253	0xbc4b38d2	-0.012403684
254	0xbba8d850	-0.0051527396
255	0xbccc6fbf	-0.024955628

conv1d_1.bias f4 [152]
0	0xbdedef30	-0.11617887
1	0xbd630457	-0.05542406
2	0x3db40a5f	0.08791041
3	0xbcc8fded	-0.024535144
4	0x3d9b3643	0.07578709
5	0x3d977b84	0.073966056
6	0x3d8530c0	0.06503439
7	0xbdca1c81	-0.09868718
8	0x3cde4432	0.027132127
9	0x3d389728	0.04506603
10	0x3d276dc1	0.040876154
11	0xbd05b8e8	-0.032647043
12	0xbc79fb58	-0.015257679
13	0xbdc2f9c2	-0.09520294
14	0xbaf73c83	-0.0018862638
15	0x3c7f1e53	0.015571195
16	0x3da23ac9	0.07921369
17	0xbc3d6eaf	-0.011562034
18	0x3bdca7b6	0.00673386
19	0xbe00e70b	-0.12588136
20	0xbe0ca477	-0.13734613
21	0xbda5180d	-0.08061228
22	0xbdbe3bf1	-0.09288777
23	0xbd7628ec	-0.06009762
24	0xbdab374f	-0.08360159
25	0xbde37204	-0.11105731
26	0xbd3dbc84	-0.04632236
27	0xbddbcc4e	-0.107323274
28	0xbdd77462	-0.10520245
29	0xbe14b3c6	-0.14521703
30	0xbdb7df36	-0.08978121
31	0xbc570839	-0.013124519
32	0xbd14ecfa	-0.03635881
33	0xbb0fc62d	-0.002193819
34	0x3cba87d6	0.02276985
35	0x3d6193e8	0.055072695
36	0x3df0c5d6	0.11756484
37	0x3b82de44	0.0039937813
38	0x3d8a7e46	0.06762366
39	0xbd8bddc9	-0.068294115
40	0x3cfb64a8	0.030687645
41	0x3c324b72	0.010882245
42	0x3d51685f	0.051124927
43	0xbde52bbe	-0.11189984
44	0x3d861ab5	0.06548063
45	0xbdb7aacd	-0.089681245
46	0x3d0ae9a9	0.033914242
47	0x3d800e55	0.062527336
48	0xbc98d19d	-0.018654639
49	0x3e17cec7	0.14824973
50	0x3e04f2be	0.12983224
51	0xbd41a4a6	-0.04727616
52	0xbc778ab4	-0.015108753
53	0xbdb9de04	-0.09075549
54	0x3dc6d997	0.09709471
55	0xbc586e40	-0.013209879
56	0xbd4e4ba6	-0.050365113
57	0xbbc97d5f	-0.0061489786
58	0xbd0e5e70	-0.03475803
59	0xbce13c0a	-0.02749445
60	0xbdb9bac7	-0.09068828
61	0x3ced240a	0.028947849
62	0x3d2a1920	0.041527867
63	0xbca44384	-0.020051725
64	0x3d4468b2	0.047951408
65	0x3cb6dc93	0.022321975
66	0x3be7615b	0.007061166
67	0xbc2a0df6	-0.010379305
68	0x3de1edd4	0.1103169
69	0xbdad5e18	-0.084652126
70	0xbd7085dc	-0.05872141
71	0x3db9ce30	0.0907253
72	0x3ca9d72d	0.020732487
73	0xbd8f0fb6	-0.069854185
74	0xbd906bb6	-0.07051794
75	0xbd83fa70	-0.064442515
76	0xbbc8f7f1	-0.0061330725
77	0x3d5e5c32	0.054287143
78	0xbd4d6c42	-0.05015207
79	0x3d79a2cd	0.060946275
80	0x3dbd2e95	0.092374004
81	0x3dfa2288	0.122136176
82	0x3d639a4b	0.055567067
83	0xbcc87c3d	-0.024473304
84	0xbdbe6ccb	-0.09298094
85	0x3e087da7	0.13329183
86	0x3de423ae	0.11139618
87	0xbe0dfef4	-0.13866788
88	0xbcb9051f	-0.02258545
89	0x3dc846b6	0.09779112
90	0xbc58cb2e	-0.013232036
91	0x3c009e48	0.007850237
92	0xbd6ee2ae	-0.058321647
93	0xbd9e654e	-0.07734166
94	0xbd51de75	-0.051237542
95	0x3dd2b017	0.10287493
96	0x3993cce0	0.0002819067
97	0x3d4d2e4e	0.050092988
98	0xbc4f3f87	-0.012649423
99	0x3dae3082	0.08505346
100	0x3e0afe11	0.13573481
101	0xbd16ab32	-0.03678436
102	0x3b81cbd5	0.0039610662
103	0xbdcc19fb	-0.09965893
104	0xbd12ac25	-0.0358087
105	0x3d37bb05	0.04485609
106	0x3c8dd771	0.017314645
107	0xbd9b9cce	-0.075982675
108	0xbdc2d66b	-0.09513553
109	0x3c68ee53	0.014216977
110	0x3d59cf5f	0.05317628
111	0x3bb685e4	0.00557016
112	0xbd2f01e9	-0.04272643
113	0x3dfa4105	0.12219433
114	0xbdaf6465	-0.085640706
115	0x3c54540f	0.012959494
116	0xbb8f0877	-0.0043650228
117	0xbd2f4f46	-0.04280021
118	0xbcac7a4a	-0.021054406
119	0xbd6b0743	-0.057379972
120	0xbb9ec1f2	-0.0048448974
121	0x3de79ebc	0.11309573
122	0xbd8ba378	-0.068182886
123	0xbd9d2fc6	-0.07675128
124	0x3c81a176	0.01582406
125	0xbd58d1f0	-0.052934587
126	0xbdaf4f9a	-0.08560105
127	0x3dab745d	0.08371804
128	0xbce9d073	-0.02854178
129	0x3dc6c024	0.09704617
130	0x3d00a73d	0.03140949
131	0x3d9dc6ff	0.07703971
132	0xbd98bfdf	-0.074584715
133	0xbd414956	-0.04718908
134	0x3ca6bed6	0.02035467
135	0xbda3ede6	-0.0800436
136	0x3c03fc13	0.008055705
137	0xbdc06d11	-0.09395803
138	0x3d0fc9d4	0.035104588
139	0x3d22f0ca	0.039780416
140	0xbd2d5dbc	-0.04232572
141	0x3dc1c57a	0.09461494
142	0x3bf9e0d6	0.0076256795
143	0xbdfbf9fb	-0.12303539
144	0xbdcf0b40	-0.10109568
145	0xbd1b4ea1	-0.037916783
146	0x3d002bee	0.031291895
147	0x3dd03711	0.10166753
148	0xbdbaf4c3	-0.09128716
149	0xbdefe0a0	-0.11712766
150	0xbdc69509	-0.09696395
151	0x3c7845cd	0.015153361

conv1d_2.weight f4 [88, 152, 3]
0	0xbced839f	-0.028993426
1	0xbcb13a13	-0.021634137
2	0xbc58be69	-0.013228991
3	0x3d225969	0.03963605
4	0x3d837ced	0.06420312
5	0x3bff20c4	0.0077858884
6	0xbcfecb4d	-0.0311028
7	0x3c902dd8	0.017599985
8	0xbcf2fedc	-0.029662542
9	0xbd14b59c	-0.03630601
10	0x3cd4e013	0.025985753
11	0x3cb214d1	0.021738442
12	0x3d12ff5d	0.035888065
13	0xbd4eb59e	-0.050466172
14	0x3c2e76fe	0.010648487
15	0xbd295fa5	-0.04135098
16	0xbd0ea0b0	-0.034821212
17	0xbbe83a11	-0.007087
18	0xbd1e24be	-0.03860926
19	0xbd00cb3e	-0.031443827
20	0xbca08526	-0.01959474
21	0xbc8eb74a	-0.017421383
22	0x3c960336	0.018312078
23	0x3d2ee6ed	0.042700697
24	0xbd09ca9c	-0.03364049
25	0x3d4a7300	0.04942608
26	0xbcfb901f	-0.03070837
27	0x3cce6d52	0.025198612
28	0xbd15409a	-0.036438562
29	0xbd0cbddf	-0.034360763
30	0xbc991ac8	-0.018689528
31	0xbd08a4b4	-0.0333602
32	0xbc4dc30a	-0.012558708
33	0xbcc4aefe	-0.024009224
34	0x3c8deec2	0.017325763
35	0x3d3f25c1	0.046666864
36	0xbd010493	-0.031498503
37	0xbabdd1e4	-0.0014482108
38	0x3cff9c47	0.031202449
39	0x3cd5ee57	0.026114626
40	0x3c073f9a	0.00825491
41	0xbd1bcc52	-0.038036652
42	0xbb99533c	-0.0046791118
43	0xbd10d00b	-0.035354655
44	0x3c5f770f	0.013639226
45	0xbc798fa2	-0.015231999
46	0x3c7a1259	0.0152631635
47	0x3d1b9a4d	0.03798895
48	0x3d14b2f5	0.03630348
49	0xbd5e2aac	-0.054239914
50	0x3d244ce7	0.040112402
51	0xbc338b83	-0.010958555
52	0x3c4bb115	0.012432356
53	0xba88c0a4	-0.0010433388
54	0xba22ced1	-0.00062106276
55	0x3ca11d26	0.01966722
56	0xbc69bfc1	-0.014266909
57	0x3c874c0e	0.016515758
58	0xbbe82e81	-0.007085622
59	0xbcc4d0b6	-0.024025302
60	0x3d02629e	0.03183233
61	0x3d91a692	0.07111849
62	0x3cfddfb4	0.030990459
63	0xbd20e494	-0.03928049
64	0xbcb758b4	-0.022381164
65	0x3d04b8ec	0.032402918
66	0x3bd27316	0.0064224107
67	0x3bc1ad88	0.005910579
68	0xbc8e18e9	-0.017345862
69	0xbb7f83ff	-0.0038988588
70	0x3d7ca4c1	0.06168056
71	0x3ce466e6	0.027881097
72	0x3d1f5698	0.03890094
73	0x3c81533f	0.015786765
74	0x3cfdb074	0.030967928
75	0xbc6a7388	-0.014309771
76	0xbd92695c	-0.07149002
77	0xbd3e5dcf	-0.04647618
78	0xbd3d1620	-0.04616368
79	0xbd1989d1	-0.037484948
80	0x3bad0f16	0.0052813394
81	0xbc4c4ead	-0.01246993
82	0xbd16af37	-0.03678819
83	0xbc51af81	-0.012798191
84	0xbb8dee0d	-0.0043313564
85	0x3d782012	0.06057746
86	0x3d08afcd	0.03337078
87	0xbb3b1be7	-0.0028550567
88	0xbc2285f2	-0.00991963
89	0xbd111ef1	-0.0354299
90	0xbc90b0de	-0.017662462
91	0xbc33b0e3	-0.010967466
92	0xbc2d15c2	-0.0105642695
93	0x3c5405e9	0.012940862
94	0xbcad4521	-0.021151127
95	0x3c896a1e	0.016774233
96	0xbc7d24ed	-0.015450698
97	0x3d29fa97	0.041498747
98	0x3cad440c	0.021150611
99	0x3cf24020	0.029571593
100	0xbc7e3c0b	-0.015517245
101	0x3ce6f919	0.02819495
102	0xbcb7e8c1	-0.022449853
103	0x3cb48079	0.022033917
104	0x3d28fe84	0.04125835
105	0xbd00fbe5	-0.031490225
106	0x3c80b973	0.01571343
107	0x3a88e1cc	0.0010443269
108	0x3c54a055	0.012977679
109	0x3cf79dce	0.030226614
110	0xbba697ff	-0.0050840373
111	0xbcbecf75	-0.023292283
112	0x3afc2309	0.0019236516
113	0xbbd155c1	-0.0063883965
114	0xbd395740	-0.045249224
115	0x3cd0f943	0.025509482
116	0x3d000f47	0.03126457
117	0xbca62afa	-0.020284165
118	0x3d260a4f	0.040537175
119	0xbbe91779	-0.007113394
120	0xba1eb7b7	-0.00060545973
121	0xbd6586f8	-0.05603692
122	0xbcf85fec	-0.030319177
123	0xbd23e5a8	-0.04001394
124	0xbbca8927	-0.0061809006
125	0xbabf253d	-0.0014583241
126	0xb9d81a40	-0.00041218288
127	0x3d03e657	0.03220209
128	0x3b897f90	0.004196115
129	0x3d3c1f25	0.04592814
130	0xbc6689ea	-0.014070967
131	0x3d2bda7f	0.04195642
132	0x3d2eb923	0.04265703
133	0xbd0c93e4	-0.034320727
134	0x3d3b16ec	0.045676157
135	0xbb3f11f2	-0.0029154983
136	0xbd20a63e	-0.03922104
137	0xbd1c722f	-0.03819483
138	0x3cc3a004	0.023880012
139	0xbcb57b0b	-0.022153398
140	0x3b80ad2d	0.003926894
141	0xbd0f5d3a	-0.035001017
142	0x3a82109c	0.0009923163
143	0xbb386cbb	-0.002814098
144	0xbcbee997	-0.023304744
145	0xbcd10437	-0.025514705
146	0x3ce6dc7f	0.028181313
147	0xbd395ede	-0.045256488
148	0xbde08763	-0.10963323
149	0xbd097917	-0.033562746
150	0x3cc248e3	0.023716396
151	0x3d6c2797	0.057654943
152	0x3c4cae59	0.01249274
153	0xbca7c1d5	-0.020478169
154	0x3ca96ceb	0.020681819
155	0xbc8eba85	-0.017422924
156	0x3c36c24d	0.011154723
157	0x3dbd4673	0.09241953
158	0xbcad5a00	-0.02116108
159	0xbc8c2b4f	-0.017110495
160	0xbc89e77e	-0.016834017
161	0x3c6653be	0.014058052
162	0xbc3009bf	-0.010744511
163	0xbb1de154	-0.0024090605
164	0x3d2c0cd5	0.042004425
165	0xbd30a276	-0.043123685
166	0xbc5732fd	-0.013134715
167	0x3d1b59b9	0.037927363
168	0x3c66b245	0.014080589
169	0xbd3ba91e	-0.04581558
170	0xbaf76a4d	-0.0018876285
171	0xbc33feb6	-0.010986021
172	0xbced86a7	-0.028994871
173	0xbce2c27a	-0.027680624
174	0xbcb3c097	-0.02194242
175	0x3ca1dac2	0.019757632
176	0xbccf190b	-0.025280496
177	0xbbfba25f	-0.0076792683
178	0xbd202425	-0.03909697
179	0x3cbefd48	0.023314133
180	0x3c26baad	0.010176343
181	0xbc85e09d	-0.016342456
182	0x3b210983	0.002457232
183	0x3cd92761	0.026508035
184	0xbd773f4b	-0.060363095
185	0xbcd2c997	-0.025730891
186	0x3d2a3eb3	0.0415637
187	0xbd26df77	-0.040740456
188	0x3d21f25d	0.039537776
189	0x3cd32f2d	0.025779331
190	0xbd8cee42	-0.068813816
191	0x3d1465a6	0.036229752
192	0x3cb0b557	0.021570845
193	0xbd70a420	-0.05875027
194	0xbc110c06	-0.008852964
195	0x3d093f53	0.033507656
196	0xbd28f6c8	-0.041250974
197	0x3ca05804	0.01957322
198	0xbb374cbb	-0.002796932
199	0xbd17c6b5	-0.037054736
200	0x3bf36d00	0.0074287653
201	0xbcdae995	-0.026722709
202	0xbc87720e	-0.016533878
203	0xbd3879fe	-0.045038216
204	0xbd06d9ab	-0.032922428
205	0xbc29b28c	-0.01035751
206	0xbba5236c	-0.005039623
207	0xbd268d9e	-0.0406624
208	0x3b2e9b52	0.002664287
209	0x3c9b2a74	0.018941142
210	0x3d20e436	0.03928014
211	0xbc75f013	-0.015010851
212	0xbbb572b9	-0.0055373576
213	0x3ce79208	0.028267875
214	0xbd9480fc	-0.07251164
215	0xbc9ccdba	-0.019141067
216	0x3c9831b6	0.018578392
217	0xbcf34ace	-0.029698756
218	0xbc9227e4	-0.017841287
219	0xbd08ada7	-0.033368733
220	0xbc08abab	-0.00834171
221	0x3d25d4e9	0.04048625
222	0x3b573be8	0.0032842103
223	0xbcb87182	-0.022515062
224	0x3b87521c	0.0041296612
225	0x3cf8e443	0.030382281
226	0x3d37c43f	0.04486489
227	0x3c842a57	0.01613347
228	0x3ce83eed	0.028350318
229	0xbcc474ac	-0.023981415
230	0x3d0f8f0e	0.035048537
231	0xbd3cc832	-0.04608936
232	0x3ca8ec50	0.020620495
233	0x3d3818f8	0.044945687
234	0x3d093994	0.033502176
235	0x3ac90553	0.001533667
236	0x3d2b641b	0.041843515
237	0xbbe4d42a	-0.0069832997
238	0xbc2ff9fb	-0.010740752
239	0x3d1a6474	0.037693456
240	0xbd0f947f	-0.035053726
241	0x3cedf95e	0.029049572
242	0xbd3716a4	-0.044699326
243	0xbc63bcf2	-0.013900029
244	0x3d895237	0.06705134
245	0xbc426a14	-0.011866111
246	0xbd055799	-0.032554243
247	0xbc3220c6	-0.010872072
248	0x3d205a75	0.039148767
249	0x3d06466c	0.032782003
250	0x3d1c7671	0.038198892
251	0xbcaa557b	-0.020792713
252	0x3c8147ef	0.01578137
253	0x3d01aeaa	0.031660713
254	0x3c8f96b3	0.017527914
255	0xbbe69027	-0.0070362273

conv1d_2.bias f4 [88]
0	0xbc891620	-0.016734183
1	0x3cae409a	0.021271039
2	0xbbb14d1b	-0.005410803
3	0xbb6e8bd1	-0.0036399255
4	0x3bfb6a73	0.007672602
5	0xbd0ef265	-0.034899134
6	0x3c407815	0.01174738
7	0x3d520c5f	0.05128133
8	0xbb65b2fd	-0.0035049312
9	0xbd43385c	-0.04766117
10	0xbb60b32d	-0.0034286485
11	0x3dc91768	0.098189175
12	0x3dd0266f	0.101635806
13	0xbd87117d	-0.065951325
14	0xbbad51bb	-0.005289284
15	0x3ce1c7d1	0.0275611
16	0xbb9d45c3	-0.004799576
17	0x3d8617f7	0.0654754
18	0xbd1407bd	-0.036140192
19	0xbce5a8a2	-0.028034512
20	0x3b37669c	0.0027984744
21	0x3cd031f0	0.025414437
22	0xbce2e506	-0.027697098
23	0xbcebda89	-0.02879073
24	0x3dea06a2	0.11427046
25	0x3d791541	0.060811285
26	0x3d07a234	0.033113673
27	0x3b563c0e	0.0032689604
28	0x3d534ec5	0.051588792
29	0x39859563	0.0002547904
30	0x3c66e415	0.014092465
31	0xbd1705ab	-0.03687064
32	0xbd433050	-0.047653496
33	0xbc0293d4	-0.007969815
34	0xbd907619	-0.07053775
35	0x3c830fc4	0.015998729
36	0xbcedf69f	-0.029048262
37	0xbce026ae	-0.027362194
38	0x3c9bbb75	0.019010285
39	0xbd14a126	-0.036286496
40	0xbdc94af8	-0.09828752
41	0x3cbd9788	0.023143545
42	0xbd252a7f	-0.04032373
43	0x3ba1d0f0	0.0049382374
44	0xbc634709	-0.013871917
45	0x3c2a41b2	0.01039164
46	0x3c697150	0.014248207
47	0x3d80a92b	0.06282266
48	0x3d1bb4a9	0.038014088
49	0xbc1c0f5d	-0.009525147
50	0xbd8b4764	-0.06800726
51	0xbacd7a44	-0.0015676697
52	0xbbae1708	-0.005312804
53	0x3d2d9bd7	0.04238495
54	0x3c771e79	0.015082949
55	0xbcb1f04e	-0.021721032
56	0x3c9c6083	0.01908899
57	0x3c8a52ba	0.01688515
58	0x3b823977	0.0039741355
59	0xba938fdc	-0.0011258083
60	0x3d0a7ade	0.03380858
61	0x3dbe4d42	0.092920795
62	0x3c11b37c	0.00889289
63	0xbd41ad9e	-0.047284715
64	0xbd700a2d	-0.058603454
65	0x3cf82058	0.03028886
66	0x3d2dc96d	0.042428423
67	0xbd03b308	-0.03215316
68	0x3dc29106	0.09500317
69	0xbbf9f76e	-0.007628373
70	0x3d6b2ae5	0.057413954
71	0x3d5b9af6	0.05361458
72	0x3d4f468c	0.050604388
73	0x3d3cbebb	0.046080332
74	0xbd89a454	-0.06720796
75	0xbdf13773	-0.11778154
76	0xbd85418f	-0.06506645
77	0xbcb3b147	-0.021935118
78	0xbc29ce09	-0.010364064
79	0x3ca87bf7	0.020566924
80	0x3bc26061	0.0059318994
81	0xbd1aba7c	-0.0377755
82	0x3d56ed35	0.052472312
83	0x3d8d9f25	0.0691512
84	0xbd4d06ad	-0.050055195
85	0x3d762e4e	0.060102753
86	0xbd5a8327	-0.053347733
87	0x3d59241d	0.053012956

features.0.weight f4 [100, 88]
0	0x3ae99518	0.0017820923
1	0x3cc3e8d5	0.023914734
2	0xbd1d3bb3	-0.03838701
3	0xbdc20bcc	-0.09474906
4	0x3d8ca2ed	0.06867013
5	0x3dadb54e	0.08481847
6	0xbd9f1802	-0.07768251
7	0xbd9dd278	-0.07706159
8	0xbd96b83b	-0.07359358
9	0x3d7c464d	0.06159048
10	0x3d2e95b1	0.042623226
11	0xbd7d5f42	-0.061858423
12	0x3d3daaa5	0.046305317
13	0x3dc669de	0.09688161
14	0xbdb7f183	-0.089816116
15	0x3d9f6749	0.07783372
16	0x3db1f99d	0.08690188
17	0x3d9aeb2e	0.07564388
18	0xbd9b9128	-0.07596046
19	0x3bb7e3fb	0.005611894
20	0x3da6c77f	0.081435196
21	0xbc3c0326	-0.01147536
22	0x3d357e11	0.04430968
23	0x3cace3e0	0.021104753
24	0xbd182213	-0.03714187
25	0xbd9a89e2	-0.0754583
26	0xbc852dbe	-0.016257163
27	0x3c009152	0.007847147
28	0x3dc34087	0.09533792
29	0xbc3e4523	-0.011613163
30	0x3dd1ae83	0.102383636
31	0x3dd5c288	0.104374945
32	0x3d5ddf28	0.054167897
33	0xbcdf1a27	-0.02723415
34	0x3caed9f7	0.021344168
35	0xb91656db	-0.00014337471
36	0x3d4dde94	0.050261095
37	0xbde0857c	-0.1096296
38	0x3d835283	0.06412222
39	0x3d9b769e	0.07590984
40	0xbd8c09e5	-0.06837825
41	0x3cd35998	0.025799558
42	0x3b8a9f56	0.00423042
43	0x3d345633	0.04402752
44	0x3d73ea93	0.05954988
45	0x3bc46bf4	0.0059943143
46	0x39031994	0.00012502662
47	0x3d9cfe23	0.0766566
48	0xbcd8bd97	-0.026457591
49	0xbd0d93e0	-0.034564853
50	0xbdaaf692	-0.08347811
51	0x3ceb8fe3	0.028755134
52	0xbb475654	-0.0030416446
53	0x3dc822bd	0.09772251
54	0x3d6fcf62	0.058547385
55	0xbd74db0f	-0.059779223
56	0xbcb4bb34	-0.022061922
57	0xbd95bbc6	-0.073112056
58	0xbca7fe56	-0.020507019
59	0x3d3d9d71	0.046292726
60	0x3db006df	0.085950606
61	0xbd7778ea	-0.060418047
62	0x3dbdc2b1	0.0926565
63	0xbcc0f484	-0.023554094
64	0x3d44be30	0.04803294
65	0x3d3f156c	0.04665129
66	0x3cdef3b8	0.027215824
67	0x3daf36ca	0.08555372
68	0x3d3d05d8	0.04614815
69	0xbd6f0efc	-0.0583639
70	0xbdaec22b	-0.08533128
71	0x3ca7cc12	0.02048305
72	0x3d8fd8ff	0.070238106
73	0xbcf2ccf0	-0.029638737
74	0xbc735bcd	-0.01485343
75	0xbd06718c	-0.03282313
76	0x3d98b8c6	0.07457118
77	0xbcf99d6c	-0.030470572
78	0x3d5e2a4a	0.05423955
79	0xbc38edfc	-0.011287209
80	0xbdb5f9ff	-0.088855736
81	0xbcf19010	-0.02948764
82	0x3da706c9	0.08155591
83	0xbdd635c4	-0.10459474
84	0x3c071efa	0.0082471315
85	0xbd53f295	-0.051745016
86	0x3cf58dab	0.02997478
87	0x3c81fb62	0.015866939
88	0xbdb88a77	-0.09010785
89	0x3d311d72	0.043240972
90	0xbdd74f50	-0.105131745
91	0x3d16ef85	0.036849517
92	0x3e1bfee8	0.15233958
93	0x3d2ea62a	0.042638935
94	0xbc796264	-0.015221212
95	0xbe15a34d	-0.14613076
96	0x3de56bf6	0.112022325
97	0x3d36d6f3	0.044638585
98	0xbc1de1ad	-0.009636325
99	0x3c161082	0.009159209
100	0xbd813bc0	-0.063102245
101	0x3cdc9d86	0.026930582
102	0x3c18c866	0.009325122
103	0x3d8af99a	0.06785889
104	0xbda3ce52	-0.07998337
105	0xbd38f62d	-0.045156647
106	0x3d90baf6	0.0706691
107	0x3d820bfc	0.06349942
108	0xbaa56f79	-0.0012621722
109	0x3dd070eb	0.101777874
110	0xbd9262aa	-0.07147725
111	0x3d8ac944	0.067766696
112	0xbd8f6dd9	-0.07003374
113	0x3d358998	0.044320673
114	0xbd884c3b	-0.06655165
115	0x3c3ddffc	0.011589047
116	0x3d8e1f1f	0.0693953
117	0xbcb35fa2	-0.021896187
118	0xbc3ca888	-0.01151479
119	0xbd387ddc	-0.045041904
120	0x3df6b673	0.12046518
121	0xbca064ba	-0.01957928
122	0xbdac7f94	-0.08422771
123	0x3e0115a3	0.1260591
124	0xbdb62c23	-0.08895137
125	0xbddedbb0	-0.10881746
126	0xbdae7105	-0.085176505
127	0xbbff319c	-0.0077878963
128	0xbac3fa09	-0.0014951836
129	0xbdbf39a4	-0.09337166
130	0x3d659efb	0.05605982
131	0xbc4779b4	-0.012175012
132	0xbd50ee57	-0.05100855
133	0xbe0517f8	-0.12997425
134	0x3dc58654	0.09644762
135	0x3c942b90	0.018087178
136	0xbccf2462	-0.025285903
137	0x3d5c698e	0.053811602
138	0xbd9998e8	-0.07499868
139	0xbdab4df0	-0.08364475
140	0xbe01f4be	-0.12691018
141	0x3d4917ce	0.049094968
142	0x3cee5097	0.029091163
143	0xbdb3391f	-0.08751129
144	0x3da846e4	0.08216646
145	0x3e100697	0.14065014
146	0x3c575cb0	0.013144657
147	0xbd8c6a9c	-0.068562716
148	0x3d13e9da	0.03611169
149	0x3c4b26f6	0.012399426
150	0xbdcb6a25	-0.09932355
151	0x3befab14	0.0073140953
152	0xbd89c6b8	-0.06727356
153	0xbdc1c852	-0.09462036
154	0x3db4654e	0.08808385
155	0xbda75210	-0.08169949
156	0xbd4d9f53	-0.05020077
157	0xbd3cdc0f	-0.0461083
158	0x3d210d0a	0.039319076
159	0x3d58bfe4	0.052917376
160	0x3d5414ff	0.051777836
161	0x3c9df86f	0.019283501
162	0xbdc3614c	-0.09540042
163	0xbd89c9d4	-0.06727949
164	0xbd4d437e	-0.050113194
165	0xbdbc885d	-0.09205697
166	0x3db7df52	0.08978142
167	0xbdc7389b	-0.097275935
168	0xbdc4ca2c	-0.09608874
169	0xbd941ea1	-0.072324045
170	0x3d148fcb	0.036269944
171	0xbdbf5067	-0.093415074
172	0x3da22355	0.07916895
173	0x3d0d806f	0.034546312
174	0x3ce29062	0.027656738
175	0xbdc253b7	-0.094886236
176	0xbd570163	-0.052491557
177	0x3d13de7a	0.036100842
178	0xbccf5749	-0.025310175
179	0xbdb864f4	-0.0900363
180	0xbdb4633b	-0.08807989
181	0x3ca2bcff	0.019865511
182	0x3dc3f9f2	0.09569158
183	0xbcb298b4	-0.02180133
184	0xbd359fe0	-0.04434192
185	0x3dd0935b	0.10184356
186	0xbd278515	-0.0408984
187	0x3c6ab216	0.014324686
188	0xbdb72da0	-0.08944249
189	0x3dd68e7f	0.10476398
190	0xbc7bb13e	-0.015362082
191	0x3d9c70f0	0.076387286
192	0x3dc16546	0.094431445
193	0xbdb9f051	-0.0907904
194	0xbd289875	-0.04116102
195	0x3bd06c75	0.0063605853
196	0xbbe11e8a	-0.0068700956
197	0xbbd28831	-0.0064249267
198	0xbb8b5c75	-0.004252965
199	0x3d906165	0.070498265
200	0xbce0dffa	-0.02745055
201	0xbd6c86a0	-0.057745576
202	0xbdc6a068	-0.09698564
203	0x3dba121a	0.09085484
204	0xbd1def4e	-0.038558297
205	0x3daf15dc	0.08549091
206	0xbc125b5d	-0.0089329155
207	0xbd9fef1b	-0.078092776
208	0xbd20d6bc	-0.039267287
209	0x3d84f96a	0.064928845
210	0x3d019f8d	0.0316463
211	0x3d25b528	0.040455967
212	0x3dd7496c	0.10512051
213	0x3c261f24	0.01013926
214	0x3d80ccc9	0.0628906
215	0xbd9b917e	-0.0759611
216	0xbd7423c1	-0.05960441
217	0xbd1f7fba	-0.03894017
218	0x3dc4796a	0.095934704
219	0x3d851e30	0.064998984
220	0x3d882f14	0.066496044
221	0xbd724f16	-0.059157453
222	0x3c22f9af	0.0099472245
223	0x3cd9d4b3	0.02659068
224	0x3d9dbda8	0.0770219
225	0x39d942e8	0.00041439314
226	0x3c44d4c3	0.012013617
227	0xbd7614f1	-0.060078565
228	0x3c123f13	0.008926171
229	0xbd98b733	-0.074568175
230	0xbc317b94	-0.010832686
231	0xbd4b06f1	-0.049567167
232	0x3d1c6af0	0.03818792
233	0xbd6d1340	-0.057879686
234	0xbd087510	-0.033314764
235	0xbd9bee9e	-0.07613872
236	0x3c25c0e4	0.0101167895
237	0x3d42e4ee	0.047581606
238	0x3d4714e1	0.048603896
239	0x3daa730a	0.08322723
240	0x3d33c208	0.043886214
241	0x3d84b363	0.06479528
242	0x3c1e41dd	0.009659258
243	0xbd6eefe7	-0.058334257
244	0x3dbd65c2	0.092479244
245	0xbcad1c6d	-0.021131719
246	0x3d833963	0.0640743
247	0xbb50d612	-0.0031865877
248	0xbcd2b22c	-0.025719725
249	0x3dbb4769	0.0914448
250	0x3cf845ec	0.030306779
251	0xbdb77505	-0.089578666
252	0x3c3979f2	0.011320578
253	0x3a90a7d5	0.0011036346
254	0x3d739122	0.05946458
255	0xba3ff3c2	-0.00073223945

features.0.bias f4 [100]
0	0x3de2a8d9	0.110673614
1	0x3daffcea	0.085931614
2	0xbbcab424	-0.006186025
3	0x3d89b367	0.067236714
4	0x3d2baecd	0.04191475
5	0x3dc3c853	0.09559693
6	0x3c4a0b9e	0.012331871
7	0x3ccf9411	0.025339158
8	0xbd95a87f	-0.07307529
9	0xbd607f98	-0.054809183
10	0xbd76d206	-0.060258888
11	0xbd170c8a	-0.036877193
12	0xbc31a7ee	-0.01084326
13	0xbc03a27b	-0.008034344
14	0x3d1b7f26	0.037963055
15	0xbd95fe1e	-0.0732386
16	0x3df670a6	0.12033205
17	0xbc213814	-0.00984003
18	0x3de575c9	0.11204106
19	0x3c54e322	0.012993606
20	0xbd876aec	-0.066121906
21	0x3db6b5b2	0.089213744
22	0xbd0315fb	-0.032003384
23	0x3ccadfbb	0.024764886
24	0x3b42762e	0.0029672491
25	0x3d0208d3	0.031746697
26	0xbd29e6d3	-0.041479897
27	0x3d918fc1	0.07107497
28	0x3ce8e392	0.028428826
29	0xbd357bed	-0.044307638
30	0xbe0ae469	-0.13563694
31	0x3d6a956e	0.057271414
32	0x3d63be37	0.055601325
33	0x3dad16c7	0.0845161
34	0xbd8f36c4	-0.069928676
35	0xbce53b62	-0.027982417
36	0x3cd0973a	0.025462735
37	0x390e8563	0.00013591866
38	0xbc3bf1fb	-0.011471267
39	0x3d031e3f	0.032011267
40	0xbe0f3cb3	-0.13987999
41	0x3da72076	0.08160488
42	0x3d455ebf	0.04818606
43	0xbd94211c	-0.072328776
44	0xbe0a5214	-0.13507873
45	0xbbdd9e82	-0.0067632804
46	0xbb410145	-0.002945022
47	0x3d32dd64	0.043668166
48	0xbcf00ce5	-0.029303024
49	0xbe16b8b3	-0.14718895
50	0x3dd762a5	0.10516862
51	0x3dae8984	0.08522323
52	0xbddb1b8a	-0.10698612
53	0xbd640bef	-0.055675443
54	0x3d27336a	0.040820517
55	0x3d5551d1	0.05207998
56	0xbd142d95	-0.036176283
57	0xbd1094be	-0.0352981
58	0xbbd3b391	-0.006460615
59	0x3d99bc15	0.07506577
60	0x3d9b5082	0.07583715
61	0xbdcd19c2	-0.100146785
62	0xbd40fea1	-0.047117833
63	0xbd98abc7	-0.07454639
64	0x3ccc658d	0.024950767
65	0x3d4057df	0.0469588
66	0xbe1ec788	-0.15505803
67	0x3bf4a9f4	0.007466549
68	0x3c56efdb	0.013118709
69	0x3df575b2	0.11985339
70	0xbd3f26fd	-0.04666804
71	0xbc1dafce	-0.009624435
72	0x3d6122a4	0.054964676
73	0x3cae5d00	0.02128458
74	0x3dd5ab36	0.104330465
75	0x3a89df35	0.0010518791
76	0xbd987efb	-0.074460946
77	0x3da3648f	0.079781644
78	0xbd2800ae	-0.041016273
79	0xbcfb7707	-0.030696405
80	0x3db030cc	0.08603057
81	0xbc95c57b	-0.018282643
82	0x3c9b9df2	0.018996213
83	0x3d982fa3	0.07430961
84	0x3d601bf3	0.054714154
85	0xbdac9daf	-0.08428513
86	0x3d6be138	0.057587832
87	0x3dceb684	0.10093406
88	0x3de60270	0.11230934
89	0x3d68927f	0.056780335
90	0x3dbae06f	0.091248386
91	0xbe0a4a3a	-0.13504878
92	0xbcb0588f	-0.021526603
93	0xbd370b77	-0.044688668
94	0x3d43ed40	0.04783368
95	0xbd54a650	-0.05191642
96	0xbd91509b	-0.070954524
97	0xba9b9bfa	-0.0011872046
98	0x3dc50cdd	0.09621594
99	0x3d870de2	0.06594445

features.2.weight f4 [24, 100]
0	0xbdeb496f	-0.11488616
1	0xbce2d5c3	-0.02768982
2	0xbcbdcd39	-0.023169147
3	0xbd06e198	-0.032929987
4	0xbd65a0eb	-0.056061666
5	0x3d3e0fd7	0.046401825
6	0x3cfe0740	0.031009316
7	0xbcc8d52c	-0.02451571
8	0xbcadc976	-0.021214228
9	0xba5bf668	-0.00083909044
10	0x3dd28b78	0.10280508
11	0x3cc4c430	0.02401933
12	0xbce59e7d	-0.028029675
13	0x3d16ca29	0.03681389
14	0xbc951714	-0.018199481
15	0x3dc1e7e0	0.09468055
16	0xbddd0f4b	-0.107939325
17	0x3bf02a40	0.0073292553
18	0xba18c34a	-0.000582744
19	0xbd0f7867	-0.035026934
20	0xbd56e359	-0.05246291
21	0xbda59df1	-0.080867656
22	0x3c983507	0.018579973
23	0xbdadc760	-0.084852934
24	0x3d467ffc	0.0484619
25	0x3c4c4e15	0.012469788
26	0x3da21f5b	0.07916137
27	0x3da90d51	0.08254493
28	0x3da226be	0.07917546
29	0xbb9064ab	-0.004406532
30	0xbd8842fb	-0.066534005
31	0xbcab94bb	-0.020944944
32	0x3cc2a270	0.023759097
33	0xbdc66ec6	-0.09689097
34	0x3d246c6d	0.040142465
35	0xbc4f4848	-0.012651511
36	0x3d069adf	0.03286254
37	0xbd8df6e4	-0.06931856
38	0xbb6d52e6	-0.0036212741
39	0xbdb7dc9f	-0.08977627
40	0x3e049d1f	0.12950562
41	0x3dc11fff	0.09429931
42	0x3d7fbe54	0.06243737
43	0x3dcec368	0.100958645
44	0xbd7a3ee2	-0.061095126
45	0x3d9fd4a0	0.07804227
46	0xbd0177dd	-0.03160845
47	0xbc801e8a	-0.015639562
48	0x3c988c8b	0.018621704
49	0xbaa444b5	-0.0012532683
50	0xbd679ff7	-0.05654904
51	0x3d0e7495	0.03477915
52	0xbd3e68bc	-0.0464866
53	0x3e014157	0.12622581
54	0xbdc61e05	-0.096736945
55	0x3be7cefa	0.007074234
56	0xbc4aa526	-0.012368476
57	0xbdcea40a	-0.10089882
58	0xbda72469	-0.081612416
59	0x3cb3e3c9	0.021959202
60	0xbcee4222	-0.029084269
61	0xbd86ef81	-0.065886505
62	0x3d8efdc5	0.069819964
63	0xbcb7cbd4	-0.02243606
64	0x3d81aa6c	0.063313335
65	0xbd3682b2	-0.044558235
66	0xbcb7fca7	-0.022459341
67	0x3d3b591f	0.04573929
68	0x3cd2b850	0.025722653
69	0xbd264fa1	-0.040603284
70	0xba67bac5	-0.00088397815
71	0xbd659119	-0.05604658
72	0x3c1d102c	0.009586375
73	0xbd40948b	-0.04701666
74	0x3c8aec1a	0.016958285
75	0x3ce5346d	0.0279791
76	0x3cf256cb	0.029582402
77	0x3d71c589	0.059026275
78	0x3dacde8b	0.08440884
79	0xbc1d7df7	-0.009612552
80	0x3c843ee6	0.016143274
81	0x3d890ce2	0.0669191
82	0xbccb9922	-0.024853293
83	0x3c494e4f	0.012286737
84	0x3d7b9df2	0.061429925
85	0x3d9daa1e	0.07698463
86	0xbd7c9d98	-0.06167373
87	0xbbccdd9c	-0.006252004
88	0x3c5ff213	0.013668555
89	0xbcbd1a94	-0.023083963
90	0xbd9b2dea	-0.07577117
91	0x3de1efe6	0.11032085
92	0x3cfacf19	0.03061633
93	0xbd0c147b	-0.03419922
94	0xbc70d824	-0.014699969
95	0xbd1b53c6	-0.03792169
96	0x3ceacc95	0.028662005
97	0x3d054c10	0.032543242
98	0xbda07eee	-0.0783671
99	0xbce1074c	-0.0274693
100	0x3bc3352a	0.0059572654
101	0x3d838ca7	0.06423312
102	0xbd1c672c	-0.03818433
103	0x3d61fdd9	0.05517373
104	0x3c8cc1c9	0.017182248
105	0x3cc5a8cd	0.024128342
106	0xbd2631c8	-0.04057482
107	0x3c823b73	0.015897488
108	0x3cb7dad9	0.022443222
109	0x3dd89733	0.10575714
110	0x3da15f46	0.078795
111	0xbd2e89b3	-0.04261179
112	0xbc21e353	-0.0098808585
113	0xbce0f448	-0.027460232
114	0xbd76ab58	-0.060222
115	0xbd5005e5	-0.05078687
116	0xbd8fbe8b	-0.07018765
117	0xbc2cfbfa	-0.010558123
118	0x3cc29f1c	0.02375751
119	0x3c97020d	0.018433595
120	0x3dbbe776	0.09175007
121	0x3d22716f	0.03965896
122	0x3d404a95	0.046946127
123	0xbc9d8d76	-0.019232493
124	0x3d06a177	0.03286883
125	0x3d2aaa7a	0.041666485
126	0xbd8ae486	-0.06781869
127	0x3cf09f6f	0.029372899
128	0xbc6216b8	-0.013799362
129	0xbb40caba	-0.002941771
130	0x3a3ff9e0	0.0007323306
131	0x3be2fd33	0.0069271564
132	0x3d9ee94a	0.0775934
133	0x3d764823	0.06012739
134	0xbdce7249	-0.10080392
135	0x3d1dc6bd	0.03851961
136	0xbb98c06b	-0.00466161
137	0x3d862f6b	0.06552013
138	0x3d3c6e79	0.046003792
139	0xbdda45c6	-0.106578395
140	0x3d9c5764	0.07633856
141	0x3cb9e708	0.022693172
142	0x3d0cfd09	0.034421
143	0x3da70f51	0.08157218
144	0xbda457b3	-0.0802454
145	0x3d136945	0.035989065
146	0x3d7d61e0	0.06186092
147	0x3d8d9173	0.06912508
148	0xbd4d9684	-0.05019237
149	0xbd7c2fef	-0.06156915
150	0x3dcd9d51	0.10039771
151	0x3d16c4ec	0.036808893
152	0x3d5c208c	0.053741977
153	0x3ca42748	0.020038262
154	0x3c2ddcba	0.010611707
155	0xbdb9b64b	-0.09067973
156	0xbd8dc886	-0.069230124
157	0xbe14cde9	-0.14531673
158	0xbd5a1ff2	-0.05325312
159	0x3c4b2d28	0.012400903
160	0xbdadabb1	-0.08480013
161	0xbd9e6d1c	-0.07735655
162	0x3d8fd557	0.07023113
163	0x3d06123e	0.03273224
164	0xbd972e58	-0.07381886
165	0x3bbbc842	0.0057306597
166	0x3d2cb658	0.042166084
167	0xbdc50385	-0.09619812
168	0x3dac6a09	0.08418662
169	0xbde03c25	-0.10948972
170	0x3c8bee9e	0.017081555
171	0x3cf0e538	0.029406175
172	0xbd40ed72	-0.047101445
173	0x3d2281d2	0.039674588
174	0xbbbfa8c3	-0.0058489754
175	0x3d6197b1	0.055076305
176	0x3dd813f9	0.105506845
177	0x3d0a7dcc	0.033811375
178	0x3d8f8272	0.07007302
179	0xbda5a826	-0.080887124
180	0xbda4fa0a	-0.08055504
181	0xbd2afa3e	-0.041742556
182	0xbd21e773	-0.039527368
183	0x3cca795a	0.024716068
184	0x3d124173	0.03570695
185	0xbd24bcae	-0.040219
186	0xbd30d905	-0.043175716
187	0x3cbb8992	0.022892747
188	0x3c18c5b2	0.009324478
189	0x3d3dfc61	0.046383265
190	0x3c143825	0.009046589
191	0x3d83c66a	0.06434329
192	0x3d23cced	0.039990354
193	0x3b2da3d6	0.002649536
194	0x3d21234d	0.039340306
195	0x3db51c9f	0.0884335
196	0x3d0869fc	0.0333042
197	0xbb7c3183	-0.003848166
198	0xbbfafaf7	-0.007659312
199	0x3d8f75c4	0.07004884
200	0xbdc93d2d	-0.098261215
201	0x3d7a5ff0	0.06112665
202	0xbcfa5aaa	-0.03056081
203	0x3d8b5ecb	0.0680519
204	0xbdce321c	-0.10068151
205	0xbd9d5a4e	-0.0768324
206	0x3b9807de	0.0046396097
207	0x3c8f0582	0.017458681
208	0xbda369f4	-0.07979193
209	0x3d811a7d	0.0630388
210	0x3dde5ec4	0.10857919
211	0xbd9a6e82	-0.07540609
212	0x3c59513a	0.013263995
213	0xbd62d25f	-0.055376407
214	0x3c8a39c1	0.016873242
215	0x3da4a21f	0.08038735
216	0x3d7b5615	0.06136139
217	0x3d8c9ed6	0.06866233
218	0x3c5bb403	0.013409617
219	0xbb341dc4	-0.0027483562
220	0xbd232536	-0.03983041
221	0xbced00de	-0.028931078
222	0xbcffb25b	-0.031212976
223	0x3d163598	0.036672205
224	0x3cba64ce	0.022753146
225	0x3d74bfec	0.059753343
226	0x3d8d5d2f	0.06902539
227	0x3cb34d40	0.021887422
228	0xbd445f84	-0.047942653
229	0x3ccb7d83	0.024840122
230	0x3cd8f665	0.026484678
231	0xbd73fa50	-0.05956489
232	0x3d72bb70	0.059260786
233	0xbde0d791	-0.10978616
234	0x3d1d6057	0.038421955
235	0xbb1a933b	-0.0023586291
236	0x3d2b4d8d	0.041822005
237	0xbbcf112d	-0.006319186
238	0xbccac68d	-0.02475288
239	0xbb3e2e58	-0.0029019322
240	0x3caa6a81	0.020802738
241	0x3dc75d4b	0.09734591
242	0xbc287150	-0.010280922
243	0xbd35091b	-0.044198137
244	0xbcfd80d6	-0.030945223
245	0xbdb3505b	-0.08755561
246	0xbda72af9	-0.08162493
247	0xbc881b78	-0.01661466
248	0xbd0e295d	-0.034707416
249	0xbd68c8f1	-0.056832258
250	0x3ba9e7a2	0.0051850835
251	0x3d18644a	0.037205018
252	0x3d8561c3	0.06512787
253	0x3c2a9b86	0.010413056
254	0xbd852dc5	-0.065028705
255	0xbcfd4128	-0.030914858

features.2.bias f4 [24]
0	0x3d3e1829	0.04640976
1	0xbdc7db52	-0.09758629
2	0xbd8b14a2	-0.06791045
3	0xbc8617ec	-0.016368829
4	0xbd99a6eb	-0.0750254
5	0xbd7a5a5c	-0.06112133
6	0xbdb95072	-0.09048547
7	0xbca8df30	-0.020614237
8	0xbd7fcb14	-0.06244953
9	0xbdb1e9fa	-0.086872056
10	0xbe101282	-0.1406956
11	0xbc4e96e4	-0.012609217
12	0xbc81412f	-0.015778152
13	0xbd9e55f0	-0.07731235
14	0xbd94b6d7	-0.072614364
15	0x3d19e820	0.037574887
16	0xbd4c2032	-0.04983539
17	0xbd82889d	-0.06373713
18	0xbdde2dd6	-0.10848586
19	0xbdb4ef2f	-0.08834683
20	0xba222e16	-0.0006186677
21	0xbd933a43	-0.07188847
22	0xbd5d80af	-0.0540778
23	0xbbb29a5f	-0.0054505314
