SECO/Treinamento/CONV/CONV_1_DENSO_2/conf_1/modelo_seed_10_loss_0.002824.pt (torch, 351569 bytes, 6 tensors)

conv1d_1.weight f4 [152, 76, 5]
000000 94 ea 8c bb 2c 8a e6 ba 25 bd 5b bd dd 58 41 3c
       -0.004300425 -0.0017588786 -0.05364718 0.011800972
000010 08 6c f0 bc 87 37 14 bc 56 e1 a2 3c 93 27 5c 3d
       -0.029348388 -0.009046442 0.01988284 0.05374868
000020 89 02 46 3c 03 93 8e bc 91 2d a1 3b b4 63 bc bb
       0.012085565 -0.017404085 0.004918762 -0.00574919
000030 f8 fa 12 3d eb 78 c0 3b 5e 9e a4 3c 6a c9 4b 3d
       0.035883874 0.0058737895 0.020095047 0.04975263
000040 8f 81 ae bc 46 44 84 3c 5f 4c 41 3c f7 ad af b9
       -0.021302013 0.016145837 0.011797993 -0.00033508215
000050 93 fe a0 bb 04 f3 39 bd d2 b1 f5 bc 32 14 3d bd
       -0.00491316 -0.045397773 -0.029992018 -0.046161838
000060 9e 99 4d bd 0a b2 43 bd df 2d 1f bd a3 d7 07 bd
       -0.05019533 -0.047777213 -0.038862105 -0.03316463
000070 64 1b 45 bd 74 38 b8 3c 94 e0 00 3d c0 fb 0d 3d
       -0.048121825 0.022487856 0.031464174 0.034663916
000080 6f b1 d6 3c e2 65 8e 3c a2 22 b9 3c a0 66 e8 bc
       0.026207654 0.017382566 0.022599522 -0.028369248
000090 9c 2e 3d 3d 13 c1 c5 bc d4 4a 35 3d 93 d5 80 3c
       0.04618703 -0.024139917 0.044260815 0.01572684
0000a0 f3 76 24 3d cb 9c 27 3d ed 81 0f bd ce 73 74 bc
       0.0401525 0.040921014 -0.035036016 -0.014920188
0000b0 92 ee fc 3b c5 e1 0e bb 4c 76 03 3c b5 ad 9f 3b
       0.0077188695 -0.002180205 0.00802381 0.0048730024
0000c0 e9 30 24 bd 7f 45 1a bb e1 e8 24 bd c0 eb 4a 3d
       -0.040085707 -0.0023539958 -0.040261153 0.049541235
0000d0 fe 4c 13 bd 39 c0 20 3c d0 a2 65 bc a8 dc ee 3c
       -0.035962097 0.009811454 -0.014015868 0.029157951
0000e0 07 b0 34 39 69 e9 10 bc cc cb 19 3d 5f eb 3f 3d
       0.00017231713 -0.008844712 0.03754787 0.046855327
0000f0 19 7d 18 bd b6 aa 4a bd cb 03 a9 bb f9 5e 84 3c
       -0.037228677 -0.04947921 -0.005157923 0.016158568
000100 81 d2 3f 3c 60 17 42 3d 0e a3 bc 3c bc 5e 09 bd
       0.011707903 0.047385573 0.02302697 -0.03353761
000110 a1 e4 0f bd fd 03 23 3d b1 62 49 3d 2b 6b c7 bc
       -0.035130147 0.039798725 0.049166385 -0.024343094
000120 80 9c 3a bd 5b 17 93 3c 31 45 16 bd bc 62 4b bc
       -0.045559406 0.017955473 -0.03668708 -0.012413677
000130 a8 d3 4f bd f9 13 01 bc 19 4b 8f bc 46 1d eb bc
       -0.05073896 -0.007878297 -0.017491864 -0.028700482
000140 16 9d 05 bd 10 df 93 bc 87 9a 49 bb 82 5b 3e 3b
       -0.032620512 -0.0180507 -0.0030762271 0.0029046242
000150 6f f1 34 3d 76 33 96 bc 09 f7 75 bc 9c f3 54 3d
       0.04417556 -0.018335085 -0.015012511 0.051990137
000160 4f 6c 48 bd f9 6b a5 bc d1 5a 02 bd f3 29 4a 3d
       -0.048931416 -0.020193087 -0.03182489 0.049356412
000170 20 d8 34 3b 71 ce 8c bc 32 67 b2 bc 83 e1 80 3c
       0.002759464 -0.017188283 -0.021777723 0.015732532
000180 0c 0f 8e bc d0 bb 37 3d d2 1a d7 bc bf 06 02 bd
       -0.01734116 0.044856846 -0.026257906 -0.031744715
000190 4a 43 a8 ba 27 c1 f6 3c ff f2 8e 3d 0b c3 39 3c
       -0.0012837437 0.0301214 0.069799416 0.011338006
0001a0 4a 95 f9 bc f4 b1 db 3c da d2 a3 3c eb e0 23 3c
       -0.030466694 0.026818253 0.019998003 0.010002355
0001b0 0c 1c 8c bc bb cc e2 bb 17 ef c1 3c 40 99 ad 3c
       -0.017103218 -0.0069213784 0.023673577 0.02119124
0001c0 24 29 de 3c d8 12 fc bc c0 f0 03 3d c5 75 a3 bc
       0.027119227 -0.030770704 0.03221202 -0.019953618
0001d0 1a ca a8 ba 39 d7 ac bc 96 27 79 bc b3 a7 0d 3d
       -0.0012877614 -0.02109872 -0.015207192 0.03458376
0001e0 b4 80 33 3d 89 57 92 3c 4a 22 38 bd fe fb 9a bc
       0.043823913 0.017864006 -0.044954576 -0.018918987
0001f0 11 c1 11 3d 02 c0 62 bc ac a5 2b bd bb ec 8f 3b
       0.035584513 -0.013839724 -0.041906044 0.004392234
000200 14 88 3a bd c5 1a a2 b9 72 a7 ce bb 56 e6 00 3a
       -0.04553993 -0.00030918993 -0.006306582 0.0004917135
000210 60 d4 8d bc 2a aa f5 bb 54 0b fe bc ba ba 0a bd
       -0.017313182 -0.007497092 -0.031011261 -0.033869483
000220 b0 f5 89 3c 38 4e 2e 3d cf dc 27 bd 92 58 46 bd
       0.016840786 0.042555064 -0.040982064 -0.04842431
000230 32 4d e3 bc 12 b0 49 3d d1 26 3b 3d cf 75 4c bd
       -0.02774677 0.04924018 0.045691315 -0.04991704
000240 01 de 4b 3c 77 b8 e2 3b 61 a2 39 3d cd bf 2b bc
       0.012443067 0.0069189626 0.045320872 -0.010482741
000250 f2 91 8a 3c b6 21 d0 bc ee 48 44 bd 71 a4 bc 3b
       0.016915295 -0.0254067 -0.047921114 0.0057569076
000260 cb 53 0d bc 54 c1 52 bb 6a 98 39 bc 78 f3 29 bd
       -0.008625935 -0.003215869 -0.011327842 -0.041491956
000270 04 0b f6 3c 52 9f 82 3d e5 ac 20 3d 35 2a da 3b
       0.03003455 0.06378044 0.039227385 0.0066578635
000280 07 6a 46 bd 9a 07 28 bd 66 61 15 3d 03 64 ae bb
       -0.04844096 -0.041022874 0.03646984 -0.005321981
000290 6b b6 3e bd 33 3b 02 3d 6f a9 1c bd 7f 34 2f 3d
       -0.046560686 0.031794738 -0.038247522 0.042774674
0002a0 7c 6e 48 bd 5a 03 6c 3c 55 39 7c 39 59 59 11 3d
       -0.04893349 0.014405096 0.0002405395 0.0354856
0002b0 c6 68 c3 3c b7 b4 25 bd 95 1c 46 3d 25 cd 34 bd
       0.02385367 -0.040455546 0.0483671 -0.044140954
0002c0 cc ba c9 3c 4d 3a 11 bd 4d c2 e2 3c 6d cd 51 3c
       0.024625205 -0.03545599 0.02768054 0.012805325
0002d0 59 01 61 3c 3f 0f 48 bc 87 c4 be 3c 60 d3 4c 3d
       0.013733231 -0.012210666 0.02328707 0.05000627
0002e0 8f e7 ad bb 5c ec 85 bc a2 9c 02 3c d7 4b 5c bc
       -0.005307145 -0.016348056 0.0079719145 -0.013445816
0002f0 d2 7f 43 3d 9e fa 3e 3d 88 5e c3 3c b2 1c c2 3b
       0.04772932 0.046625726 0.023848787 0.005923831
000300 aa fb d5 bc 4a 2b 20 bd 39 15 0e 3d 94 4c 3d bd
       -0.02612098 -0.039103784 0.03468821 -0.04621561
000310 d3 03 15 bb fe cc b2 3d 1b 88 35 bd d1 cc 11 bd
       -0.0022737875 0.087305054 -0.044319253 -0.03559572
000320 e3 e3 50 bd 1b e8 e3 3c ba c1 5e 3d ff 92 fd 3c
       -0.05099858 0.027820637 0.05438397 0.030953882
000330 37 94 e1 bb 01 14 88 bc 0d 74 30 3d 51 c6 24 bd
       -0.0068841237 -0.016611101 0.043079425 -0.04022819
000340 51 e8 06 bd a2 c7 0f 3d 05 49 42 3d 6e 78 d7 bc
       -0.032936398 0.035102494 0.047432918 -0.026302543
000350 47 e6 c2 bd 58 52 24 3b 08 05 ce b9 25 04 7a 3c
       -0.09516578 0.0025073495 -0.0003929513 0.015259777
000360 dc 47 e1 3c 64 3b 21 bd 9b d0 07 bd c6 9a 67 bb
       0.027500086 -0.03936328 -0.033157926 -0.0035340055
000370 d8 05 c2 3c e2 d5 09 3c b6 7a 7d bd 61 f0 49 bb
       0.023684427 0.00841281 -0.061884604 -0.0030813443
000380 36 6f 1b bc 78 34 b5 bc 6a 24 d5 3c b2 cb 87 bd
       -0.009486964 -0.022119746 0.02601834 -0.06630649
000390 0f 76 31 3d 0a 7a 2f 3d 7e a5 00 bb da ae 29 bd
       0.04332548 0.042840995 -0.001962989 -0.041426517
0003a0 f1 bb f3 bc fd 5b db 3c 53 67 fb 3c 59 b6 fe 3c
       -0.029752703 0.026777262 0.030688917 0.03109281
0003b0 ea 63 e4 3c 60 76 f2 3c 06 cb 60 3b fa 2b d1 3c
       0.027879674 0.029597461 0.00343007 0.025533665
0003c0 cb 09 50 bd 98 31 cf 3c 91 d2 a7 3c 62 e2 5f 3c
       -0.05079059 0.025292203 0.020486148 0.013664814
0003d0 55 5d 69 bc 31 69 71 3c d5 13 47 3c 69 c7 04 bd
       -0.0142434435 0.014734552 0.012150724 -0.032416735
0003e0 fb 7b c5 bc db b2 d1 3c 5a a2 11 bd 55 44 95 bc
       -0.02410697 0.02559798 -0.03555522 -0.01822106
0003f0 a4 c8 ce 3c bf bc d7 3c 53 ab 22 bd eb ac ba 3c
       0.025242157 0.026335118 -0.03971417 0.022787532

conv1d_1.bias f4 [152]
000000 2e ba c4 bc 7f 44 a8 3c 18 73 fa bc 63 36 ae 3d
       -0.024014559 0.020540474 -0.03057246 0.08506467
000010 4c e9 ac 3d 98 96 8c 3c c8 14 82 3d 1e c3 b6 bb
       0.08442935 0.017161652 0.0635162 -0.005577459
000020 89 60 07 bd 83 4d 0f 3d 9b 89 cf bb 08 63 b6 3c
       -0.033051047 0.03498603 -0.0063335425 0.022264019
000030 8d 31 68 3c 37 9c 70 3b 8d 09 84 bd 67 ba de 3c
       0.01417197 0.0036714205 -0.06447134 0.027188493
000040 32 a6 65 3d b8 d1 47 bc ab ad b6 bc a9 cf 9d 3c
       0.0560667 -0.012195997 -0.022299608 0.01926406
000050 27 23 75 3d aa cc 8c 3d 29 52 bb 3c 55 60 80 3d
       0.059847977 0.06874974 0.022866325 0.06268374
000060 fb da 44 3c 99 c1 55 3c e4 51 5f 3d 1a d5 ac bd
       0.0120151 0.013046646 0.054521456 -0.084390834
000070 c8 c3 99 bb b9 84 73 bd 03 5a 73 bd 36 63 b9 3c
       -0.0046925284 -0.059452746 -0.059412014 0.022630315
000080 5d fe ab bd a7 53 35 3d e5 29 09 bc 35 fd be bd
       -0.08398125 0.04426923 -0.008371805 -0.09325639
000090 18 92 4a bd 84 e4 29 3d ea 58 2a 3c f5 cb ce 3c
       -0.049455732 0.041477695 0.010397175 0.025243739
0000a0 5e 70 42 3d e6 83 a5 3b 78 d3 2d bd 4f bf 35 3d
       0.047470443 0.005051124 -0.042438 0.0443719
0000b0 28 7b 3a 3d 45 a1 a1 bc dc 39 03 bd 1a 15 6a 3d
       0.045527607 -0.01973022 -0.0320376 0.05714903
0000c0 dd 60 68 3d 84 70 78 3d f7 05 aa bd 86 2b 41 3d
       0.056733 0.06065418 -0.08301919 0.047160648
0000d0 a7 10 65 bd 5d 95 93 ba b0 0a 17 3c 63 39 73 3c
       -0.055924084 -0.0011259724 0.009218857 0.014845225
0000e0 64 c0 99 3c dd 55 91 bd 80 8a 8c bb dc 77 02 be
       0.018768497 -0.07096455 -0.0042889714 -0.12741035
0000f0 79 b7 04 3c af da 0f 3d c6 80 83 3d b7 a3 bf bd
       0.008100384 0.035120662 0.06421046 -0.09357398
000100 bc 03 2e 3d 60 da 28 bd c9 cf 2d bd 10 68 2f bc
       0.04248403 -0.041223884 -0.042434487 -0.010705963
000110 f3 9b a8 3c 04 e8 7f bc f8 57 f9 3c 96 24 17 bb
       0.020582175 -0.015619282 0.030437455 -0.0023062578
000120 45 db 75 3d 74 86 28 3c f7 ed 6d bd 9e f2 44 3d
       0.060023565 0.010285962 -0.05808827 0.04808294
000130 81 fa 96 bd 08 35 33 bd a4 39 26 3d e0 6e 35 3d
       -0.073719986 -0.043751746 0.040582314 0.04429519
000140 64 64 69 3d ef 3d cf bc 82 e7 91 3d 32 ac be 3c
       0.056980506 -0.025298087 0.07124235 0.023275468
000150 65 8c 71 bc f4 7f 9d 3c f0 8f 60 3d c4 c2 aa 3d
       -0.014742945 0.019226052 0.05482477 0.0833793
000160 ac c5 44 3d 54 cf 21 3d 4d d9 9d 3d a1 4d 8f bd
       0.048040077 0.039504364 0.077074625 -0.069972284
000170 18 6b 21 bd f5 f8 9e 3d 6b 8c 92 bc 15 55 5a 3c
       -0.039408773 0.077623285 -0.017889222 0.013325949
000180 74 e1 a7 3c 04 8a 29 bd 09 1b 5d 3d 58 a7 2c bd
       0.020493247 -0.041391388 0.05398086 -0.04215178
000190 7e 36 63 3d be e5 bb 3c c5 3f 5e bc ec d6 af bc
       0.05547189 0.022936698 -0.0135650085 -0.021464787
0001a0 5b 6b 45 bc 97 3d 81 3d 39 13 a3 bc 7a db 9c 3d
       -0.012049521 0.063105755 -0.019906627 0.07659049
0001b0 dd b9 24 bd e6 ab 8d bd 52 eb 70 3d 7d 31 08 bd
       -0.040216316 -0.06917553 0.05881817 -0.03325032
0001c0 23 46 6a bd 55 e2 9f 3d f0 a5 2a bd a2 40 84 bd
       -0.057195794 0.07806841 -0.041662157 -0.0645764
0001d0 57 6a 8f 3c ab 95 d4 bd 0f 2c 9a 3c 89 a3 2b 3d
       0.017506761 -0.103801094 0.018819837 0.041904006
0001e0 5c bf a1 bc 5e 05 ea 3c 17 1f 04 bc 19 4d ba bc
       -0.019744568 0.028567012 -0.008064053 -0.022741841
0001f0 da 54 3d bd 6d e6 64 3c 8d ce 26 bc b1 32 a9 3d
       -0.0462235 0.013970953 -0.0101810815 0.08261622
000200 74 e4 a5 3a b0 b8 6d bd 18 54 86 bd f9 62 12 bc
       0.0012656585 -0.05803746 -0.06559008 -0.00893473
000210 62 d5 7f 3d c4 61 26 3c bf b6 b3 3d bf 34 32 bc
       0.062459357 0.010155145 0.087750904 -0.010876833
000220 7d 87 67 3b 39 ac 12 3d cd 3a 4d bc f9 77 17 bd
       0.003532856 0.035808776 -0.012526226 -0.03697965
000230 c4 a4 22 bd ef 4e cf 3b 7e 18 6f bc d7 97 08 3b
       -0.039707914 0.0063265483 -0.014593242 0.0020842457
000240 57 fe 55 3d 66 77 e7 3d 00 6f 1f bd 7d 2a 07 bd
       0.05224451 0.1130207 -0.038924217 -0.032999504
000250 10 46 56 bd 44 4d a7 bd 0a 6d ff bc e8 86 6c 3d
       -0.05231291 -0.08169034 -0.031179924 0.057745844

features.0.weight f4 [164, 152]
000000 68 0b d9 bc b1 f4 73 3d 0e e2 aa bd 8b 64 8e 3d
       -0.026494697 0.059559528 -0.08343898 0.06952771
000010 69 70 ee 3c 18 47 e7 3c 4b 71 72 3d dd a7 5d 3d
       0.029106336 0.028232142 0.059190076 0.054115165
000020 9f 35 c0 3d 6e 92 ec 3b 81 13 9d 3b 7e 86 86 3d
       0.093852274 0.007219604 0.004793585 0.06568621
000030 b4 3d 52 bd b8 62 92 bd 1d 0b 04 3d ee 7e f3 bb
       -0.051328376 -0.07147735 0.03223716 -0.0074309027
000040 b0 15 17 bd da 83 72 bc e3 37 3a 3c c2 58 db 3d
       -0.036885917 -0.014801944 0.0113658635 0.107102886
000050 6d 8c 39 3c a7 83 da bc f1 2c 8a 3d 67 1e a2 bd
       0.011324984 -0.026674105 0.06746853 -0.07915955
000060 db 79 3c bd ff 73 aa 3d dc 99 e5 3c d7 3f 4f bd
       -0.046014648 0.08322906 0.028027467 -0.05059799
000070 8a ea b0 bd 68 3a e7 bc f2 0c 55 3d 04 ba ab 3d
       -0.08638485 -0.028226092 0.0520143 0.08385089
000080 33 d9 a0 bd f7 3f 42 bd 1f 4f d7 3d 36 43 6a 3d
       -0.078539275 -0.047424283 0.10513138 0.057193004
000090 d6 b3 bf bc 81 a0 81 bd 9b a7 64 3d 4b 31 01 3d
       -0.023401182 -0.06329442 0.055823904 0.03154115
0000a0 9b 20 b6 bb 2b ef 15 bd 9c 45 86 bc 48 91 3e bd
       -0.005558086 -0.03660504 -0.016390614 -0.04652527
0000b0 71 b9 92 3b 78 e8 68 bd 9d e1 69 bd 3a 1b 6d bc
       0.0044776727 -0.056862324 -0.057099927 -0.014471823
0000c0 ce 04 29 bd 59 6a a2 bc 7c 81 ec bb f4 f7 ec 3d
       -0.041264348 -0.019826101 -0.007217584 0.11570731
0000d0 10 59 c8 bd 51 56 e3 bc a8 e2 03 3d cf 72 e2 bc
       -0.09782612 -0.02775112 0.032198578 -0.027642636
0000e0 ad 77 26 bd 75 61 80 3d c1 10 c1 3d 56 91 e3 3c
       -0.040641475 0.062685885 0.09427024 0.027779263
0000f0 26 d5 1a bd 5a 63 c7 bb 08 e4 3e 3c c1 b4 62 bd
       -0.03780093 -0.0060848417 0.011651047 -0.05534816
000100 24 04 25 bd 2c 83 aa bd f7 d7 a0 bd e1 70 b4 3d
       -0.040287152 -0.083258 -0.07853692 0.088105924
000110 6a ea 09 3d 67 94 6a 3d ae cf 19 3d 74 da 5a bd
       0.03367082 0.057270434 0.037551574 -0.05343099
000120 b6 d9 da bc 3e 3e 35 bd 8c dc 3b 3d 0f 4f 23 bd
       -0.02671514 -0.044248812 0.045864627 -0.039870318
000130 02 06 3f bd e4 ac c6 bd 62 f2 53 bb ad 4f a8 bc
       -0.04663659 -0.09700945 -0.0032340516 -0.020545805
000140 94 c5 26 3c 32 f0 26 bd b3 e2 3e bd cc ac 1e bd
       0.010178942 -0.04075641 -0.046602916 -0.03873901
000150 fe c8 13 3d 74 2f 49 bd 69 a8 e1 3b 2e 27 da ba
       0.036080353 -0.04911752 0.006886531 -0.0016643757
000160 17 ee 3c 3d f7 90 88 3d 8e 3e c1 bc 60 e1 3f bd
       0.046125498 0.06668275 -0.023589399 -0.046845794
000170 54 b4 cc bd 16 87 8d 3d eb b3 95 bd 4d 98 0f bd
       -0.09995332 0.06910531 -0.07309707 -0.035057355
000180 11 06 24 bd e6 d3 a9 3d fb 0f dd 3c 4e 34 1e bd
       -0.040044848 0.082923695 0.02698516 -0.0386241
000190 08 e0 43 bc 4b dd b3 bd e4 bc 10 bd 7f 57 48 bd
       -0.011955269 -0.08782443 -0.03533639 -0.048911568
0001a0 2d f6 d2 bc d2 ca db bc 94 65 38 bd c1 4f b5 3d
       -0.025752151 -0.02683011 -0.045018747 0.088531025
0001b0 fa 60 dd 3c c1 11 da bc 56 49 cc 3d 9f b3 c3 bd
       0.027023781 -0.026619794 0.09974925 -0.095557444
0001c0 27 e1 9f bd 5b 8f 2e 3b 1d f7 cf bd 5b df b1 bd
       -0.07806616 0.002663574 -0.10154555 -0.0868518
0001d0 05 8a 11 3d 14 34 2f bd eb 33 40 bd a8 da 4e 3b
       0.035532016 -0.042774275 -0.046924513 0.0031563435
0001e0 8d e9 61 3b 74 79 1f bd 60 6b 81 3d 09 60 7d 3d
       0.0034471483 -0.038934186 0.06319308 0.061859164
0001f0 07 b5 22 b9 c4 b2 01 bd fb 43 99 bd d0 c7 21 3c
       -0.00015516962 -0.031664625 -0.07483669 0.009874299
000200 78 e7 f9 3c 63 a2 a9 bd 25 3e a4 3c 22 b8 78 bd
       0.03050588 -0.08282926 0.020049164 -0.060722478
000210 cb 8b 03 3e 70 bd 74 3d 81 d5 24 bd b6 e8 96 bc
       0.12846296 0.059750974 -0.040242676 -0.018421512
000220 fd fb 05 3d 51 eb fd bb 7f f1 87 bc 64 e0 bb 3c
       0.032711018 -0.007748999 -0.016594646 0.022934146
000230 fe 51 a4 bd 53 2e 3d 3c 39 23 6b 3d 62 17 45 bd
       -0.08023451 0.011546689 0.057406638 -0.048118003
000240 f3 25 c6 3d c0 c3 6d bd 4d de a5 3c 2d be 44 3d
       0.09675207 -0.05804801 0.020247603 0.04803293
000250 49 8f a3 bb 18 31 ac bd 61 ac f8 3c 05 3b 63 3c
       -0.004991446 -0.084078014 0.030355634 0.013869052
000260 19 db 84 bd a0 fa c2 3c 0b 2f 88 bd e9 e0 45 bb
       -0.06487102 0.023801148 -0.06649598 -0.0030193871
000270 f3 d8 06 3d 67 d5 3d 3c 58 c7 80 3d 32 bc 57 bd
       0.032921743 0.011586524 0.06288022 -0.05266971
000280 e3 b0 9d bd 0c 13 b5 bd c9 54 7f bd f7 5e 4c 3d
       -0.07699754 -0.088415235 -0.062336717 0.049895253
000290 67 0a 34 bd dd 30 82 3d 7e 45 8b bb 03 9f 29 bd
       -0.043955233 0.06356976 -0.0042502275 -0.04141141
0002a0 79 42 0c bd 4d 2d 1f bc 7a 31 04 3e 34 01 9c bd
       -0.03424308 -0.00971539 0.12909499 -0.07617417
0002b0 c8 4b bf bc ba a3 9d 3d c3 17 88 3c ab 4e 9d 3d
       -0.023351565 0.07697244 0.016612893 0.0768102
0002c0 f0 3d bd bd 67 3a 87 3d 6f 7a c4 3b 3e 50 70 bc
       -0.09240329 0.06602936 0.0059960405 -0.014667569
0002d0 06 38 88 3b bb fb 35 3c 85 ca 80 3d d9 15 5b 3d
       0.004157069 0.0111073805 0.062886275 0.053487632
0002e0 d7 38 5c bd c7 3d 77 3d f1 cf 35 3c b8 b3 10 3d
       -0.053765144 0.06036165 0.01109694 0.035327643
0002f0 48 f4 49 3c 6e bc 1c 3d fc d6 71 3c c3 1e a9 3d
       0.012326308 0.038265638 0.014760729 0.082578205
000300 44 53 03 3d c6 ca ca bc b0 d0 c9 bb 51 45 b6 bd
       0.03206183 -0.024754893 -0.0061589107 -0.0889994
000310 92 d2 da bd c2 29 1e 3b e5 bd aa bd 70 cd ee bc
       -0.10684694 0.0024133776 -0.08337001 -0.029150695
000320 77 ac 96 3d 59 63 2a 3d 19 3a 19 3d f4 dd 37 3c
       0.07357114 0.04159865 0.037408922 0.011222351
000330 e6 d9 8f 3b 2e 68 79 3c c9 6c fc 39 b0 90 05 3c
       0.004389989 0.015222592 0.00048146237 0.008152172
000340 c6 a8 a6 bc 0a f1 dc 3c 83 c9 a6 bd 0d 7a 68 bc
       -0.02034415 0.026970405 -0.08143904 -0.014189255
000350 df c4 33 bd 47 1b 3c bd 83 59 fb bc cc 48 4c 3d
       -0.043888923 -0.04592445 -0.030682331 0.049874112
000360 38 c2 9e 3d 3c 37 9f 3d 50 d8 9f bd 3f 73 e0 bd
       0.07751888 0.07774207 -0.0780493 -0.109594814
000370 71 87 b8 3d 8f d3 c7 bb 9b 79 94 3d a0 6a 1f bc
       0.090102084 -0.006098218 0.07249757 -0.009730011
000380 20 de 11 3d 92 bc 16 bd 8d ed 8f bd 06 5c 2f 3d
       0.035612226 -0.03680093 -0.07027731 0.04281237
000390 a7 f8 19 bd a2 ae 33 3d 14 c8 6f bb fb a4 7d bd
       -0.03759065 0.043867715 -0.0036587762 -0.061924916
0003a0 bd b6 a7 3d b5 7d 8a bc 42 d8 41 3c c8 27 3f bd
       0.081891514 -0.016905645 0.011831345 -0.046668798
0003b0 a3 f5 2e bd af 44 8a 3d cd 4b b7 3d ae 3a 00 bd
       -0.042714726 0.067513816 0.08950005 -0.03130596
0003c0 67 50 09 3d 75 78 10 3c ca aa 22 bd 7c cc c9 bb
       0.033523943 0.008817782 -0.03971366 -0.0061584096
0003d0 e4 80 25 bd f2 bb 1d 3b 66 4d 9b 3d a5 9d 0d 3d
       -0.040406123 0.0024068323 0.07583122 0.03457417
0003e0 19 74 40 bd d9 11 a9 bd bc 19 86 bc 57 64 50 bd
       -0.04698572 -0.08255357 -0.016369693 -0.05087694
0003f0 b1 7f 3e 3d 71 cc df 3b e8 33 13 3d e5 a9 06 3d
       0.046508495 0.0068297912 0.035938174 0.032876868

features.0.bias f4 [164]
000000 bb af 9b 3d e7 6f 3f 3d d4 48 59 3d 51 b1 94 3c
       0.07601877 0.046737578 0.05304797 0.018150957
000010 15 23 a2 bc ec 35 56 3d 0d a0 be bd 59 3d 8f bc
       -0.019792119 0.052297518 -0.09307871 -0.017485308
000020 8d 79 96 3d b2 c5 27 3c 7d bd 2a bb f6 18 a7 3c
       0.07347403 0.010240005 -0.0026052885 0.020397644
000030 39 40 48 3d 0d 49 5b bd 07 c1 1d bd f5 49 af bd
       0.048889372 -0.053536464 -0.038514163 -0.08559028
000040 77 6f b4 3d 0c 39 9d bd db a7 fb 3c e4 98 84 3b
       0.08810323 -0.076768965 0.030719688 0.0040465463
000050 57 d7 1d 3d 6a 42 dd bc b4 2b 6b bd 55 72 10 bd
       0.038535442 -0.027009208 -0.057414725 -0.035265286
000060 10 5c a5 3d 92 45 50 3d 4a b8 e3 bc 64 31 0b bd
       0.080742 0.050847597 -0.027797837 -0.03398265
000070 b8 38 e9 bd 4b 1a 26 3c 29 f4 a5 bc 24 63 03 3d
       -0.11387771 0.010138105 -0.020258026 0.03207697
000080 28 82 74 bd f1 9f b1 3d 44 5e 30 3c a7 d9 6a bc
       -0.05969444 0.086730845 0.010764662 -0.014334119
000090 1f 45 90 bd 92 b6 15 bd 39 a6 ea bc aa 99 73 3d
       -0.07044434 -0.036551066 -0.028643714 0.059472717
0000a0 42 b3 54 bc bf 2f 80 bd b0 7e 67 3d 96 a6 1d bc
       -0.0129821915 -0.06259107 0.056517303 -0.009622237
0000b0 94 c1 0d bd 8c 36 1b bd f6 3c b7 bd 0f 94 40 bd
       -0.03460844 -0.037893817 -0.08947174 -0.0470162
0000c0 99 22 f9 3c 66 e7 89 3d 56 f2 a0 3b 25 ef 2b bd
       0.030412005 0.06733589 0.004911701 -0.041976113
0000d0 72 b0 34 bd 98 ec 9e bd 7d 80 83 bd e3 01 43 3b
       -0.044113584 -0.077599704 -0.064209916 0.0029755763
0000e0 8e 52 59 3b d0 7b af 3d b1 3e b0 3d b3 34 7d bd
       0.0033160779 0.08568537 0.086057074 -0.061817836
0000f0 54 19 3d 3d 8d 83 a6 3d 53 04 9f bd 51 cf a7 3c
       0.046166733 0.0813056 -0.07764497 0.020484598
000100 25 26 80 3d c5 de 14 bd ff f1 ae bc da 6e 17 bc
       0.062572755 -0.036345262 -0.021355627 -0.009242738
000110 8d 54 d0 3c 0a c7 35 bc 3b 39 bf 3b 91 be e2 bc
       0.025430942 -0.011094818 0.00583568 -0.02767876
000120 f2 d0 f6 3c 6b 90 b5 bc 95 df b2 3d 8c bb b5 bd
       0.03012893 -0.02216359 0.08734051 -0.08873662
000130 00 82 da 3d 2f 8c d0 3d 9b c3 dd bc a7 49 93 3d
       0.10669327 0.10182988 -0.027070811 0.071917824
000140 78 f8 a6 3c 55 89 19 3d ba 0a 16 3d 9b a8 ec 3c
       0.020382151 0.037484486 0.036631323 0.028888991
000150 75 f2 f2 3b b1 8d 30 3c ec d5 24 bc 19 45 d2 bd
       0.007414157 0.010775969 -0.010060769 -0.102670856
000160 e4 34 a0 bd dc 7e f9 ba 0c 84 9c bd d0 e1 9c ba
       -0.07822588 -0.0019035 -0.076423734 -0.0011969153
000170 92 41 03 bd f1 30 a9 3d 4b 73 3c bd ef a5 9a 3d
       -0.032044955 0.08261288 -0.04600839 0.075511806
000180 3d 0c 31 bd ce 58 87 3d 00 9e 69 3d 34 59 ab bd
       -0.043224562 0.06608735 0.057035446 -0.083666235
000190 fe de 25 3d 41 09 2e 3d cd 73 5c 3c d3 4a 8f bd
       0.040495865 0.042489294 0.013455343 -0.069966935
0001a0 b2 92 93 3c 10 8b b3 3d a8 88 29 3d cc 81 a8 bb
       0.018014286 0.087667584 0.04139009 -0.005142426
0001b0 f2 1d 12 ba 66 94 b1 3d 79 51 95 bd c5 07 03 3d
       -0.000557392 0.08670883 -0.0729093 0.03198983
0001c0 3f 47 45 bc 46 d0 cf 3d 4e ec 80 3d 8d cb 8a bd
       -0.012040912 0.10147147 0.062950715 -0.067771055
0001d0 2e 0a 8f 3d 28 e0 8d 3d de 82 5f bd 78 b6 ce bd
       0.069843635 0.0692752 -0.054568164 -0.10093397
0001e0 57 df 9e 3d 57 f0 3f bb d7 47 3c bd 70 fe 5f bb
       0.077574424 -0.002928754 -0.04596695 -0.0034178756
0001f0 f3 4a 62 bd 83 7d 09 be 4b c4 f5 bc 6d 63 91 bd
       -0.05524726 -0.13426785 -0.030000826 -0.07099042
000200 44 47 09 3d 2d 11 da bd f8 17 82 3c 47 74 d8 bc
       0.03351523 -0.10647807 0.01588057 -0.026422633
000210 b3 a9 3c 3d fd 05 90 3a 7f 76 08 3d cc 34 b4 3d
       0.046060275 0.0010988113 0.03331613 0.08799133
000220 dd 92 5e 3d f4 10 8c 3d 69 aa ee bc 39 89 cf bd
       0.05433928 0.06839171 -0.029133992 -0.10133595
000230 c2 bb 34 3c 6d 01 a4 3d 8b 1f 95 bd 83 a2 14 bc
       0.011031093 0.080080844 -0.07281407 -0.009071949
000240 07 87 ef 3c d8 db c6 bc 65 b3 07 bc 7d 75 21 3d
       0.02923919 -0.024274752 -0.008282517 0.039418686
000250 52 e9 81 3d 04 96 13 3c 25 2f a0 3d 92 a6 a6 3d
       0.063433304 0.0090079345 0.07821492 0.081372395
000260 01 81 9c bd 18 c2 db 3c 1d 3f 7c 3d 5d 15 e9 3a
       -0.07641793 0.02682595 0.061583627 0.0017782856
000270 95 1a 7f bd 54 7d 2c 39 f4 f2 6f 3a b3 b0 fc 3c
       -0.06228121 0.00016449887 0.00091533293 0.030845976
000280 9d a2 87 3d 09 34 24 bd 19 ae 50 bd 30 90 9f 3d
       0.06622813 -0.040088687 -0.050947282 0.077911735

features.2.weight f4 [24, 164]
000000 1f fb 97 bd dd ff 03 bd f0 1d 46 bd 8c dc ef bd
       -0.074209444 -0.032226432 -0.048368394 -0.11711988
000010 de d0 1b 3d a2 98 9f bd a8 81 89 bd 23 53 a8 3c
       0.03804099 -0.07792784 -0.06714183 0.020547455
000020 28 7b 86 bd 8d b4 02 bd ce cb b1 bd 59 d4 e1 bc
       -0.06566459 -0.031910468 -0.08681451 -0.027567076
000030 76 2b 9f bd ac 46 ab bc 87 25 49 3d 16 49 b4 3d
       -0.077719614 -0.020907722 0.049108054 0.088030025
000040 ee a5 f8 3c 3b 8e b2 bc d0 a3 96 bd 76 8b 5d 3d
       0.030352559 -0.021796336 -0.073554635 0.05408808
000050 8c ed 2b bd 6e 1c 95 bc b4 35 ee bb 99 b7 9b 3d
       -0.04197459 -0.018202033 -0.0072695855 0.07603378
000060 68 f8 96 3d 8c 08 38 bc 62 b4 bc bd e3 d6 6b 3d
       0.073715985 -0.0112325065 -0.09214093 0.05757798
000070 3c 53 69 bc b8 3d 55 3d a8 06 4f 3d 5b 55 7f 3d
       -0.014241036 0.052060813 0.050543457 0.06233726
000080 a7 85 8a bd 29 a0 6a bd 19 e9 50 3a 7f 01 74 3c
       -0.067637734 -0.057281647 0.00079693046 0.014892935
000090 42 f9 1d bb ef 4d 1e 3d 60 62 09 3d da a3 69 3d
       -0.0024104868 0.038648542 0.033541083 0.057041027
0000a0 bd 10 19 bc b6 65 f2 bd dc a4 46 3d 5c 63 06 bd
       -0.00934237 -0.11835806 0.048497066 -0.0328096
0000b0 e8 5e e5 bc f3 a4 de 3b 53 df 06 3c 46 63 25 bd
       -0.027999356 0.006794566 0.008231956 -0.040377878
0000c0 76 3d ec 3c e2 8f ac bc 7e 84 2d 3c 39 85 05 bb
       0.0288379 -0.021064702 0.010590671 -0.0020373596
0000d0 ca a0 47 bc 20 4e 83 bd f1 63 9e bc 6f 08 d2 bd
       -0.012184331 -0.064113855 -0.019334765 -0.10255515
0000e0 11 60 f6 3c f7 f5 ef bc bf 51 69 3d 0b f0 9f 3d
       0.030075105 -0.02929209 0.056962725 0.078094564
0000f0 ff 50 53 3d 65 74 11 bd 63 c9 98 3c ef 40 98 3d
       0.051590916 -0.035511393 0.018650716 0.0743426
000100 c6 a1 77 3c c8 97 b9 3d ce 69 45 bc 9a 1e e5 bc
       0.015114253 0.09062153 -0.012049152 -0.027968694
000110 cb d1 db 3b 40 c9 78 bc bb 36 7e ba a2 ec 91 3b
       0.006708359 -0.0151847005 -0.00096974865 0.0044532577
000120 60 11 f4 bc b9 4b e2 3c 17 f5 f4 3c 3d 94 81 3c
       -0.029793441 0.027623998 0.029902024 0.015817756
000130 ae ec a9 3d e4 c8 df 3b 16 2f 68 3d 54 26 40 3d
       0.08297096 0.006829368 0.05668553 0.046911553
000140 dd b3 c0 bc 9c f2 8c 3d d1 f8 12 3b a2 8a c1 3c
       -0.023523265 0.068822116 0.0022426138 0.023625676
000150 78 f2 dd 3b 91 0a bc 3c c0 ce a3 bc d6 ca 5d bd
       0.0067732893 0.022954257 -0.019996047 -0.054148518
000160 15 5e 01 bd 05 ac 6c 3d 84 bf 88 bd bb ec 57 bc
       -0.031583864 0.057781238 -0.06677154 -0.013179
000170 fa 97 d5 3c 0f 84 b0 bd 29 7f 3f bd 3f 5e c5 bb
       0.026073445 -0.08618938 -0.04675213 -0.006023198
000180 8a 78 01 bd 8c 18 69 3d 9e 86 90 3d 69 64 e1 3c
       -0.031609096 0.056908175 0.07056926 0.0275137
000190 f5 d1 57 3c f8 4a 0f bb e7 45 65 3c 5f a2 d4 bd
       0.013172616 -0.0021864753 0.013993717 -0.10382532
0001a0 f9 47 aa 3c 4a f1 d7 bc db 2b a2 3d 86 73 41 bd
       0.020786272 -0.026360173 0.07918521 -0.047229312
0001b0 19 24 f0 3a bc 9d 9d 3d 38 e7 d0 bd 5b ba 19 3e
       0.0018321305 0.07696101 -0.102003515 0.15012495
0001c0 02 16 43 3c 76 61 b8 3c 26 fa ab bc c7 04 55 3b
       0.011907103 0.02250741 -0.020993304 0.0032504068
0001d0 a3 f3 84 3d dc 42 75 3d 7c af 5a 3d 53 0b 00 3d
       0.064917825 0.059878215 0.05339001 0.0312608
0001e0 dc 29 16 bd fc 85 86 3b ac e5 a6 bc 6d 81 99 3d
       -0.036661014 0.0041053277 -0.020373188 0.07495389
0001f0 2f 74 c9 bd 5b 19 c0 bc c1 1b 0e be 54 e4 04 be
       -0.098366134 -0.02344959 -0.13877775 -0.12977725
000200 74 31 84 3d 8d 24 93 3d c5 6c a9 bc 12 1d 0d 3d
       0.06454745 0.07184706 -0.020681748 0.03445155
000210 a7 35 45 bd 10 32 49 3d 93 1b f3 bc 29 b3 ca bc
       -0.04814687 0.04912001 -0.029676234 -0.024743633
000220 ec 4c 54 bd 76 74 7b bd 4c 46 f1 3c 58 c5 cf 3d
       -0.05183117 -0.061390363 0.029452465 0.10145062
000230 3b c6 a6 bc 5b 30 90 3d 4b a5 48 3d e3 ad 44 bd
       -0.020358196 0.07040473 0.04898576 -0.048017394
000240 a0 d7 78 3d d8 25 f6 bd 15 24 63 3c cc df 8f bc
       0.06075251 -0.12018937 0.013863583 -0.01756277
000250 37 c9 63 3d 8b e5 80 3c 66 06 89 bd 9e 6f 03 bc
       0.055611815 0.015734455 -0.066906735 -0.008022217
000260 e0 6a 7f 3c 78 01 a2 bd 31 20 a7 3c 48 e9 cb 3d
       0.015589446 -0.079104364 0.020401092 0.09956604
000270 4b 66 9c 3d 4f 34 2e 3c d7 56 97 3d 1e a6 58 3d
       0.07636698 0.0106325885 0.0738961 0.052892797
000280 29 00 03 3e 51 42 e6 3d 31 cd bc bd b4 7b 80 3d
       0.1279303 0.112431176 -0.09218825 0.062735945
000290 77 b3 68 3d 75 b2 b8 3c bf 04 5e bd b1 e0 e1 ba
       0.056811776 0.022546032 -0.054203745 -0.0017233101
0002a0 2f 5a 54 3b ef 9c 63 bc 15 98 c1 3c 5c 5f 93 bb
       0.0032402386 -0.013892396 0.023632089 -0.0044974517
0002b0 fd 8e ee 3c a5 97 35 bd 23 b8 a1 bd 90 d0 60 bd
       0.029120917 -0.044334073 -0.078964494 -0.0548864
0002c0 a0 38 31 bd ca 22 a3 3b fc d4 94 3d 38 22 c7 bb
       -0.043266892 0.0049785124 0.07267186 -0.0060770772
0002d0 ef 89 e4 3c f4 27 1d 3c 5f 73 98 bd ec db 56 bb
       0.027897803 0.009592045 -0.0744388 -0.0032784892
0002e0 59 97 5a 3b 80 12 6e bb 18 ab 94 bc a2 f4 91 3d
       0.003335437 -0.0036326945 -0.01814799 0.07126738
0002f0 c7 c4 21 bc 1b af 9b 3d e5 4d e6 bc 40 d7 7d bd
       -0.0098735755 0.07601758 -0.028113315 -0.061972857
000300 7c 79 e6 3b 8b c1 0f bd 25 01 42 3d 13 be 17 3d
       0.007033525 -0.035096686 0.047364373 0.037046503
000310 0c 98 81 bc 06 01 8b bd 25 7b ad 3d 10 0a b7 3d
       -0.015819572 -0.067873046 0.084707536 0.08937466
000320 23 60 a8 bc f2 89 f5 3c 47 dd a5 3c 9c c3 76 bd
       -0.020553654 0.029973004 0.020247115 -0.06024514
000330 ca 75 0a bd 17 d3 ab bd fd 3e cd 3c 82 3a af 3c
       -0.03380374 -0.083898716 0.02505445 0.021390203
000340 9e 25 31 3d c8 5c a3 3d f9 49 0b bd 68 b0 3b bd
       0.043248765 0.07976681 -0.034006093 -0.04582253
000350 75 ec 71 bd 24 53 5a bd 86 30 5b bd eb a9 b6 3d
       -0.059063394 -0.053301945 -0.053513072 0.08919128
000360 77 82 91 3c b1 1d f0 3d 99 ea c7 3d 38 4c 88 bd
       0.017762406 0.11724413 0.09761543 -0.066551626
000370 13 d3 da bc d7 57 88 3c 6d 5e 59 bd 77 65 93 3d
       -0.026711976 0.016643448 -0.053068567 0.07197087
000380 9c 8a a7 3d 0e cb 8d bd e1 6e 81 3c cf d2 9b 3d
       0.081807345 -0.06923495 0.015799941 0.07608568
000390 a5 86 91 3d 07 a3 8e 3d 63 fa c1 bb 58 d4 84 bd
       0.071057595 0.06964689 -0.005919741 -0.06485814
0003a0 1e b6 5c 3c 8c e1 00 3d a2 7a af bc 3e c1 85 3d
       0.0134711545 0.0314651 -0.02142078 0.06530999
0003b0 b2 06 86 bd db e7 ab bc 21 e6 c8 bc 87 b3 d8 bb
       -0.06544246 -0.02098458 -0.024523797 -0.006613198
0003c0 4e 0c f7 3c 1d 0d 09 bd 02 8f 5f bd 87 5d ce bc
       0.030157235 -0.03345977 -0.054579742 -0.025191082
0003d0 c5 ca 9a bd 41 81 67 3d 57 e8 57 3d e1 06 b3 3a
       -0.075582065 0.05651975 0.05271181 0.0013658666
0003e0 99 fa 8a bd 7d 41 33 3d ed ba 79 3d 9e 5b 6f 3d
       -0.06786079 0.043763626 0.060969282 0.058436982
0003f0 fd 33 19 bd da b9 9b 3d 77 fd 6d bd e6 a4 b0 3c
       -0.037403096 0.07603808 -0.05810305 0.021563005

features.2.bias f4 [24]
000000 82 95 85 bd 2b 83 a9 bc 54 1c 8c bd 5c 01 48 3d
       -0.06522657 -0.020692429 -0.06841341 0.04882942
000010 7d e8 5a 3d 0d 99 80 bd dd 9b 8a bd 35 7c 34 bc
       0.053444374 -0.06279192 -0.0676801 -0.011015941
000020 8d 58 7d bd 8e fe 5b bd bd c5 7e bd a4 2c b5 bc
       -0.061852027 -0.05370956 -0.062200297 -0.022116013
000030 96 b0 c1 3c 00 12 88 bd af 9f 88 bd 0a 33 81 ba
       0.023643773 -0.06644058 -0.06671082 -0.000985713
000040 c6 d4 81 bc 89 6c f7 bb 3f 59 2a 3d 41 e0 39 bd
       -0.015848529 -0.00755078 0.041589018 -0.04537988
000050 2c 81 5b 3d 60 b5 21 3d a8 da 18 bc ea 96 5c bc
       0.053589985 0.039479613 -0.009329475 -0.013463715
