SECO/Treinamento/MLP/2_camada/conf_1/modelo_seed_24_loss_0.002761.pt (torch, 15697 bytes, 6 tensors)

features.0.weight f4 [24, 74]
00000000: e9f1 383e b0c9 973c 75f2 61bd 1643 273d
00000010: 81b7 1a3e 0baa 66bc a263 92ba 4928 1a3e
00000020: 95c2 823d 8646 fbbc ba82 01be a565 dabd
00000030: 37c3 30be 0b7d 083c cb36 9f3d b3ac e4bd
00000040: f5f5 393d abea 4cbd a358 ac3d 3650 89bd
00000050: 33de 88bd 15a5 8a3d 81cd f33d 2eeb 1fbe
00000060: 94f7 dcbd 7556 7e3d 87f7 46bd 0142 d43c
00000070: fe33 0f3d 0e22 c4bd 8002 8cbd f22b f5bc
00000080: c19d f63d 04d9 efbd ab17 a03d cf8f 263e
00000090: 37d7 923e fa75 ba3e 8bdb 2b3e db78 5f3b
000000a0: 0e30 b53d 8223 993e d8ad 853e d993 803e
000000b0: 3b32 493e 4a57 c33e 9929 ac3e ca03 773e
000000c0: 9bce e7bb 4ec5 bcbd c752 7c3d 1ec0 e4bd
000000d0: 8d19 e3bd 62d5 943c 7578 cbbc 9272 63bd
000000e0: aaa1 00ba d6c5 e1bd 3904 20bd 9e07 8c3d
000000f0: ecda 8cbd a771 0fbe 469f 933c 2f4c f83b
00000100: d8c8 13be bfca 5fbe 486d 8d3d d436 5dbe
00000110: 140c 9f3c 1a5f c13c b440 d33d 7c1c 84bd
00000120: 9e4e c9bd 50e6 71be dd8c 3b3e df4c 193d
00000130: caec a6bc b78f bbbd 1f4a b0bd fa0d 6cbd
00000140: 906e 3c3d 24d1 023e 79de 3e3e 1c47 163d
00000150: 8168 ae3c 2e99 d2bd 3506 b3bc 7d33 b4bd
00000160: 9814 4ebb 3792 153d 5f54 ec3c e561 1e3e
00000170: 0155 0b3e 2519 7abe e729 0ebe 305d 263e
00000180: d965 bfbd a561 94be 3fdb d53d 8e08 56bd
00000190: 1fdf e4bb 4506 e8bd 5ed1 0abd 9699 873d
000001a0: ec8e 40bd d0e2 aa3d fc21 673d 27b5 003e
000001b0: 06a0 61bd bf49 bb3d c4ca 553e 9126 463e
000001c0: 5617 813d 3de3 acbc 8637 dc3c 16d7 0a3d
000001d0: df29 bd3e 7c9c ddbd c252 763d 454e 9b3e
000001e0: 69f4 c2bd d00f 57be 9cfd 08be 1f05 853b
000001f0: 2f21 2bbd 3b17 bf3d 4cc1 bcbd 568c d83c
00000200: c765 fe3d d905 df3d bb07 be3d 0948 5cbd
00000210: eebd 06be 1f09 40bd 3e63 91bc 0770 05be
00000220: 552e 263d 22c9 28bc ea8e 7ebd 020d 0cbe
00000230: bbea c93c ece2 2abd 0680 3bbd 65a0 2bbd
00000240: 7b0c 273d 2509 80bd 1447 1e3e 3396 44bd
00000250: 5518 bbbd ddce edbd c894 fd3c fa4e f2bd
00000260: 5e38 fa3d ec39 6b3d fa71 f13d cff0 083e
00000270: 8a51 6a3e 462d cb3d e107 0cbe c643 fabd
00000280: f4c9 c4bd b30f 2ebd d3a1 87bc c489 d4bd
00000290: 4481 0dbe acac 033e ee86 1d3e 2501 963e
000002a0: 9226 ed3e 3d39 503e 6600 b0bd edb1 edbe
000002b0: 9f86 95be 9ec0 ecbd 11ed 94bd 3a6a 4fbc
000002c0: ccd5 4e3c 685e b73b 0dde aebd f6ab e73c
000002d0: 8279 7a3e f561 fb3d 2610 4b3d 2208 79bd
000002e0: 4d57 f53d faf2 ec3d 2838 b63a b4a4 0ab9
000002f0: db69 cbbd 917d e83d 2c34 173e 9577 633e
00000300: 7974 d73e 8d86 693e f71d cabd 2253 0dbf
00000310: 2f7f 53be 110c f3bd 419f 21bd 694b 14be
00000320: fac7 04bd 237b 043b c2d1 b0bd e944 913d
00000330: 4a48 4c3e 0011 3e3d 4092 fa3d 23dc 0c3d
00000340: ead8 ae3c c00a 45bd fae0 393c f781 0e3e
00000350: f115 073e 0fbb 88bc dd08 013d 0f51 22be
00000360: ed31 6dbd 94a2 1c3c c38c 1b3e f6f5 2b3e
00000370: 2e11 5fbe 31ae 143e 7186 34bd efe0 71bc
00000380: 3300 143e 2b39 733d ff4c 00bd 8354 003d
00000390: f467 04be 1657 45be 82d3 70bd e4a7 c13b
000003a0: 1a8e bebd b75c 86bc 9671 8a3d 4743 87bd
000003b0: b430 73bd 966a 293e cb3a 12bd 2fe0 1fbd
000003c0: cd8f 7fbe f91c c8bd 2e14 053d d687 f7bd
000003d0: b5ba 01be 0d43 f43c b018 1b3e a559 e93d
000003e0: 9362 94bc ac1d 083e ba62 80bd 92ef a2bb
000003f0: 82b1 e5bd 69cc e4bd b46c 0bbd a13c 963d
0.18061031 0.01852879 -0.055162866 0.040835463 0.15109064 -0.014078627 -0.0011168609 0.1505443
0.0638477 -0.030673277 -0.12647524 -0.106639184 -0.17261969 0.008330594 0.07774123 -0.11165752
0.04540058 -0.050028484 0.084153436 -0.06704752 -0.06683006 0.06769768 0.11904431 -0.15617058
-0.10789409 0.06209417 -0.048575904 0.02591038 0.034961693 -0.09576808 -0.06836414 -0.029928181
0.12041808 -0.11711314 0.07817014 0.16265796 0.2867982 0.36418134 0.16782968 0.0034099135
0.08847056 0.29909903 0.26109195 0.251128 0.19648068 0.38152534 0.33625486 0.24122539
-0.00707419 -0.092173204 0.06160238 -0.11169456 -0.11088858 0.018168155 -0.024837712 -0.055529185
-0.00049069023 -0.11024062 -0.039066527 0.0683739 -0.068776935 -0.14008199 0.018020283 0.007577441
-0.14432085 -0.21854685 0.06905609 -0.21602947 0.019414939 0.023604918 0.103150755 -0.064507455
-0.09829448 -0.23623013 0.18315454 0.037426826 -0.020376582 -0.09158271 -0.086078875 -0.057630517
0.046003878 0.12775093 0.18639554 0.03668891 0.021290066 -0.10283123 -0.021853546 -0.08798883
-0.003144538 0.036516394 0.028848825 0.15467031 0.13606645 -0.24423654 -0.13883172 0.16246486
-0.09345598 -0.28980747 0.104422085 -0.052254252 -0.006984606 -0.11329321 -0.033891074 0.06621091
-0.0470113 0.08344042 0.056428894 0.12569104 -0.05508425 0.09144925 0.2087813 0.1935065
0.06303279 -0.02110445 0.026881944 0.03389653 0.36946008 -0.10820863 0.060137518 0.30333152
-0.09519274 -0.21002126 -0.13377994 0.0040594484 -0.041779693 0.09330603 -0.09216556 0.026434105
0.12421756 0.10889787 0.09278818 -0.053779636 -0.1315839 -0.0468837 -0.017747518 -0.13031016
0.04057153 -0.01030186 -0.062148012 -0.13676837 0.024648061 -0.041720316 -0.04577639 -0.04190101
0.040783387 -0.06251744 0.15456802 -0.047994804 -0.091355 -0.11611722 0.030954733 -0.1183147
0.122177824 0.057428285 0.117893174 0.13373111 0.22882667 0.099207446 -0.1367488 -0.12219958
-0.09608832 -0.04249544 -0.016556656 -0.10377839 -0.13818842 0.12858838 0.15383503 0.29297748
0.4631849 0.20334335 -0.08593826 -0.4642481 -0.2920427 -0.11560176 -0.07271779 -0.012659604
0.012624215 0.005595971 -0.085384466 0.02828024 0.24460414 0.12274543 0.049575947 -0.06079877
0.11979542 0.115697816 0.0013902234 -0.00013222062 -0.099323 0.11352075 0.14765996 0.22213586
0.4208105 0.22805233 -0.098689966 -0.55204976 -0.20653985 -0.11867536 -0.039458517 -0.14481892
-0.032417275 0.0020214997 -0.08633758 0.07093222 0.19949451 0.04640293 0.12234926 0.034389626
0.021343667 -0.048105955 0.0113451425 0.13916765 0.13191964 -0.016690759 0.031502593 -0.15851234
-0.05790894 0.009560246 0.15190415 0.16793045 -0.21783897 0.14519574 -0.044073526 -0.014763101
0.14453201 0.05938069 -0.03132343 0.031330597 -0.1293028 -0.19271502 -0.05879546 0.0059099067
-0.093044475 -0.016401632 0.06759946 -0.06604629 -0.05937262 0.16544566 -0.0357006 -0.039032158
-0.249572 -0.09771151 0.032489948 -0.120864555 -0.1266888 0.029817129 0.15146136 0.113940515
-0.01811341 0.13292569 -0.062688306 -0.0049724067 -0.112154976 -0.11171801 -0.034039214 0.07335783

features.0.bias f4 [24]
00000000: f1e6 b53c 5521 b73d e076 6a3c 8609 c53d
00000010: 37c7 cbbd 0a66 06bd cc05 893d 32fa 8abe
00000020: 1d91 b4bd 8b5f 8e3e caf4 82bd e707 83bd
00000030: 1587 3bbe 705d 8f3a 953a fe3d 1e7e 50be
00000040: ba78 28bd b9ef 543e a573 cbbc da9e 843d
00000050: b840 00bd e43b fabd e9b6 a83d 87e3 a83e
0.022204848 0.089419045 0.014310569 0.09620957 -0.099501066 -0.032812156 0.06690559 -0.2714401
-0.08816741 0.27807269 -0.06394346 -0.063979916 -0.18313248 0.0010937881 0.124135174 -0.2036061
-0.04113076 0.20794572 -0.024835417 0.06475611 -0.03131172 -0.122184545 0.08238012 0.3298609

features.2.weight f4 [24, 24]
00000000: ce94 f2bd b07c 8c3e 9730 d83d e855 1fbd
00000010: caff 8bbe dadd 5dbd af04 35be 9214 92be
00000020: 2267 dabd f6c8 543e f5f1 86be e6a9 5c3d
00000030: 5f7b cabc 21d6 8e3b c438 1f3d 3d61 21be
00000040: 27da 833d 10ac 1cbd 938a f93d cf17 b63e
00000050: a302 213d 2578 8e3e 81da 4a3d d90c 0ebd
00000060: 34be 283e 8131 7d3c c69c 143e 4d6c 0a3e
00000070: deac 70be 5767 74be c422 32be 9513 fc3d
00000080: 2c2d 6fbe 7e19 95bd e426 d33d 60c4 ee3d
00000090: e6d8 9e3d 574d 863e 108a 60be 5f76 b33d
000000a0: 7205 9b3e 60c0 32bc a421 8fbd 152b a7bc
000000b0: 4728 17be b662 a43e 7c50 1f3e b7d2 cb3d
000000c0: 2b78 2d3d 4463 7cbc 190b 72be c9c8 27be
000000d0: f5cc f0bd 3838 b33d 09a2 243e d812 983d
000000e0: 6f11 b1bd 3986 233e 79e1 293e 8744 b63d
000000f0: 14e7 d63d 8714 553e 2a12 623d 2fba 47bd
00000100: 599d b8bd d484 d8bd 2a22 7c3e 733e 753e
00000110: 0a07 a0be 907d 84bd 38af 7dbc 7647 45be
00000120: bab6 0a3d 21c8 39be 8a44 2a3b 820b d03d
00000130: 6452 733d c2a9 98bd 96cb 9d3d bb83 833e
00000140: 9b4f c8bc 7ad2 04bc e1aa 1a3e 9535 8f3e
00000150: daf7 48be 25cf 0c3c 437d bcbb 4d03 7e3e
00000160: 87c5 afbd e912 813d 03d8 753d 024e b5be
00000170: 6b7f 40be deb9 45be 0a70 0cbe 9429 71bd
00000180: 3586 283e 2ed7 30be 99f3 3abe 018f cdbd
00000190: 2e33 343c 81e1 5a3c 8506 82bd 0281 043e
000001a0: fa87 18be 65e7 06be 3eee c53d accf 6f3e
000001b0: 06ab 3b3e 5095 25bb d6fe fa3b 6f31 733e
000001c0: a21a d3bc c153 65bd b791 a4bd d86c 33be
000001d0: 917f 39bd 219a 9fbd 5d4a 4cbe 6bd4 acbd
000001e0: a797 af3d 5e21 623d e821 af3e 6d74 8abe
000001f0: 7370 10be e2a1 183e 737a 0bbe 5cac e43c
00000200: 52fd 70be 710e d8bd ace1 9c3d 1b25 20bd
00000210: 2fb8 403e b5db 0bbe 99a7 61be 9215 05bd
00000220: f42d 1f3e 3158 06be 0a67 963d cfef c8bc
00000230: 2c69 dd3c 5553 973e 544e 3d3e 2b71 c73d
00000240: d965 0cbd fdc3 483e e089 debd 9880 18bc
00000250: 4957 9dbd 3a7b 1a3d e022 3c3e 3373 ccbd
00000260: 233e 5b3d ce49 ddbd 2600 bbbc 270b 3a3d
00000270: 5023 7e3e 8901 063e c827 a13c 3626 96bd
00000280: cff4 5ebe 4bda 3fbd cb73 0dbe c974 863d
00000290: 842b d8bb 962e 29bd b5c2 523c d429 bb3d
000002a0: cd6e 9c3d 57a0 173e 49c8 e6be c935 d6ba
000002b0: 0775 2e3c 54a8 2dbd 9540 31be d7ab b63d
000002c0: f9b1 a33d 4a6d 3bbe 37c2 c53d e191 353d
000002d0: 2cb7 65be da5e 8ebe ecf8 463c 5388 12bd
000002e0: 3e9d 953d 64fb f0bd 7f29 253e 33c7 83be
000002f0: e661 56bd 28b6 20bc a912 703d aeb6 35bd
00000300: 33e4 093e 1d4a 0abe 3f85 9fbc a9b5 bb3b
00000310: 7028 1bbe 441c 2dbd c0dd 0cbe 4124 0e3e
00000320: c956 36bd a3d8 803a 83ab 883c 95f7 7bbd
00000330: de4d 913d caa8 06be 17cc e7bd 47e7 2ebd
00000340: fb55 363e 02c2 5b3c 9eee 60bc f91b 8a3c
00000350: 5712 8dbd 7e93 2e3d 8e11 943e ff7d fcbc
00000360: 763f 883d b24e ffbc c5d5 553e e01c 9f3b
00000370: f079 b43b bad6 843e 617f 80bd e6f6 3e3e
00000380: f52f 26be 5db9 27be 9d2a 213b 9b4c 8b3d
00000390: a66e 14be 795e 703e 4971 8abe 097f a33e
000003a0: 0ab9 583d 348a a4bd 18d9 94be 65c3 f6bd
000003b0: a460 ad3d 92cd 703e 77c8 c1bd 6e30 a83c
000003c0: 47bf 673d 70f8 0f3e 66c6 22bc 8ffa 52be
000003d0: febf 3bba e255 6b3e b521 83bd e0df 8fbb
000003e0: 2e0e 513c 3733 22be 1405 e83c e48d 5b3e
000003f0: 4877 273e 5cb4 b93c 0b51 8ebe 2901 1c3d
-0.118447885 0.2743888 0.10556143 -0.038900286 -0.2734359 -0.054166652 -0.17677568 -0.2853132
-0.10664202 0.20779786 -0.26356474 0.053872965 -0.024717031 0.0043590222 0.038872495 -0.1575975
0.06438094 -0.03825003 0.12184634 0.3556504 0.039309155 0.27826038 0.049524788 -0.03468022
0.16478807 0.015453697 0.1451293 0.13517876 -0.23503444 -0.23867546 -0.17396075 0.123084225
-0.23357075 -0.07280253 0.10310152 0.11658549 0.07756214 0.2623088 -0.21927667 0.08762812
0.30277592 -0.010910124 -0.06988838 -0.020406285 -0.14761458 0.3210656 0.15558046 0.099523
0.04235093 -0.015404526 -0.23637046 -0.16385187 -0.117578425 0.08750957 0.16077437 0.07425469
-0.08645903 0.1596917 0.16589917 0.08899789 0.104932934 0.20808612 0.055193104 -0.048761543
-0.09014387 -0.1057221 0.24622408 0.23949604 -0.3125537 -0.06469262 -0.01548367 -0.19265541
0.033865668 -0.1814275 0.0025980794 0.10158445 0.059404746 -0.07454254 0.077048466 0.2568644
-0.024452021 -0.008106822 0.15104248 0.27970567 -0.19625798 0.008594309 -0.005752237 0.24805947
-0.08582597 0.06302435 0.060020458 -0.35411078 -0.18798606 -0.19309184 -0.13714615 -0.058877543
0.16457446 -0.17269585 -0.18256988 -0.100370415 0.01099853 0.013359428 -0.063489 0.12939838
-0.14895621 -0.13174208 0.09664582 0.23419064 0.18326959 -0.0025266 0.0076597733 0.23749326
-0.025769535 -0.055988077 -0.080356054 -0.1752199 -0.045287672 -0.0779307 -0.19950242 -0.08438953
0.08573847 0.055207603 0.34205556 -0.2704195 -0.14105396 0.14905503 -0.1362093 0.027914219
-0.23534134 -0.105496295 0.07660231 -0.039097887 0.1882026 -0.1365803 -0.2203659 -0.032491274
0.15544873 -0.1311958 0.07343872 -0.024528412 0.027027689 0.29555765 0.18486911 0.09738382
-0.034276817 0.19606014 -0.10866141 -0.009308003 -0.07682664 0.037715174 0.18372679 -0.0998291
0.053526055 -0.10805093 -0.02282722 0.045420792 0.24818158 0.13086523 0.01967229 -0.07331507
-0.21773075 -0.04683904 -0.13813703 0.06565244 -0.0065969843 -0.041304193 0.012863805 0.091388375
0.07638321 0.14807259 -0.4507468 -0.0016342934 0.010648019 -0.04239686 -0.17309792 0.089194946
0.0799293 -0.18303409 0.09656184 0.044328574 -0.22433156 -0.2780674 0.012144309 -0.03577454
0.07305382 -0.11766699 0.16129111 -0.25737914 -0.052339457 -0.009809054 0.058611546 -0.04436367
0.13465957 -0.13504834 -0.019472716 0.0057284427 -0.15152144 -0.042263284 -0.13756466 0.13881017
-0.04451636 0.0009830188 0.016683346 -0.06151541 0.0709493 -0.13150325 -0.11318224 -0.042701032
0.17806236 0.013412954 -0.013728766 0.016859042 -0.06888264 0.04262113 0.28919643 -0.030821798
0.06652729 -0.031165455 0.20882328 0.004855737 0.0055077 0.25945073 -0.062742956 0.18648872
-0.16229232 -0.16379304 0.002459205 0.06801721 -0.14495334 0.23473538 -0.27039555 0.31932858
0.052910842 -0.08034173 -0.2907188 -0.12048987 0.08465698 0.23515919 -0.09462064 0.020530906
0.0565789 0.14059615 -0.009934997 -0.20603393 -0.0007162093 0.2298198 -0.064029135 -0.0043907017
0.012759728 -0.1583985 0.028322734 0.21440846 0.16354096 0.02266901 -0.27796206 0.038087044

features.2.bias f4 [24]
00000000: c925 bb3d 4245 92bc a021 223e aa15 95bd
00000010: 2274 22bd 5145 37bd 5fd0 c4bd c11d dc3c
00000020: a61a 203e 64c9 3d3d 74c4 3dbe a272 40be
00000030: 8f05 153e e457 11be bb85 313e c49e 903c
00000040: 03cc 6cbe 5930 a33d 7b14 8abc 797e 033e
00000050: 36d8 3cbe b816 333e ea3d 8ebd 9ecb a8bd
0.09138066 -0.01785529 0.1583314 -0.07279523 -0.039661534 -0.04474384 -0.09610056 0.026869657
0.15635166 0.04633464 -0.18531972 -0.18793729 0.14552902 -0.14193684 0.1733617 0.01765383
-0.231247 0.07968206 -0.016855469 0.12841214 -0.18441853 0.17489135 -0.06945403 -0.08241962

features.4.weight f4 [24, 24]
00000000: 04c2 9d3d b725 7f3e 92cd 2f3d 7ff4 b73d
00000010: 7e70 3d3e c383 f2bb 36c2 08be a5d1 773d
00000020: c52b 93bb 1f28 83bd 50ce e23d 1455 5fbd
00000030: 8488 dabc b642 513d b5c3 863e 19f7 13be
00000040: 215b ab3d aabb f43d 9657 023e 4285 2b3e
00000050: 1bdb a7bd e6d0 48be 2f85 d13d c700 883d
00000060: 2cb3 02be 06bd 593e e1b6 8ebd 2fa4 c4bd
00000070: 08a0 b03c d145 d33b f5cc 4dbd 8f75 823e
00000080: 5129 263e 10b9 80bc 7532 ddbd beda fe3d
00000090: b5a4 bc3d 43f0 c0bd 826f 423e d381 88bd
000000a0: 3cec 0cbd be0b 553e 8c86 a4bc 3bb3 863d
000000b0: c626 13be 91b9 30be f3a5 d13d cca4 6cbc
000000c0: 79ea e0bd 87fc 243e 3844 09be 2c9e 2d3e
000000d0: 8ca8 8f3d f606 b93d 0171 b6bd 4700 2c3e
000000e0: 7a71 083d 987e b33d 060b dfbd 7ab7 8a3d
000000f0: 398d 21be be5c b23d dadf dd3d 5b57 833d
00000100: 2968 5b3e bf47 ce3d 1f66 03be 52a7 efbd
00000110: ebb3 a5bd b924 853d 8ce5 6b3e a94c e53d
00000120: 7646 3abe b486 3f3e c166 19be 0940 023e
00000130: 4b44 563e 9b9c 2f3e 3331 c2bd 92b0 2a3e
00000140: c32c 4fbc 16c8 543c 45d7 65bd 75d4 333e
00000150: 0a90 1dbd 7a73 d3bb 06a6 193d 93c7 213e
00000160: bcdc e0bd 9c78 823e 537a bd3d 6333 3bbd
00000170: 666f 97bd 5c86 113b 3458 1e3e 2469 7b3e
00000180: 606a 4abe b928 1cbc e94c 3b3b 523a 903c
00000190: c9c8 c7bc e297 3c3e 4d78 1ebe 6945 433e
000001a0: 9775 3d3e 80fa 063e 0580 25bd c56d dc3d
000001b0: bbcc 2e3e 9b4c 7bbd 60e0 bd3d 3885 403d
000001c0: 4856 853e 4ccb 1f3e 9aff f53c 395f 81bd
000001d0: 76c3 a8bd 737b 98bc 1aae 3c3e d93f c9bd
000001e0: d34b b3bd 2cf6 8f3e 07b8 09bc 8e34 3b3e
000001f0: 6e13 1f3e a716 103d 6d7a 97bd 32cd 6f3e
00000200: 28aa e23c b55f a4bd 6f72 013e 8681 e13d
00000210: d224 22bd 18b3 533e e4d7 5c3e 0fdb adbd
00000220: 4ec6 1fbd f5e8 f73d 4af4 e0bc 3355 803c
00000230: 925b 163d 87a8 33be c6c0 433d 25e4 05be
00000240: c77f a1be 4feb 313e a962 ec3d 2258 7bbd
00000250: db2e 773e 61fe 3a3e beeb fbbd eceb f2bc
00000260: cb8c 01be 2437 46be c02b 4b3e bf47 8d3e
00000270: ac94 9c3e 1b1a 723d 2c12 043e 2528 b83d
00000280: 4366 8d3e 9ace 103d 0f78 d5bd 3b72 a6bc
00000290: 3937 88bd c14c 95be 3930 f1bd 51e9 383e
000002a0: 87c2 99be 64cd 5ebe bdb0 863e 6c3a 9e3d
000002b0: 822a fc3b b44f 693e 6d6e c53a b1d6 e83d
000002c0: 94a6 c8bd 018e b13d e84f 9a3e a4a4 d4bc
000002d0: efe4 b23e d1d0 6e3e 9a63 803e 745f 4dbd
000002e0: de89 1f3e f775 913d 343e 81be c086 6fbd
000002f0: 3c20 1fbe 57bd e9bd 3839 81bd bf3b 1cbe
00000300: 06f5 51be bd70 74bd 4430 ca3d f2c9 823e
00000310: 780b 803e f3b1 923e 7928 213e fbe1 b73d
00000320: 0127 d23b d03b 053e 7ede 343d ea29 0fbe
00000330: 145b 743e b3b8 b53c 0fd4 623e 71d4 7d3e
00000340: 4004 ecbd 861f b7bc 82f6 42be f731 233d
00000350: b09c 633c dbc5 4e3d 3e1e 34bd b3b7 f63c
00000360: 76da e4bd ddba 5b3d a881 7c3d ebce 683e
00000370: 339c 103e 2c26 923d 113e 183e e95d 993d
00000380: 5908 2c3c 8369 64bc e208 3f3e 548a cc3b
00000390: 2027 6b3e d4e0 063e b6e3 923e 99ca 3c3e
000003a0: ce29 c6bd d425 e9bd 35fc 82be 33d7 673e
000003b0: 8fe2 493e 9cd8 30be 3f78 4c3d 2329 2bbe
000003c0: 73e7 1e3d 4e98 d2bd a091 f63d c1b6 2c3d
000003d0: 1d6d e03d 3495 943b ad1e ffbc 2ee3 733d
000003e0: 5657 1a3e 3c14 7a3e d579 f13d 8670 c4bd
000003f0: 3ca7 c93e 829b 54bd 2fc5 923e 5cc3 213e
0.07703021 0.24916731 0.042920657 0.08982181 0.18499944 -0.007400961 -0.13355336 0.060502667
-0.0044913017 -0.06404137 0.11074507 -0.054524496 -0.026676424 0.05108901 0.26321188 -0.14449729
0.08366991 0.119498566 0.12728724 0.16750053 -0.08196088 -0.19610938 0.10230481 0.06640773
-0.12763661 0.21263513 -0.06968475 -0.09601628 0.021560684 0.0064475317 -0.05024429 0.25480315
0.16226698 -0.015713245 -0.108006395 0.124440655 0.09211103 -0.09420826 0.1898785 -0.06665387
-0.03440498 0.2080526 -0.020083688 0.06577154 -0.1437026 -0.17258288 0.102367304 -0.0144435875
-0.10982222 0.16111957 -0.1340493 0.16954869 0.0701457 0.09034531 -0.089082725 0.16796981
0.033311345 0.0876438 -0.108907744 0.067732766 -0.15776528 0.087090954 0.10833712 0.06413146
0.21426453 0.10072278 -0.12831925 -0.11701836 -0.08090957 0.06501145 0.23036784 0.111962624
-0.18190941 0.18703729 -0.14980604 0.1271974 0.20924489 0.17149584 -0.0948204 0.16668919
-0.012644949 0.012987157 -0.0561135 0.17561515 -0.038467444 -0.006452975 0.037511848 0.15798788
-0.10979602 0.25482643 0.09251847 -0.045703303 -0.073942944 0.0022205329 0.15463334 0.24551827
-0.19767141 -0.009531193 0.0028579778 0.017605934 -0.024387734 0.18417314 -0.15475579 0.19069447
0.18501888 0.13181496 -0.040405292 0.107631244 0.17070286 -0.061352354 0.09271312 0.047002047
0.2604239 0.15604895 0.030029107 -0.063169904 -0.08240406 -0.018613553 0.1842579 -0.09826631
-0.08754697 0.28117502 -0.008405692 0.18281767 0.15534756 0.035177853 -0.07396398 0.2341812
0.027669027 -0.08026067 0.12641309 0.11011033 -0.039585896 0.20673788 0.2156673 -0.08489048
-0.039007477 0.1210498 -0.027460236 0.015665626 0.036708422 -0.17544757 0.047791265 -0.13075311
-0.315428 0.1737492 0.115422554 -0.061363347 0.24138968 0.182611 -0.12300824 -0.029653512
-0.12651365 -0.19356972 0.19840908 0.275938 0.30582178 0.059106927 0.12897557 0.08992032
0.27617082 0.03535328 -0.1042329 -0.020318141 -0.06651158 -0.2916012 -0.11776776 0.18057753
-0.30031225 -0.21758038 0.26306716 0.07725987 0.007695497 0.2278431 0.0015062817 0.11369074
-0.09797397 0.08669663 0.3013909 -0.025957413 0.34940287 0.23321845 0.2507599 -0.05013986
0.15579936 0.07102578 -0.2524277 -0.058478117 -0.1553964 -0.11413067 -0.06309742 -0.15257166
-0.20503625 -0.059677828 0.09872487 0.25544697 0.2500875 0.2865139 0.15738095 0.08978649
0.006413341 0.13011098 0.044157498 -0.13980833 0.23862869 0.022182798 0.22151206 0.24788071
-0.11524248 -0.022353899 -0.19039348 0.039842572 0.013892338 0.05048166 -0.043974154 0.030116891
-0.111744806 0.053645004 0.061647087 0.22735183 0.14122085 0.07136187 0.14867426 0.07488615
0.010500037 -0.013941172 0.18655732 0.006242076 0.22964144 0.13171703 0.28689355 0.1843666
-0.09675942 -0.11384168 -0.25583044 0.22640686 0.19715331 -0.1727013 0.049919363 -0.16714911
0.038794946 -0.10282956 0.120394945 0.042166475 0.10958312 0.004534388 -0.031142557 0.059542827
0.15072379 0.24421781 0.11790816 -0.09591775 0.39385402 -0.051906116 0.28666064 0.1579718

features.4.bias f4 [24]
00000000: 2a73 d93d 539d f4bd bae2 adbc 1be8 afbd
00000010: 937d 47be 7dc7 e1bd f934 7b3d 6fa3 fcbd
00000020: ed3d 40be a984 70bd 08b2 ecbd 89a7 91bd
00000030: 1c5d 3d3d 63e5 bd3d 7a64 40be b3da f63b
00000040: 7626 19be 68ad 6f3d 679e 833d fdd1 a53d
00000050: b13c 763d d413 313e 5a69 f1bc e5e2 9a3d
0.10617669 -0.1194407 -0.021226276 -0.085891925 -0.19481497 -0.110243775 0.061329816 -0.1233586
-0.18773623 -0.058720265 -0.11557394 -0.07112033 0.046231374 0.09272268 -0.18788329 0.007533395
-0.14956078 0.058514982 0.06426697 0.08096693 0.060116474 0.1729272 -0.02946918 0.07562808
