NE/Treinamento/CONV/CONV_1_DENSO_1/conf_1/modelo_seed_29_loss_0.004440.pt (torch, 41135 bytes, 4 tensors)

conv1d_1.weight f4 [24, 53, 7]
000000 9c 87 20 bd 8b 39 39 3d 2f 67 39 3d 88 8a 9d 3d
       -0.039191827 0.045220893 0.04526442 0.07692438
000010 99 be d7 3c 6a 87 86 bc 9f 4e 3d bc 05 17 a8 3a
       0.026336001 -0.016421992 -0.011554389 0.0012824243
000020 95 74 28 3d 62 4e 96 bc 7a 24 90 3d f9 06 c0 3c
       0.041126806 -0.018347923 0.07038207 0.023440825
000030 ea ac 4c bd 5a 30 ee 3c f9 5b 99 bc fa e5 2b 3d
       -0.04996959 0.02907579 -0.018720614 0.04196737
000040 af 69 87 3c 77 4c e1 3c 15 30 9d 3c 98 e5 0c bc
       0.016529886 0.027502282 0.019187966 -0.008599661
000050 e5 c2 3e 3d 63 33 e3 bb 87 c7 2b bc 6e 4c 51 bc
       0.046572585 -0.006933616 -0.010484583 -0.01277457
000060 90 78 88 3c ab 90 99 bc 31 98 1f 3d eb 4c ba bc
       0.016659051 -0.01874574 0.0389635 -0.022741755
000070 fb d0 8e bc 57 60 87 bc 33 63 c1 3a c2 80 7f bd
       -0.017433634 -0.01652543 0.0014754295 -0.062378652
000080 ea 81 1c bd 6b 86 fc 3b 39 dc eb bc 1f 51 eb 3c
       -0.038209833 0.0077064536 -0.028791534 0.028725205
000090 06 01 bf bc 92 a1 d0 bb 68 7c d5 bd 0c 0a e0 bc
       -0.023315918 -0.006366917 -0.10424119 -0.02734854
0000a0 80 bd 4d bd 11 83 e0 3a 48 e9 bd bb be 99 a1 3c
       -0.05022955 0.0017128905 -0.0057956316 0.01972663
0000b0 09 57 0d 3c d1 63 d2 bb 4a 72 cb 3c 0b 8b 7d bc
       0.008626708 -0.0064205904 0.02483477 -0.015475045
0000c0 90 1c 2e bd ae 2f 92 3c f2 59 4a 3c db c8 03 bd
       -0.042507708 0.017845001 0.012350546 -0.032173973
0000d0 50 13 3a bd d4 55 90 ba ea 1b 95 bc 8f d4 95 bc
       -0.045428574 -0.0011011907 -0.018201787 -0.018289832
0000e0 70 d4 01 bd 62 c1 d8 3b 50 92 1f bd 30 c1 1c be
       -0.031696737 0.00661485 -0.038957894 -0.1530807
0000f0 c8 1d 46 bd 10 8a 34 3d e1 34 3a bc 56 9b 1d bd
       -0.048368245 0.04407698 -0.011365146 -0.038478218
000100 5e 20 5f 3b fd 04 7c bc cd 31 83 bc f7 e4 40 bd
       0.0034046392 -0.015382049 -0.016014958 -0.047093358
000110 44 80 89 bc 65 8c ea bc 47 b4 2f 3d d0 0c 48 3c
       -0.016784795 -0.028631398 0.042896535 0.012210086
000120 1b ac 99 3c e0 d4 f7 3d 55 48 6d bc e0 cb 98 bc
       0.018758824 0.121011496 -0.014482577 -0.018651903
000130 4b 80 71 3b 88 19 02 3d 32 06 e9 bb 1e 35 bb bc
       0.003685015 0.03176263 -0.0071113342 -0.022852477
000140 bd 31 38 3d 85 fa 12 3c b1 ac 27 bc fd 62 15 bb
       0.04496931 0.008970861 -0.010234044 -0.0022794597
000150 c4 49 c3 3c 8d c8 28 bd 28 64 19 bd b0 a2 b7 3d
       0.023838885 -0.041206885 -0.037449032 0.08966577
000160 28 93 22 bd 09 b4 a1 39 52 b3 a3 bb aa 20 ae bc
       -0.03969112 0.0003084245 -0.004995742 -0.02125581
000170 b4 17 09 3c 5e 69 6b bc 34 3c 5e bd b2 73 9e 37
       0.008367468 -0.014368383 -0.054256633 1.8888943e-05
000180 68 65 d2 3b 85 9e 20 bd 13 d5 46 3b d3 4e 34 3d
       0.00642078 -0.039213676 0.0030339404 0.044020485
000190 d5 77 ad 3c 92 4d c9 bd d0 fb c2 3c 19 66 9c 3c
       0.021175304 -0.098292485 0.023801714 0.019091653
0001a0 b6 71 f0 3c 5b 7b b4 3c 72 dc 09 bd 42 28 df 3a
       0.029351097 0.022031477 -0.0336575 0.0017025548
0001b0 0a 4a 82 3d 06 7a 50 bd 5a f3 ac 3c 99 e6 92 3c
       0.06361778 -0.05089762 0.021112133 0.017932223
0001c0 f5 c7 39 bd 90 25 4e bd f6 f8 97 bc 30 f8 7a bd
       -0.04535671 -0.05032879 -0.018551331 -0.061271846
0001d0 b6 f1 8d bc b4 e3 16 3d fb 12 14 bd a2 e3 76 3c
       -0.01732717 0.03683825 -0.036150914 0.01506892
0001e0 dd f3 b0 3c 75 e3 43 3d f1 6a 1a bd 38 8b 11 bd
       0.021600658 0.04782434 -0.037699644 -0.03553316
0001f0 45 e8 89 3c 61 73 53 bb f7 1c 09 3d d6 30 be 3c
       0.016834388 -0.0032264816 0.03347489 0.023216646
000200 fd 4e 06 3d f1 11 40 be 67 60 de bc c3 06 07 bd
       0.032790173 -0.18756844 -0.027145578 -0.032965433
000210 d3 36 13 3d cd d9 18 3d f3 1b 53 39 22 55 54 3d
       0.035940956 0.037317086 0.0002013294 0.051839
000220 24 11 a8 3d 4b f7 b1 3c 98 ab 8f bc fe 13 f9 bc
       0.08206394 0.021724364 -0.017537877 -0.03040504
000230 95 64 fc bc 81 9d 04 3d 67 71 23 3d e6 e2 47 bd
       -0.03080968 0.03237677 0.03990307 -0.04880037
000240 81 4a 26 bd 4d 1e b3 3c 25 a0 31 3d 50 3d ae 3c
       -0.040598396 0.021865034 0.043365616 0.02126947
000250 74 08 de bc 07 61 e4 3a e2 61 7a 3e fa 18 26 bd
       -0.02710364 0.0017423936 0.24451402 -0.040551163
000260 35 61 8f 3c 72 47 d1 3c 75 ff 4f bc 2a 9d c1 bc
       0.017502407 0.025546763 -0.012695183 -0.023634512
000270 a6 b4 32 3d e3 5f 52 3e 52 cc 07 3d de ee 09 3d
       0.04362931 0.2054439 0.03315384 0.033675067
000280 ae 69 05 bd 41 68 61 bc df 6a a1 bc 4a db c5 bc
       -0.032571487 -0.013757766 -0.01970428 -0.024152417
000290 d8 89 d5 bc 04 19 08 bd d1 b9 2e 3d f7 63 ae 3c
       -0.026066706 -0.03322698 0.042657677 0.021287901
0002a0 4e e8 ac bc 0e d7 2d bd 8e 05 b1 bc 85 e3 b8 3d
       -0.021106865 -0.04244142 -0.021609094 0.09027771
0002b0 ce 0c 43 bd 02 d1 ac 3b ad 40 99 3c dd 55 97 bb
       -0.047619633 0.005273939 0.018707598 -0.00461839
0002c0 ab 18 fd 3b fe bf 15 bd 83 36 7a bc 85 da 1e 3d
       0.007723888 -0.03656005 -0.015271786 0.038782615
0002d0 54 55 9f bb a9 a6 a5 bc 93 b5 b3 3c 8b c4 10 3c
       -0.004862467 -0.020221071 0.021937167 0.008835922
0002e0 64 eb f8 bc 35 be 59 3d cd 33 21 3b 2f 31 12 3d
       -0.03038568 0.05315991 0.0024597526 0.035691436
0002f0 ac 68 43 3d db d5 f2 3b da 7d 44 3d 6d 9a da bc
       0.047707245 0.0074107475 0.047971584 -0.026684964
000300 8c 4e 52 bc 0b be 13 bc 5b 31 7d bc 0c a5 99 3b
       -0.01283611 -0.009017478 -0.015453662 0.0046888646
000310 61 1d 3c 3d bb f5 0a bd d1 54 41 3c 51 a1 4c bc
       0.045926455 -0.033925753 0.011800007 -0.012489633
000320 e8 96 e7 3c c4 a5 2d 3b c6 e4 ed 3c 40 b7 8d 3c
       0.0282702 0.002649651 0.029039752 0.017299294
000330 2d dc ab bc 47 ec a7 3c 87 9a a7 bc 27 38 bd bc
       -0.020979011 0.020498408 -0.020459427 -0.023098065
000340 a1 93 0d bd 41 d2 4a 3d 14 17 15 3d ed 13 fe bc
       -0.034564618 0.04951692 0.036398962 -0.03101536
000350 90 61 ab bc df 7f f3 bc 4a db 1f bd 73 5e 96 3c
       -0.020920545 -0.02972406 -0.03902749 0.018355584
000360 74 ae 9b 3b 03 ff 15 3d 74 c4 27 bd e8 d7 72 3c
       0.004751021 0.03662015 -0.040958837 0.014821984
000370 cc 65 00 be 90 90 e5 3c 2f 61 8d bb a1 50 60 bc
       -0.12538832 0.028023034 -0.0043145637 -0.013691098
000380 3f c4 39 3d a7 65 e5 b9 26 54 23 3d df 85 4e bd
       0.04535317 -0.0004375402 0.039875172 -0.05042064
000390 01 23 0f 3d 6d 15 80 bb f9 aa a0 bc 67 30 c8 3b
       0.03494549 -0.003908804 -0.019612776 0.0061092856
0003a0 f1 40 44 3d f2 d8 cc bb 87 c3 56 3d 48 29 24 3d
       0.047913495 -0.006251448 0.052432563 0.04007843
0003b0 39 a2 33 3d 25 aa 53 3d 4a 85 c5 bc 67 e7 9a 3c
       0.04385588 0.051675934 -0.024111409 0.01890917
0003c0 b2 7f 94 3b 73 a2 11 3d a8 df 7a bc 6f 0f 09 bd
       0.004531824 0.035555314 -0.015312113 -0.033461984
0003d0 4f ab 72 3c a7 ad 01 3a 76 ab c0 3b 8d a6 43 3d
       0.014811351 0.00049468357 0.0058798147 0.047766257
0003e0 7e 8d 3d 3d e8 89 1c 3c 3a bc ca bb 39 3a cf 3c
       0.046277516 0.009554364 -0.006186989 0.025296317
0003f0 c4 b0 25 3d 3f 3e cf bc cc ce 2d 3d 2c 10 05 39
       0.04045178 -0.025298236 0.042433545 0.00012689893

conv1d_1.bias f4 [24]
000000 63 b6 08 3e 08 30 2a 3d 3b 81 4d bd c4 9d 0b be
       0.13350825 0.041549712 -0.050172072 -0.13634402
000010 a0 8d 62 3e 34 e4 ca 3d 48 af 14 3d 37 0e 9b bd
       0.22124338 0.099068075 0.036299974 -0.07571071
000020 86 dd 52 bd 9f c1 74 3e 36 3d f8 bd 1b b2 27 bb
       -0.051480792 0.23901986 -0.1212105 -0.0025588337
000030 84 c0 85 bd a5 df fe be 42 cd 05 be f8 1c a6 bd
       -0.0653086 -0.49780002 -0.13066581 -0.08110994
000040 84 78 8f bc 91 cd 2c 3d aa 26 e6 bd fb c3 52 be
       -0.017513521 0.04218823 -0.11237843 -0.20582573
000050 ee 9a fc 3d 35 1e a6 bd 1f dc 53 bd 90 de d2 bd
       0.12334238 -0.0811123 -0.051723596 -0.10296357

features.0.weight f4 [24, 24]
000000 bd 9e 08 3e 52 7d a4 be 44 ab b1 bd 82 b8 46 3c
       0.13341804 -0.32126862 -0.086752445 0.012128951
000010 c8 8f d3 3d 4d f1 ca 3b 36 8e 4e 3d 87 42 13 3d
       0.103301585 0.006193316 0.05042859 0.035952117
000020 4e f1 80 bc 31 6a 9e bc 73 09 f3 3d 47 88 c9 3d
       -0.015740063 -0.019337745 0.11867037 0.09840446
000030 4a b8 52 3e 31 e4 24 bd ab 2b 6f 3d 87 c8 c6 3d
       0.20578113 -0.040256683 0.058391254 0.09706216
000040 f0 16 4a be de cb b0 3d 38 cb cf bd 44 60 8d 3b
       -0.19735312 0.086326346 -0.10146183 0.0043144543
000050 5b 78 b3 3d ef 02 62 be a7 26 3d be fd 8a 80 3e
       0.0876319 -0.22071432 -0.18471776 0.2510604
000060 33 2a f1 bd e0 c2 1d be 84 57 63 be 27 86 26 3d
       -0.11775627 -0.1540637 -0.22201353 0.04065528
000070 6d f6 09 3e c1 4e 47 3e 76 e8 d9 3d 2f 42 29 be
       0.1347291 0.19463636 0.106400415 -0.16529153
000080 86 42 2c be 1b 47 82 3d 1d fa 43 3e 48 89 45 3d
       -0.16822252 0.063612185 0.1913838 0.048226625
000090 36 17 6f 3e 4b 9c 2e bd a8 a1 13 bc a2 8a 92 bc
       0.23348698 -0.04262952 -0.00901071 -0.01788837
0000a0 67 f3 e3 bd f9 4c 8a 3b 2d 1f 81 3d 88 b5 cf 3d
       -0.1113041 0.0042206016 0.063047744 0.10142046
0000b0 86 50 30 3d 0c cf 4c be 96 b0 82 be 4e 89 89 3e
       0.043045543 -0.20000857 -0.2552535 0.26862568
0000c0 8d a3 06 be ca 88 88 be d7 e1 bc 3d 6c 84 b7 3d
       -0.13148327 -0.26666862 0.09222763 0.08960804
0000d0 28 c5 41 3e e6 16 dc bd 86 cf 27 be 27 5a 12 be
       0.18922865 -0.10746555 -0.16387758 -0.14292203
0000e0 94 de ee bc 77 77 92 3d 17 c3 30 3e 2b d3 d3 bd
       -0.029158868 0.07151692 0.17261921 -0.103430115
0000f0 8d 63 e9 3c b3 83 09 bd 18 a6 a3 3e dd 35 01 be
       0.028489852 -0.033572864 0.31962657 -0.12618203
000100 c0 6c f1 ba e9 ab 14 3e 7e 40 2b bc 7a d3 5d 3e
       -0.0018419251 0.14518704 -0.010452388 0.21662703
000110 6f 74 ba bd 00 05 8c be 15 b9 82 bd c3 16 8a 3e
       -0.09104239 -0.27347565 -0.06382958 0.2697049
000120 1e b7 4d bd 98 64 7a be 48 0a a0 3d 71 62 94 bd
       -0.050223462 -0.24452436 0.07814461 -0.07245339
000130 16 98 95 3e ac db 9b 3d 4a 53 24 be 0e e7 30 3e
       0.29217595 0.076102585 -0.16047397 0.1727564
000140 f6 41 23 be dd 0e 3e bd 9d ed 88 3d ee b6 29 3e
       -0.15943131 -0.046400893 0.06685946 0.16573688
000150 ef c0 87 bc d8 49 4e bd b4 f6 4b 3e e7 97 be 3d
       -0.01657149 -0.05036339 0.19918329 0.09306317
000160 a6 7e 0c 3e 0d db bf 3d 73 99 0e 3d 2c 01 2a 3e
       0.13720188 0.093679525 0.03481431 0.1660201
000170 85 23 5a be 1d 3e a8 3b ac fa 2e be ed a6 59 3e
       -0.21302612 0.0051343576 -0.17087811 0.21255083
000180 98 5d 06 be 8a 96 1c be 5f f9 46 3d a6 fc 02 3a
       -0.1312164 -0.15291801 0.048577663 0.0004996754
000190 a7 57 a7 3e 67 b8 f3 3c 84 c4 c7 bd 65 7d 7f 3d
       0.3268406 0.029751016 -0.09754279 0.062375445
0001a0 60 57 e9 3c 3a 7a c2 bd a8 c4 10 3e 26 e5 d6 ba
       0.028484046 -0.09495969 0.14137518 -0.0016395196
0001b0 71 57 25 3e cd a8 88 bd ad cf a9 3d b0 82 98 3d
       0.16146637 -0.06672821 0.08291564 0.07446802
0001c0 bc 01 0b 3d c6 db 09 3e fc 9a 88 3d 06 d4 c0 3d
       0.0339372 0.13462743 0.06670186 0.0941544
0001d0 58 85 16 bc c4 61 db bd ea 5e 60 bd da f1 81 3e
       -0.009187065 -0.10712007 -0.054778017 0.2537983
0001e0 92 a3 7a bc f9 ee 12 be 81 b9 9f bc eb 45 6b 3d
       -0.015297787 -0.14348973 -0.019497635 0.057439726
0001f0 8d 66 6f 3e 9a 77 53 3d ed 74 60 be 21 8e 6c 3e
       0.23378964 0.051627733 -0.21919604 0.23101093
000200 64 57 de 3d 39 25 ad 3c 4b 02 0e 3e 6a a8 36 be
       0.10856512 0.021135913 0.13868062 -0.17837682
000210 f2 1a 98 3d 75 62 a2 bd ba 96 8e 3e 06 10 c2 3d
       0.074270144 -0.079289354 0.2784937 0.094757125
000220 e2 99 2c 3e 10 e4 ef 3c 1a 1e b3 3d c9 e8 f0 bc
       0.16855577 0.029283553 0.08745976 -0.029407876
000230 c3 a2 90 3d 53 84 ad be 4d 17 57 bd c9 32 dc 3d
       0.07062294 -0.33890018 -0.052512456 0.10751874
000240 9e fc ef bd bc e9 f6 bd 83 e2 6b be b0 c5 81 3e
       -0.11718105 -0.120563 -0.23035626 0.25346136
000250 66 74 5b 3e fe e3 8c be 13 4f 59 3e e7 0f f5 3e
       0.21431121 -0.27517694 0.2122157 0.47863695
000260 97 c4 8e 3d 87 a8 e4 3b 39 8c 2e 3e ce f0 dc bd
       0.0697109 0.006978098 0.17045678 -0.10788117
000270 39 40 05 be 9f 3c ec bd c1 07 8f bd 7f 0e 62 3d
       -0.1301278 -0.11535 -0.06983901 0.055189606
000280 01 0f 41 be 5d df ce 3e c0 a1 40 3d fa 40 86 bd
       -0.1885338 0.40404788 0.047029257 -0.06555362
000290 e0 5f b0 bd a7 5f 9d be ee 1d f2 3c b6 26 2c 3a
       -0.08612037 -0.3073704 0.029555287 0.00065670477
0002a0 26 1b 9c be fc 77 13 be 6d aa 14 3e 18 73 91 3e
       -0.30489463 -0.14401239 0.14518137 0.28408122
0002b0 b4 76 8f 3e 46 a8 a8 3d 9f 2c 00 3e b9 78 8c 3e
       0.2802025 0.082352206 0.12517022 0.27435854
0002c0 3b 89 2d 3e ef 3e 2e 3e 86 63 51 3e 4a 79 30 be
       0.1694688 0.17016195 0.20448121 -0.17233768
0002d0 5a 89 ac 3d 20 b7 74 be 97 ac 9d 3d 20 9f ad 3d
       0.08424635 -0.23897982 0.076989345 0.08477616
0002e0 52 be ad bd 60 bd 53 bd b3 52 37 3e 06 82 14 3e
       -0.08483566 -0.051694274 0.17902641 0.14502725
0002f0 cf 22 64 be 36 5f f7 bd 63 da 0c 3e a7 92 e3 3d
       -0.22278903 -0.12078707 0.13755183 0.11111956
000300 72 2b f7 bd 81 35 0b be 53 b1 27 3e 8f a1 f2 3d
       -0.120688334 -0.13594629 0.16376238 0.11847221
000310 be 87 83 3e c1 1a c5 bd 1d c1 0a be d0 9d 8b 3c
       0.256895 -0.096242435 -0.1355023 0.017043024
000320 8f 09 a5 3d 4c c7 9d 3d 14 b6 0b 3e ed 1b 18 be
       0.08058464 0.077040285 0.13643676 -0.14854403
000330 3b cd 08 3e 91 5a cd be fa 60 c8 bd 2b 74 98 3e
       0.13359539 -0.4010816 -0.09784122 0.2977613
000340 db 6e 35 be 1b 2a ab bd 74 f0 3d 3e ee f7 ef bd
       -0.1771807 -0.0835764 0.18548757 -0.11717211
000350 71 13 a0 be d4 4e 13 3e a2 7d 08 3e 27 0e e7 3d
       -0.31264833 0.1438554 0.13329175 0.11281996
000360 41 1b 2c be de 28 c5 bd 9d 0c 3a 3c eb b3 78 3e
       -0.16807272 -0.096269354 0.011355546 0.24287383
000370 63 77 3d 3e b6 2e c8 3d 17 e1 84 3d 49 29 3a 3e
       0.18502574 0.097745344 0.06488245 0.18179812
000380 01 33 98 3d 44 2d 6c 3e 24 0a ba 3d bb 22 11 be
       0.07431603 0.23064142 0.090839654 -0.14173405
000390 61 25 6a 3e 25 ab 0c bf ab 5c 3b 3e d3 fb 65 3e
       0.22865821 -0.54948646 0.18297069 0.22459345
0003a0 11 69 30 3c 10 34 9e be 5b 8c 2b 3e 4a 4e d7 3c
       0.010767237 -0.30899096 0.1675276 0.026282448
0003b0 a8 4e 84 be ba c5 60 3e c5 ab 48 3e e3 f3 13 bc
       -0.2584126 0.21950427 0.19596775 -0.009030315
0003c0 2c 61 c9 3d 50 6e 56 be e4 e3 3f be d2 10 9a 3e
       0.09832987 -0.20940518 -0.18739277 0.30090958
0003d0 1c 5a 0e 3c a4 76 9a 3e d4 f9 42 be e6 9e da 3c
       0.008688476 0.3016864 -0.19040614 0.026687097
0003e0 67 15 14 bc d4 47 91 3e 96 e9 d1 3d 02 ea 95 bc
       -0.009038306 0.28375113 0.10249631 -0.01830006
0003f0 e6 8b c9 3c 3e 9b 18 bf a6 18 ea bd d5 77 40 3e
       0.024602842 -0.5961188 -0.114304826 0.18795712

features.0.bias f4 [24]
000000 63 1d a4 3c 73 06 88 bd 64 d4 10 3d a6 9d 0a bd
       0.020033544 -0.06641855 0.0353588 -0.03384175
000010 c4 73 b5 bd 65 57 06 be cc 5e 12 be c2 d5 c8 bd
       -0.08859971 -0.13119276 -0.14293975 -0.09806396
000020 ab 14 03 be 35 3f 1f 3c 75 3c 58 be 26 1e da 3b
       -0.12800853 0.00971966 -0.21116813 0.006656426
000030 62 63 14 be 6e b4 08 be 43 3a e7 bd 05 71 0f be
       -0.14491037 -0.13350078 -0.112904094 -0.14007957
000040 fe c3 20 bd 11 f7 21 be 29 2d 40 bd f7 a1 51 3d
       -0.039249413 -0.15816905 -0.046918068 0.051179852
000050 84 12 f0 bc 2b f9 cb bc f9 bc 4b bc a7 60 f7 3d
       -0.029305704 -0.024899086 -0.012435191 0.12078982
