N/Treinamento/CONV/CONV_1_DENSO_1/conf_2/modelo_seed_46_loss_0.002884.pt (torch, 90031 bytes, 4 tensors)

conv1d_1.weight f4 [55, 74, 5]
000000 66 34 89 3c cf 64 3b bd 73 e8 d1 3b 30 f5 10 bd
       0.016748618 -0.045750435 0.006405884 -0.03539008
000010 f0 39 d9 3c 2d 61 10 3d 22 3a 38 bd d9 eb fa bb
       0.026516885 0.035248924 -0.044977315 -0.0076575098
000020 46 0a 16 bd ae 01 6f bc 64 4e 38 3d 9b b0 4d bd
       -0.03663089 -0.014587803 0.044996634 -0.050217252
000030 12 3e 04 3d 43 f2 17 bc bc 2b 1a 3d 8a cc 21 3d
       0.032285757 -0.009274068 0.037639365 0.039501704
000040 04 a6 85 3c c7 ea 9e 3c a4 70 01 bb fb 67 cb 3c
       0.016314514 0.01939906 -0.0019750977 0.024829855
000050 16 a8 47 bd b5 7c ae 3c 15 03 5a 3c 3d 00 27 bd
       -0.048744284 0.0212997 0.013306399 -0.04077171
000060 9a f4 16 bd 6a 93 c9 bc 90 dc 2b 3d 64 98 a5 bb
       -0.036854364 -0.024606425 0.04195839 -0.005053567
000070 4c 5f 49 3d f5 64 3e 3d 6a a8 18 3d fd ea 47 3d
       0.049163148 0.046483 0.037269987 0.048808087
000080 f2 54 0d 3d eb ab 5d ba 82 92 88 bc 7d 95 d6 3c
       0.03450484 -0.0008456099 -0.016671423 0.026194328
000090 15 28 34 bd 3b 08 d6 3c 1a b4 b1 3c ab ae 2b 3a
       -0.043983538 0.026126971 0.021692324 0.000654916
0000a0 59 66 f4 bc 6c e1 8f bc 04 00 95 3d 0b 80 d5 bc
       -0.02983396 -0.017563544 0.072753936 -0.026062032
0000b0 61 18 00 bd a9 96 4f 3d eb 3e b6 bc bc d4 11 bd
       -0.03127325 0.05068079 -0.022246799 -0.03560327
0000c0 99 02 09 bd 38 4f 3b bd bf 88 fe 3b ca 99 4f 3d
       -0.033449743 -0.045729846 0.0077677662 0.050683774
0000d0 64 4c 1b bd 16 98 13 bd f9 f2 c3 3c 60 58 f8 3c
       -0.03791465 -0.036033712 0.02391957 0.030315578
0000e0 59 93 2d 3c e4 c8 e3 3c be a5 49 bb 1c e2 eb 3c
       0.010594212 0.027805753 -0.0030768956 0.02879434
0000f0 69 99 06 3d 51 64 c3 bb bb 96 42 bd bd 0e 38 3c
       0.032861147 -0.0059628864 -0.04750703 0.011233983
000100 78 35 16 bd f8 ec 84 bc dc 67 6b 3c 38 ec b8 3c
       -0.036672086 -0.016226277 0.014368024 0.022573575
000110 b6 aa 3f 3c 10 42 42 3d 68 eb 08 3d 6c ff 7d 3c
       0.0116984155 0.047426283 0.033427626 0.015502792
000120 67 90 2b bd b0 17 14 3d 01 d3 18 bd f2 e4 4b bd
       -0.04188576 0.036155403 -0.037310604 -0.049778886
000130 67 a0 08 bd fe 58 3d bd 2e b7 4f 3c 9f 5e 3b 3d
       -0.033356097 -0.046227448 0.012677951 0.045744535
000140 54 9c 3d 3d 92 21 16 3d 63 50 5f 3c 2a c2 92 bc
       0.046291664 0.03665311 0.0136300055 -0.01791485
000150 35 cd 19 3d 78 bd 26 bd 1a 28 a9 bb 65 14 65 3b
       0.037549216 -0.040708035 -0.005162251 0.0034954783
000160 db 9d 82 3b 9f 11 4f 3d 43 b4 5b bb bf 98 51 bd
       0.003986103 0.050553914 -0.0033524192 -0.05117106
000170 dd a9 90 3b d7 93 d7 bc c2 bf 40 3d eb 75 39 3c
       0.0044147805 -0.026315613 0.047057875 0.011319618
000180 d2 9e bc bc f0 8a 02 3c 33 7f 97 bc 0d cd 1a bd
       -0.02302495 0.007967696 -0.01849327 -0.037793208
000190 1c bb 28 3c 6a 6b 85 3c 82 ba fa 3c 0b fc 18 bd
       0.010298517 0.01628657 0.030606512 -0.037349742
0001a0 a3 3e 88 3a 51 6f 1f 3d 06 52 f1 bb 30 77 0c 3d
       0.0010394644 0.03892452 -0.0073645143 0.034293354
0001b0 2a 87 4b 3d d1 a0 48 3d 3a a4 3c bd ab 0e a6 bc
       0.04968945 0.04898149 -0.046055056 -0.020270666
0001c0 7c 14 b0 3b b4 17 41 bd 29 18 d6 39 f7 3c 2f 3d
       0.0053735357 -0.047141746 0.00040835261 0.04278275
0001d0 ff 71 48 3d f3 7b cc bd 45 1b eb 3c 53 24 f9 3b
       0.04893684 -0.09984579 0.028699527 0.007603207
0001e0 be 6c f5 3c 1f 61 5a 3c 8c 9e 73 bd 65 5a 44 3d
       0.029959079 0.01332882 -0.059477374 0.04793777
0001f0 4f 16 09 3c 56 b0 08 3c 7d f9 d3 3c 7c 95 21 bc
       0.008367135 0.008342823 0.025875801 -0.0098623
000200 dc 92 17 3d ab f9 d5 3c 03 9e a1 3b 29 de 39 3d
       0.03700529 0.026120028 0.0049321665 0.045377884
000210 6e 94 49 bd d5 2b 43 bc 8e f8 2e 3b fc 17 ea 3c
       -0.04921382 -0.011912306 0.0026698443 0.02857589
000220 89 a0 be bc 60 4b 46 bc f5 20 fb bc 27 39 ea 3c
       -0.023269909 -0.012102932 -0.030655364 0.028591705
000230 38 42 f5 3c 81 cb da bc cd c0 3c 3c 47 f0 00 bd
       0.029938802 -0.026708366 0.011520577 -0.031479146
000240 7f a7 0c 3c 4f e0 1e 3c 0b b2 47 bd b6 44 ed bb
       0.008584856 0.009697034 -0.04875378 -0.007240857
000250 15 31 1b bd e6 ca af ba 86 3b f4 3c 98 8e 26 bd
       -0.037888605 -0.0013411909 0.02981354 -0.04066333
000260 28 e7 39 3d 31 0e 5b bc 7f 00 70 3c 64 b5 14 3d
       0.045386463 -0.013370083 0.014648556 0.0363058
000270 66 3e 37 3d 9c ef c7 3d bd 87 b8 bc 1e 8b db bc
       0.044737242 0.09762499 -0.022525663 -0.026799735
000280 50 f4 4d bd 92 fd 11 bc cc a2 36 3d 19 74 05 bc
       -0.050281823 -0.0089105535 0.04458885 -0.008145356
000290 8c 33 91 3b 44 cc a2 3b 1e 36 ba bb e6 81 8e 3b
       0.0044311937 0.004968198 -0.005682721 0.004348981
0002a0 70 b4 07 3d d0 5c b4 bc 52 f0 df 3c d9 ba 19 bd
       0.033131063 -0.022016913 0.027336273 -0.037531707
0002b0 52 3f 97 bd c4 cb 52 bd 16 d5 1e bd 35 53 d1 bc
       -0.07385124 -0.051463857 -0.038777433 -0.025552372
0002c0 47 10 87 bb 0f db 78 3c 27 88 dd 3b f2 5f ee bb
       -0.0041218135 0.015188946 0.0067606154 -0.007274621
0002d0 f9 dc 57 bc 02 f8 f2 bc 19 e8 19 3d d2 b7 8c bb
       -0.013175243 -0.029659275 0.03757486 -0.004294374
0002e0 0a 33 d2 3c 3f 59 f6 bc 28 cd 38 bd fb 01 13 3d
       0.025659103 -0.030071853 -0.045117527 0.03589056
0002f0 68 64 0a bc 3a ba c7 bc c9 17 95 3c d4 ad 07 bc
       -0.00844679 -0.024380792 0.018199818 -0.00828119
000300 27 95 0e bd d3 86 86 3b b7 48 4e bd 91 f3 00 3d
       -0.03481021 0.004105428 -0.050362315 0.031482283
000310 2d b7 bc 3c 64 97 f5 bd 57 a7 90 ba a6 50 e8 bc
       0.023036564 -0.11991766 -0.0011036199 -0.028358769
000320 01 98 0d bd 7e b8 f1 3b 2c f4 76 bd 49 e4 17 bd
       -0.03456879 0.0073767295 -0.060291454 -0.037082944
000330 47 15 f2 bc a6 0f 51 bc e2 08 3a 3d f9 16 0c bd
       -0.029551161 -0.012760079 0.045418628 -0.034201596
000340 9a 4e 3a bb 2b 6f e4 3c 27 62 2b 3d 4a b1 f1 bc
       -0.0028428198 0.02788504 0.041841652 -0.029503483
000350 68 7d dc 3c 68 29 74 bc b1 31 2b 3b ee 83 54 3c
       0.026915267 -0.01490245 0.0026122148 0.012970908
000360 84 00 3f 3d 35 1e ec 3d 1a 60 ae bc f5 18 1c bd
       0.04663135 0.11529199 -0.02128606 -0.03810974
000370 0c 5b 2a bd 91 d3 c9 bc a8 68 10 3e 30 7d 52 bd
       -0.041590735 -0.024637016 0.14102423 -0.05138892
000380 a2 ce 26 bc b3 7b 34 3d e3 d6 4b 3d 2f 40 79 3d
       -0.010181101 0.04406328 0.04976548 0.060852226
000390 11 20 4c bc 4d 05 9c bc c0 a3 6b bc f9 39 0b 3d
       -0.012458817 -0.019045496 -0.014382303 0.033990834
0003a0 64 a3 66 3c 38 77 3b bc 89 04 2b bd 95 c7 50 bd
       0.014077041 -0.011441998 -0.041752372 -0.050971586
0003b0 37 d3 8e bc 49 2f 32 3d 66 cf 84 bc 98 79 3e 3c
       -0.0174347 0.043502126 -0.016212177 0.01162567
0003c0 c2 a1 37 bd 2d df 53 3d f0 85 54 3d 39 08 86 3c
       -0.044832 0.05172651 0.051885545 0.016361343
0003d0 8d b3 44 bd 0d 7c 4c bd d8 d0 bb bc 2e d6 5b 3d
       -0.048022795 -0.04992299 -0.022926733 0.053671055
0003e0 14 8b 49 3d fc 97 07 bd d2 4c 23 3d 63 ac dd bc
       0.0492049 -0.033103928 0.039868183 -0.02705974
0003f0 2c 04 e3 3c 55 63 81 bb 07 99 04 3d 0f 2b 6f 3b
       0.02771195 -0.003948609 0.0323725 0.003649417

conv1d_1.bias f4 [55]
000000 d9 19 69 bd 21 2a ea bc 96 a6 c6 3d 39 3a 80 3d
       -0.056909416 -0.028584542 0.096997425 0.06261105
000010 d8 e5 10 be d3 83 61 bd 87 9a 8a 3d c5 2d b1 3d
       -0.14150178 -0.055057358 0.06767755 0.08651308
000020 c6 6a 8e 3d af 12 bc 3d 3f 6f 8e bd 47 ff a9 bd
       0.06953959 0.09183251 -0.06954812 -0.083006434
000030 51 99 0a bd d8 4e 21 3c d1 75 8d bd 61 e7 9f 3d
       -0.03383762 0.009845458 -0.06907237 0.07807804
000040 0a 04 08 bd c5 55 92 3d 54 33 d5 bd 06 02 10 bd
       -0.033206977 0.071452655 -0.10410181 -0.03515818
000050 b8 4e a8 bb 3d ef 1b bd c2 db 16 ba 21 73 a1 3d
       -0.005136337 -0.038069952 -0.00057547924 0.07883287
000060 4b 4b c1 bb 4f 5c 25 bd b1 59 9b bc 5d 64 b8 3c
       -0.005898868 -0.040371235 -0.018963667 0.022508794
000070 a8 56 5e bc 18 35 38 be fe 55 88 bc fc e3 6b 3d
       -0.013570465 -0.17989004 -0.016642567 0.05759047
000080 1b e1 11 3c a7 22 dd 3d b3 de e7 3a c8 ae 91 3c
       0.008903767 0.10797625 0.0017690271 0.017783538
000090 aa e9 ef 3b 08 23 be 3d 72 40 0f b9 af 63 97 3d
       0.007321556 0.092840254 -0.0001366155 0.0739206
0000a0 63 48 cb 3d a0 57 0c 3e 7e bd a0 3d 77 73 2c bc
       0.09925916 0.13705301 0.07848643 -0.010525576
0000b0 c1 2c 14 bc d8 4f 89 bc 63 a5 33 bd dd 9b 3a 3e
       -0.009043873 -0.016761705 -0.043858897 0.1822352
0000c0 ef 68 d6 bc b1 76 23 3d 0e d2 9a 3d 20 33 8d bd
       -0.026173083 0.039908115 0.07559596 -0.06894517
0000d0 d1 4f 71 3d 81 93 81 bd 25 f1 f9 bc
       0.05891401 -0.06326962 -0.030510494

features.0.weight f4 [24, 55]
000000 08 d2 ea 3d f4 21 82 bd d8 a8 87 3d 96 14 48 3e
       0.114658415 -0.06354132 0.06624001 0.19539103
000010 17 fc 06 be 91 29 1b be 2d 00 0b bc 08 5b b6 bc
       -0.13182102 -0.15152575 -0.008483929 -0.022260204
000020 26 76 54 bd 59 f9 0a 3e 7b fe f9 bd 4e 87 07 bc
       -0.051870488 0.13571681 -0.122067414 -0.008272005
000030 22 d5 7a 3d e8 72 56 bc ac 4c f0 3c 1d 16 c1 3d
       0.061238416 -0.013088919 0.029333435 0.09428046
000040 25 28 96 3c ed 00 29 3d fb 29 e6 bd d3 22 b7 bd
       0.01832969 0.04126065 -0.11238476 -0.08942189
000050 31 c0 69 3d 96 27 63 3d e6 9f 6f bc 81 ea 43 3d
       0.057068054 0.055457674 -0.014625525 0.047831062
000060 da 40 d2 bc eb bf 01 be 7e 46 e9 3d 7a a0 04 3e
       -0.02566569 -0.12670867 0.113903984 0.12951842
000070 2c ac 06 bd dc 36 ea bd ba c1 0d 3e 65 1a 1a bd
       -0.03287904 -0.11436245 0.13843432 -0.037622828
000080 2b a7 49 3d 24 75 18 3e 82 eb 50 3d ee 63 a1 bd
       0.04923169 0.14888436 0.051005848 -0.07880388
000090 c8 c8 d1 bd a1 07 36 bd 7d ee 78 3d fc a8 58 3d
       -0.10243374 -0.04444087 0.060774315 0.05289553
0000a0 3b dc 1f 3e 9c 85 60 ba 49 2b 36 3e a7 29 a6 3d
       0.15611355 -0.0008564831 0.1778995 0.08113413
0000b0 02 53 c9 3d fe c2 b1 bc 36 1e 3a bb 9c ae 21 bd
       0.098302856 -0.021699425 -0.0028399355 -0.03947316
0000c0 24 2c a5 3a be b8 13 bd 98 f7 01 be bd c8 d0 bd
       0.0012601656 -0.036064856 -0.12692106 -0.10194538
0000d0 14 05 a0 bd 86 66 2f bd 5e 19 d9 3d b6 1c 61 bd
       -0.078134686 -0.042822383 0.106005415 -0.05495902
0000e0 9f 3e 37 bd 70 a0 b4 3d 06 96 55 3e 6a a7 f5 bd
       -0.044737455 0.088196635 0.2085801 -0.11994822
0000f0 64 72 b5 bc 46 81 05 be 5c aa f6 3d 75 2b b0 3d
       -0.022149272 -0.13037595 0.12044212 0.08602039
000100 78 09 98 3d 48 92 7a bd 18 07 d8 bd dd 93 04 be
       0.07423681 -0.06117466 -0.10548228 -0.1294703
000110 16 73 1e bc e1 5d 9c 3d 2c c4 cb bc 31 98 d1 3d
       -0.009670993 0.076350935 -0.024873815 0.10234106
000120 90 67 f3 b9 df 83 eb bc 74 c3 e7 bd e7 d1 aa 3d
       -0.00046425732 -0.028749404 -0.113165766 0.08340817
000130 71 a4 b6 bd 41 24 61 3d 06 3f 23 3e 0e ba 0a bd
       -0.089180835 0.054966215 0.1594201 -0.03386884
000140 d6 cd b6 3c d1 d7 2c bd 5f 15 a1 3d 83 8c ab bd
       0.022314947 -0.042198006 0.07865404 -0.0837641
000150 52 0f 4e be ce 40 6e 3d c3 9d 2a be db ab 6e 3c
       -0.20123032 0.05816727 -0.16661744 0.014567341
000160 3c 9e f3 3d d9 56 d7 bd 68 be ee bc 5a 14 83 3d
       0.11895415 -0.10514612 -0.029143527 0.06400366
000170 dc 72 09 3d 19 6a 6f bd 62 52 5a bc 62 b7 23 3e
       0.033556804 -0.058450792 -0.013325306 0.15987924
000180 10 53 70 bc f7 91 15 3e 0d 8d 2d 3d b7 af 97 bc
       -0.014668241 0.14606462 0.042370845 -0.018516405
000190 45 8b d9 bd f2 c1 90 3d 39 0e 33 bd 42 9a 74 3d
       -0.10622267 0.07068242 -0.043714736 0.059717424
0001a0 3c 0c 17 be 36 a1 cc 3d 8c ec 17 3c 8a 38 28 bc
       -0.14750761 0.09991686 0.009272706 -0.010267386
0001b0 25 fc 8b 3c 99 5e 18 bd 79 c8 a6 bd 00 eb 0b bd
       0.017088005 -0.03719959 -0.08143706 -0.03415966
0001c0 dc a2 50 3e 05 a3 68 3e c3 e0 f7 bd fd 24 77 3d
       0.20374626 0.22718437 -0.12103417 0.06033801
0001d0 89 be 9e 3d b4 26 0f 3e 01 42 23 bd db 2b 13 3e
       0.077511854 0.13979608 -0.039857868 0.14372198
0001e0 fc 85 5f bd 87 dc 03 be 75 70 3c bd 11 7a d7 3d
       -0.054571137 -0.12877093 -0.046005685 0.10521329
0001f0 60 23 a3 bd f4 d1 97 3d 50 34 18 bd 54 b5 cd 3d
       -0.079657316 0.07413092 -0.037159264 0.10044351
000200 4a 43 df bd 64 70 a4 3d 8a 38 a6 bd 9e 7c 02 3b
       -0.10901506 0.08029249 -0.08116253 0.0019910703
000210 e5 54 ab bc f2 56 23 bc da 3b 1c be 8c 69 e9 bd
       -0.020914504 -0.00996946 -0.15257207 -0.113970846
000220 ac 7e 33 bb f5 11 de bd 8e 43 46 3d 67 3f 30 be
       -0.0027388735 -0.10843269 0.04840427 -0.17211686
000230 fb fc e0 bb e2 02 0a bd d2 20 51 bd a8 96 a9 3d
       -0.006866095 -0.033694156 -0.05105669 0.082806885
000240 02 75 8c bc 33 ae 68 bd 9a 5d 5f 3d 77 ae 14 bd
       -0.017145637 -0.056806754 0.054532625 -0.036299195
000250 29 f9 b6 3c fa 03 39 3d 71 bb a0 bd 7d ad 1b bd
       0.022335606 0.045169808 -0.078482516 -0.03800725
000260 5e 03 ae bc fc 99 b5 bd 61 d0 96 3d 24 69 83 3d
       -0.02124184 -0.08867261 0.07363964 0.06416538
000270 08 7e 3d 3d 22 d1 e7 bc 61 23 0f bd 07 56 28 be
       0.04626277 -0.028297964 -0.03494585 -0.16439067
000280 19 c0 88 3b 23 48 32 bc 96 b3 a7 bc db ce 90 bd
       0.0041732905 -0.010881457 -0.020471375 -0.070707045
000290 ec a0 97 bd c7 16 8a 3c da 7d 55 bd 89 79 b8 3d
       -0.0740374 0.016856564 -0.052121975 0.09007556
0002a0 08 3e 67 3e 3b 82 0f bd 23 75 49 bb c2 ea 1e bd
       0.22582257 -0.035036307 -0.0030739985 -0.0387981
0002b0 26 f8 97 bd ae a8 e0 3d c8 c9 37 3d 97 a0 01 be
       -0.074203774 0.10969673 0.044870168 -0.12658916
0002c0 b3 cf b4 bd 0c cb ca 3c 32 7a db 3b 83 38 fd bd
       -0.08828678 0.024755023 0.0066979164 -0.123642944
0002d0 ac e0 b7 3a 75 d6 e6 3a b1 8b 6e bd b8 24 ca bc
       0.001402875 0.0017611521 -0.05823869 -0.024675712
0002e0 50 f7 0a bb cb 20 96 3d fc 54 1f bd 80 3e 3f 3d
       -0.0021204539 0.073304735 -0.038899407 0.046690464
0002f0 8c ba 96 bd 99 80 f8 bd 14 ce f5 bd e3 86 88 3d
       -0.073598 -0.12133903 -0.12002197 0.066663526
000300 49 5c 9d 3d 9a 18 98 bd 07 e3 05 be a4 0d 17 3c
       0.076836176 -0.074265674 -0.13074885 0.009219561
000310 ee 13 ba bd 9a 71 c6 3d 13 c0 97 3d 2d 7c ef bc
       -0.090858325 0.096896365 0.07409682 -0.029234016
000320 82 39 a6 3d 51 40 35 bc a9 ab 23 3c 28 d7 93 3d
       0.081164375 -0.0110626975 0.009989657 0.07218772
000330 ae b2 af bc 76 3c f4 bd b3 98 c5 bd 7c b8 71 bd
       -0.021447506 -0.119255945 -0.09648266 -0.05901383
000340 17 54 da 3d 5e 1f 3a 3d be 2b 09 3d 2b 2f ea bd
       0.1066057 0.04544007 0.03348898 -0.11434778
000350 2b e8 64 bc c4 7c 5a 3d e6 63 f1 bd 1f f5 28 3d
       -0.013971369 0.053341642 -0.11786632 0.04124939
000360 19 e3 78 bd 07 3c 02 3d 3c 34 84 bb cf 25 07 3e
       -0.060763452 0.031795528 -0.004034547 0.13198017
000370 16 46 ce 3c 6d dd ce bc 4b 67 d1 bb 57 82 07 3e
       0.025179904 -0.025252068 -0.0063904873 0.13233314
000380 4b f6 20 be d2 56 84 3d 23 7c a6 3d 21 ce 63 3d
       -0.15718953 0.06461872 0.08129146 0.0556165
000390 7a 76 12 3c 85 d8 6f 3c 15 fe 98 bd 3b 5e 0e be
       0.00893938 0.014639025 -0.07470337 -0.13903134
0003a0 cb 60 0b bd ec 0c 04 3e 5a d7 8d 3b 6c af 92 3d
       -0.034027856 0.12895554 0.0043286504 0.07162365
0003b0 58 66 9b bd 1c c3 bb bc 9e 93 44 3d 4a 96 a9 3d
       -0.0758788 -0.022920184 0.04799234 0.082806185
0003c0 81 73 9f bb fb 1e 88 3d 1c ea 4b bd 01 bc d7 3d
       -0.004866064 0.06646534 -0.04978381 0.10533906
0003d0 d0 ac 25 bc 23 ea 03 be 1f f3 3e 3d d9 a7 63 3c
       -0.0101120025 -0.12882285 0.046618577 0.0138949985
0003e0 b8 4f 97 bd 7b 53 cc bd e5 e8 f1 bc 16 7c 29 be
       -0.07388252 -0.0997686 -0.029529998 -0.16551241
0003f0 8e 69 ca 3d 39 3f de 3d cd d4 68 3d 33 0e 9b 3c
       0.09883414 0.108519025 0.056843568 0.01892767

features.0.bias f4 [24]
000000 e6 00 a3 3c 59 7f a6 bc 00 4b 79 bd 8c 17 14 3d
       0.01989789 -0.020324396 -0.06086254 0.03615527
000010 9d cc a6 bd 2a b7 ae 3d 12 70 57 bb 38 5a bc bc
       -0.08144496 0.085310295 -0.0032873196 -0.022992238
000020 08 12 8e bd 27 99 26 3d 82 d4 14 3d 5d 18 36 bd
       -0.06937033 0.0406734 0.036335476 -0.04445683
000030 91 a4 af 3d 78 56 a2 3d 72 d8 45 3d f6 ea e8 3b
       0.085763104 0.07926649 0.04830212 0.0071080877
000040 21 4c a7 3d 5a a9 14 3d 85 0c a4 3d ad 89 97 3d
       0.08168817 0.03629432 0.080102004 0.073993064
000050 93 8c dd 3c 41 67 aa 3d f9 99 2e 3d 42 cd 26 bd
       0.02704457 0.08320475 0.04262731 -0.040723093
