SECO/Treinamento/MLP/2_camada/conf_2/modelo_seed_34_loss_0.002649.pt (torch, 33041 bytes, 6 tensors)

features.0.weight f4 [55, 74]
0	0x3d806e98	0.06271094
1	0xbd3c69bf	-0.045999285
2	0x3ddf1f20	0.108946085
3	0x3d2e704c	0.042587563
4	0x3def5193	0.11685481
5	0xbd5485b3	-0.051885318
6	0xbd6e8b61	-0.05823839
7	0x3add63ae	0.0016890669
8	0xbd71ef16	-0.0590659
9	0x3cdefde9	0.027220683
10	0xbc41cac3	-0.011828127
11	0x3d041c2d	0.032253433
12	0xbe06be9d	-0.1315865
13	0x3d619f26	0.055083416
14	0x3d626b0b	0.055277865
15	0xbca4f4dc	-0.02013629
16	0xbcd50c59	-0.026006864
17	0xbdd829cc	-0.10554847
18	0xbe471fc2	-0.19445708
19	0xbe00c55a	-0.12575284
20	0xbda90d3d	-0.08254478
21	0xbe10e462	-0.14149621
22	0xbe0afdba	-0.13573352
23	0x3d60585c	0.054771766
24	0xbc47dbda	-0.012198413
25	0xbd9b70e2	-0.0758989
26	0x3e099aad	0.1343791
27	0xbc9ebdc6	-0.0193776
28	0x3e083d0f	0.13304542
29	0x3e3610b8	0.17779815
30	0x3e05d292	0.13068607
31	0x3dac2bb5	0.08406774
32	0x3dedbd6a	0.116083935
33	0x3cf2e7d1	0.029651554
34	0xbc6b7482	-0.014371039
35	0xbc9bfe9b	-0.019042304
36	0xbd2e3879	-0.042534325
37	0xbdc55559	-0.096354194
38	0x3d675f4a	0.05648736
39	0x3de44b95	0.11147229
40	0x3e716900	0.2357521
41	0x3d080382	0.03320647
42	0x3d0b94a6	0.03407731
43	0xbe5608b8	-0.20901763
44	0xbe0c5d07	-0.13707362
45	0xbe448d84	-0.19194609
46	0x3c640c96	0.013919016
47	0x3d9bff9a	0.076171115
48	0x3e3ce7bd	0.18447776
49	0x3dbcf4be	0.09226368
50	0x3dee7172	0.11642732
51	0x3da208d6	0.079118416
52	0x3e21e1df	0.15808819
53	0x3c38da30	0.011282489
54	0xbd62beab	-0.055357616
55	0x3db4cbdc	0.088279456
56	0x3d4d15b4	0.050069526
57	0x3dc878b9	0.09788651
58	0xbc7f3d85	-0.015578632
59	0xbc5e6dc4	-0.013575975
60	0xbad8da36	-0.0016544524
61	0xbd94e083	-0.07269385
62	0x3d31c536	0.043400966
63	0xbd3c1cb2	-0.045925803
64	0x3c4f90ae	0.012668772
65	0x3a51f7a3	0.0008009618
66	0x3daa5d53	0.083185814
67	0x3c8a32ab	0.016869863
68	0x3c92092c	0.01782664
69	0x3df6679c	0.12031481
70	0x3e317f48	0.1733371
71	0x3d490988	0.049081355
72	0xbf02a80a	-0.5103766
73	0x3e7acbb0	0.24491763
74	0xbe1ee7fe	-0.15518185
75	0xbe177c43	-0.14793496
76	0xbcda35e2	-0.026637021
77	0xbd62f260	-0.055406928
78	0xbd84efe9	-0.06491072
79	0x3d0ecace	0.03486138
80	0xbd8bfc84	-0.06835273
81	0x3bc93c74	0.00614124
82	0x3daf7af0	0.0856837
83	0xbd6ba58c	-0.057530925
84	0xbd8777d1	-0.0661465
85	0x3dd42058	0.103577316
86	0x3dd0e7f5	0.10200492
87	0x3e56dda9	0.20982994
88	0xbcd9b2e1	-0.026574554
89	0xbe023e47	-0.1271907
90	0x3d66efc0	0.056380987
91	0xbd09400d	-0.03350835
92	0x3e14b826	0.14523372
93	0x3e0b1cfc	0.13585275
94	0xbdf9b450	-0.12192595
95	0xbd55daf0	-0.05221075
96	0x3bed7458	0.0072465353
97	0x3e652d9c	0.2238068
98	0xbe804278	-0.25050712
99	0xbc826563	-0.015917486
100	0xbdd30072	-0.10302819
101	0x3d99c0fd	0.07507513
102	0x3d6298c9	0.05532149
103	0xbd52a22d	-0.051424194
104	0x3da76ecb	0.08175429
105	0x3cadf892	0.021236692
106	0xbc08c247	-0.008347101
107	0x3d7ec8de	0.06220328
108	0x3c4edec0	0.01262635
109	0xbe004004	-0.1252442
110	0x3d9bc3a6	0.07605676
111	0xbb33c489	-0.0027430377
112	0x3d2f6139	0.042817328
113	0xbdcce83d	-0.100052334
114	0xbc301245	-0.010746543
115	0xbdbb2835	-0.09138528
116	0x3c3162ea	0.010826806
117	0xbd71dbeb	-0.05904762
118	0xbd05340b	-0.032520335
119	0x3dbd61fa	0.09247203
120	0x3e637b0b	0.22214906
121	0x3e94ccc8	0.29062486
122	0x3e2f1b19	0.1710018
123	0xbd3186eb	-0.04334156
124	0x3d1a4a17	0.037668314
125	0xbd2364d4	-0.03989108
126	0xbd9cc9d4	-0.07655683
127	0xbd51333f	-0.051074263
128	0xbd05f31d	-0.032702554
129	0x3dc84403	0.09778597
130	0x3d504f2d	0.050856758
131	0x3daa94dc	0.08329174
132	0x3e1c69fe	0.15274808
133	0x3dae501b	0.08511373
134	0xbd04fdc1	-0.03246856
135	0x3dada6f0	0.084791064
136	0x3dcf8418	0.10132617
137	0xbc0d159e	-0.008611111
138	0x3de7975e	0.11308168
139	0x3cde80a6	0.027160954
140	0xbdd2b5ae	-0.10288559
141	0xbbfe0c79	-0.0077529517
142	0xbe166ad8	-0.14689195
143	0xbe0ee2eb	-0.1395375
144	0xbd1e5a9f	-0.03866064
145	0xbc66c414	-0.014084835
146	0xbd16067c	-0.036627278
147	0x3dad9429	0.08475525
148	0xbd20ff1a	-0.039305784
149	0x3cbab14e	0.022789624
150	0x3d3ac390	0.04559666
151	0x3dd74ac1	0.10512305
152	0x3b0191ad	0.0019770667
153	0xbd48f411	-0.049060885
154	0x3c22671a	0.009912277
155	0x3d4bfb6b	0.049800318
156	0xbe09392d	-0.13400717
157	0xbc455a5a	-0.012045467
158	0x3dd2c31e	0.10291122
159	0x3db0cd67	0.086329274
160	0x3c9a84bb	0.018862119
161	0x3d3a8902	0.045540817
162	0xbcbf0199	-0.023316192
163	0xbd05685a	-0.03257022
164	0xbc431673	-0.011907208
165	0x3da29ae6	0.07939701
166	0x3d820c5c	0.063500136
167	0x3cf87ea8	0.030333832
168	0xbd5a0e10	-0.053236067
169	0xbe481c22	-0.19541982
170	0x3c628364	0.013825271
171	0x3d836013	0.06414809
172	0x3d0b3974	0.03399034
173	0x3ac8a9d3	0.0015309401
174	0xbd125b05	-0.035731334
175	0x3b74d602	0.0037359004
176	0x3d7bdf4a	0.061492242
177	0xbc33cdee	-0.01097439
178	0x3b2a2d4c	0.002596694
179	0xbc3a313d	-0.011364278
180	0xbd8b3fda	-0.06799288
181	0xbd91161c	-0.07084295
182	0xbe0d0ce7	-0.13774453
183	0xbe204d2d	-0.1565444
184	0xbe4c75f2	-0.19966868
185	0xbec5717a	-0.38563138
186	0xbe0b16d5	-0.13582928
187	0xbe13f0dd	-0.14447351
188	0xbe6b410d	-0.22974034
189	0xbde4d375	-0.11173145
190	0xbe8c0e1d	-0.27354518
191	0xbe296303	-0.16541676
192	0xbe8cca65	-0.27498165
193	0xbebf0c72	-0.37314183
194	0xbefe2c73	-0.49643287
195	0xbe67d3d1	-0.22639395
196	0x3d45c3e1	0.048282508
197	0x3de06523	0.1095679
198	0xbdcb0c71	-0.099144824
199	0x3e0a183f	0.13485812
200	0x3d0292a0	0.031878114
201	0xbd0ea7c2	-0.034827955
202	0x3df4d466	0.11954574
203	0xbd044cfd	-0.032299984
204	0xbe046f00	-0.12932968
205	0xbbc652b6	-0.0060523404
206	0xbd81fe8e	-0.063473806
207	0xbb2302cb	-0.002487349
208	0x3e2381fe	0.15967557
209	0x3d3cff3d	0.04614185
210	0x3db346bf	0.08753728
211	0xbd9339db	-0.071887694
212	0x3e01eeed	0.12688799
213	0x3e436994	0.19083244
214	0x3e04f08c	0.12982386
215	0x3d9cf60c	0.07664117
216	0x3df4605c	0.119324416
217	0x3d4a8330	0.049441516
218	0xbcbc696b	-0.022999486
219	0x3daa9ca9	0.08330662
220	0x3c505f0d	0.012717974
221	0x3df15d0c	0.117853254
222	0x3e1c7ff6	0.15283188
223	0xbdc08a7d	-0.094014145
224	0xbbcf9aa7	-0.0063355747
225	0x3b0f8ac9	0.002190279
226	0x3d816607	0.06318288
227	0x3ae4df85	0.0017461634
228	0xbe1821b3	-0.14856605
229	0xbd391d29	-0.045193825
230	0x3b7738de	0.0037723104
231	0xbc434202	-0.011917593
232	0x3e37fc7d	0.1796741
233	0x3df37ed0	0.11889422
234	0x3e17107d	0.14752384
235	0xbcd256cf	-0.02567616
236	0x3d23501e	0.039871328
237	0xbc42cb94	-0.011889357
238	0xbd515def	-0.051114973
239	0xbd14da89	-0.036341224
240	0x3c55ffd9	0.013061487
241	0xbdff9fd5	-0.124816574
242	0xbdb84715	-0.08997933
243	0x3d7d838c	0.06189303
244	0xbda872fa	-0.08225055
245	0x3c8a9a5f	0.016919313
246	0x3e077472	0.13228014
247	0xbd3e6199	-0.046479795
248	0x3dfcd4c0	0.12345266
249	0xbb737c7b	-0.0037153054
250	0xbd84d249	-0.06485421
251	0xbdc9915d	-0.09842179
252	0x3c6ff038	0.014644675
253	0xbdc216ce	-0.09477006
254	0xbe08de1b	-0.13365977
255	0x3be3e056	0.006954233

features.0.bias f4 [55]
0	0xbdfda29c	-0.12384531
1	0xbe362a6a	-0.17789617
2	0x3d2aa0a2	0.041657098
3	0x3deb92c7	0.11502605
4	0xbdd044bc	-0.1016936
5	0xbe35891c	-0.17728084
6	0x3dd86447	0.105660014
7	0xbe05dd9d	-0.1307282
8	0xbe4a5e69	-0.19762577
9	0xbd907876	-0.07054226
10	0x3d069818	0.03285989
11	0xbe7ffd2c	-0.24998921
12	0x3de0c632	0.10975303
13	0x3c916edb	0.017753055
14	0x3dd4fcae	0.10399757
15	0x3dd1e723	0.10249164
16	0xbddddfd6	-0.10833709
17	0xbe0031f0	-0.1251905
18	0xbe046222	-0.1292806
19	0x3e18cbaa	0.14921442
20	0x3e4ecdc0	0.20195675
21	0xbd40aaba	-0.047037818
22	0xbdbef34f	-0.09323751
23	0xbe1a358e	-0.15059492
24	0x3cdd70a8	0.027031258
25	0x3e772d58	0.24138391
26	0xbdb2e94e	-0.087359056
27	0x3e29383e	0.16525361
28	0xbe7f891f	-0.24954651
29	0x3df8e066	0.121521756
30	0x3e05b364	0.13056713
31	0xbe152375	-0.14564307
32	0xbe32c6a5	-0.1745859
33	0xbcfe68f9	-0.031055914
34	0x3e7460d3	0.2386506
35	0x3db37e79	0.08764357
36	0xbdee9dd6	-0.116511986
37	0xba25e48b	-0.0006328306
38	0x3e2f9d3f	0.17149828
39	0x3d84d8f2	0.064866915
40	0xbc8c5c28	-0.017133787
41	0x3c913361	0.017724695
42	0x3df9e9e7	0.122028165
43	0xbd1f47a9	-0.0388867
44	0x3d6d56d3	0.05794413
45	0x3e2f2f59	0.17107905
46	0x3d982afa	0.07430072
47	0x3dd307ac	0.10304198
48	0x3e06f320	0.13178682
49	0xbd8bebb3	-0.068320654
50	0xbdfb6545	-0.12275175
51	0xbe0ca9c7	-0.1373664
52	0xbe1ded2e	-0.15422508
53	0x3e87f600	0.2655487
54	0xbe33cf07	-0.17559443

features.2.weight f4 [40, 55]
0	0xbd74c36f	-0.059756692
1	0x3e09eca1	0.13469173
2	0xbdab8bc2	-0.08376266
3	0x3e18db15	0.14927323
4	0x3e8c1df2	0.27366596
5	0x3d80e5b8	0.062938154
6	0x3c666964	0.014063213
7	0x3ddc1b8a	0.1074744
8	0x3dd84684	0.10560325
9	0x3e157929	0.14597
10	0x3d097cf0	0.033566415
11	0x3cb3742e	0.021905985
12	0xbc70fd6d	-0.014708859
13	0xbd2b19ad	-0.041772533
14	0xbda60b0e	-0.08107577
15	0xbe023f00	-0.12719345
16	0xbe4bbac6	-0.19895467
17	0xbd2924b3	-0.041294765
18	0x3d4e82ce	0.050417714
19	0x3d7ab83c	0.061210856
20	0x3dbc9844	0.0920873
21	0x3e02e654	0.12783176
22	0x3bf6aae7	0.0075276974
23	0x3d614306	0.05499556
24	0x3df8381e	0.121200785
25	0x3d1677d0	0.036735356
26	0x3dc3a8b2	0.095536605
27	0xbcb349e4	-0.02188582
28	0xbd4ffc46	-0.050777696
29	0xbcd222b3	-0.025651312
30	0xbe01ac48	-0.12663376
31	0xbd9d1e54	-0.076718
32	0x3e11ae52	0.14226654
33	0xbdc9d7ca	-0.098556116
34	0x3c225fcf	0.009910538
35	0x3e3dfab3	0.18552665
36	0x3e336cef	0.17522024
37	0x3d573ccf	0.052548226
38	0x3cb95507	0.022623552
39	0xbdb7d9ed	-0.08977113
40	0x3e2c983c	0.16854948
41	0x3c86b47c	0.016443484
42	0xbd1e5d00	-0.03866291
43	0x3b35dd4e	0.0027750316
44	0x3d5f41b1	0.054506008
45	0xbc002b76	-0.007822862
46	0xbc88ad1a	-0.016684104
47	0x3d6fba0b	0.058527034
48	0xbaf784ee	-0.0018884221
49	0xbdecf87a	-0.11570831
50	0xbd0b0ce8	-0.033947855
51	0x3e766f10	0.24065804
52	0x3eb818d1	0.35956433
53	0xbe11d21c	-0.14240307
54	0x3e1c473e	0.15261552
55	0xbdd434af	-0.10361611
56	0x3dccd187	0.10000902
57	0x3b46c508	0.0030329842
58	0xbb155665	-0.002278709
59	0xbd6bbc06	-0.05755236
60	0x3b4320d0	0.0029774196
61	0xbdba0377	-0.09082692
62	0x3d13e591	0.036107603
63	0xbe20e9b8	-0.15714157
64	0xbdc1a27d	-0.0945482
65	0x3e24e8fb	0.161045
66	0x3a138790	0.00056278054
67	0x3d99feba	0.07519288
68	0x3dad251a	0.08454342
69	0x3e0549ca	0.1301643
70	0x3e3f328d	0.18671627
71	0xbe4d6a80	-0.20060158
72	0xbceffc0b	-0.029294988
73	0xbdae8126	-0.08520727
74	0x3d6fe349	0.058566365
75	0xbcd04c48	-0.025426999
76	0x3d916004	0.07098392
77	0xbdcfcfbd	-0.10147045
78	0x3bc73d47	0.006080303
79	0xbe07d042	-0.13263038
80	0x3d50a9bf	0.050943132
81	0x3db26941	0.08711482
82	0x3da2b3f5	0.0794448
83	0x3d403152	0.046922036
84	0xbe5ea22a	-0.21741548
85	0xbd42b941	-0.047539953
86	0x3e220b56	0.15824637
87	0x3deae12d	0.1146873
88	0x3d8dd87b	0.06926056
89	0x3d8ac401	0.06775666
90	0xbe2115ae	-0.15730926
91	0xbcf141d4	-0.029450335
92	0xbe4c2194	-0.19934684
93	0x3db0c61a	0.08631535
94	0xbd8aec99	-0.06783409
95	0xbd464e3c	-0.048414454
96	0xbd469e6c	-0.048490927
97	0xbe23a32e	-0.15980217
98	0xbdf52657	-0.11970203
99	0x3dbc9b83	0.09209349
100	0x3d116a1c	0.035501584
101	0x3e433742	0.19064048
102	0x3dce6174	0.100771815
103	0xbd6ad94e	-0.057336144
104	0x3d521a36	0.051294528
105	0xbcd366ff	-0.025805948
106	0x3d7051a1	0.058671597
107	0xbe311ef1	-0.1729696
108	0xbdaaaa3f	-0.08333253
109	0xbd8d3643	-0.06895115
110	0x3e5c302c	0.21502751
111	0x3e10f38d	0.14155407
112	0x3d70bc59	0.058773372
113	0xbdde3e13	-0.108516835
114	0x3e554822	0.20828298
115	0x3e42547f	0.18977545
116	0xbd8470b3	-0.06466808
117	0x3e19261a	0.14955941
118	0x3e8ab405	0.2709047
119	0x3e3ae6e4	0.1825214
120	0xbd653176	-0.055955373
121	0x3e47f0fb	0.1952552
122	0xbd84c448	-0.0648275
123	0xbdd5cc89	-0.104394026
124	0xbcac6705	-0.021045217
125	0x3d1bb3cf	0.038013276
126	0x3dd9a7f6	0.10627739
127	0x3d82ebc5	0.06392626
128	0x3e4be751	0.19912459
129	0xbdf20e82	-0.118191734
130	0xbe13e8d9	-0.14444293
131	0xbdb35efb	-0.087583505
132	0xbd7e1792	-0.062034197
133	0xbdff3871	-0.12461937
134	0x3d8b1782	0.06791593
135	0xbe87f3ec	-0.26553285
136	0xbc900438	-0.017580137
137	0xbe7a7bd5	-0.244613
138	0x3e783117	0.24237476
139	0xbe430f00	-0.19048691
140	0xbe8098a5	-0.2511646
141	0x3d65bf90	0.05609089
142	0x3e8a0089	0.26953533
143	0x3cab931b	0.020944169
144	0xbe971457	-0.29507706
145	0x3d9ce99e	0.076617464
146	0x3e00ace4	0.12565953
147	0x3d4f7e26	0.050657414
148	0xbe27cdd3	-0.1638711
149	0xbe0b28a9	-0.1358973
150	0xbddf32b4	-0.10898343
151	0x3e10308a	0.14081016
152	0xbe2a8425	-0.16651972
153	0x3e1a69b0	0.15079379
154	0xbdcba009	-0.09942634
155	0xbe856215	-0.26051393
156	0x3da9181a	0.0825655
157	0xbc950e6c	-0.018195353
158	0xbd95224e	-0.07281934
159	0x3def788c	0.11692914
160	0x3cb96f50	0.022636086
161	0x3e613ae2	0.21995118
162	0x3d74a60f	0.05972868
163	0xbe75ae74	-0.2399233
164	0x3e314c93	0.17314367
165	0x3de53cc0	0.11193228
166	0x3da53c19	0.08068103
167	0xbc555382	-0.013020398
168	0x3d1c1e19	0.03811464
169	0xbaee8980	-0.0018198937
170	0x3dd64091	0.10461534
171	0xbdb410f7	-0.08792298
172	0x3cd5cada	0.026097704
173	0xbe091a77	-0.13389002
174	0xbd4942fa	-0.04913614
175	0xbd32b395	-0.043628294
176	0xbb9f911f	-0.0048695947
177	0xbc920972	-0.01782677
178	0x3d8e183b	0.06938215
179	0xbdb662bf	-0.08905553
180	0x3c16c31d	0.009201792
181	0xbdb7b8e1	-0.0897081
182	0x3df09b44	0.117483646
183	0xbdab1911	-0.083543904
184	0x3d20e8ca	0.039284505
185	0x3daeb267	0.08530121
186	0xbe3b442c	-0.18287724
187	0x3d94506b	0.07241901
188	0xbd7f9e50	-0.062406838
189	0xbe4b3a9c	-0.19846576
190	0xbdd99d36	-0.10625689
191	0x3da34168	0.079714596
192	0x3d854326	0.06506948
193	0xbc0a8f52	-0.008457022
194	0xbe145be6	-0.14488181
195	0x3e42c4dc	0.19020408
196	0xbe72e3d8	-0.23719728
197	0xbcd40877	-0.025882943
198	0x3c57fda6	0.013183033
199	0xbd95c22b	-0.07312425
200	0x3da996de	0.08280729
201	0xbda3f384	-0.08005431
202	0x3e09d22e	0.13459083
203	0x3d6adac6	0.057337545
204	0xbd47a884	-0.048744693
205	0xbc806f37	-0.015678031
206	0x3b3de0c2	0.0028973077
207	0x3d5406a4	0.051764145
208	0xbe04fa46	-0.12986097
209	0xbdb30726	-0.08741598
210	0xbdd948f9	-0.106096216
211	0x3e1eaae8	0.15494883
212	0x3d196b66	0.03745594
213	0xbb088d3e	-0.002083614
214	0x3e0555e4	0.13021046
215	0x3dc67fdc	0.09692356
216	0x3dcd2b66	0.10018043
217	0xbe25d922	-0.16196111
218	0x3db45120	0.08804536
219	0xbdd77082	-0.10519506
220	0x3cd6a3b0	0.0262011
221	0x3de9de63	0.1141937
222	0xbdccb042	-0.09994556
223	0x3d575289	0.052568946
224	0x3cbc4abb	0.022984853
225	0xbd39e67c	-0.045385823
226	0xbbe8acba	-0.0071006687
227	0x3d4068ea	0.046975054
228	0x3abc4cc0	0.0014366135
229	0xbe0d012d	-0.1376998
230	0xbdd27db7	-0.102778845
231	0x3dd1424c	0.10217723
232	0x3e3c7f49	0.1840793
233	0x3e074073	0.13208179
234	0x3d8dacd7	0.06917732
235	0x3c2c25fd	0.010507104
236	0x3de57f07	0.11205869
237	0x3e1ac714	0.15115005
238	0x3da440f7	0.080202036
239	0x3df0823f	0.117435925
240	0xbc2cd10b	-0.010547887
241	0x3d2b34e3	0.041798484
242	0x3dee1383	0.11624815
243	0x3e3a5e75	0.18200095
244	0xbd62e05f	-0.05538976
245	0x3dc48620	0.09595895
246	0x3d80b2c7	0.06284099
247	0xbcf80231	-0.030274482
248	0x3d94c0af	0.07263314
249	0x3e18a874	0.1490801
250	0x3b278baf	0.0025565436
251	0x3da74a11	0.08168424
252	0x3c85b4c1	0.016321542
253	0x3e0a0dec	0.13481873
254	0x38e08804	0.00010706487
255	0xbe1eadd4	-0.15495998

features.2.bias f4 [40]
0	0x3dca44ee	0.098764285
1	0x3db1cea9	0.086819954
2	0xbd214e7d	-0.039381493
3	0x3de08070	0.109619975
4	0x3d1ad331	0.037799064
5	0xbcc83456	-0.024439018
6	0x3cfc283b	0.030780902
7	0x3e13262c	0.1437003
8	0xbd1f3e10	-0.038877547
9	0xbd891cad	-0.066949226
10	0xbd457b5d	-0.04821335
11	0x3cdd161c	0.026988082
12	0xbc6e792b	-0.014555256
13	0xbe2be563	-0.16786723
14	0x3e2c8b73	0.1685007
15	0x3d43e1cf	0.04782277
16	0xbc966c70	-0.018362254
17	0x3e13b907	0.14426051
18	0x3d97ce0d	0.07412348
19	0x3d3a97a1	0.04555476
20	0x3e1bcab7	0.15214048
21	0x3e177aca	0.14792934
22	0x3ddceffa	0.107879594
23	0x3dd7603b	0.105164014
24	0x3d6d6e84	0.057966724
25	0x3e0f81bf	0.14014338
26	0xbd7e3255	-0.06205972
27	0xbccec53f	-0.025240539
28	0xbdc9b332	-0.09848632
29	0x3df9506d	0.12173543
30	0x3d9803cb	0.074225985
31	0x3c82e214	0.015976943
32	0x3d97f511	0.074197896
33	0xbe2258b5	-0.15854152
34	0xbd96eae0	-0.073690176
35	0xbcf74320	-0.030183375
36	0x3dd83edb	0.10558864
37	0xbcdc7722	-0.026912276
38	0xbd2c8402	-0.04211808
39	0xbd8a7ae0	-0.06761718

features.4.weight f4 [24, 40]
0	0xbd3651b2	-0.044511504
1	0x3d16483a	0.036689974
2	0xbc17cf70	-0.009265766
3	0x3d8084c2	0.062753215
4	0x3d18ae57	0.03727564
5	0xbd2ac957	-0.04169592
6	0x3d307353	0.04307873
7	0x3e06ca1a	0.13163033
8	0xbdd8e0e2	-0.10589768
9	0xbd5ec9f9	-0.054391835
10	0xbe3c5a84	-0.18393904
11	0x3e085e99	0.13317336
12	0x3de9319d	0.11386416
13	0xbdc72d11	-0.097253926
14	0x3ccbaa52	0.024861488
15	0xbd62dbe5	-0.05538549
16	0x3e00ce1e	0.12578627
17	0x3df56564	0.11982229
18	0xbde39a98	-0.11113471
19	0x3e03c88d	0.12869473
20	0x3d61402a	0.054992832
21	0xbe2a6686	-0.16640672
22	0xbd2d864e	-0.04236441
23	0x3e1ed029	0.15509094
24	0x3db99139	0.09060902
25	0x3dcc7993	0.09984126
26	0xbcedfe71	-0.029051991
27	0xbdc93b1b	-0.098257266
28	0x3c5810f8	0.013187639
29	0xbd8635b8	-0.06553215
30	0x3dbead90	0.09310448
31	0x3d9eddf9	0.07757182
32	0xbbbc97c6	-0.0057553975
33	0x3e2522c4	0.16126543
34	0xbd9db193	-0.07699885
35	0x3d989d4e	0.074518785
36	0xbb1ba006	-0.0023746504
37	0xbd8177c8	-0.063216746
38	0xbdcd1641	-0.1001401
39	0x3c686fe7	0.014186836
40	0xbe3629d1	-0.17789389
41	0x3cb1941a	0.021677066
42	0x3dfbbee2	0.122922674
43	0x3e076836	0.13223347
44	0x3e13cc41	0.14433385
45	0x3d8abf1b	0.06774732
46	0x3d47df19	0.048796747
47	0x3d501cfe	0.0508089
48	0x3dbcf5ea	0.09226592
49	0x3cc7198c	0.024304174
50	0xbe3fb226	-0.18720302
51	0x3ced6ebd	0.028983468
52	0x3e2ede9c	0.17077106
53	0x3d15ceaf	0.036574062
54	0xbc5f638b	-0.013634573
55	0xbd7d7aa1	-0.061884526
56	0x3d2d74d3	0.04234774
57	0xbdb7af71	-0.0896901
58	0x3cd8ebea	0.02647968
59	0x3e0ea589	0.13930334
60	0x3cfec4b6	0.031099658
61	0xbe0d0337	-0.13770758
62	0x3e1ea64c	0.15493125
63	0x3e279de6	0.16368827
64	0x3dac212d	0.08404765
65	0xbe0ef168	-0.13959277
66	0x3d20e71d	0.039282907
67	0xbdd618bb	-0.10453936
68	0xbd8c6dbb	-0.06856867
69	0xbae6d58e	-0.0017611252
70	0xbdc2db28	-0.09514457
71	0x3d9fb2a2	0.077977434
72	0xbd78428d	-0.060610343
73	0x3d1df62d	0.03856485
74	0xbced9bcd	-0.029004956
75	0x3cf59080	0.02997613
76	0x3dd849c8	0.10560948
77	0x3cc41673	0.023936486
78	0xbdbe6ebd	-0.092984654
79	0x3d93ec90	0.07222855
80	0xbdb68674	-0.08912364
81	0xbd5f970d	-0.054587413
82	0xbd490275	-0.04907461
83	0x3df73a47	0.120716624
84	0x3db9b0d7	0.09066933
85	0xbc4baa43	-0.01243073
86	0xbd8f91f1	-0.07010258
87	0x3d827c0c	0.06371316
88	0x3d1c7e61	0.03820646
89	0x3b3ad274	0.0028506787
90	0xbd725e67	-0.05917206
91	0x3d9c310e	0.07626544
92	0x3e2bfc5c	0.16795486
93	0x3e130d05	0.14360435
94	0x3d039fde	0.032134883
95	0x3d9e2c8a	0.07723339
96	0x3d5a502f	0.053299125
97	0xbd99930c	-0.0749875
98	0xbb24c0ec	-0.0025139404
99	0x3da2ced6	0.07949607
100	0x3e023479	0.12715329
101	0xbe47dd8c	-0.19518107
102	0xbd60dd42	-0.054898508
103	0x3d94975e	0.072554335
104	0x3e2b9927	0.16757642
105	0xbdce1f13	-0.10064521
106	0xbcd28337	-0.025697334
107	0xbe1a2528	-0.15053236
108	0x3aaaf277	0.0013042231
109	0x3c5fe209	0.013664731
110	0xbd688804	-0.05677034
111	0xbd338863	-0.04383124
112	0xbc2c3835	-0.010511448
113	0x3e2bf559	0.16792811
114	0xbc7e30d9	-0.015514576
115	0x3daf575a	0.08561583
116	0xbd0918c2	-0.033470877
117	0xbe2b9ae2	-0.16758302
118	0xbd5d3200	-0.05400276
119	0x3da2e74a	0.07954271
120	0xbd8738ad	-0.06602607
121	0xbdb3ea18	-0.08784884
122	0xbdf2f496	-0.11863057
123	0x3dfb5180	0.12271404
124	0x3e40f5eb	0.1884381
125	0x3cd31fa0	0.025771916
126	0xbbcbf70b	-0.006224518
127	0x3d0ec873	0.034859132
128	0x3d9af057	0.075653724
129	0x3de1ebfd	0.11031339
130	0x3c98a056	0.018631142
131	0x3d5780ee	0.05261319
132	0x3db38b2f	0.087667815
133	0x3e49fc13	0.19725065
134	0xbe00f117	-0.12591968
135	0x3d4a1fd2	0.049346752
136	0x3df294ec	0.11844811
137	0xbe4d8755	-0.20071156
138	0xbc8cab07	-0.017171396
139	0xbb30d8ae	-0.002698462
140	0xbcd435d4	-0.025904574
141	0xbdccfc42	-0.10009052
142	0xbe1c4ff4	-0.15264875
143	0x3d7b368a	0.06133131
144	0x3c4580c6	0.012054628
145	0x3d2f624b	0.04281835
146	0x3b640926	0.0034795492
147	0xbceffe3b	-0.029296031
148	0x3cf1ece8	0.029531911
149	0xbd235629	-0.03987709
150	0x3cf505e6	0.02991004
151	0xbd5c215e	-0.05374276
152	0x3d26c0d5	0.040711243
153	0x3e25748a	0.16157737
154	0x3e1dc565	0.15407331
155	0x3dc1cecf	0.09463274
156	0x3db0b69d	0.08628581
157	0xbe0c8d1a	-0.13725701
158	0x3e27c10e	0.16382238
159	0x3c80f48c	0.015741609
160	0xbdc49fda	-0.09600802
161	0xbca0b327	-0.019616676
162	0xbcc6346c	-0.024194919
163	0x3e25e7f7	0.16201769
164	0x3e2f64b5	0.1712826
165	0x3cfc61f2	0.030808423
166	0xbb41d9f7	-0.002957938
167	0xbaaada61	-0.0013035053
168	0xbe062e02	-0.13103488
169	0x3da8c649	0.08240945
170	0xbda5883a	-0.08082624
171	0x3dcaf58f	0.09910118
172	0x3bc62732	0.006047153
173	0x3e4843b9	0.19557084
174	0xbde1a26c	-0.11017308
175	0xbe053834	-0.13009721
176	0xbcc08062	-0.023498718
177	0xbde3fc6f	-0.11132132
178	0xbd81b45a	-0.063332275
179	0x3d6dd828	0.05806747
180	0xbe0811ab	-0.1328799
181	0xbe003ddd	-0.12523599
182	0xbd7a168b	-0.061056655
183	0x3de54a1f	0.11195778
184	0x3bc6a52f	0.006062172
185	0xbd4ee2fd	-0.05050944
186	0x3df8eb74	0.12154284
187	0xbdffeaa1	-0.12495924
188	0xbcd3a151	-0.025833758
189	0x3d912367	0.070868306
190	0xbd954f72	-0.072905436
191	0xbcd9b0c5	-0.026573548
192	0xbcfe555c	-0.031046562
193	0xbdb6f810	-0.08934033
194	0x3e0d4a28	0.1379782
195	0xbca043d5	-0.019563595
196	0x3e0eb521	0.13936283
197	0xbe1bf8b7	-0.15231596
198	0x3d4fb2b6	0.05070754
199	0xbd9852c7	-0.074376635
200	0xbd276202	-0.040864952
201	0x3cb00b06	0.021489631
202	0xbcc26c6c	-0.02373334
203	0xbd26d7b2	-0.040733047
204	0x3e397d74	0.18114263
205	0xbbd4abbc	-0.006490199
206	0x3cfcf8a7	0.030880285
207	0xbcb16c64	-0.02165813
208	0xbe0b9617	-0.13631473
209	0x3dd30b9f	0.10304951
210	0xbdf67c90	-0.12035477
211	0x3d141212	0.036150046
212	0x3ce7a45a	0.028276611
213	0x3d93b95c	0.07213089
214	0xbe0bfc05	-0.13670357
215	0xbdc29f41	-0.095030315
216	0xbdafa23b	-0.08575865
217	0xbd8cebb5	-0.06880895
218	0x3c393fc1	0.011306704
219	0xbd39e18e	-0.04538112
220	0x3dc39329	0.09549553
221	0x3c11168f	0.008855476
222	0xbd9faac2	-0.07796241
223	0x3dba5455	0.09098116
224	0x3e57af39	0.21062936
225	0xbe117d95	-0.14208062
226	0xbd293264	-0.041307822
227	0xbc7fad9d	-0.0156053575
228	0xbda1a716	-0.07893197
229	0xbe2d2684	-0.16909224
230	0xbe0b2a39	-0.13590325
231	0x3d83fd80	0.06444836
232	0xbe21e880	-0.15811348
233	0x3df631aa	0.120211914
234	0x3e14db42	0.14536765
235	0x3d109644	0.035299554
236	0x3d4c8437	0.049930777
237	0xbd01c3e1	-0.031680945
238	0x3dd15579	0.10221381
239	0x3db22cdb	0.08699962
240	0xbe641f76	-0.22277626
241	0xbda46a2c	-0.08028063
242	0x3c8e16a6	0.017344784
243	0xbddf9247	-0.10916572
244	0xbd626e17	-0.05528077
245	0x3d413950	0.047173798
246	0x3d6f7be3	0.058467757
247	0x3c93287c	0.01796364
248	0xbd9c8423	-0.076423906
249	0x3e41e977	0.18936716
250	0x3cc3c9ed	0.023899997
251	0x3da99d70	0.08281982
252	0x3dc67aaa	0.09691365
253	0xbdd7580f	-0.10514843
254	0x3d4cab80	0.049968243
255	0x3d5f3eaa	0.05450312

features.4.bias f4 [24]
0	0xbd422d2f	-0.04740637
1	0xbd026035	-0.03183003
2	0xbd3a1ca1	-0.04543746
3	0xbd0a778c	-0.033805415
4	0xbe3458d4	-0.1761201
5	0xbdbeba85	-0.093129195
6	0xbd9a929f	-0.07547497
7	0x3c8339fd	0.016018862
8	0xbe0732a9	-0.13202919
9	0xbe13f821	-0.14450122
10	0xbc72f988	-0.014830001
11	0xbbd5ca6a	-0.006524374
12	0x3d031bc3	0.032008898
13	0x3d8a81ab	0.067630135
14	0xbdf05f68	-0.11736947
15	0x3d5683bb	0.05237172
16	0x3d26ba24	0.04070486
17	0xbdedccc3	-0.11611321
18	0x3bce8e72	0.006303602
19	0x3db476ba	0.08811708
20	0x3de56a15	0.11201874
21	0xbe08cb3c	-0.13358778
22	0xbd920c36	-0.07131235
23	0xbc0c5674	-0.008565534
