SECO/Treinamento/MLP/2_camada/conf_2/modelo_seed_41_loss_0.002586.pt (torch, 33041 bytes, 6 tensors)

features.0.weight f4 [55, 74]
00000000: 2c17 83ba 8f2f a5bc dbcd 9e3d 75e4 abbd
00000010: 6514 92bd 8990 403d 6386 a3bd 64ad a03d
00000020: ef42 1f3d 9f54 68bc 5766 fcbc c242 60bc
00000030: 04eb 1d3d 5e31 0fbe f493 02be 65e8 0f3e
00000040: 734f 093e a582 29bb 046e 1bbe 107c f63d
00000050: 5a1d bbbd eab3 fa3c 1ec5 6bbd 814b 8e3c
00000060: c7ab 5c3d 6083 75bd 8767 e2bd d464 c13c
00000070: b789 b7bd 6ea3 12bd 0dc7 b33d e6bf e3bc
00000080: 4ba7 203d 73df 5a3d fbea ac3d 8436 123e
00000090: f330 843c 83dd 10be 0c56 f33d cb20 f63c
000000a0: 2c8e fb3d b596 303d 85dd 93bd 40b7 dd3d
000000b0: 9295 323e f5f7 23be b766 30be 28f7 c5be
000000c0: 4f51 7dbe d2c5 b1bb 3a12 44be 573b 0dbc
000000d0: ee0f f9bb 41c5 1ebe 4e62 1dbd 15e7 02be
000000e0: 37c7 a0bd dcf3 13bd 05d8 24bd 52b1 39bd
000000f0: 81c5 49bc 2d74 993c c20c 83bd 21b1 b03d
00000100: 415f ba3c 0de6 d6bd 0e97 363d c207 013d
00000110: 0876 c23d dd1a b93c 95e3 003e 773f 2b3c
00000120: df5c 58be 9a3e aebd dda3 54be 6653 15bc
00000130: 6023 b0bd 133c 573d 4084 1c3e 00c2 0c3e
00000140: 8e79 373e 6a71 703e ea0b 383e 87c6 113e
00000150: 9fcf 953d e8c5 453c d396 003e 6d2c dc3d
00000160: 4cff 3e3d 4fa2 81bd 5255 01be 63e6 643b
00000170: 3d6b 24bd 633a 773d 8b5c 0b3e 3d98 b4bd
00000180: 0cf5 993d 83fe d43a 31a7 7abe a486 21be
00000190: a80f 82bc 1562 013e 1d40 ad3d 8613 403e
000001a0: a022 ba3d ece6 ed3d e5b4 e73d 6e0a 1e3d
000001b0: e66a 65bd 4a8e a7bc 0567 cb3d f94c 2f3e
000001c0: 6587 4abd 62d1 f5bb b0f4 153e c067 8d3b
000001d0: cf21 45bc f408 92bc 9f6c edbd 0319 79be
000001e0: eeb1 1e3e fb80 fb3d 6676 083e e89a 5c3d
000001f0: 8406 423d ac82 c83c 9d69 c0bd 5dbf febd
00000200: e746 97bd 1366 29be ff4d 1dbd f37f 37be
00000210: af93 33bd 0fe1 b43a 109f 82bd 8649 d8bc
00000220: a22a 0b3b 046e bc3b e3c1 f93c b9a9 0c3c
00000230: 66dc 233e 5a86 093e 21b6 ef3d a965 113e
00000240: d23c 82bc ea4c 1d3e 3d54 4abf 50e1 773d
00000250: 3297 a43d 26e1 983d 7579 d2bd 5038 0c3d
00000260: 48fd 8bbd 7040 e6bc 293e 093e 5629 8e3a
00000270: 5663 1b3e 110b 0c3e 86fb b73c aa2b edbd
00000280: c7e1 073d 5385 17bd 7c41 98bd bd58 e2bd
00000290: 115c 763d 4d45 853d 8aa3 613e a09f 4f3d
000002a0: f082 b237 d96d 7a3e 8525 92bd 2992 24be
000002b0: 8a4d a1bc e798 883d 8703 38bd 9d26 b7bd
000002c0: 4158 8d3d 71ce b73d ffdb 5f3d 14d1 2e3d
000002d0: 3f91 8cbd bda0 bcbd cd83 17be 600c 05bd
000002e0: 9cd3 193e 9ccf 753e 496a e13d 62ae 21be
000002f0: beba 21be ca94 063e 74a7 8b3e b6b9 053e
00000300: 28f4 023e 7f1f aa3e 528e a43e d0a0 c73d
00000310: adc6 d4bd d340 bbbd fcbc 903d a2f4 6bbd
00000320: a9fb 0fbe e857 d0bd 998f 5bbd 008e 9c3d
00000330: b1f1 fb3c 584f a23c f19f a3bc e4a5 a83c
00000340: e4f5 fe3b 28c1 db3c 7820 f13d d359 51bd
00000350: aa20 b8bd b71d eebd 54ad 3e3c 4167 29bc
00000360: 2f59 ffbd 5f4e 86bd 952d 973d 0db8 8dbd
00000370: 170d 4a3e 9318 21be a610 d93c dd2c d3bd
00000380: 9937 9f3c 5852 b03c 411f c9bd 60a5 c33d
00000390: cc46 cebd ac04 493d 3169 4e3e 3aae 213e
000003a0: b57e 74bd 792d c5bc c934 a1bd 25a5 823c
000003b0: 5afc 91bd 4117 133d 930b dd3d 3245 143e
000003c0: 862d 3f3d 793c 30be 1a7f 8dbd 5e76 8e3d
000003d0: 3eec 8f3d 6ff1 7dbe acae 9fbe 3549 1cbe
000003e0: 66e9 0bbe 926d 07bd 3805 3dbd cddb d0bd
000003f0: 1df6 05bd c5fe 7b3d 81a1 b53d 9085 7f3e
-0.0010001413 -0.02016428 0.077541076 -0.08393184 -0.07132796 0.04701284 -0.079846166 0.07845572
0.038882192 -0.0141803315 -0.030810518 -0.013687791 0.038554206 -0.13983676 -0.12751752 0.14053495
0.13409214 -0.0025865224 -0.15178686 0.12035382 -0.09136458 0.030603368 -0.057561032 0.017369987
0.053874757 -0.059939742 -0.110549025 0.023607649 -0.08961814 -0.03580039 0.087782 -0.027801465
0.039222043 0.053435754 0.084432565 0.14278609 0.016136622 -0.14147 0.118816465 0.030044934
0.122829765 0.043112475 -0.07219986 0.10825968 0.17439869 -0.16012557 -0.17226683 -0.38665128
-0.24738048 -0.0054251933 -0.19147578 -0.008620105 -0.007600776 -0.15504934 -0.03842383 -0.12783463
-0.07850497 -0.036121234 -0.040245075 -0.04533512 -0.012315155 0.018732155 -0.06398918 0.08627535
0.022750499 -0.104930975 0.04457765 0.03150154 0.09495169 0.022595817 0.12586816 0.010452143
-0.21129178 -0.08508034 -0.20765634 -0.009114122 -0.08600497 0.052547526 0.15284824 0.1374588
0.17917463 0.23480764 0.17973295 0.14235888 0.07314991 0.01207111 0.12557535 0.10750661
0.04663019 -0.06329786 -0.12630203 0.003492736 -0.040141333 0.060358416 0.13609521 -0.088181
0.07517442 0.0016250167 -0.24477841 -0.15774018 -0.015876606 0.12635072 0.08459494 0.18757448
0.090886354 0.116163105 0.113138 0.038584165 -0.05601015 -0.02045359 0.09931759 0.17119206
-0.04944553 -0.007501767 0.14644122 0.0043153465 -0.012031986 -0.017826535 -0.115929835 -0.24325947
0.15497562 0.122804604 0.13326415 0.053858668 0.047369495 0.024476372 -0.09395144 -0.124388434
-0.073865704 -0.16542844 -0.03840446 -0.17919903 -0.043842014 0.0013799983 -0.06377995 -0.026402246
0.0021235128 0.0057504196 0.03048796 0.008585387 0.16002044 0.13430157 0.1170466 0.14198937
-0.015898142 0.15361372 -0.7903479 0.06051761 0.08036651 0.07464819 -0.10277072 0.03423339
-0.06835419 -0.028106898 0.13402618 0.0010846059 0.15174612 0.13676096 0.022458803 -0.11580594
0.033174302 -0.036992382 -0.07434365 -0.11052082 0.060146395 0.06507359 0.22035041 0.05068934
2.1280226e-05 0.24455966 -0.071360625 -0.1607138 -0.019690294 0.06669789 -0.04492524 -0.08942912
0.06901599 0.089749224 0.054653164 0.04267986 -0.06863641 -0.09210346 -0.14796372 -0.032482505
0.15022129 0.24004978 0.110066004 -0.15789178 -0.15793893 0.13142696 0.27276194 0.13059124
0.1278845 0.33227155 0.32139832 0.097474694 -0.10389457 -0.091432236 0.07067296 -0.057606347
-0.14060844 -0.10173017 -0.053603742 0.07644272 0.030754896 0.019813225 -0.019973727 0.020586915
0.0077807773 0.026825503 0.11773771 -0.051111054 -0.08990605 -0.116267614 0.011638004 -0.010339559
-0.12468182 -0.06557917 0.07381741 -0.069198705 0.19731556 -0.1573203 0.026497196 -0.10311291
0.01943569 0.02152364 -0.09820414 0.09553027 -0.10072097 0.04907672 0.20157315 0.15789118
-0.05969115 -0.024069535 -0.07871396 0.015947888 -0.0712821 0.03591085 0.10793223 0.14479521
0.046674274 -0.17210568 -0.06909008 0.069561705 0.070274815 -0.24799131 -0.31187952 -0.15262301
-0.13663253 -0.03306348 -0.046147555 -0.10198174 -0.032705415 0.061522264 0.08868695 0.24953294

features.0.bias f4 [55]
00000000: bec7 203d f4a1 91be 21d1 443d ca90 b53c
00000010: ffcf 4dbe d68b 46be 3bde 2f3e c6e1 e73d
00000020: 422f 55bd 69b0 ed3d 004a 10be cc68 a1bd
00000030: aa08 3b3e 09ba b8be 9f83 463e 65b5 6cbd
00000040: c666 023e 4bc7 17bd a44f bb3c bf87 34be
00000050: e5b1 263e 65c4 e8bc 6bcf 6f3d cbcf 42be
00000060: 97db 323b 5b15 723c 408d 3d3e a3dd 573d
00000070: 51d8 4bbd 25ed b73c db8e 4b3d e50b a8bd
00000080: fe22 e2bc 4750 90bb ab36 36be d8a4 693e
00000090: 6fa8 f4bd 766c a63e 39a4 aa3d 6daa adbd
000000a0: d937 1fbe 72f8 083e 5766 77be 5088 a33d
000000b0: 340b d0bc 0c4f 713e 1e61 85be a563 14be
000000c0: dc67 bcbd 2252 5a3d 7214 033e 8452 503d
000000d0: a6ca e1bc 9222 9ebd da86 b53d
0.03925299 -0.28443873 0.048051003 0.022163767 -0.20098875 -0.1938928 0.17174618 0.1132236
-0.05204702 0.11605913 -0.14090729 -0.078813165 0.18265024 -0.36079434 0.19386147 -0.05779018
0.12734517 -0.037055295 0.022865124 -0.17629908 0.16278799 -0.02841396 0.05854742 -0.19024579
0.002729153 0.014775599 0.18510914 0.052701604 -0.049766842 0.022451947 0.049696784 -0.08205394
-0.027604576 -0.004404101 -0.17794292 0.22816789 -0.11946189 0.32504624 0.08332104 -0.08479772
-0.15548648 0.13376024 -0.24160133 0.07984984 -0.025395967 0.2356531 -0.26050657 -0.14491136
-0.09199497 0.053300984 0.12800768 0.050859943 -0.02756245 -0.077214375 0.088636115

features.2.weight f4 [40, 55]
00000000: 32d9 0bbe fb63 efbd eb96 c53d 6ec5 93be
00000010: 03fb e03d 4f72 02be 000d 2c3e 8bf4 25bd
00000020: e8f5 0f3e b2ad cabd 2968 12be 4e20 c53d
00000030: 2e84 26bc 7cf7 13be bdb4 fb3d fc06 27bd
00000040: 5a95 0ebe ebde cfbd cd24 d6bc c462 8d3b
00000050: fbca 28bd 3487 29be 5dff 4b3d 530a cbbd
00000060: bb25 0fbe f028 1e3e 0b4c a4bd 058a e23c
00000070: dfbd 55bd ff8b 373e 3b41 a83d 645f 043e
00000080: 2ded 90bd e4e4 40bc acdc 00be 8501 bcbd
00000090: 0aa1 983d c6b7 57bd e729 bdbd ba59 e4bd
000000a0: 05e2 ab3d 0fc6 09bd 9129 38bd 1209 423d
000000b0: ea76 93bc 895b 823d 830b fe3c ba44 66bd
000000c0: 0d38 453e 9462 0a3e a468 dabc a297 1fbd
000000d0: 6b70 f83a c650 06be 7506 71bd 24d9 4f3e
000000e0: 4e5f 7f3d 61d5 a03d ecb5 0f3e 6a9b c9bc
000000f0: 246b 42bd 99d1 283e 8b79 9539 6fc3 a8bd
00000100: 3e08 8c3a 3d66 b53d 7f66 133d 3747 b2bd
00000110: ed68 f73d d548 15be 37e7 11bd 8b7a e13d
00000120: 6b1c 4e3c 1b95 a7bd 915f 18be 6ce6 37be
00000130: 9f4b 4d3e edc3 7fbd 5c95 203e c7a2 28bd
00000140: beb6 0a3d c9c3 843d 4d3f 543e 42ed c03d
00000150: b82e 6d3d d799 1e3e afed c63d 1e38 f43d
00000160: 84a4 163e b313 80bd 9071 aebb 4036 7abd
00000170: 6c43 b0bd 8a49 31be 3b7f 94bd cc81 a83c
00000180: 14db 82bd d72e d63d e41e 3fbc 9c4d 2cbd
00000190: 3aef dbbd 56ce 043c 82fb 883c 852c 963d
000001a0: 65bf 2bbe 4f8c 60bc d1a8 dbbd 49c2 b13d
000001b0: ab7e c33d 4b0f 723b d87b 943c a9b8 d9bd
000001c0: 10ce 61bd a4de b9bd b853 ca3d f5eb afbd
000001d0: f340 bbbd 3ca6 50bc 597e 2e3e c0d4 323e
000001e0: 5826 5cbd e261 8fbd 05e5 54bd ab9e a13d
000001f0: 930c 5b3d c6f6 42be ffca 05bd 71ad c7bc
00000200: 0525 a5bd ccd4 0d3c 3567 813e 7a58 02be
00000210: 6475 3f3e 84d5 47be 3119 af3b 45d3 c53d
00000220: b4b7 97bc 35fc 0c3e 3e7e 4cbd 957e 24be
00000230: 65bb d23d 2596 b03d 4072 493b 9cfc fc3d
00000240: 1e61 de3d e365 de3d 4414 fb3d 0fff 69bd
00000250: 9c0d 79bc 1e53 97bc e07c 663e 595e e2bc
00000260: 6049 c73d 8083 d93c a15d 823d f5ec 97bd
00000270: 78cf 31bd 318f f43d 180d 2b3d 5413 9c3d
00000280: c7ac 6dbd d288 4b3d 23ab 3bbd beaf 5bbd
00000290: 5900 1cbe e8b0 c53d cf2a 243e 9756 03bc
000002a0: b2ed 493e 471c 6dbb e6a3 f6bd 02ea 8d3d
000002b0: 425f 08be 6456 f73d a166 35be 9276 b33c
000002c0: d4bb b3bc 91ba b2bd aaae 2abd f91a 50be
000002d0: dc40 363e 4981 173e 593e e13c 81fe 07be
000002e0: 5c35 afbd 8701 bd3d 6a23 0a3e 8653 10be
000002f0: 6f4a 163d 8cff 4b3d 5214 16be 838f 00be
00000300: da53 a93d 2913 b83d 0f9e a8bc a292 77bc
00000310: 8053 7abd 4a00 aa3d 0453 f0bd aa7e 00bd
00000320: eb24 bf3d c654 aabd cc4d b2bd 3837 9cbd
00000330: 6acf f2bc c08b 27be 6294 cb3d afce 053d
00000340: 5323 a63d 46ab 023d b6a3 d03c fabd 4b3d
00000350: e5a9 3dbd 38fd f8bb 9a05 163d b274 cbbd
00000360: 20fc 0dbe 0f2d b73c 7be5 0c3c e81b 70bd
00000370: 06c8 8f3c 15cc 1e3d 8e47 723d cada d53d
00000380: 3f72 ab3b ba76 423e b6d2 0fbc 10d8 ecbd
00000390: b1e3 0fbd e81c a6bd be9d c63d d018 5ebd
000003a0: cd4e bbbd 587d 163d 86af db3c 1164 423d
000003b0: a5a6 2cbe 336d 15bd 6ce3 e2bd 54be 7ebd
000003c0: 433b 4ebe 484f dabc 404d 8dbd aa33 913d
000003d0: fc2a b13d 44ac 3c3c 5a05 2abd f794 69bd
000003e0: 4c0c cd39 7940 c93c ee97 253d 440e 2e3e
000003f0: f738 233d 86a1 28bd 86f3 c0ba 58b1 c1bc
-0.13657072 -0.11688992 0.09647926 -0.28861564 0.10985377 -0.12738918 0.16801834 -0.040516417
0.1405865 -0.09896411 -0.14297546 0.09625302 -0.01016335 -0.14449877 0.122903325 -0.040778145
-0.1392416 -0.1014994 -0.026140595 0.0043147523 -0.041209202 -0.16555482 0.04980408 -0.099140786
-0.13979237 0.15445304 -0.080223165 0.027653703 -0.05218303 0.17924498 0.08215567 0.12927014
-0.07076488 -0.011773322 -0.1258418 -0.09179977 0.07452591 -0.052665494 -0.09236508 -0.111499265
0.08392719 -0.03363615 -0.044961516 0.04737193 -0.018001039 0.06365115 0.031011349 -0.056217887
0.19259663 0.13514167 -0.026661225 -0.038962968 0.0018954402 -0.1311675 -0.05884405 0.20297676
0.06234675 0.07853199 0.14034241 -0.02461024 -0.04746546 0.16486205 0.0002851005 -0.08240401
0.0010683609 0.08857391 0.03598642 -0.087049894 0.1208056 -0.14578564 -0.035620894 0.11009701
0.012580018 -0.081827365 -0.14880206 -0.17958993 0.20048378 -0.06244271 0.15681976 -0.04117086
0.033865683 0.064826556 0.20727272 0.09420253 0.057905883 0.15488373 0.09713303 0.11924766
0.14711195 -0.06253757 -0.0053235963 -0.061086893 -0.0860661 -0.17313209 -0.0725083 0.020569704
-0.06389442 0.10458153 -0.01166508 -0.0420662 -0.10738988 0.008105835 0.01672149 0.0733271
-0.1677223 -0.013705327 -0.107255585 0.08679635 0.095456444 0.0036935385 0.01812546 -0.10630924
-0.055128157 -0.090756685 0.09879249 -0.08589927 -0.091432475 -0.012734946 0.17040385 0.1746397
-0.053747505 -0.070010915 -0.051976223 0.07891592 0.05347879 -0.19039449 -0.032664295 -0.024374695
-0.080637015 0.008656692 0.25274053 -0.12729064 0.18697125 -0.19515043 0.005343579 0.09659437
-0.018520214 0.13768084 -0.04992508 -0.16063912 0.10289649 0.08622388 0.0030738264 0.12352869
0.108583674 0.10859277 0.12259725 -0.05712801 -0.015200999 -0.01847225 0.22508574 -0.02763288
0.09730792 0.026551962 0.063655145 -0.07418243 -0.04341075 0.11941374 0.041760534 0.07620874
-0.0580261 0.04969103 -0.045817506 -0.053634398 -0.15234508 0.09652883 0.16031955 -0.00801625
0.1971958 -0.0036180185 -0.1204298 0.06929399 -0.13317588 0.120770246 -0.17714931 0.021907125
-0.02194015 -0.08726991 -0.04167048 -0.20322789 0.1779818 0.14795412 0.02749555 -0.1328068
-0.08555099 0.09228807 0.13490072 -0.14094362 0.03669208 0.049804255 -0.14656189 -0.12554745
0.082679465 0.089880295 -0.02058318 -0.015110644 -0.061114788 0.083008364 -0.11734584 -0.031370796
0.093332134 -0.083169505 -0.08706245 -0.0762772 -0.029639918 -0.16361904 0.09940411 0.032667812
0.08112206 0.03190162 0.025468688 0.049741723 -0.046304602 -0.0075985454 0.036626436 -0.09934367
-0.1386571 0.022360353 0.008599634 -0.058620363 0.017551433 0.038768847 0.05915027 0.10442121
0.005232125 0.18990603 -0.008778265 -0.11564648 -0.035129253 -0.08110982 0.09698056 -0.05422288
-0.091458894 0.03674063 0.026817095 0.047458712 -0.16860445 -0.036481094 -0.110785335 -0.06219323
-0.20139794 -0.026649132 -0.068995 0.07089932 0.08650777 0.011515681 -0.04150901 -0.05702683
0.0003910981 0.024566876 0.040428095 0.1699763 0.039849248 -0.041169666 -0.0014721013 -0.023644134

features.2.bias f4 [40]
00000000: 7220 c3bd e24f d73d e811 cc3d 7e57 0a3e
00000010: 5b86 863d cdc4 d5bd fe56 3f3d 4d72 dd3b
00000020: d4c3 aebd 1a8c 263d 70e5 d8bc d4a4 56bd
00000030: 978c 2b3d d62b 4d3e e50b 1abe 592e 92bd
00000040: d631 3ebe 5350 f4bc e1d6 7fbd dce0 ad3d
00000050: 7642 15bc 42a4 7f3d bcc6 243c a62e b3bd
00000060: 24ca 413d 5924 dc3c 5a42 07bd 24aa 31bd
00000070: 4bde 8ebd a6ae ab3d c5a9 ccbc 1196 b4bd
00000080: 729b bfbd c8d6 833e d339 523d 8c6c 6f3c
00000090: beb5 e7bd b8f4 e5bc bf51 02be 0d1d eabc
-0.09527673 0.10513283 0.09964353 0.13509938 0.06568595 -0.104379274 0.04671382 0.0067580105
-0.08533445 0.040660955 -0.026476592 -0.052403286 0.041882124 0.20036253 -0.150436 -0.07137746
-0.18573698 -0.029823458 -0.062460784 0.08490154 -0.009110084 0.062412508 0.010057148 -0.08749132
0.047311917 0.0268728 -0.033022262 -0.04337515 -0.06975993 0.08382921 -0.024983296 -0.088176854
-0.09355821 0.25749803 0.051324677 0.014613282 -0.113139614 -0.028070793 -0.12726496 -0.028578306

features.4.weight f4 [24, 40]
00000000: 7eba 46bd ef4f 4cbe b7f9 8bbc 06a4 393e
00000010: 4705 2b3b d60e 13bd b46a 4cbe 980e a9bd
00000020: 2221 e83d fc3e 28bd 2d41 583d 4eac 0fbe
00000030: 19e0 c23b e8d4 cfbd d1cf 313e 3841 9c3c
00000040: f19a 423c 9478 f8bd 2b5b 023e 7333 fe3d
00000050: c86b 04bc fa9f 41bd e152 013d d94e 45bc
00000060: 5ec3 013d f206 3f3e 5fd9 923c b30c af3c
00000070: 40bc 60bd c9a2 3c3d fe6c 083e 4d4e 14be
00000080: 1f68 823c 2504 d73c 7d6e 2d3b 06d6 f73d
00000090: 5588 c6bd e2b5 9cbd ec4e 073e 36fb abba
000000a0: 7cf1 ae3d 258d 97bd 8146 96bd 01f9 04be
000000b0: 56d7 d5bd 99f4 413e 9c6e c0bd fe70 ffbd
000000c0: 271a 8b3c af03 ffbb ff77 b13d 95da 8abc
000000d0: d30b 45bd 7099 11be b820 8abd 0910 c33d
000000e0: 1476 e1bd 7a12 6dbd d47d 923c d971 8d3d
000000f0: 0af9 893d eab4 e4bd e7e6 01bd 2c97 29be
00000100: fdd8 69bd eaa3 0a3e 67a1 46be 7c8b dabd
00000110: 3257 14bd bc77 89bc 476e ec3d 823a 84bb
00000120: 823a 193d d8a2 e9bb 070c b13c f31c 123d
00000130: b6fb 893d cb8f c0bd abf2 c13d 8073 d13d
00000140: f9b9 bf3c 0f74 8ebd 3ca0 f93d 4187 e7bd
00000150: 11cb a13c ed96 c13d cbe7 2abe 8298 8cbd
00000160: 2dda c93c de28 dbbd 51b6 0ebd 4ae6 26bd
00000170: ed74 e13b f40d cdbd 9b37 c23d 824f 013e
00000180: 7074 b8bd 1c45 d9bd 1442 263e f68b 523d
00000190: 21f2 c13d 45cf 983d e5b2 c6bd a0f5 a5bd
000001a0: a8ed 4dbd eaf6 203e cb3a a3bd 65ce ba3c
000001b0: e15a 513c dd66 03bd 67c8 273d 5a7b cc3b
000001c0: 68a9 07be 8532 5abc 8f1f e6bd 2c98 163e
000001d0: fd81 293d 2e3d 76bd 364a e33d 3821 a7bd
000001e0: 1232 2a3d 25b6 f9bd e753 f2bd 42fe c8bd
000001f0: 6586 8abd 7d94 053e 1fd3 52be 97f1 b63d
00000200: d4f0 85bd d17c 2f3e be11 4ebc 587d cebc
00000210: b931 fa3d fe72 c1bc 8b0c 4d3e 562e 1a3e
00000220: c293 1dbd 30c0 163d d762 5cbd acf3 efbc
00000230: c657 b23d 7ea7 02be 027a 87bd 21bc edbd
00000240: 6dbf b8bc a118 443e 9f7d a2bd 6311 033e
00000250: 41e7 f5bb 3aed 03bb e518 693d c821 1a3d
00000260: 8a6d bfbb ab2b afbd bbea 81bd 2267 0b3e
00000270: 9e9b 85bd df7c c0bd 9d45 93bd 30cb 993d
00000280: 24ad b63d e2f6 0fbe fbec 8a3c 4237 3e3d
00000290: c03e 8f3d e4f4 053d cf61 2ebe 2165 243d
000002a0: ab7b 5abd 02b9 263e d543 66bd 3a2e e4bc
000002b0: 3579 05bd 402c e03c 25d9 943d 6a4a ec3d
000002c0: 8a10 93bd e1c5 57bd 4b7f 453e 88b1 a1ba
000002d0: add8 d93d 3fa1 f0bd 8dfb 12be 50d6 10bd
000002e0: 0418 c7bc 191d 043e dd05 ddbd 7910 cabc
000002f0: 50af 1cbc d10b e93c db43 eabc d23d 5f3d
00000300: 21d6 653d d25f 443d 2988 84bc aed1 443d
00000310: 2b57 b23d e48b b0bd cd3c c73d e9e5 a43d
00000320: ad0e 273e 9973 43bd 7523 573c f1af 23be
00000330: 533f 9f3c 3d74 213e d0df 58be e8e7 dd3b
00000340: ea93 9dbd 0371 de3d 7943 4dbd cccc e5bc
00000350: ff4e c1bc 73d9 5e3d 8044 913d 7a7c 2d3e
00000360: bc8e 64bd 6082 0e3e 2902 483e f7e9 7c3d
00000370: 893a 743d 6a17 6c3d 3526 05be dbf7 d4bb
00000380: 7ef7 a5bd 9f04 c93d 4a22 cebc 59f1 023e
00000390: c36b 153e 8a9f 623e c94b 2dbc ec40 233e
000003a0: 8172 fabd a145 45bd a94a bebd 1a71 d23d
000003b0: 3971 cd3b 9f63 02be 22db a0bd 4de6 e3bd
000003c0: 680a fabd 809e a3bc 4b83 f0bc 1436 253d
000003d0: 93f8 ddbd 515f 913d 2fd6 f43c 3e6c a2bd
000003e0: 6dc6 083e 18d0 033d 0a9c 5abd 055b 08bd
000003f0: 19bb 803c dc55 4fbd f4c4 c43d 2939 3c3e
-0.048517697 -0.19952367 -0.017086847 0.18128976 0.0026095675 -0.03590282 -0.19962579 -0.08254737
0.113344446 -0.04107569 0.05279653 -0.14030573 0.0059471247 -0.101480305 0.17364432 0.019074067
0.011877761 -0.121323735 0.1273009 0.12412157 -0.008082338 -0.047271706 0.03157318 -0.0120427245
0.031680457 0.18654993 0.017925916 0.02136836 -0.05486703 0.04605368 0.13322827 -0.14482994
0.01591879 0.026247093 0.0026463561 0.121013686 -0.09693972 -0.07651879 0.132137 -0.0013121131
0.08542153 -0.07399968 -0.07337666 -0.12985612 -0.10441463 0.18940963 -0.09396097 -0.124727234
0.016980244 -0.0077824215 0.086654656 -0.016949931 -0.04810698 -0.14218688 -0.06744522 0.09524543
-0.1100885 -0.05787895 0.017882265 0.0690648 0.067369536 -0.11167319 -0.031714346 -0.16561574
-0.0570917 0.13539091 -0.19397508 -0.10671136 -0.03621597 -0.016780727 0.11544471 -0.004035295
0.037409313 -0.007130008 0.02161218 0.03567214 0.06737463 -0.09402426 0.09470113 0.10227108
0.023404108 -0.0695573 0.121887654 -0.113050945 0.01975015 0.09452615 -0.16689985 -0.06865026
0.024640167 -0.10701154 -0.03484184 -0.040746965 0.0068803937 -0.10012427 0.09483262 0.12627986
-0.09006584 -0.10608885 0.16236144 0.05140301 0.094700105 0.074614085 -0.0970209 -0.0810349
-0.050275475 0.1571919 -0.07970198 0.022803495 0.012778015 -0.03208052 0.040962603 0.0062402906
-0.13248217 -0.013317709 -0.11236488 0.14706486 0.041383732 -0.06011694 0.11098139 -0.08160633
0.041551657 -0.121929444 -0.11832409 -0.09814121 -0.06763915 0.13044925 -0.20588349 0.08932798
-0.06540075 0.17137457 -0.012577472 -0.025206253 0.12216515 -0.023614403 0.20024316 0.15056738
-0.03847099 0.036804378 -0.0538052 -0.029290996 0.08708148 -0.12759206 -0.06615068 -0.11608148
-0.022552216 0.1915002 -0.079341166 0.12799601 -0.0075043743 -0.0020130412 0.056908507 0.037629873
-0.0058419155 -0.08553251 -0.063435994 0.13613561 -0.06523822 -0.09398817 -0.07191012 0.07509458
0.08919743 -0.14059022 0.016958704 0.046439417 0.069943905 0.03270425 -0.17029499 0.040135507
-0.053340595 0.16281512 -0.056217033 -0.027854074 -0.032586295 0.02736485 0.072679795 0.11537631
-0.07180889 -0.052678946 0.1928684 -0.0012336234 0.10637031 -0.11749505 -0.14353772 -0.035360634
-0.024303444 0.12901725 -0.10792134 -0.024666058 -0.009563282 0.028448017 -0.02859681 0.054502316
0.056112412 0.047942944 -0.016178207 0.04805153 0.08708032 -0.08620432 0.09728394 0.080516644
0.16314192 -0.047717664 0.013131012 -0.15985085 0.019439375 0.15766998 -0.21179128 0.00677203
-0.07694228 0.10861399 -0.050113175 -0.028051756 -0.023597239 0.054406594 0.070931435 0.16942015
-0.055800185 0.13916922 0.19532074 0.061746564 0.059626136 0.057639517 -0.13002856 -0.0064992732
-0.08103846 0.098153345 -0.025162835 0.1278738 0.14591889 0.22131172 -0.010577151 0.15942734
-0.12228871 -0.048162106 -0.09291584 0.10275479 0.0062696007 -0.12733315 -0.07854296 -0.11127911
-0.12209016 -0.01997304 -0.02935948 0.040334776 -0.108384274 0.07098258 0.029887287 -0.07930802
0.13356943 0.032180876 -0.053371467 -0.033289928 0.015714215 -0.05061899 0.09607878 0.1838118

features.4.bias f4 [24]
00000000: c128 743d cdf8 9e3d ad09 d03c b83c 8abc
00000010: 3f7c 65bd c8e2 ccbc 53bd f9bd 49b5 1bbe
00000020: 1db0 9bbd 2f9d 853b d441 ebbd 686a e23c
00000030: 7d87 913d ed48 333d bf1d c2bc d2a5 09be
00000040: eb9d ebbd b8f4 713c e543 b83a 7e03 4d3c
00000050: 58e2 0cbd 04e2 2bbc cbb7 a23d e133 48bd
0.05960918 0.07762299 0.025395239 -0.016874656 -0.056026693 -0.025010481 -0.12194314 -0.15205874
-0.0760195 0.0040775756 -0.11487165 0.02763863 0.071059205 0.04377072 -0.023695825 -0.13442162
-0.1150473 0.014767818 0.001405832 0.01251304 -0.034395546 -0.010490898 0.07945212 -0.0488776
