S/Treinamento/LSTM/LSTM_2_DENSO_1/conf_2/modelo_seed_33_loss_0.003582.pt (torch, 168789 bytes, 10 tensors)

lstm1.weight_ih_l0 f4 [220, 74]
0.07406635 0.016339513 -0.08131068 -0.046556998 -0.091134354 0.03416572 0.016939245 -0.11265728
0.06932407 0.1288535 0.32557657 0.50720453 0.23784831 0.2655104 0.31022024 0.44176266
0.40118828 0.5377994 0.29278746 -0.11855009 -0.25137553 -0.12165264 0.051251683 0.08235062
-0.03708036 0.01902336 0.11874981 -0.0182878 0.09839475 0.104469426 0.052796043 0.1210218
0.004337921 0.02470783 0.14196612 0.14484258 0.11836811 -0.17730919 0.1648708 0.31368375
0.27691555 0.07231447 0.03878143 -0.11532541 -0.19210728 -0.17575622 -0.07883281 0.126488
-0.019559791 0.054056287 0.12985557 0.020831456 -0.1386817 0.035644878 -0.21879692 0.097968556
-0.090779625 -0.08756975 -0.23717727 -0.028610481 -0.06494255 0.10841874 0.03750835 0.23592934
0.0949441 0.3814293 0.039992068 -0.17714079 0.07060691 -0.016044853 -0.12368478 -0.14298555
-0.49709454 0.027383225 -0.023706587 0.076244205 0.052576505 0.13960278 -0.05653576 0.15005597
0.068754055 0.03510171 -0.09224362 0.014948103 0.02145422 -0.17242949 -0.23648034 0.080663875
-0.01041095 -0.22061114 -0.3257806 -0.14790729 0.117441386 -0.052432254 -0.066137366 0.0139334975
0.022983246 0.13508713 0.11920056 0.03542246 -0.0064466125 -0.06956747 0.021667704 -0.14299309
-0.08170409 -0.091781184 -0.22200207 -0.12244192 -0.41425845 -0.5420201 -0.671747 -0.22191374
-0.48834923 -0.5467522 -0.63339674 -0.42976734 0.010377926 0.10124689 0.019765845 -0.029050725
0.04787825 -0.0823267 -0.07923541 -0.1468066 -0.23064631 -0.02213433 -0.0936348 -0.1697959
-0.10624035 -0.06395142 0.029487416 -0.103739694 0.041627947 0.103119366 0.0021167817 0.13252655
-0.09060923 0.11142397 0.064733475 0.11455982 0.28761536 0.19166647 0.04438077 0.09227219
-0.05490245 -0.22438018 0.38695508 0.31587368 -0.04681173 -0.06977837 -0.029058808 0.06110819
-0.06868154 -0.12231278 -0.17439294 0.018057086 -0.18066339 -0.22329235 -0.05062598 0.0673832
-0.07387918 -0.014382215 0.03258685 0.07047386 0.16179699 -0.08804165 0.15224203 0.4251223
0.17282766 -0.042913657 -0.18684264 -0.18720317 0.046984226 0.14697559 -0.02480045 -0.003377597
0.034880467 -0.008498953 -0.01621911 0.09621297 -0.17078412 -0.038134173 0.10431993 0.016353577
0.0009822064 -0.058148686 0.16707349 0.09303381 -0.059539165 0.012659037 0.018368592 0.42893732
0.23614104 -0.26882857 -0.42927644 -0.28407645 -0.262144 -0.04437103 -0.083644554 -0.019525198
-0.14075103 -0.11422783 -0.062481668 -0.18390766 -0.17176692 -0.07188211 -0.011197845 0.055129718
0.13199456 -0.0574626 0.14582135 0.048217706 -0.008430865 -0.1293685 -0.22650005 -0.09386308
-0.06037949 -0.016413044 -0.116581164 -0.09213129 0.04415319 -0.2851913 -0.117336564 0.109779686
0.010795564 -0.120075025 0.12058786 -0.013050147 0.08617282 -0.16673249 -0.1465041 -0.10385835
-0.14478154 -0.24819174 -0.17701453 0.024602093 0.03393333 0.17031665 0.049543098 -0.0014557191
0.32865176 0.21475506 0.08053873 -0.14777823 -0.13095292 -0.25169653 0.008364041 0.12761724
-0.012732049 -0.034162693 0.07122348 -0.052901436 0.04102821 0.056032762 0.023318777 0.014357774
00000000: 19b0 973d 71da 853c 3786 a6bd 8db2 3ebd
00000010: a6a4 babd 5bf1 0b3d 2cc4 8a3c dcb8 e6bd
00000020: c7f9 8d3d 2cf2 033e f9b1 a63e 28d8 013f
00000030: 828e 733e fbf0 873e 30d5 9e3e b72e e23e
00000040: 8d68 cd3e 39ad 093f 3de8 953e 64ca f2bd
00000050: 4bb4 80be 0525 f9bd 49ed 513d 71a7 a83d
00000060: 93e1 17bd e1d6 9b3c 1a33 f33d 4cd0 95bc
00000070: 3083 c93d 11f4 d53d aa40 583d 47da f73d
00000080: 1e25 8e3b 1368 ca3c 915f 113e 9d51 143e
00000090: fb6a f23d 8a90 35be e4d3 283e 289b a03e
000000a0: e0c7 8d3e 9c19 943d 47d9 1e3d bb2f ecbd
000000b0: c5b7 44be 70f9 33be 1973 a1bd 1286 013e
000000c0: db3b a0bc 206a 5d3d dcf8 043e bba6 aa3c
000000d0: 9302 0ebe 5d00 123d 4d0c 60be bda3 c83d
000000e0: abea b9bd c557 b3bd 99de 72be 8760 eabc
000000f0: 9a00 85bd a50a de3d 5ba2 193d 7697 713e
00000100: 0d72 c23d b44a c33e b9ce 233d 6564 35be
00000110: 5b9a 903d 7f70 83bc 724e fdbd ce6a 12be
00000120: 2d83 febe c952 e03c 5134 c2bc ec25 9c3d
00000130: 765a 573d 08f4 0e3e 0b92 67bd 46a8 193e
00000140: edce 8c3d d0c6 0f3d 39ea bcbd e3e8 743c
00000150: c3c0 af3c 5b91 30be e727 72be 1a33 a53d
00000160: b092 2abc e3e7 61be b7cc a6be 0275 17be
00000170: 1c85 f03d 34c3 56bd 0773 87bd 5349 643c
00000180: 5c47 bc3c 4854 0a3e 6c1f f43d 2417 113d
00000190: 1b3e d3bb 6479 8ebd 7880 b13c c86c 12be
000001a0: 7954 a7bd c6f7 bbbd 8354 63be d4c2 fabd
000001b0: af19 d4be d4c1 0abf 9df7 2bbf 5b3d 63be
000001c0: e908 fabe f4f7 0bbf 4a26 22bf 770a dcbe
000001d0: 2d08 2a3c 885a cf3d fbeb a13c c9fb edbc
000001e0: fc1b 443d e79a a8bd 2d46 a2bd 7854 16be
000001f0: 8c2e 6cbe 0e53 b5bc 9ac3 bfbd fade 2dbe
00000200: 8a94 d9bd f6f8 82bd 988f f13c 7a75 d4bd
00000210: 1182 2a3d 3f30 d33d b4b9 0a3b 0ab5 073e
00000220: 5591 b9bd 4032 e43d fc92 843d 579e ea3d
00000230: 5242 933e 3744 443e 9cc8 353d 34f9 bc3d
00000240: 64e1 60bd ebc3 65be fa1e c63e 32ba a13e
00000250: a8bd 3fbd f6e7 8ebd bd0c eebc 954c 7a3d
00000260: e8a8 8cbd 1f7f fabd 1094 32be 74ec 933c
00000270: d3ff 38be c0a6 64be 305d 4fbd 3400 8a3d
00000280: f84d 97bd 62a3 6bbc ca79 053d 9954 903d
00000290: 1cae 253e 2e4f b4bd 56e5 1b3e a1a9 d93e
000002a0: bcf9 303e 3bc6 2fbd ad53 3fbe 30b2 3fbe
000002b0: 8872 403d c580 163e 502a cbbc ad5a 5dbb
000002c0: d2de 0e3d 313f 0bbc f0dd 84bc 4e0b c53d
000002d0: 08e2 2ebe 9432 1cbd b0a5 d53d f0f7 853c
000002e0: 61bd 803a 512d 6ebd 5015 2b3e 8388 be3d
000002f0: 57df 73bd d967 4f3c bb79 963c ac9d db3e
00000300: f5ce 713e e6a3 89be 1fca dbbe 7872 91be
00000310: bd37 86be 66be 35bd d64d abbd 4ff3 9fbc
00000320: 0a21 10be 48f0 e9bd c7ec 7fbd 4a52 3cbe
00000330: abe3 2fbe ed36 93bd 2b77 37bc b3cf 613d
00000340: 9529 073e e75d 6bbd 3152 153e ee7f 453d
00000350: 9c21 0abc 2d79 04be a1ef 67be 493b c0bd
00000360: 7c50 77bd a674 86bc 1bc2 eebd 54af bcbd
00000370: fad9 343d 9804 92be 274e f0bd 2cd4 e03d
00000380: e1df 303c e5e9 f5bd c5f6 f63d 49d0 55bc
00000390: 607b b03d ecbb 2abe 2c05 16be b0b3 d4bd
000003a0: 9d41 14be fa25 7ebe 4c43 35be 548a c93c
000003b0: adfd 0a3d 7d67 2e3e b4ed 4a3d d4cd beba
000003c0: 0b45 a83e c0e8 5b3e 7df1 a43d 2d53 17be
000003d0: 8618 06be 5ede 80be 5509 093c 18ae 023e
000003e0: 169a 50bc 2eee 0bbd 9edd 913d 2daf 58bd
000003f0: 320d 283d 9c82 653d 0507 bf3c de3c 6b3c

lstm1.weight_hh_l0 f4 [220, 55]
0.07738742 0.062306 0.027309142 0.080212586 -0.055545107 0.10493234 -0.08105979 0.12917972
-0.024010817 0.0642297 -0.0128902355 -0.045889348 0.1163627 0.06837614 -0.123120315 -0.022915715
0.03394424 0.108539626 -0.053110782 -0.12064676 0.05684488 -0.087264456 -0.030459134 0.080246486
0.12384714 -0.00889725 -0.036501467 -0.028981788 -0.0737797 -0.047718685 -0.05794268 -0.010740813
0.12685 -0.10303549 0.0019846465 -0.115170814 -0.10354941 -0.1334989 -0.02778947 0.074805394
-0.13420524 -0.015104454 0.11469338 -0.0948668 0.115743585 -0.11343785 -0.118031345 0.10776003
-0.06560839 -0.025143838 -0.055087022 0.103490405 0.1276561 -0.008209629 0.08052507 -0.070724435
-0.06276678 0.068766505 -0.11999465 0.043945305 -0.09864912 0.013371545 0.095106035 -0.009389602
0.0057236124 0.049030047 -0.06649062 -0.04982411 -0.04996539 0.04355602 0.12202785 -0.110088356
0.025731027 -0.10377908 -0.059126414 -0.053543437 0.12336796 0.084890954 -0.120346345 0.03678585
0.06863945 -0.0048526814 0.020422451 -0.121645845 -0.0012980219 -0.020800257 0.080048144 0.13393211
0.007968612 0.08622867 0.11535059 -0.06655685 -0.024907403 0.0991659 0.11990455 0.09449473
-0.07891214 0.022272412 0.08078441 -0.046582386 -0.12864113 -0.11675644 0.13367957 -0.06252372
0.07297147 -0.0017650571 -0.054605104 -0.071016096 -0.07178221 0.11841384 -0.063579395 -0.06731971
-0.0037168318 0.056607094 0.061898775 0.037059415 -0.11294917 -0.11960668 -0.031277247 0.022210719
0.09150572 -0.015370208 0.05062713 0.042810403 0.11214014 -0.02201381 0.030757133 -0.04348211
0.051639304 -0.1191055 0.03596107 0.0431754 -0.092239715 -0.031900667 0.12179354 0.13101842
0.034522783 0.07556483 0.043405358 0.120413795 -0.02913173 0.08855833 -0.05721256 0.0053968565
0.08532864 -0.095728695 0.031017568 -0.13131654 -0.12109971 0.05056036 0.109922096 0.039145507
-0.056169122 -0.10377696 -0.043591414 0.13397054 -0.100022145 -0.014710363 -0.12392774 0.029861722
-0.12531076 0.11350436 0.13209617 -0.1102061 -0.054002095 0.11019864 -0.052846234 -0.018651204
0.0116134 0.048111103 0.06438766 0.047391284 0.065152965 0.056613844 -0.12284992 -0.11790005
-0.018570835 0.097459644 0.022660458 -0.019112485 -0.13404483 0.085361384 0.13474539 0.12848322
-0.116479866 -0.066390805 -0.07103076 0.067578524 0.04255328 0.11288137 -0.040098093 -0.08728819
0.07175318 -0.08961715 0.084889546 0.106582835 -0.07338075 -0.07861777 0.03513442 -0.018409336
-0.031720072 -0.12884328 -0.10380288 -0.03488717 0.0013446049 0.12466321 0.10727561 -0.029067384
0.06704814 -0.020283023 -0.09286123 0.05016363 -0.0728537 0.046032023 -0.01801785 -0.096058235
-0.041406196 -0.030821221 -0.11904005 -0.10629107 0.12678312 -0.12065136 0.05941575 -0.11185068
0.0059017627 0.11996885 0.011062152 -0.06642568 -0.06825391 0.0437289 -0.0048212083 0.123068266
0.10563568 0.02465978 0.099618055 0.12822755 -0.03568424 -0.021762908 -0.015250825 -0.049942773
-0.041575328 -0.09214755 -0.01504088 -0.09282987 -0.006551191 -0.12645431 -0.0863748 -0.11410368
-0.12837361 -0.024501756 0.08293087 0.05249775 0.011993522 -0.055719543 -0.08937321 -0.119720824
00000000: 4c7d 9e3d 9434 7f3d 6cb7 df3c 7f46 a43d
00000010: 4483 63bd c4e6 d63d ad02 a6bd b047 043e
00000020: 55b2 c4bc dc8a 833d 9131 53bc 78f6 3bbd
00000030: 914f ee3d ca08 8c3d 8126 fcbd bdb9 bbbc
00000040: 1e09 0b3d 064a de3d b18a 59bd a615 f7bd
00000050: 2dd6 683d b5b7 b2bd 6f85 f9bc 4558 a43d
00000060: 92a3 fd3d c5c5 11bc 9082 15bd 376b edbc
00000070: d019 97bd ab74 43bd 4e55 6dbd 3cfa 2fbc
00000080: f7e4 013e 4504 d3bd d810 023b adde ebbd
00000090: b711 d4bd f0b3 08be bea6 e3bc 9233 993d
000000a0: 196d 09be ac78 77bc 5de4 ea3d 8649 c2bd
000000b0: f90a ed3d 1a52 e8bd 6bba f1bd 4ab1 dc3d
000000c0: b15d 86bd 73fa cdbc eea2 61bd c7f2 d33d
000000d0: 48b8 023e ae81 06bc 54ea a43d f9d7 90bd
000000e0: df8b 80bd 74d5 8c3d c1bf f5bd feff 333d
000000f0: 8d08 cabd 5314 5b3c f4c6 c23d d8d6 19bc
00000100: 248d bb3b bbd3 483d 3c2c 88bd 5e14 4cbd
00000110: 82a8 4cbd cc67 323d bde9 f93d 0176 e1bd
00000120: e0c9 d23c 208a d4bd 8a2e 72bd 5d50 5bbd
00000130: 57a8 fc3d 4fdb ad3d 2578 f6bd c2ac 163d
00000140: d792 8c3d 3e03 9fbb fc4c a73c 7521 f9bd
00000150: 6322 aaba 4d65 aabc 48f0 a33d 8025 093e
00000160: c88e 023c a898 b03d ee3c ec3d f54e 88bd
00000170: 9c0a ccbc 7e17 cb3d 8490 f53d 7486 c13d
00000180: b09c a1bd a274 b63c 4c72 a53d 2ccd 3ebd
00000190: 80ba 03be 001e efbd 4ce3 083e 700c 80bd
000001a0: 1172 953d 7d59 e7ba 9aa9 5fbd e370 91bd
000001b0: 8d02 93bd f582 f23d ea35 82bd ebde 89bd
000001c0: 1796 73bb d7dc 673d 9289 7d3d 9dcb 173d
000001d0: e551 e7bd 59f4 f4bd 921c 00bd 41f3 b53c
000001e0: 5a67 bb3d 53d3 7bbc 655e 4f3d f659 2f3d
000001f0: bba9 e53d 4e56 b4bc 62f6 fb3c 4c1a 32bd
00000200: bc83 533d 96ed f3bd ea4b 133d b0d8 303d
00000210: 2de8 bcbd 46aa 02bd e46e f93d b129 063e
00000220: c367 0d3d bcc1 9a3d d1c9 313d 829b f63d
00000230: aaa5 eebc 125e b53d b857 6abd 1dd8 b03b
00000240: c8c0 ae3d 680d c4bd 8e18 fe3c d877 06be
00000250: 2003 f8bd 6118 4f3d d61e e13d 0a57 203d
00000260: 9811 66bd 0489 d4bd e98c 32bd 932f 093e
00000270: 69d8 ccbd bc03 71bc d4cd fdbd 92a0 f43c
00000280: 7751 00be f974 e83d 3844 073e bcb3 e1bd
00000290: 4d31 5dbd d3af e13d 4b75 58bd 69ca 98bc
000002a0: 2146 3e3c 2610 453d addd 833d 5d1d 423d
000002b0: eb6e 853d ebe3 673d bd98 fbbd 9575 f1bd
000002c0: dd21 98bc ec98 c73d 6da2 b93c c991 9cbc
000002d0: 0c43 09be f3d1 ae3d b2fa 093e 1b91 033e
000002e0: ff8c eebd e7f7 87bd 9378 91bd 9c66 8a3d
000002f0: 594c 2e3d 592e e73d e63d 24bd 27c4 b2bd
00000300: 55f3 923d 3289 b7bd 92da ad3d 1a48 da3d
00000310: a648 96bd 5a02 a1bd 1ce9 0f3d 2dcf 96bc
00000320: e8ec 01bd 7eef 03be 9b96 d4bd d9e5 0ebd
00000330: 743d b03a 6d4f ff3d 51b3 db3d b91e eebc
00000340: 8950 893d 9528 a6bc 072e bebd 6178 4d3d
00000350: 5234 95bd 138c 3c3d 2c9a 93bc 2eba c4bd
00000360: 8b99 29bd c97c fcbc 45cb f3bd 22af d9bd
00000370: 6fd3 013e 0f18 f7bd ee5d 733d f811 e5bd
00000380: 9363 c13b 3ab2 f53d 073e 353c 300a 88bd
00000390: b5c8 8bbd 131d 333d 3afb 9dbb 370b fc3d
000003a0: 8557 d83d 4f03 ca3c 8d04 cc3d 154e 033e
000003b0: a329 12bd 2048 b2bc 99de 79bc cb90 4cbd
000003c0: e44a 2abd dbb7 bcbd 066e 76bc 961d bebd
000003d0: 60ab d6bb 3d7d 01be 45e5 b0bd 31af e9bd
000003e0: 5f74 03be e8b7 c8bc a9d7 a93d e107 573d
000003f0: 7a80 443c 2d3a 64bd 4d09 b7bd 3130 f5bd

lstm1.bias_ih_l0 f4 [220]
0.12681839 0.092438765 -0.07111115 -0.15599567 0.24516208 -0.14748003 0.03481136 0.13288508
-0.082709596 0.093305655 -0.11159415 -0.06636422 0.013428832 0.2920589 0.064407736 -0.066893265
0.23117682 0.018440688 0.019190207 0.20578445 -0.114784166 0.10172425 -0.08079632 -0.117146105
0.19204159 0.17945167 -0.1462797 -0.003959209 -0.0960486 -0.00975309 0.09708364 0.059723582
0.07382468 0.031543773 0.018505784 -0.073532954 -0.12661847 0.043461435 0.13948286 -0.06586503
-0.034033697 0.17560086 -0.009024628 -0.049042773 0.092468336 0.21852754 0.08814252 -0.09775632
0.071045324 -0.05951176 0.027211571 -0.04873267 -0.06717494 0.17034015 0.05473711 0.12168666
-0.10759599 -0.010443586 0.00021862487 0.0014830357 -0.11584424 0.13068804 0.07718112 0.075163715
-0.12806626 -0.0077450527 -0.022204787 0.07183868 -0.0029547873 -0.033171717 0.07331856 0.041873537
0.09882593 -0.06921868 -0.103711106 0.102712445 -0.12128694 0.056087706 -0.06362506 0.037224
-0.0014834858 -0.07870777 -0.09717936 0.08603402 -0.08753654 -0.06064692 0.11688479 -0.05705574
0.12419081 -0.064322844 0.11784611 0.016835675 -0.07811964 0.12721504 0.04229719 0.044957686
0.11035679 0.028402476 0.030360889 -0.066813245 -0.034493253 -0.08719781 -0.12970102 -0.013118216
0.13478777 0.025289116 0.11287427 0.10461725 0.06882503 -0.036653046 0.058616724 -0.049979646
-0.08702739 -0.03931065 -0.10948924 0.080278456 -0.0026770823 0.061081987 -0.018043168 -0.078164086
-0.021714646 0.02751786 0.06279094 -0.19371372 -0.013522398 0.05631147 -0.10346071 0.068066336
-0.009650546 -0.077016346 0.12877353 0.044995524 -0.16177411 0.07770482 -0.040270988 -0.0031149825
-0.117084995 0.05945463 -0.124072805 0.036382925 0.009620452 -0.14114276 -0.009660276 -0.0296778
0.081664756 -0.043302502 0.0016807092 -0.043861255 0.09393901 -0.07665505 -0.0072750608 -0.05826
0.080621295 0.1274839 0.05293121 -0.030173816 0.10761915 0.19098729 0.10905789 0.09815296
-0.028243383 -0.016194789 0.062101144 -0.060597524 -0.06701492 -0.011522307 -0.0071753776 0.09608722
-0.01862865 0.05721601 -0.028499585 0.06658321 0.0817912 0.011396936 0.20860384 0.018582117
-0.05523445 0.0019346637 0.2092962 0.19050355 0.016183207 0.18707086 -0.07315364 0.054806173
0.34108427 -0.08567282 0.072283916 0.09432584 0.047468554 0.33664483 0.19161633 0.031460274
0.004936737 0.110323936 0.20880106 0.046121366 -0.06817748 -0.09217941 -0.06280762 0.14017466
0.12361084 -0.057565495 0.103482604 0.17297246 0.11456595 0.039290544 0.0010332025 -0.09029033
-0.033774666 -0.08467887 0.21960625 0.13385586 -0.108191006 0.14840122 0.09546458 0.23227195
-0.1056285 0.0074977567 0.1323164 0.15806459
00000000: aedc 013e 8950 bd3d b9a2 91bd 54bd 1fbe
00000010: c50b 7b3e 0105 17be 5b96 0e3d 0713 083e
00000020: a663 a9bd 0917 bf3d 798b e4bd f7e9 87bd
00000030: 9b04 5c3c bf88 953e 34e8 833d 56ff 88bd
00000040: 9eb9 6c3e ed10 973c c834 9d3c 29b9 523e
00000050: f613 ebbd ce54 d03d 8b78 a5bd 4cea efbd
00000060: 8da6 443e 2ec2 373e 58ca 15be 41bc 81bb
00000070: 21b5 c4bd 6dcb 1fbc cad3 c63d b7a0 743d
00000080: 6531 973d 0b34 013d 7199 973c 7298 96bd
00000090: 46a8 01be 9e04 323d 98d4 0e3e 3fe4 86bd
000000a0: eb66 0bbd b6d0 333e 09dc 13bc 13e1 48bd
000000b0: 0a60 bd3d afc5 5f3e 1184 b43d 7734 c8bd
000000c0: 3680 913d 9ac2 73bd cdea de3c e89b 47bd
000000d0: 0493 89bd a66d 2e3e 0534 603d db36 f93d
000000e0: 495b dcbd 931b 2bbc ab3e 6539 6c62 c23a
000000f0: bf3f edbd 16d3 053e 2311 9e3d 6fef 993d
00000100: cd23 03be 36ca fdbb d0e6 b5bc 2820 933d
00000110: 1ba5 41bb 11df 07bd 0b28 963d 9683 2b3d
00000120: 4065 ca3d 86c2 8dbd 7d66 d4bd e75a d23d
00000130: 4a65 f8bd 39bc 653d db4d 82bd 3178 183d
00000140: 8671 c2ba 8a31 a1bd f905 c7bd 9b32 b03d
00000150: 5c46 b3bd e868 78bd 4b61 ef3d 48b3 69bd
00000160: c057 fe3d b2bb 83bd 4d59 f13d f8ea 893c
00000170: 31fd 9fbd a944 023e d13f 2d3d 8d25 383d
00000180: be02 e23d 4fac e83c 66b7 f83c 62d5 88bd
00000190: cc48 0dbd c494 b2bd 58d0 04be c9ed 56bc
000001a0: ce05 0a3e 1f2b cf3c a02a e73d 9241 d63d
000001b0: 23f4 8c3d 8121 16bd 1718 703d 75b7 4cbd
000001c0: 6b3b b2bd 3404 21bd e53b e0bd 0869 a43d
000001d0: fd71 2fbb 1b31 7a3d 44cf 93bc 7e14 a0bd
000001e0: eae2 b1bc 236d e13c 8998 803d e45c 46be
000001f0: 0c8d 5dbc dba6 663d 35e3 d3bd 5d66 8b3d
00000200: 531d 1ebc bfba 9dbd 35dd 033e 3a4d 383d
00000210: 1da8 25be b423 9f3d 31f3 24bd bc24 4cbb
00000220: 42ca efbd b386 733d e219 febd 4306 153d
00000230: 1a9f 1d3c ba87 10be 2246 1ebc dc1e f3bc
00000240: da3f a73d f75d 31bd 3e4b dc3a dca7 33bd
00000250: 1863 c03d 53fd 9cbd a263 eebb 0aa2 6ebd
00000260: c71c a53d 248b 023e 65ce 583d 142f f7bc
00000270: 6e67 dc3d 2c92 433e be59 df3d 6b04 c93d
00000280: ab5e e7bc efaa 84bc c55d 7e3d 1c35 78bd
00000290: 1e3f 89bd 0fc8 3cbc 6e1f ebbb 60c9 c43d
000002a0: 1c9b 98bc 565b 6a3d f677 e9bc c75c 883d
000002b0: 2582 a73d 37ba 3a3c 3f9c 553e 8639 983c
000002c0: 853d 62bd 8b94 fd3a be51 563e 5d13 433e
000002d0: a592 843c 818f 3f3e 93d1 95bd 707c 603d
000002e0: 99a2 ae3e 3b75 afbd 9709 943d e82d c13d
000002f0: 636e 423d b65c ac3e 1237 443e 7ddc 003d
00000300: 5ac4 a13b 84f1 e13d f2cf 553e c2e9 3c3d
00000310: a2a0 8bbd 8fc8 bcbd 48a1 80bd f289 0f3e
00000320: ae27 fd3d ccc9 6bbd b0ee d33d b11f 313e
00000330: 8ea1 ea3d 1fef 203d 866c 873a 23ea b8bd
00000340: 4e57 0abd 1e6c adbd 76e0 603e 8311 093e
00000350: 3f93 ddbd 7df6 173e ef82 c33d b3d8 6d3e
00000360: c153 d8bd beaf f53b f37d 073e afdb 213e

lstm1.bias_hh_l0 f4 [220]
0.16844329 0.06064582 0.14452572 -0.07947458 0.040028203 -0.15122421 0.11601385 0.061663266
0.0074663195 0.12629957 0.11555307 0.06757278 -0.10467075 0.2938539 0.16871992 -0.14220928
0.37255064 0.049702667 -0.085255146 0.33451948 -0.036471818 0.15392832 0.12503766 0.00061739277
0.31154346 0.1178599 0.048236914 0.16058993 0.06700099 0.03595465 -0.05336024 0.03911373
0.011954416 -0.08415367 -0.113967635 0.064034685 -0.048580963 0.12712306 0.29504022 -0.049607377
0.11378158 0.19440252 -0.00985727 -0.10112526 -0.06171993 0.28392678 0.17934485 0.09150071
0.11739132 0.16977286 0.0918765 -0.11961207 0.046271108 0.12957227 0.0018712905 -0.13055263
-0.07792468 -0.052214086 0.010773202 -0.12932208 0.04695407 0.039224368 0.082824446 -0.02968873
-0.131962 0.015183796 0.0015495828 0.10109267 -0.047442403 -0.07110954 -0.007474669 0.09047696
0.0512447 -0.0068709874 0.02162054 0.028681362 0.032380562 -0.057546034 0.01341239 0.061662357
0.13182974 0.09836832 0.06800354 0.068169445 0.096137464 -0.09989495 -0.04098645 -0.07417956
-0.0032783123 0.12781608 -0.036458272 -0.118125714 0.037359584 0.13409886 -0.057329066 0.090722315
0.050201565 0.013591536 -0.115746625 0.084973596 0.09719268 -0.05732402 -0.1077645 -0.12563354
-0.09661985 0.116170585 0.09916846 -0.046387196 -0.045179076 -0.11884433 -0.08817266 0.024792062
0.09916537 0.1369501 -0.016646974 -0.0356283 -0.07804665 0.089261495 -0.07137554 -0.12872666
0.10096038 -0.17719556 -0.0039288336 -0.051164024 0.14524148 -0.12618858 -0.06772206 -0.057301912
0.098221056 -0.09445175 0.09582142 -0.09886243 -0.029795496 -0.06613855 -0.10039069 0.20186166
0.10954046 0.16929863 -0.1407878 0.1304664 -0.040500402 -0.040629435 -0.087124266 0.13194627
0.0031566871 -0.07629458 -0.111845836 -0.15350391 -0.024782483 -0.06033783 0.14962581 -0.085794576
-0.08503244 0.082452044 0.05613031 -0.14832374 0.087706715 -0.032230016 -0.07443231 -0.05940596
-0.0067824973 -0.014736496 0.10046245 0.10785983 0.08972372 0.16256617 0.07696468 -0.06407998
0.05688736 0.18543275 -0.042768314 0.036045432 -0.0119325975 0.050041888 0.20219715 -0.035070255
0.09611344 0.07138057 0.14354223 0.16447799 -0.11322087 0.255933 -0.12556249 0.0204786
0.31228474 0.019157551 0.2276545 0.028471416 0.1115308 0.21771377 0.1594263 0.084316805
0.07495597 0.0066709863 0.067146026 -0.117123805 -0.07818942 0.026068892 -0.065308586 0.086496666
0.04497812 -0.0053303977 0.10095206 0.14446418 0.07458934 -0.006590902 0.17666402 0.11824057
0.0028485693 0.03154644 0.2761395 0.13047947 -0.14216827 0.028249858 0.1870372 0.32326725
-0.08241517 0.14745171 0.20950906 0.054783516
00000000: 667c 2c3e c067 783d 8dfe 133e 92c3 a2bd
00000010: 9df4 233d 85da 1abe ab98 ed3d 9f92 7c3d
00000020: 07a8 f43b ad54 013e 17a7 ec3d 9963 8a3d
00000030: 9e5d d6bd 0574 963e eac4 2c3e 4f9f 11be
00000040: f5be be3e 0695 4b3d 409a aebd 2346 ab3e
00000050: 7963 15bd 639f 1d3e df09 003e 87d8 213a
00000060: a082 9f3e 8860 f13d 1294 453d b071 243e
00000070: d137 893d 2f45 133d 4490 5abd b835 203d
00000080: 74dc 433c c258 acbd dd67 e9bd 9e24 833d
00000090: d5fc 46bd 8c2c 023e 830f 973e 1b31 4bbd
000000a0: 5106 e93d 7411 473e 6380 21bc c31a cfbd
000000b0: 0ace 7cbd da5e 913e 2da6 373e b964 bb3d
000000c0: dc6a f03d f0d8 2d3e bf29 bc3d 2cf7 f4bd
000000d0: c686 3d3d 98ae 043e 1746 f53a 97af 05be
000000e0: fa96 9fbd 70de 55bd 1682 303c 026d 04be
000000f0: e952 403d bba9 203d dd9f a93d c835 f3bc
00000100: 0c21 07be 75c5 783c 5f1b cb3a ac09 cf3d
00000110: f752 42bd e1a1 91bd 11ee f4bb fc4b b93d
00000120: f6e5 513d 0526 e1bb 8f1d b13c 2df5 ea3c
00000130: 7ba1 043d 64b5 6bbd a4bf 5b3c ab91 7c3d
00000140: 60fe 063e 5475 c93d 7145 8b3d 6c9c 8b3d
00000150: b8e3 c43d b995 ccbd 68e1 27bd 74eb 97bd
00000160: f4d8 56bb 38e2 023e 4555 15bd e5eb f1bd
00000170: 5d06 193d 3651 093e e2d1 6abd 9fcc b93d
00000180: 28a0 4d3d 09af 5e3c 910c edbd a306 ae3d
00000190: f50c c73d 97cc 6abd a2b3 dcbd 14a6 00be
000001a0: a1e0 c5bd d8ea ed3d d518 cb3d 8000 3ebd
000001b0: b20d 39bd a864 f3bd de93 b4bd b918 cb3c
000001c0: 3717 cb3d a63c 0c3e 3c5f 88bc fbee 11bd
000001d0: ecd6 9fbd bbce b63d 572d 92bd ecd0 03be
000001e0: 51c4 ce3d c172 35be 72bd 80bb 5e91 51bd
000001f0: 2fba 143e 9437 01be ddb1 8abd 69b5 6abd
00000200: 1f28 c93d eb6f c1bd 053e c43d 6378 cabd
00000210: af15 f4bc a673 87bd a299 cdbd d3b4 4e3e
00000220: c056 e03d 9f5c 2d3e ad2a 10be fc98 053e
00000230: c0e3 25bd 0d6b 26bd 356e b2bd ec1c 073e
00000240: 6ce0 4e3b 5540 9cbd 6e0f e5bd 2130 1dbe
00000250: a204 cbbc cd24 77bd 8237 193e 11b5 afbd
00000260: 7d25 aebd 9edc a83d e5e8 653d 2ee2 17be
00000270: 949f b33d 9f03 04bd f86f 98bd aa53 73bd
00000280: b63f debb 5871 71bc 42bf cd3d 9de5 dc3d
00000290: 12c1 b73d bf77 263e a89f 9d3d 5d3c 83bd
000002a0: b802 693d 15e2 3d3e d42d 2fbd 60a4 133d
000002b0: f180 43bc b9f8 4c3d c50c 4f3e d4a5 0fbd
000002c0: 20d7 c43d fa2f 923d bcfc 123e eb6c 283e
000002d0: 58e0 e7bd a609 833e 7493 00be bdc2 a73c
000002e0: c9e3 9f3e 4cf0 9c3c 431e 693e e33c e93c
000002f0: 436a e43d 5cf0 5e3e a640 233e 4aae ac3d
00000300: 8482 993d 4a98 da3b db83 893d 9bde efbd
00000310: c621 a0bd 6e8e d53c 82c0 85bd 2a25 b13d
00000320: fa3a 383d 9eaa aebb f4bf ce3d 6bee 133e
00000330: 4cc2 983d 7ef8 d7bb 6ae7 343e 1d28 f23d
00000340: 10af 3a3b d736 013d 2862 8d3e 699c 053e
00000350: 8f94 11be 3f6c e73c ae86 3f3e 4983 a53e
00000360: 49c9 a8bd 95fd 163e 8b89 563e ae64 603d

lstm2.weight_ih_l0 f4 [128, 55]
-0.020202564 0.043318383 -0.042668115 -0.03071108 0.065911196 -0.2837284 -0.011091532 0.05159998
0.050294656 0.085380316 -0.12539919 0.044753004 0.051760443 0.23009747 -0.16078584 0.13760072
-0.42847636 0.055951297 -0.02817448 0.1650229 0.068191566 0.0017602306 -0.19054306 -0.15444405
0.14966567 -0.19965063 0.10328833 -0.04310901 -0.1858153 0.014733517 0.22064543 0.033422727
0.12414223 -0.15428084 0.63203996 0.05645596 0.05789505 0.09568837 -0.0142728845 0.008988953
-0.08488183 -0.30977422 -0.06314002 -0.17366284 0.14151672 0.09934897 0.07313172 -0.12873963
-0.0666659 0.028433807 0.14044176 0.10630926 0.29227325 0.09563414 -0.038623024 0.008993125
-0.03275686 -0.19405906 0.10481022 -0.20743413 0.0046839695 0.09223399 0.1046179 -0.12434083
-0.067709535 -0.013184256 0.2171856 -0.026151806 0.1647036 0.20481719 -0.06652396 -0.0859649
-0.02906984 -0.11299169 -0.1229944 -0.17137975 -0.03232797 -0.17184012 -0.0046210513 0.17261222
-0.101771474 -0.12013271 0.1168312 -0.48265594 -0.029984687 0.1404441 0.19020568 -0.021808367
-0.12344151 0.31701282 -0.23092395 -0.028373467 -0.15884422 0.1082416 0.073223926 -0.096362844
-0.008056806 -0.10505789 0.09059055 0.058484916 0.076017536 -0.1200774 0.11219943 -0.14524275
-0.055658597 0.08449775 0.17559034 -0.18140332 0.08269988 -0.19859429 -0.0012005263 -0.02673695
-0.2376035 -0.057827495 0.23619866 -0.2577306 0.20657903 -0.24517816 -0.0013140531 0.2555058
0.052007332 0.03636954 0.028940754 0.37277117 -0.13269824 0.06424841 -0.3315936 -0.008951401
0.10850571 0.019362722 -0.11686912 -0.62304115 -0.1044265 -0.2835899 -0.71010625 0.432483
0.036343288 -0.37263548 -0.29460418 -0.08045758 0.40740559 0.14960605 0.24037574 0.096943505
0.19798744 0.07977429 -0.12209096 0.3946492 0.10050353 -0.27047873 0.07618468 -0.14164305
0.09070783 -0.38396484 0.30420816 0.48654488 -0.15028365 -0.21244247 -0.53703827 -0.23401485
-0.105298 -0.02378621 0.20552483 0.15529984 0.14677215 0.19610077 0.026882067 -0.011993954
-0.09316039 0.15610819 0.1042486 -0.052961357 0.09603016 -0.08535352 -0.38827065 0.19505815
0.018920645 0.028755805 0.024751713 0.3479887 -0.09465449 -0.70732903 0.09911051 0.13362895
0.25958553 0.00339305 -0.15912724 -0.11693209 -0.12453607 0.18287206 -0.008025183 0.16690093
0.26042825 -0.19895457 0.030560438 0.25388834 -0.0412563 0.029083079 -0.061045095 0.2557618
0.010915845 -0.0021967678 0.086521015 -0.19653907 -0.12384421 -0.23573399 -0.100456946 -0.17084238
0.053040106 0.07980492 -0.23634715 0.19142869 -0.101483494 -0.13936102 -0.12219739 -0.074273586
-0.31246156 -0.26256523 -0.1277662 0.060375758 -0.29975852 -0.024186768 -0.04440059 -0.3227208
0.09166387 -0.18814673 0.21237981 0.0592247 0.33846313 0.20427269 0.11860453 0.029702347
-0.086585306 -0.03401609 -0.17037274 0.13943869 -0.022429502 -0.0030499315 -0.14012685 -0.22569886
0.0088968985 0.3602486 0.022802817 -0.3426897 -0.16274677 0.3994782 -0.0483244 0.12875955
0.34044954 -0.08387456 -0.04457556 0.16609861 -0.074866444 -0.30945924 0.36153525 -0.02639522
00000000: d97f a5bc 9e6e 313d c3c4 2ebd ce95 fbbc
00000010: 73fc 863d d944 91be 42b9 35bc 805a 533d
00000020: c501 4e3d e0db ae3d a568 00be ed4e 373d
00000030: c202 543d ac9e 6b3e 0ba5 24be 34e7 0c3e
00000040: 4161 dbbe 302d 653d 2bce e6bc c3fb 283e
00000050: 05a8 8b3d 8ab7 e63a b81d 43be 9526 1ebe
00000060: f541 193e 3771 4cbe d588 d33d 1393 30bd
00000070: 5e46 3ebe d964 713c e0f0 613e 45e6 083d
00000080: 483e fe3d ccfb 1dbe 5fcd 213f 5d3e 673d
00000090: 5c23 6d3d 44f8 c33d d1d8 69bc 6746 133c
000000a0: 86d6 adbd ba9a 9ebe 8e4f 81bd acd4 31be
000000b0: c2e9 103e 7977 cb3d 15c6 953d 52d4 03be
000000c0: 2288 88bd 04ee e83c f7cf 0f3e abb8 d93d
000000d0: d7a4 953e d5db c33d 2d33 1ebd e657 133c
000000e0: 0f2c 06bd 6bb7 46be bea6 d63d 9d69 54be
000000f0: fc7b 993b 2de5 bc3d e941 d63d 68a6 febd
00000100: 4cab 8abd c702 58bc e765 5e3e 503c d6bc
00000110: 0fa8 283e 99bb 513e b73d 88bd 5e0e b0bd
00000120: e023 eebc 3068 e7bd 7de4 fbbd 2c7e 2fbe
00000130: 556a 04bd dbf6 2fbe 306c 97bb 42c1 303e
00000140: 906d d0bd 2308 f6bd 3245 ef3d ae1e f7be
00000150: 72a2 f5bc 94d0 0f3e 47c5 423e 76a7 b2bc
00000160: e7ce fcbd 814f a23e 5477 6cbe 796f e8bc
00000170: 0fa8 22be c6ad dd3d 6df6 953d e259 c5bd
00000180: b200 04bc 9728 d7bd 8a87 b93d e18d 6f3d
00000190: 15af 9b3d 24eb f5bd d1c8 e53d 84ba 14be
000001a0: 45fa 63bd 280d ad3d f4cd 333e cbc1 39be
000001b0: 8e5e a93d 4d5c 4bbe fa5a 9dba 7307 dbbc
000001c0: 554e 73be 86dc 6cbd 10de 713e 44f5 83be
000001d0: 7489 533e fc0f 7bbe 4e3c acba a8d1 823e
000001e0: a405 553d 3af8 143d 2915 ed3c dddb be3e
000001f0: 0ce2 07be ac94 833d a3c6 a9be e6a8 12bc
00000200: 3e38 de3d 929e 9e3c 1459 efbd a07f 1fbf
00000210: 90dd d5bd b232 91be 86c9 35bf 696e dd3e
00000220: b3dc 143d 14ca bebe 5cd6 96be f2c6 a4bd
00000230: 7797 d03e 5432 193e 0f25 763e 518a c63d
00000240: 38bd 4a3e b460 a33d d30a fabd 760f ca3e
00000250: cbd4 cd3d 307c 8abe b706 9c3d e00a 11be
00000260: 07c5 b93d 0a97 c4be 2cc1 9b3e 691c f93e
00000270: f5e3 19be 858a 59be 577b 09bf 97a1 6fbe
00000280: 7aa6 d7bd 4cdb c2bc 1a75 523e ec06 1f3e
00000290: 704b 163e a4ce 483e c837 dc3c 4a82 44bc
000002a0: e0ca bebd d3da 1f3e 4a80 d53d 02ee 58bd
000002b0: 76ab c43d d4cd aebd 69cb c6be 53bd 473e
000002c0: 78ff 9a3c 4b91 eb3c 1bc4 ca3c 932b b23e
000002d0: 37da c1bd 8413 35bf 73fa ca3d 07d6 083e
000002e0: 65e8 843e ef5d 5e3b 40f2 22be 177a efbd
000002f0: c40c ffbd d042 3b3e 0f7c 03bc 14e8 2a3e
00000300: da56 853e bfba 4bbe e259 fa3c a7fd 813e
00000310: 5efc 28bd a33f ee3c 6c0a 7abd 36f3 823e
00000320: 5fd8 323c a6f7 0fbb ee31 b13d 8a41 49be
00000330: 08a2 fdbd 4064 71be 5fbc cdbd 4ef1 2ebe
00000340: 9540 593d c370 a33d fd04 72be e205 443e
00000350: 94d6 cfbd a8b4 0ebe a042 fabd c01c 98bd
00000360: f6fa 9fbe f36e 86be 25d5 02be 924c 773d
00000370: f379 99be 5423 c6bc 65dd 35bd a93b a5be
00000380: 44ba bb3d 89a9 40be 187a 593e 9995 723d
00000390: 0a4b ad3e dc2c 513e efe6 f23d 5652 f33c
000003a0: a353 b1bd 7554 0bbd 3176 2ebe 04c9 0e3e
000003b0: 13be b7bc 5ce1 47bb 6a7d 0fbe 9a1d 67be
000003c0: 4cc4 113c 8172 b83e f9cc ba3c 0675 afbe
000003d0: 17a7 26be 6888 cc3e ceef 45bd 8bd9 033e
000003e0: 674f ae3e 6dc6 abbd dd94 36bd c115 2a3e
000003f0: 9453 99bd 7171 9ebe 261b b93e ca3a d8bc

lstm2.weight_hh_l0 f4 [128, 32]
0.16682185 0.0049298326 -0.007715908 0.12944323 -0.039820235 0.039143085 -0.11889655 -0.021412516
0.09158579 0.09402256 -0.11743402 0.16658095 -0.101782784 0.17593606 0.11905456 -0.040697142
-0.15884152 -0.0066383816 -0.17310946 0.1256883 0.1594064 -0.16645691 -0.04461305 0.06935399
0.111528486 -0.029526249 0.016897494 -0.056281403 -0.063408054 0.12941696 -0.047054004 -0.088589154
-0.1376415 -0.17058507 -0.116714485 0.0020651955 0.00092050823 -0.09464313 0.045682274 -0.113654874
0.14914331 -0.0034531543 0.0949987 -0.16536993 0.12810263 -0.13940154 0.13567515 -0.05176969
-0.10792423 0.17365892 0.119422205 -0.13880894 0.026670525 -0.15550354 0.015434091 0.04107166
-0.13767824 0.07634166 0.052248962 0.027331535 0.12181252 0.0843813 -0.05901507 -0.11670053
-0.026073158 0.16125382 0.07639862 -0.14076358 0.051150996 -0.0068780496 0.16757098 0.10625789
0.13557857 0.14150089 0.044527955 0.10924343 0.10239671 -0.04332772 0.010144978 0.116875336
0.018096212 0.03688081 0.16484761 -0.003364035 0.17600703 -0.0022663625 -0.13873157 -0.10433288
0.11349067 -0.059451986 -0.1494643 -0.049665086 0.05479617 -0.064847775 -0.01385133 -0.1322104
-0.16668296 -0.1224921 0.039833806 -0.16467069 -0.06764506 -0.10530533 0.053040903 0.16045885
-0.11348681 -0.06144454 -0.061342902 -0.16632174 0.009800217 0.13291417 0.02582862 0.03915851
-0.14561401 0.13436487 -0.089852884 0.090439446 0.04968435 -0.066948265 -0.053650808 -0.13188061
0.07049642 0.17478164 0.042237654 0.16711025 -0.16294427 0.021939205 -0.13647358 0.08311752
0.03548141 -0.06529988 -0.14436808 -0.10306645 0.14150956 0.008192757 0.16801567 0.05336225
-0.091396116 0.17096908 -0.08325941 -0.028537672 0.15851857 -0.03432395 -0.078586124 -0.060060795
0.021127814 0.13528249 0.04387333 0.05943363 -0.16170669 0.15151194 -0.06943542 0.016822113
-0.084385954 -0.0021892549 0.002863773 -0.1600987 -0.09066069 0.03309695 0.013851456 0.008133499
0.070786454 0.07926109 0.059370346 -0.0065772263 0.03001964 0.09027899 -0.06730076 0.16725126
-0.098739676 -0.06556414 -0.15956193 0.13835116 -0.16729374 0.038148187 -0.025919406 0.03197987
0.17113863 -0.073722824 0.1182387 -0.011328652 0.11406458 -0.012518289 0.16933458 0.013144401
0.15844226 -0.007059323 -0.09611839 0.1504513 -0.07350585 -0.109577276 -0.0076849507 -0.025809761
0.10135052 -0.1662763 0.10252457 -0.1462713 -0.16767599 -0.034875274 -0.07296007 -0.07633344
0.005265153 0.17136438 -0.07216267 0.13755642 -0.1224501 -0.05222338 -0.06921381 0.11078626
-0.15034115 -0.11411678 -0.07873421 -0.1019409 0.00052765745 0.093356915 -0.15387544 0.008710215
0.12347577 -0.014207323 -0.03868558 -0.12823649 -0.14612827 -0.15676458 0.16731319 0.1641552
-0.1447379 0.10614888 -0.16816546 0.14530809 0.01819313 0.073942006 -0.1728453 -0.14599942
-0.050202206 0.15479042 0.1283016 -0.015300064 0.11036156 0.115913756 0.1228906 0.12678511
0.060194865 -0.13338485 -0.05272316 0.023009587 0.12294815 0.10995295 0.022406613 0.07884879
0.08820092 0.032929458 -0.09163435 0.06740073 -0.12628236 -0.06542306 0.12534808 0.0073183575
00000000: 59d3 2a3e 6f8a a13b bad5 fcbb c48c 043e
00000010: 8b1a 23bd 8054 203d 0980 f3bd 4d69 afbc
00000020: 5591 bb3d e68e c03d 3f81 f0bd 3294 2a3e
00000030: 7e73 d0bd 9528 343e e1d2 f33d 0cb2 26bd
00000040: 5aa7 22be c886 d9bb 9b43 31be 6fb4 003e
00000050: 6e3b 233e ae73 2abe 2cbc 36bd 7709 8e3d
00000060: 0c69 e43d 08e1 f1bc 9d6c 8a3c 5487 66bd
00000070: 15dc 81bd e185 043e b3bb 40bd 3b6e b5bd
00000080: e5f1 0cbe daad 2ebe 0108 efbd 3b58 073b
00000090: 434e 713a 42d4 c1bd 561d 3b3d e3c3 e8bd
000000a0: 06b9 183e 514e 62bb ae8e c23d bc56 29be
000000b0: 562d 033e 47bf 0ebe 6dee 0a3e 740c 54bd
000000c0: 6107 ddbd a5d3 313e a193 f43d ee23 0ebe
000000d0: 257c da3c 523c 1fbe 45df 7c3c c23a 283d
000000e0: 86fb 0cbe 0459 9c3d 0203 563d 62e6 df3c
000000f0: d878 f93d 1ad0 ac3d c9b9 71bd b000 efbd
00000100: 6097 d5bc b91f 253e e176 9c3d 5424 10be
00000110: b583 513d 4361 e1bb ba97 2b3e bd9d d93d
00000120: 1cd5 0a3e 9ce5 103e f262 363d 05bb df3d
00000130: 5eb5 d13d 6878 31bd 1f37 263c 565c ef3d
00000140: 823e 943c 5510 173d d0cd 283e 2477 5cbb
00000150: 303b 343e 4187 14bb a60f 0ebe 7aac d5bd
00000160: cc6d e83d ed83 73bd 2b0d 19be 9e6d 4bbd
00000170: f371 603d e9ce 84bd b0f0 62bc 2a62 07be
00000180: f0ae 2abe 23dd fabd c628 233d 6f9f 28be
00000190: 7e89 8abd 52aa d7bd 6b41 593d 534f 243e
000001a0: c66b e8bd 45ad 7bbd b242 7bbd 3f50 2abe
000001b0: 1791 203c a71a 083e 8b96 d33c ac64 203d
000001c0: d71b 15be f296 093e ca04 b8bd 5138 b93d
000001d0: d181 4b3d 2c1c 89bd f3c0 5bbd b60b 07be
000001e0: 6d60 903d f5f9 323e 6401 2d3d f31e 2b3e
000001f0: ddda 26be d9b9 b33c bbbf 0bbe 8539 aa3d
00000200: f454 113d f2bb 85bd 3ad5 13be 8114 d3bd
00000210: e2e7 103e ea3a 063c 4d0c 2c3e 6092 5a3d
00000220: e32d bbbd 8512 2f3e e983 aabd d6c7 e9bc
00000230: b152 223e 4597 0cbd c3f1 a0bd 4f02 76bd
00000240: 3d14 ad3c 7e87 0a3e 85b4 333d ae70 733d
00000250: 7096 25be f225 1b3e 2834 8ebd 87ce 893c
00000260: 8bd2 acbd 9a79 0fbb 23ae 3b3b eaf0 23be
00000270: 50ac b9bd ab90 073d 38f1 623c 5e42 053c
00000280: 7df8 903d a353 a23d 522e 733d c685 d7bb
00000290: c0eb f53c 31e4 b83d fbd4 89bd ea43 2b3e
000002a0: 0738 cabd 7e46 86bd 3464 23be edab 0d3e
000002b0: 0d4f 2bbe 4641 1c3d ef54 d4bc 53fd 023d
000002c0: f73e 2f3e fefb 96bd 2227 f23d cf9b 39bc
000002d0: b19a e93d 8219 4dbc 0b66 2d3e 9d5b 573c
000002e0: b03e 223e e551 e7bb b8d9 c4bd e80f 1a3e
000002f0: 3c8a 96bd 0d6a e0bd 0ad2 fbbb fe6e d3bc
00000300: dd90 cf3d 5644 2abe 67f8 d13d 25c8 15be
00000310: 41b3 2bbe 60d9 0ebd 176c 95bd b554 9cbd
00000320: 4e87 ac3b 257a 2f3e 06ca 93bd 97db 0c3e
00000330: 1ec7 fabd 2fe8 55bd f8bf 8dbd e8e3 e23d
00000340: 08f3 19be 0fb6 e9bd 673f a1bd 64c6 d0bd
00000350: 7e52 0a3a e931 bf3d 8691 1dbe 4ab5 0e3c
00000360: dde0 fc3d d5c5 68bc c574 1ebd 6d50 03be
00000370: a6a2 15be e586 20be 2654 2b3e 4d18 283e
00000380: 2c36 14be 9664 d93d 9133 2cbe a5cb 143e
00000390: c209 953c e86e 973d 5cfe 30be df80 15be
000003a0: d4a0 4dbd 6181 1e3e 7f61 033e 1fad 7abc
000003b0: 3e05 e23d 3164 ed3d 11ae fb3d f5d3 013e
000003c0: e48e 763d 0a96 08be 3df4 57bd 9a7e bc3c
000003d0: 3dcc fb3d 032f e13d 138e b73c 797b a13d
000003e0: afa2 b43d 0ae1 063d caaa bbbd 6509 8a3d
000003f0: 2a50 01be 86fc 85bd 3f5b 003e d5ce ef3b

lstm2.bias_ih_l0 f4 [128]
0.055616025 0.041419804 0.035887524 0.016570933 -0.010268852 0.24108808 0.13218196 -0.009908859
-0.07063641 0.17581241 0.2915937 0.13243924 0.14142127 0.1489915 0.1884589 0.22687992
0.107541785 0.091880694 0.17545572 -0.023653211 0.04453706 0.04796886 0.21038993 -0.094601385
-0.07560506 -0.15323322 -0.013344384 -0.06084781 -0.114534885 -0.014916172 0.117840834 0.20916069
0.02985883 -0.019456292 0.11764953 -0.01474164 0.10023774 -0.073649995 0.0030665626 0.06388841
-0.17053056 0.031291444 -0.023126988 0.038661744 -0.018151298 0.056895886 -0.00079560606 0.08173917
0.15697128 0.1586088 0.13221116 -0.13243376 0.03503878 -0.07739036 -0.122991204 0.0028403604
-0.04232926 0.16527063 0.1345136 -0.16565047 0.07934635 0.095757805 -0.10708481 -0.043082573
0.09622473 0.24648455 -0.17669562 0.13390966 0.0044176877 -0.1965635 -0.0018226011 0.01762741
-0.07308255 -0.13050199 0.08436836 -0.10742368 -0.013142203 -0.22484085 -0.043662798 0.08476697
0.056290865 -0.11032347 -0.19821595 0.147974 -0.019452164 0.032724913 -0.02121764 -0.031725377
0.11178384 -0.07163924 0.12313468 0.15832397 -0.04560828 -0.038275313 -0.024734015 0.15466975
0.05375674 -0.053591847 -0.019120362 -0.053277764 0.058998242 -0.09594588 0.0072609615 0.049552873
0.12410905 0.18081355 0.30628994 0.12255441 -0.005343973 -0.027422573 0.07504441 0.014967655
0.20354342 -0.13671039 0.046697125 0.11257433 0.15650228 0.026058873 0.024856508 -0.009136838
-0.040437758 -0.22580598 0.15763566 -0.12786485 -0.042455763 0.049316797 0.059121665 0.08726977
00000000: a1cd 633d d0a7 293d ccfe 123d c4bf 873c
00000010: b03e 28bc cbdf 763e b55a 073e c458 22bc
00000020: d2a9 90bd 2b08 343e c54b 953e 279e 073e
00000030: bdd0 103e 3a91 183e 5ffb 403e 3653 683e
00000040: de3e dc3d f22b bc3d aaaa 333e 61c4 c1bc
00000050: 7e6c 363d ff7a 443d 7570 573e 5fbe c1bd
00000060: d3d6 9abd 2be9 1cbe 67a2 5abc 8e3b 79bd
00000070: 4491 eabd f662 74bc 8956 f13d 382e 563e
00000080: 819a f43c cd62 9fbc 3df2 f03d eb86 71bc
00000090: 7249 cd3d cfd5 96bd 62f8 483b edd7 823d
000000a0: 909f 2ebe 752b 003d cf74 bdbc c75b 1e3d
000000b0: 08b2 94bc a90b 693d 3890 50ba de66 a73d
000000c0: 14bd 203e 586a 223e 5d62 073e b79c 07be
000000d0: d384 0f3d d67e 9ebd d0e2 fbbd 5725 3a3b
000000e0: 7261 2dbd b43c 293e efbd 093e 47a0 29be
000000f0: 5780 a23d ab1c c43d 484f dbbd 5a77 30bd
00000100: 7911 c53d 7266 7c3e b2ef 34be 9d1f 093e
00000110: 40c2 903b f147 49be 58e4 eeba 5c67 903c
00000120: 4eac 95bd 50a2 05be 52c9 ac3d f200 dcbd
00000130: 6552 57bc ae3c 66be c3d7 32bd 4e9a ad3d
00000140: 4091 663d 45f1 e1bd 1ff9 4abe 7f86 173e
00000150: 255a 9fbc 8f0a 063d 9ed0 adbc 78f2 01bd
00000160: edee e43d 98b7 92bd 092e fc3d ae1f 223e
00000170: bfcf 3abd 93c6 1cbd fd9e cabc bf61 1e3e
00000180: 0730 5c3d 2083 5bbd 4ea2 9cbc c939 5abd
00000190: 24a8 713d 467f c4bd 5ced ed3b f4f7 4a3d
000001a0: e32c fe3d 3027 393e 09d2 9c3e cefd fa3d
000001b0: 7f1c afbb 4ea5 e0bc e2b0 993d e53a 753c
000001c0: b06d 503e cffd 0bbe 7c45 3f3d 5f8d e63d
000001d0: 2242 203e 6b79 d53c e09f cb3c adb2 15bc
000001e0: 10a2 25bd af39 67be 3e6b 213e 01ef 02be
000001f0: 18e6 2dbd 6900 4a3d 8f29 723d 7eba b23d

lstm2.bias_hh_l0 f4 [128]
0.19365829 -0.05953314 0.08588613 0.19702141 -0.011153651 -0.067219324 0.05927111 0.029335318
-0.06940989 -0.021057693 0.1997639 -0.010941887 0.099124536 0.17274308 0.105220124 0.31155547
0.14868835 0.008040142 0.09683521 0.03274123 -0.08022103 0.016571445 -0.045436516 0.16306223
-0.007315059 0.05840178 0.164029 -0.07558587 0.09456812 -0.13701896 0.07052419 0.17598802
0.044446696 -0.102840714 -0.07753454 0.041438192 0.11866435 0.08314684 0.13248406 0.12113202
-0.028689507 -0.026094904 0.1425534 0.15483312 0.14138721 -0.17290896 -0.04862899 0.07413858
-0.11514643 0.073255375 0.0034003234 0.17490788 -0.07509729 -0.16788106 0.06956264 -0.0520589
0.012774878 -0.1669436 0.08434191 0.019760719 -0.04233301 0.108175255 0.03589017 -0.08187095
0.18053977 0.189085 -0.023756687 0.11818445 0.10434248 -0.25742278 0.09900897 0.030847041
-0.04269 -0.18202099 -0.0036191193 0.12983532 0.06778474 -0.22960511 -0.16578943 -0.14707716
-0.0023606909 -0.048999075 -0.059368737 0.14141898 -0.09147383 -0.15218024 -0.13463384 0.047488373
-0.035793502 0.1416025 0.27696356 -0.052613024 0.004868759 0.037662435 -0.15571043 0.14402972
0.22973341 -0.0932749 -0.026655663 0.16761068 -0.08449009 0.12919252 -0.037463076 -0.09203841
0.13436423 0.19227985 0.1909805 0.17396824 0.16684575 0.1801142 0.2307288 0.1334534
-0.06159082 0.016989639 0.15793718 0.13160694 -0.06447393 0.06451625 0.14480159 -0.06138555
0.17625837 -0.14855473 -0.059341785 0.11979192 -0.017032245 -0.15056002 -0.14647844 0.0016084836
00000000: 5c4e 463e 06d9 73bd 11e5 af3d fbbf 493e
00000010: cebd 36bc 49aa 89bd 43c6 723d 9f50 f03c
00000020: c626 8ebd 2f81 acbc e88e 4c3e 9a45 33bc
00000030: ce01 cb3d 90e3 303e a67d d73d 3384 9f3e
00000040: c241 183e cdba 033c 8a51 c63d ab1b 063d
00000050: ec4a a4bd d7c0 873c a41b 3abd c9f9 263e
00000060: 2ab3 efbb b436 6f3d 38f7 273e c4cc 9abd
00000070: eeac c13d b34e 0cbe fd6e 903d 3436 343e
00000080: bd0d 363d 279e d2bd 6eca 9ebd 18bb 293d
00000090: 4b06 f33d e448 aa3d e7a9 073e 1114 f83d
000000a0: 4206 ebbc fbc4 d5bc 85f9 113e 938c 1e3e
000000b0: cfc7 103e 0c0f 31be 312f 47bd f8d5 973d
000000c0: e4d1 ebbd ea06 963d f6d7 5e3b 0d1b 333e
000000d0: 9ccc 99bd 03e9 2bbe db76 8e3d b73b 55bd
000000e0: b94d 513c 43f3 2abe 74bb ac3d 3be1 a13c
000000f0: 6165 2dbd fd8a dd3d 9201 133d f5ab a7bd
00000100: 6bdf 383e 809f 413e 629d c2bc b00a f23d
00000110: 83b1 d53d ebcc 83be 37c5 ca3d efb2 fc3c
00000120: b6db 2ebd b663 3abe bf2e 6dbb 8df3 043e
00000130: bad2 8a3d 9a1d 6bbe b4c4 29be 659b 16be
00000140: d2b5 1abb 41b3 48bd a22c 73bd 23d0 103e
00000150: a256 bbbd 23d5 1bbe 74dd 09be 2b83 423d
00000160: 359c 12bd 3f00 113e 2bce 8d3e c180 57bd
00000170: 1c8a 9f3b ed43 1a3d 8e72 1fbe 877c 133e
00000180: 3c3f 6b3e e906 bfbd fa5c dabc 22a2 2b3e
00000190: 2409 adbd 0b4b 043e e272 19bd a27e bcbd
000001a0: c796 093e 02e5 443e 6490 433e bb24 323e
000001b0: 9dd9 2a3e db6f 383e 2c44 6c3e 02a8 083e
000001c0: a846 7cbd db2d 8b3c 49ba 213e f8c3 063e
000001d0: e80a 84bd 1821 843d de46 143e 6a6f 7bbd
000001e0: 137d 343e bb1e 18be 5f10 73bd 7755 f53d
000001f0: 3587 8bbc 682c 1abe 72fe 15be c1d3 d23a

features.0.weight f4 [24, 32]
-0.12106442 -0.20186797 0.09727249 -0.09142628 0.3137496 -0.033114307 0.14490591 -0.16607496
-0.017679343 -0.083945505 -0.033517316 -0.14663525 0.102838546 -0.012444936 0.08745079 -0.04860042
-0.176865 0.15880553 0.014687521 0.17707403 -0.12594591 0.21352322 0.17233936 0.19731122
-0.17631736 -0.012513871 -0.011878889 -0.01903898 -0.30943158 -0.030000499 0.30117217 0.035789482
0.03834597 -0.1750887 -0.07260324 -0.12408089 0.17343612 0.13140662 0.19147064 -0.19426467
0.012934278 0.0830913 -0.13133782 -0.15068212 0.08184832 0.02227143 0.18599628 -0.09712312
-0.22995932 0.102889106 -0.07640538 -0.06693183 0.010349239 0.058077045 0.07550281 0.22087564
-0.00302571 -0.1309022 -0.25809032 -0.10461465 -0.13964923 0.013920935 0.17859526 -0.24227557
-0.06543172 0.01585213 -0.12192942 -0.20411013 0.1264697 0.25134203 0.0032516364 -0.16356543
0.13210846 -0.036969516 -0.10664892 0.030440886 -0.1689161 0.107781634 0.21094728 -0.07881827
-0.17143366 0.08169381 0.023363698 -0.019396083 -0.026495727 0.15596603 0.21934636 0.16181341
-0.16539863 -0.21155824 -0.33470643 -0.26472944 -0.2734942 -0.028884975 0.21186267 -0.15343471
-0.04531247 -0.012171036 -0.07525801 -0.04460132 0.22320881 0.22070949 0.12726901 -0.04889822
0.18908224 0.16467646 -0.015704772 -0.034517173 -0.13186082 0.17483877 0.34053168 -0.113983594
-0.08689617 0.17100173 0.07499454 -0.13603032 -0.22747497 -0.01767914 0.11835817 0.18294853
-0.12253871 -0.17390248 -0.26365337 -0.07684189 -0.25186083 0.03723899 -0.0582597 -0.19415472
0.0999118 -0.13294414 -0.17781276 -0.056800134 0.16051647 0.2401329 0.09196597 -0.10682913
0.13579503 0.05362142 -0.08957579 -0.18321618 -0.075228944 0.23531535 0.32141626 -0.042318083
-0.14320682 0.16811405 0.19877927 -0.15006317 -0.003044672 0.12533858 -0.007742558 0.00787449
0.10874046 -0.2769288 -0.26144177 -0.22108471 -0.26972607 0.11603724 0.06924003 -0.12146435
0.060981378 -0.18300791 -0.20302136 -0.21798679 0.15834312 0.13054542 0.090737686 0.09393248
0.13564956 0.14693302 -0.094554424 -0.08912317 -0.09804538 0.1782956 0.12502228 -0.076188035
-0.23717062 0.26910144 0.13275766 -0.21107614 -0.15310703 0.059550222 0.19504914 0.017333642
-0.1351012 -0.28861398 -0.13951893 -0.018125467 -0.17575577 0.08629485 0.06817088 -0.28920874
0.02282116 -0.08354095 -0.28623182 -0.22182813 0.19229445 0.17779687 -0.08271159 0.042527054
0.039719164 0.11261337 -0.013837991 -0.1301372 -0.122140534 0.21530569 0.19984324 0.035131786
-0.009226543 0.13930854 0.16186939 0.07252025 -0.09469474 0.089313425 0.29564372 0.03251105
-0.09940243 -0.33568153 -0.06120164 -0.18718944 -0.06806548 0.3282286 0.116640076 -0.19730599
-0.09991205 -0.27130464 -0.1665606 -0.28928405 0.13139617 0.34146872 -0.10810477 -0.13768952
0.07276222 0.19040473 0.22413084 0.18868662 -0.028043635 0.34560892 0.07379909 0.09777642
-0.061858855 0.28036785 0.22732759 -0.2186561 -0.1541157 0.15992424 0.21883705 0.2055727
0.08047647 -0.2864353 0.03284133 -0.13240874 0.14185221 0.26041898 -0.060976945 -0.077854134
00000000: 9ff0 f7bd 7ab6 4ebe cd36 c73d b43d bbbd
00000010: caa3 a03e dea2 07bd 3762 143e 8e0f 2abe
00000020: 45d4 90bc 9feb abbd 7449 09bd 8d27 16be
00000030: 049d d23d d8e5 4bbc 6619 b33d 3c11 47bd
00000040: 191c 35be eb9d 223e eea3 703c e552 353e
00000050: f7f7 00be d5a5 5a3e bb79 303e f40b 4a3e
00000060: 8a8c 34be fb06 4dbc ac9f 42bc a3f7 9bbc
00000070: d16d 9ebe 9bc3 f5bc 3d33 9a3e fe97 123d
00000080: aa10 1d3d 744a 33be 02b1 94bd 1f1e febd
00000090: 3d99 313e 758f 063e e110 443e 51ed 46be
000000a0: 4bea 533c c62b aa3d 6c7d 06be 6a4c 1abe
000000b0: 18a0 a73d 9372 b63c cf75 3e3e 7de8 c6bd
000000c0: 757a 6bbe 86b7 d23d 6d7a 9cbd 8e13 89bd
000000d0: db8f 293c 32e2 6d3d 38a1 9a3d 392d 623e
000000e0: fd4a 46bb 3a0b 06be 6a24 84be 3540 d6bd
000000f0: 3500 0fbe a214 643c ade1 363e 1617 78be
00000100: 1101 86bd 53dc 813c 22b6 f9bd 3f02 51be
00000110: 4681 013e e7af 803e 6819 553b b27d 27be
00000120: 7147 073e 596d 17bd c06a dabd 2a5f f93c
00000130: 58f8 2cbe 9ebc dc3d 9002 583e 796b a1bd
00000140: 4e8c 2fbe 164f a73d 3a65 bf3c 89e4 9ebc
00000150: 910d d9bc 8fb5 1f3e 559c 603e 6ab2 253e
00000160: 425e 29be b9a2 58be a45e abbe 9e8a 87be
00000170: 6f07 8cbe 2fa0 ecbc 87f2 583e fd1d 1dbe
00000180: 9299 39bd 0669 47bc df20 9abd e0af 36bd
00000190: da90 643e ab01 623e cf52 023e 8049 48bd
000001a0: c69e 413e f2a0 283e 4ba7 80bc e161 0dbd
000001b0: 8606 07be ef08 333e 2b5a ae3e 3b70 e9bd
000001c0: 9ff6 b1bd 141b 2f3e bd96 993d 884b 0bbe
000001d0: 33ef 68be d8d3 90bc c565 f23d dc56 3b3e
000001e0: 93f5 fabd 7e13 32be 93fd 86be 485f 9dbd
000001f0: e7f3 80be e987 183d b9a1 6ebd 7fd0 46be
00000200: 8f9e cc3d 8222 08be 8c14 36be 42a7 68bd
00000210: 6e5e 243e 66e5 753e a858 bc3d 3bc9 dabd
00000220: da0d 0b3e 22a2 5b3d 8373 b7bd 069d 3bbe
00000230: a211 9abd 82f6 703e ac90 a43e ba55 2dbd
00000240: cfa4 12be 1726 2c3e cb8c 4b3e 29aa 19be
00000250: 1f89 47bb c258 003e 49b5 fdbb 0104 013c
00000260: 51b3 de3d 9dc9 8dbe b2db 85be 0864 62be
00000270: 8919 8abe efa4 ed3d b8cd 8d3d 4dc2 f8bd
00000280: 9cc7 793d 6d66 3bbe d5e4 4fbe ee37 5fbe
00000290: b324 223e b3ad 053e aed4 b93d ac5f c03d
000002a0: b8e7 0a3e 9c75 163e c0a5 c1bd 3586 b6bd
000002b0: 04cc c8bd 1f93 363e d705 003e 7908 9cbd
000002c0: dbdc 72be aac7 893e a0f1 073e 5824 58be
000002d0: 17c8 1cbe efea 733d f6ba 473e 48ff 8d3c
000002e0: f857 0abe 36c5 93be 0dde 0ebe dc7b 94bc
000002f0: 52f9 33be 5bbb b03d 2d9d 8b3d 2b13 94be
00000300: 71f3 ba3c 8517 abbd fa8c 92be ea26 63be
00000310: d6e8 443e 6210 363e b264 a9bd d930 2e3d
00000320: 90b0 223d d7a1 e63d beb8 62bc b042 05be
00000330: d124 fabd 1879 5c3e b5a3 4c3e 59e6 0f3d
00000340: ed2a 17bc e6a6 0e3e 17c1 253e 7f85 943d
00000350: 51ef c1bd f5e9 b63d 9d5e 973e 4f2a 053d
00000360: 8093 cbbd 73de abbe 92ae 7abd 97ae 3fbe
00000370: ea65 8bbd 940d a83e fee0 ee3d 950a 4abe
00000380: b09e ccbd 71e8 8abe dd8e 2abe 0a1d 94be
00000390: b88c 063e fdd4 ae3e 0966 ddbd 7bfe 0cbe
000003a0: 5c04 953d 75f9 423e 8e82 653e 1137 413e
000003b0: c4bb e5bc a7f3 b03e fa23 973d 013f c83d
000003c0: b65f 7dbd 608c 8f3e 90c8 683e 62e7 5fbe
000003d0: 82d0 1dbe 2ec3 233e d216 603e a681 523e
000003e0: d9d0 a43d a6a7 92be a184 063d 2896 07be
000003f0: b541 113e a355 853e f6c2 79bd fd71 9fbd

features.0.bias f4 [24]
-0.08255267 -0.059582382 -0.064867035 -0.13233046 -0.14276151 -0.15590955 -0.14629823 -0.019624392
-0.092867546 -0.0063052387 0.041440375 0.086762846 0.04092016 -0.09297538 -0.038391605 0.026091414
0.03590501 0.016810574 -0.11733816 -0.054016527 -0.04962866 -0.085031636 0.031371832 0.009990138
00000000: 6011 a9bd a80c 74bd 02d9 84bd a381 07be
00000010: 1330 12be c1a6 1fbe 34cf 15be 55c3 a0bc
00000020: 5731 bebd 2d9c cebb 62bd 293d b8b0 b13d
00000030: e69b 273d e069 bebd 8440 1dbd a9bd d53c
00000040: 2211 133d 54b6 893c fd4e f0bd 6f40 5dbd
00000050: 6c47 4bbd 1125 aebd c07f 003d adad 233c
